artifacts/runs/20260210_205540_STGCN_GRU/best.pt (torch, 539694 bytes, 25 tensors)

backbone.blocks.0.temporal1.conv.weight f4 [128, 6, 1, 3]
0.307155 0.02409774 0.08928394 0.0070906184 0.065467335 0.010166587 0.120834336 0.08438283
0.14410236 0.03504415 -0.030823877 -0.0027969484 -0.10160375 -0.08165171 -0.119348876 0.03429287
-0.06259826 -0.06139303 -0.1094429 -0.08242038 0.034523092 -0.06176419 0.0010595415 -0.038781602
0.024994863 -0.0020134365 -0.02715864 -0.0024911042 -0.015755717 0.003131499 0.006547639 -0.0011911845
0.035279278 0.006774897 0.031579692 0.049421366 -0.040438153 -0.029788475 0.084132545 0.015378057
0.028417569 0.03388818 -0.06470105 -0.0352857 -0.048706435 0.0572561 0.041338626 0.046427682
0.062065028 0.053577952 0.08234347 -0.06782735 -0.034655694 -0.043866597 0.04468827 -0.052815426
0.03275157 0.022654207 0.111147635 -0.035593413 -0.029423397 -0.028086111 0.12476593 0.03811806
0.07097079 -0.07414908 -0.23979701 -0.2164313 -0.20085402 0.025056848 0.00036820726 0.021553734
-0.5455807 -0.34243077 0.131827 0.02218247 0.076535664 -0.04163191 -0.0147391455 -0.17522807
-0.16735944 -0.07337256 -0.053882476 -0.07076158 0.07088055 0.08003805 -0.025470696 -0.10498488
0.03062907 -0.06319134 -0.25280082 -0.19175035 -0.021917257 0.037240576 -0.0003433254 -0.037202664
-0.014680829 -0.104658045 -0.12646943 -0.08631171 -0.107894294 -0.08270862 0.10453048 0.04812137
0.06813902 -0.12933142 -0.08693722 -0.03872322 0.006004379 -0.03243748 -0.016199324 -0.0072777765
0.0012987689 0.00787255 -0.00061177876 -0.012505911 -0.018511208 -0.032890767 -0.027323928 -0.033612903
0.022001537 0.005471468 0.025034832 0.007167021 -0.0011091579 0.021634206 -0.117862105 -0.10053362
-0.08893602 -0.05227413 0.01514433 0.0047457367 0.0032993958 -0.07874948 -0.0018919011 -0.08391072
-0.045730684 -0.011954393 0.0054379595 0.027283344 0.0459837 -0.044091947 -0.0043687024 -0.0024952837
0.015171228 0.0006462389 0.14458664 -0.048602402 0.010514936 -0.025351508 0.055535745 0.013448123
0.08009383 0.0037092185 -0.013177858 -0.065002926 -0.00047992985 -0.026599467 -0.048367158 0.06661494
0.036363404 -0.003468235 -0.15069494 -0.046098866 0.09402668 -0.028666172 -0.01220805 -0.02210351
-0.039049372 -0.01367803 -0.007942269 -0.026033958 -0.007682822 0.0043651494 -0.007672363 -0.014528981
0.005195983 -0.0058525 -0.0071983426 -0.0063489242 -0.0649343 -0.03605807 -0.030738665 0.013027785
0.012809737 0.03383082 -0.03625232 -0.035839926 -0.014947333 0.018422948 0.030857807 0.03732366
-0.015566266 0.0008912651 0.040672198 0.0037742965 -0.0031794433 -0.013612932 -0.28920373 -0.2668061
-0.08740441 0.023748135 0.013172869 0.014709652 -0.06109891 -0.053627875 -0.031409003 0.045350768
-0.018811122 -0.04374991 0.032331344 -0.028760241 -0.035241727 0.09220979 0.025487991 0.032917753
-0.083150096 0.11588417 0.16180871 -0.046795633 -0.085948445 -0.13631463 -0.03834949 0.07147234
0.066849805 0.108329386 0.08139462 0.05721829 -0.052638866 -0.11088437 -0.12579401 -0.07437162
-0.020926747 -0.06821009 -0.2436719 -0.27983055 -0.100229606 -0.12925042 -0.06995811 -0.0054537384
-0.050290942 0.056380115 -0.07653223 -0.12090396 -0.06993878 -0.09835863 -0.14232533 -0.20700008
-0.04300678 -0.07839267 0.019069927 0.0073131598 0.044620294 -0.00081404677 0.010646605 0.0035989888
00000000: 6c43 9d3e a068 c53c 80da b63d 6b58 e83b
00000010: bd13 863d c291 263c fe77 f73d e8d0 ac3d
00000020: 928f 133e 748a 0f3d 5b82 fcbc 024d 37bb
00000030: a015 d0bd 0339 a7bd 2f6d f4bd ae76 0c3d
00000040: 8433 80bd 4277 7bbd 9923 e0bd 04cc a8bd
00000050: 1668 0d3d 73fc 7cbd 50e0 8a3a 75d9 1ebd
00000060: 07c2 cc3c dcf3 03bb cc7b debc cb41 23bb
00000070: 2212 81bc d639 4d3b 948d d63b 8521 9cba
00000080: 0181 103d f5ff dd3b b559 013d 0f6e 4a3d
00000090: 7aa2 25bd f606 f4bc af4d ac3d 3ff4 7b3c
000000a0: f6cb e83c 55ce 0a3d fc81 84bd bd87 10bd
000000b0: 6680 47bd 5f85 6a3d b152 293d f42a 3e3d
000000c0: e637 7e3d 8e74 5b3d b1a3 a83d 11e9 8abd
000000d0: 21f3 0dbd 76ad 33bd 0c0b 373d fd54 58bd
000000e0: 8326 063d 5195 b93c 5fa1 e33d 66ca 11bd
000000f0: 5609 f1bc d814 e6bc 4885 ff3d af21 1c3d
00000100: 2259 913d 79db 97bd 598d 75be 2ba0 5dbe
00000110: adac 4dbe 0544 cd3c f10b c139 7591 b03c
00000120: 2dab 0bbf 1653 afbe a8fd 063e 03b8 b53c
00000130: bbbe 9c3d 3986 2abd 757c 71bc fd6e 33be
00000140: 4660 2bbe 5a44 96bd dfb3 5cbd 72eb 90bd
00000150: d229 913d fdea a33d eca7 d0bc 5002 d7bd
00000160: d1e9 fa3c 766a 81bd 1c6f 81be 345a 44be
00000170: d28b b3bc 9389 183d 5b00 b4b9 d261 18bd
00000180: dc87 70bc f556 d6bd 3481 01be 32c4 b0bd
00000190: aff7 dcbd 2363 a9bd 1414 d63d ea1a 453d
000001a0: 788c 8b3d 756f 04be 240c b2bd 3d9c 1ebd
000001b0: 62c0 c43b 2add 04bd 72b4 84bc 6a7a eebb
000001c0: 743b aa3a defb 003c c75f 20ba 98e5 4cbc
000001d0: d1a4 97bc 78b8 06bd 6ed6 dfbc afad 09bd
000001e0: 913c b43c 004a b33b d915 cd3c 54d9 ea3b
000001f0: 2a61 91ba 383a b13c b061 f1bd 92e4 cdbd
00000200: 1724 b6bd 661d 56bd ed1f 783c 2082 9b3b
00000210: ad3a 583b 6847 a1bd abf9 f7ba 62d9 abbd
00000220: 1950 3bbd 5cdc 43bc e930 b23b 5281 df3c
00000230: 6759 3c3d c299 34bd 5527 8fbb ea87 23bb
00000240: be90 783c 5c68 293a 850e 143e 5013 47bd
00000250: d746 2c3c f7ad cfbc 7379 633d 8455 5c3c
00000260: 3c08 a43d 5c16 733b f1e7 57bc 4120 85bd
00000270: 189f fbb9 20e7 d9bc a41c 46bd 6a6d 883d
00000280: cbf1 143d 544b 63bb c64f 1abe 2ad2 3cbd
00000290: 0f91 c03d 52d5 eabc 4604 48bc 6c12 b5bc
000002a0: 3cf2 1fbd d119 60bc 4a20 02bc 2b45 d5bc
000002b0: 2fc0 fbbb 8709 8f3b 7268 fbbb f70a 6ebc
000002c0: 1143 aa3b 54c6 bfbb 13e0 ebbb a30a d0bb
000002d0: 46fc 84bd a0b1 13bd a7cf fbbc 7e72 553c
000002e0: eedf 513c 3092 0a3d 507d 14bd e3cc 12bd
000002f0: a9e5 74bc b9eb 963c 83c9 fc3c b2e0 183d
00000300: a709 7fbc caa3 693a e497 263d 305a 773b
00000310: 355e 50bb c608 5fbc 8312 94be cf9a 88be
00000320: 1501 b3bd 738b c23c 04d3 573c c100 713c
00000330: da42 7abd e7a8 5bbd baa6 00bd bac1 393d
00000340: c819 9abc 1b33 33bd df6d 043d 999a ebbc
00000350: a159 10bd 7dd8 bc3d 31cc d03c c4d4 063d
00000360: 994a aabd ae54 ed3d 2fb1 253e c7ac 3fbd
00000370: bd05 b0bd 1096 0bbe 5b14 1dbd 1760 923d
00000380: 8de8 883d ccdb dd3d 39b2 a63d ba5d 6a3d
00000390: da9b 57bd 5817 e3bd 25d0 00be 2650 98bd
000003a0: 926e abbc bbb1 8bbd 2085 79be f345 8fbe
000003b0: 2e45 cdbd 395a 04be 3346 8fbd 46b5 b2bb
000003c0: e0fd 4dbd d6ee 663d eebc 9cbd 7f9c f7bd
000003d0: 103c 8fbd 4070 c9bd bbbd 11be d4f7 53be
000003e0: e127 30bd 568c a0bd 8938 9c3c 3ba3 ef3b
000003f0: c5c3 363d c165 55ba 196f 2e3c 03dd 6b3b

backbone.blocks.0.temporal1.conv.bias f4 [128]
0.01570852 0.016003262 0.020597452 -0.21549743 -0.18074737 -0.11561918 0.008627577 -0.07549092
-0.03030984 -0.02487464 0.061209876 0.08116181 0.044058938 -0.09030794 0.0064090886 0.019341504
-0.059441745 -0.0551248 -0.11101422 -0.02044306 -0.08230745 0.03486739 0.072432734 -0.039971825
0.01507116 0.018142167 0.004827719 -0.059805032 0.08094567 0.010130114 -0.034927394 -0.06654951
0.013390862 0.018884916 -0.017323704 -0.009717599 -0.08031068 -0.045310702 -0.06907225 0.029301109
0.044879746 0.031200245 -0.06063417 0.04061054 0.114717096 0.08679689 0.027545827 0.034261897
0.07021905 -0.07145694 -0.025366208 -0.08892373 0.06916417 0.15096398 0.025315726 0.06945257
-0.040815018 0.20240258 0.09234469 0.01576404 -0.039214116 -0.023373418 -0.07857494 0.0076507577
0.049624417 0.0060695284 0.011360407 0.042558413 0.2260738 0.055004064 0.0006713128 0.0088012535
0.0073375157 0.011850309 0.0009277309 0.033151876 0.042735703 0.07144344 0.0031664742 0.01114898
0.01035509 0.029846268 0.18179664 0.004220559 0.046453964 0.047210403 0.0062629892 0.023310335
0.0143575445 0.016129207 0.050037943 0.029072782 0.01056607 0.027510956 0.017508732 0.0146836685
0.0037908603 0.050856944 0.022987474 0.07228814 0.016150625 0.006579924 0.022566443 0.011860707
0.098784246 0.014980695 0.06155864 0.119946 0.03564784 0.045247205 0.07464491 0.050703034
0.03142713 0.020880667 0.042741105 0.032604136 0.03759542 0.01788274 0.006555343 0.0031173958
0.02776943 0.11992226 0.025234707 0.064312205 0.005732922 0.0349745 0.0369 0.014953018
00000000: 27af 803c 4619 833c fdbb a83c 5cab 5cbe
00000010: d715 39be c0c9 ecbd ae5a 0d3c fc9a 9abd
00000020: 574c f8bc e7c5 cbbc 35b7 7a3d 2a38 a63d
00000030: 2577 343d 5ff3 b8bd 5503 d23b 1372 9e3c
00000040: 3079 73bd 8bca 61bd 6c5b e3bd 3478 a7bc
00000050: cf90 a8bd 1cd1 0e3d 9d57 943d 7fb9 23bd
00000060: 07ed 763c e29e 943c d831 9e3b 1ff6 74bd
00000070: d8c6 a53d c7f8 253c 0710 0fbd 1c4b 88bd
00000080: 5965 5b3c 8ab4 9a3c 71ea 8dbc 9036 1fbc
00000090: ed79 a4bd b797 39bd c075 8dbd e108 f03c
000000a0: d3d3 373d a897 ff3c 895b 78bd 3d57 263d
000000b0: ccf0 ea3d 91c2 b13d c9a7 e13c 3456 0c3d
000000c0: 01cf 8f3d 0458 92bd cbcc cfbc a51d b6bd
000000d0: f2a5 8d3d 4d96 1a3e ed62 cf3c 263d 8e3d
000000e0: a62d 27bd 9f42 4f3e 361f bd3d 9723 813c
000000f0: fb9e 20bd 9c79 bfbc e6eb a0bd 35b3 fa3b
00000100: f942 4b3d e5e2 c63b 0021 3a3c bb51 2e3d
00000110: e47f 673e f14b 613d 0afb 2f3a 2233 103c
00000120: 8b6f f03b cc27 423c f732 733a 43ca 073d
00000130: a20b 2f3d f050 923d 9f84 4f3b 36aa 363c
00000140: 65a8 293c 2980 f43c e628 3a3e 9d4c 8a3b
00000150: 8346 3e3d b25f 413d c339 cd3b 51f5 be3c
00000160: e83b 6b3c 6621 843c 96f4 4c3d 0b2a ee3c
00000170: 4f1d 2d3c a85e e13c 796e 8f3c c593 703c
00000180: 1570 783b 5f4f 503d 3a50 bc3c ce0b 943d
00000190: 514e 843c 679c d73b 43dd b83c 6953 423c
000001a0: 654f ca3d 9771 753c ea24 7c3d 40a6 f53d
000001b0: 7803 123d 2255 393d 6edf 983d fcad 4f3d
000001c0: bcb9 003d ef0d ab3c 4c11 2f3d ea8b 053d
000001d0: a8fd 193d d37e 923c 34ce d63b 394d 4c3b
000001e0: b77c e33c cd99 f53d 04b9 ce3c 1eb6 833d
000001f0: 3cdb bb3b 6c41 0f3d 7424 173d 81fd 743c

backbone.blocks.0.graphconv.mlp.weight f4 [16, 192, 1, 1]
-0.057695977 0.027450537 0.04496447 -0.140215 0.04624978 0.03833319 0.0076185786 0.017687852
0.048931226 0.038362008 -0.020024747 -0.024345826 0.01663055 -0.047360875 0.04173727 -0.03148392
0.028577115 -0.05089108 0.07392383 0.004496871 0.11919606 0.05690289 -0.0058408487 0.0704459
-0.018010113 0.04889653 0.05264306 -0.09067767 0.0062373686 -0.04900542 -0.014885183 -0.031030035
-0.028621579 0.092969246 -0.04450744 0.070810534 -0.010805061 -0.0033184167 0.012515173 -0.014788964
0.1588478 -0.10816083 0.07224038 -0.038076468 0.045285396 -0.044891175 0.08706423 0.06989625
0.06792845 -0.004248646 -0.17360663 -0.013623861 0.06542262 -0.007095367 -0.006140468 0.02230627
0.07304622 0.11757483 0.042490028 -0.043979075 0.032530807 0.0042212415 -0.046148513 0.03986558
0.040918704 -0.013905583 -0.050365724 0.103634834 -0.008567641 -0.047115277 -0.0137215825 -0.022979926
-0.023523204 -0.013376057 0.013528418 0.021266138 0.033594813 0.07932148 -0.042963516 0.016995352
-0.01733674 0.034008365 -0.03989338 0.006885653 -0.07481372 0.0017092776 0.0036582577 -0.023411797
0.018914523 -0.042108297 -0.03273253 0.072525226 0.0017496339 0.012224018 0.0014341937 0.023723258
0.011721034 -0.014543144 0.033260174 -0.06052094 0.036260556 0.03397626 -0.014851045 0.0002147035
-0.08945257 0.07582101 -0.02850484 0.010516013 -0.07107944 0.04919698 -0.06377405 -0.06249008
-0.04356346 -0.020399299 0.137696 0.016105013 -0.0346007 0.008770734 0.011425365 -0.014349742
-0.03798288 -0.07589815 -0.004640724 0.034337036 -0.014889077 -0.004620472 0.01849108 -0.021594826
-0.03377243 -0.009219053 0.03821835 -0.09538077 -0.050527338 0.056988496 0.02255694 0.033780247
-0.01487895 -0.020979488 -0.007584186 -0.02916701 -0.085718736 -0.09383657 0.069586314 -0.007885839
0.012363281 -0.027603336 -0.01765297 -0.012177044 0.010203177 -0.06189337 0.009798114 -0.034774497
-0.009894704 0.05394507 0.009235314 -0.08227608 0.002950076 0.0061577926 0.04086916 -0.026274024
0.007782846 -0.058655247 -0.019162718 0.027149137 -0.0421797 -0.024495577 8.77168e-05 0.024922308
0.0063119573 -0.037120607 -0.03700169 0.035317652 0.06866271 -0.050823778 0.03759284 0.03857262
0.09804626 0.042067222 -0.113971084 -0.04392172 0.0011202617 -0.02661646 -0.013745368 0.011571138
-0.008296316 0.112509996 -0.01938497 -0.013223414 -0.01058442 0.012905266 -0.008348886 0.004270666
0.021775153 0.009630096 -0.040885005 0.014101317 -0.058875907 -0.029339926 0.021875402 0.030951662
-0.0033470963 -0.032622997 0.003276749 0.04195838 -0.13579234 0.0041830284 0.010195592 -0.009997715
-0.017384367 0.035530932 -0.10879932 -0.044005044 -0.014422459 -0.046889983 0.0016564049 -0.08399103
0.017155532 -0.023435956 0.025195338 -0.045000996 0.010349632 0.027980682 -0.033977244 -0.00018300726
0.03358195 -0.035623558 -0.015359358 0.01499823 0.038841195 -0.03239005 -0.020576352 0.011439071
-0.096284285 0.008229338 -0.08332361 0.04445675 0.033484854 -0.1137637 -0.04686091 -0.04851248
0.015925141 -0.023631813 0.08767246 -0.05146183 -0.06585788 0.052289143 -0.033911996 -0.0032391746
-0.0985433 -0.05198939 -0.0007092732 0.094838805 -0.01913712 -0.07260687 0.023425268 -0.021328986
00000000: 9e52 6cbd f3df e03c aa2c 383d 8594 0fbe
00000010: 6970 3d3d 4303 1d3d 45a5 f93b 1de6 903c
00000020: 1c6c 483d 7b21 1d3d f00a a4bc e670 c7bc
00000030: cb3c 883c 7afd 41bd b3f4 2a3d 48f5 00bd
00000040: 8e1a ea3c 2a73 50bd 6165 973d 7d5a 933b
00000050: 101d f43d 0113 693d 9764 bfbb f145 903d
00000060: f289 93bc ba47 483d 40a0 573d 37b5 b9bd
00000070: d762 cc3b e8b9 48bd fce0 73bc b332 febc
00000080: cd77 eabc a966 be3d 6f4d 36bd 1d05 913d
00000090: b607 31bc cb79 59bb 710c 4d3c 694d 72bc
000000a0: ffa8 223e 6d83 ddbd c4f2 933d 12f6 1bbd
000000b0: 2e7d 393d cfdf 37bd bb4e b23d c425 8f3d
000000c0: 121e 8b3d 3a38 8bbb f0c5 31be 9d36 5fbc
000000d0: 4bfc 853d 4180 e8bb fb35 c9bb a4bb b63c
000000e0: 4299 953d 13cb f03d 060a 2e3d 6723 34bd
000000f0: 063f 053d 5752 8a3b 3906 3dbd 174a 233d
00000100: 5f9a 273d 3ed4 63bc 4a4c 4ebd 803e d43d
00000110: 4a5f 0cbc f3fb 40bd 7dd0 60bc 6640 bcbc
00000120: bcb3 c0bc 4027 5bbc 4ca6 5d3c 5336 ae3c
00000130: b79a 093d 4d73 a23d 83fa 2fbd d639 8b3c
00000140: c705 8ebc 5b4c 0b3d 3e67 23bd 0ba1 e13b
00000150: f037 99bd d709 e03a 61bf 6f3b 19ca bfbc
00000160: a1f2 9a3c c079 2cbd 8c12 06bd 1b88 943d
00000170: f953 e53a 3f47 483c 8efb bb3a 4757 c23c
00000180: 9409 403c 5e46 6ebc d23b 083d cee4 77bd
00000190: f385 143d b12a 0b3d cc51 73bc 0822 6139
000001a0: e932 b7bd 0c48 9b3d fb82 e9bc 5b4b 2c3c
000001b0: 1992 91bd c682 493d f89b 82bd 99f5 7fbd
000001c0: 996f 32bd 6e1c a7bc 2e00 0d3e a9ee 833c
000001d0: 77b9 0dbd 20b3 0f3c 7431 3b3c 2e1b 6bbc
000001e0: f093 1bbd 7d70 9bbd 3711 98bb fea4 0c3d
000001f0: 51f1 73bc 5467 97bb 9b7a 973c a2e7 b0bc
00000200: f654 0abd 830b 17bc d88a 1c3d fe56 c3bd
00000210: c1f5 4ebd c56c 693d 55c9 b83c 285d 0a3d
00000220: d7c6 73bc 2ddd abbc c384 f8bb a7ef eebc
00000230: 4e8d afbd 632d c0bd 4583 8e3d 9b33 01bc
00000240: 5c8f 4a3c 6420 e2bc f69c 90bc 3982 47bc
00000250: 3a2b 273c e783 7dbd 4588 203c b46f 0ebd
00000260: 661d 22bc 81f5 5c3d b74f 173c 5d80 a8bd
00000270: 1056 413b 4fc7 c93b 6c66 273d 9f3c d7bc
00000280: 3f07 ff3b 7c40 70bd 22fb 9cbc de67 de3c
00000290: 9fc4 2cbd f3aa c8bc 99f4 b738 de29 cc3c
000002a0: 89d4 ce3b c70b 18bd 168f 17bd 3ea9 103d
000002b0: 099f 8c3d 982c 50bd f3fa 193d 53fe 1d3d
000002c0: 7acc c83d ae4e 2c3d ac69 e9bd 43e7 33bd
000002d0: bfd5 923a c30a dabc 4134 61bc df94 3d3c
000002e0: 45ed 07bc a46b e63d 3bcd 9ebc 05a7 58bc
000002f0: 466a 2dbc 9c70 533c c4c9 08bc f1f0 8b3b
00000300: ce61 b23c 8dc7 1d3c 0977 27bd 3609 673c
00000310: dd27 71bd 495a f0bc 0b34 b33c 578e fd3c
00000320: f55a 5bbb b19f 05bd babe 563b 8ddc 2b3d
00000330: 260d 0bbe c911 893b 6a0b 273c 75cd 23bc
00000340: a969 8ebc e288 113d 2ed2 debd a23e 34bd
00000350: 2d4c 6cbc b60f 40bd ba1b d93a 7d03 acbd
00000360: c289 8c3c c3fc bfbc 7466 ce3c f752 38bd
00000370: 8191 293c be37 e53c b92b 0bbd a3e5 3fb9
00000380: 3a8d 093d 02ea 11bd d1a5 7bbc 23bb 753c
00000390: f217 1f3d 6eab 04bd bd8f a8bc f16a 3b3c
000003a0: b230 c5bd 58d4 063c 92a5 aabd 4818 363d
000003b0: 6a27 093d f1fc e8bd 3af1 3fbd 06b5 46bd
000003c0: 7175 823c 8197 c1bc 9e8d b33d a4c9 52bd
000003d0: 7fe0 86bd 242d 563d 4ee7 0abd 5548 54bb
000003e0: 12d1 c9bd d4f2 54bd 85ee 39ba d93a c23d
000003f0: 73c5 9cbc e9b2 94bd 59e6 bf3c 20ba aebc

backbone.blocks.0.graphconv.mlp.bias f4 [16]
-0.007522229 0.020658514 0.011046365 0.05278584 -0.11667395 0.047118153 0.05666455 0.11560382
-0.010354378 -0.042261317 0.014683767 -0.06647563 -0.029141448 0.07609586 0.05355691 0.051651545
00000000: 087d f6bb 0b3c a93c d0fb 343c f735 583d
00000010: c0f2 eebd f7fe 403d 1619 683d b2c1 ec3d
00000020: 69a5 29bc 341a 2dbd 2f94 703c 6024 88bd
00000030: 0cba eebc 25d8 9b3d 7e5e 5b3d 9290 533d

backbone.blocks.0.temporal2.conv.weight f4 [128, 16, 1, 3]
0.012132162 -0.001409903 -0.04710783 -0.10102604 -0.039820217 0.01763669 0.10272045 0.024764331
-0.08746448 0.023672597 0.011056911 -0.07324006 -0.04838699 -0.0011628777 -0.044944875 0.0517553
0.031327114 0.026899906 0.0661306 0.07117532 0.04724842 -0.035895493 0.08180394 0.023049526
-0.02033145 0.0036326484 0.0014459321 -0.09488286 -0.14010513 -0.11226145 0.039176278 0.0794677
0.080371685 0.016013574 0.021598171 -0.06144576 0.019273 0.02816798 -0.0025102037 0.046442725
0.007079856 -0.012899479 0.06253436 0.018649904 0.052590463 0.03527637 0.0021602593 0.031120079
0.00023445228 0.03827384 0.038357344 -0.022529734 -0.029081207 0.10884364 -0.03252288 0.06432383
0.10647739 0.009577388 -0.020767331 0.021991584 0.17743647 0.117007725 0.13267185 -0.03917732
0.04697794 0.055066142 -0.042853244 -0.00973981 -0.017185036 0.11933715 0.11366188 0.15284565
0.05606152 -0.0076661636 0.01086687 0.061358225 0.049735855 0.1537319 0.009005288 -0.023656
0.015965482 -0.0008652546 -0.011452874 0.0083056465 -0.009877777 -0.00630171 -0.004236478 0.07358344
0.0035817295 0.081910715 0.05451658 -0.00913215 0.008266264 -0.036409315 -0.024919843 -0.056898776
0.05386373 -0.01034341 0.011092689 0.06958623 0.052068982 0.01482052 0.06697433 0.106772475
0.055199943 -0.09689074 -0.0260158 0.066241734 0.08733999 0.068306044 0.0048599048 0.03866361
-0.0035440254 0.0037949171 -0.05283297 -0.07275787 -0.039836835 -0.054194592 0.04639152 0.07413941
-0.049757376 -0.028264266 -0.07763964 0.093908645 0.07979452 0.14584807 -0.014387142 0.03495772
0.013375878 0.06315761 0.030176692 0.0014186695 -0.07956633 -0.07334066 -0.03968982 -0.07066658
-0.029149272 0.0040233014 0.10053974 0.017174505 0.08700534 -0.08753552 -0.055079833 -0.024121067
-0.034117553 0.014514928 -0.015831685 -0.05547231 -0.038660087 -0.07202948 -0.02891602 0.041256253
-0.003656084 -0.074595235 -0.07785349 0.012410418 0.020319013 0.057946976 0.019474272 0.006673355
0.021467123 -0.008137742 -0.019407276 -0.0043533836 0.01555205 -0.15640807 -0.11623619 0.045063496
-0.036399342 0.0058475467 0.005430329 -0.107485466 -0.12639321 -0.09350179 -0.036687084 -0.01809734
-0.047075156 0.052734904 0.045885462 0.038671758 -0.023173925 -0.026189594 -0.014040581 -0.060808048
-0.099751726 -0.07095751 0.025154615 -0.019912349 -0.09506275 0.023029 -0.0058562136 -0.0031052167
0.06139217 0.04148856 -0.061973095 -0.013685521 -0.048306957 -0.027932193 0.10585714 0.056014664
0.06547377 -0.059180155 -0.018833287 -0.02368292 -0.085248366 -0.04861406 -0.06287335 0.063140094
0.004174378 0.028616747 0.0011778397 -0.01133708 0.07086612 -0.054877635 -0.04989519 0.01744344
0.0059470027 0.035292603 0.0047200373 0.03558106 0.12032233 0.06761559 0.07063766 0.05244667
0.01798137 0.049262725 0.047745574 0.022616861 0.009002452 0.017499331 0.050223287 -0.02680326
-0.019378623 -0.07198618 0.07678153 0.026930748 -0.039858963 -0.014989338 -0.078940615 -0.061119128
0.060082685 0.02036383 0.02699978 -0.03723655 0.039614696 0.022492811 0.045137107 0.007087705
0.010265056 0.037021656 0.074389406 -0.0005694786 -0.04090564 -0.030014092 0.048072968 -0.060763802
00000000: fac5 463c 7fcc b8ba 24f4 40bd bee6 cebd
00000010: 861a 23bd d27a 903c 195f d23d 91de ca3c
00000020: 9420 b3bd 09ed c13c 0c28 353c e2fe 95bd
00000030: 7031 46bd b36b 98ba 1e18 38bd 5efd 533d
00000040: dc50 003d 315d dc3c 7b6f 873d 5ec4 913d
00000050: 8f87 413d 2707 13bd d388 a73d 5cd2 bc3c
00000060: 248e a6bc ba11 6e3b 6e85 bd3a f251 c2bd
00000070: b877 0fbe 55e9 e5bd 4e77 203d f6bf a23d
00000080: e999 a43d e62e 833c a6ee b03c 8dae 7bbd
00000090: 69e2 9d3c 89c0 e63c 3b82 24bb ba3a 3e3d
000000a0: 23fe e73b 5658 53bc 0412 803d afc7 983c
000000b0: 1969 573d f47d 103d 2393 0d3b 89ef fe3c
000000c0: 4ed7 7539 08c5 1c3d 971c 1d3d 4790 b8bc
000000d0: b63b eebc 6ae9 de3d b636 05bd 36bc 833d
000000e0: d110 da3d 7aea 1c3c 4020 aabc b227 b43c
000000f0: e8b1 353e bfa1 ef3d 21db 073e 6678 20bd
00000100: f16b 403d 098d 613d e286 2fbd b993 1fbc
00000110: a2c7 8cbc 0967 f43d 8fc7 e83d 9283 1c3e
00000120: c4a0 653d 7134 fbbb f50a 323c c352 7b3d
00000130: d3b7 4b3d e56b 1d3e ea8a 133c 3aca c1bc
00000140: 0bca 823c 41d2 62ba d6a4 3bbc 6814 083c
00000150: 66d6 21bc 937e cebb 27d2 8abb eab2 963d
00000160: 73bb 6a3b cec0 a73d c74c 5f3d 039f 15bc
00000170: 396f 073c ef21 15bd b324 ccbc b10e 69bd
00000180: 37a0 5c3d 6877 29bc 1cbe 353c 3a83 8e3d
00000190: 4946 553d c4d1 723c d629 893d 87ab da3d
000001a0: 5619 623d a76e c6bd 161f d5bc bfa9 873d
000001b0: 4fdf b23d 0ae4 8b3d d63f 9f3b bc5d 1e3d
000001c0: e142 68bb 25b4 783b 6267 58bd 1402 95bd
000001d0: f32b 23bd 26fb 5dbd 0905 3e3d 67d6 973d
000001e0: 64ce 4bbd 768a e7bc 8801 9fbd 2d53 c03d
000001f0: 4f6b a33d 3259 153e 0cb8 6bbc d42f 0f3d
00000200: 8026 5b3c c758 813d 1c35 f73c a6f2 b93a
00000210: acf3 a2bd a133 96bd cb91 22bd a4b9 90bd
00000220: 74ca eebc e6d5 833b c7e7 cd3d 8cb1 8c3c
00000230: db2f b23d d345 b3bd 649b 61bd 8b99 c5bc
00000240: d9be 0bbd 05d0 6d3c 73b1 81bc ef36 63bd
00000250: 0a5a 1ebd 3184 93bd 4ae1 ecbc 51fc 283d
00000260: e99a 6fbb 63c5 98bd a771 9fbd 1155 4b3c
00000270: 0f74 a63c cf59 6d3d 8288 9f3c 29ac da3b
00000280: d2db af3c 2a54 05bc 02fc 9ebc d4a6 8ebb
00000290: 07ce 7e3c 7029 20be 3d0d eebd 8094 383d
000002a0: 7a17 15bd c79c bf3b e7f0 b13b 5721 dcbd
000002b0: 396d 01be de7d bfbd 3245 16bd df40 94bc
000002c0: e1d1 40bd 8e00 583d 65f2 3b3d 4766 1e3d
000002d0: 3ed7 bdbc 8f8b d6bc 770a 66bc dc11 79bd
000002e0: a24a ccbd 2c52 91bd 0d11 ce3c 391f a3bc
000002f0: 42b0 c2bd 50a7 bc3c 7be5 bfbb e480 4bbb
00000300: 5b76 7b3d e9ef 293d 80d7 7dbd 3c39 60bc
00000310: 84dd 45bd 0ed2 e4bc a1cb d83d a26f 653d
00000320: 1d17 863d e466 72bd 4448 9abc af02 c2bc
00000330: b296 aebd 891f 47bd bec3 80bd 984f 813d
00000340: 38c9 883b ab6d ea3c be61 9a3a 29bf 39bc
00000350: 4222 913d 5fc7 60bd e65e 4cbd 8ce5 8e3c
00000360: 13df c23b fa8e 103d 8baa 9a3b 72bd 113d
00000370: 8e6b f63d 0b7a 8a3d 7aaa 903d 52d2 563d
00000380: ab4d 933c b6c7 493d dd90 433d ff46 b93c
00000390: 057f 133c c25a 8f3c efb6 4d3d 8392 dbbc
000003a0: ebbf 9ebc 7e6d 93bd a33f 9d3d df9d dc3c
000003b0: 2743 23bd d795 75bc 9eab a1bd 0d58 7abd
000003c0: 4319 763d 0cd2 a63c a52e dd3c 5a85 18bd
000003d0: 0543 223d d842 b83c b0e1 383d fb3f e83b
000003e0: c42e 283c 05a4 173d 7959 983d 1049 15ba
000003f0: ac8c 27bd 1de0 f5bc 29e8 443d 77e3 78bd

backbone.blocks.0.temporal2.conv.bias f4 [128]
0.066911 -0.042885456 -0.0845541 -0.10791403 0.042813458 0.05571734 -0.07141997 -0.03369297
0.12018588 0.030479066 0.11996022 0.001129344 0.049681604 -0.035992578 -0.087780744 0.052625313
0.058524195 0.114452265 -0.009422391 -0.080276765 -0.13167745 0.022948015 -0.03610486 -0.024418907
0.053911 -0.029865861 0.0031717592 0.026968757 0.03509759 0.011565368 0.016073115 -0.056277722
-0.10422222 -0.0027216177 -0.07216377 -0.09223169 -0.08154497 0.09644903 -0.010015887 0.1110948
0.06557353 -0.025418842 -0.044207208 -0.11288465 -0.042088598 0.08302938 -0.049006585 0.030851902
-0.040082015 0.0021657397 0.006270323 -0.10831179 0.07333326 -0.07823989 -0.04185605 -0.06160456
0.062178142 -0.073284656 -0.016456507 0.07400987 0.012592189 0.09705471 0.04660414 0.015774501
-0.0050223675 0.018647237 0.03960887 0.023993667 0.011682759 -0.0018474136 0.017550947 0.0028072915
0.047862723 0.040121324 0.06806883 -0.0021380093 0.021519262 0.01989085 0.068498425 0.021972759
0.03436316 0.0057808254 0.009675974 0.01418394 0.047750082 0.030241184 0.030891342 0.023060942
0.008356716 -0.0064074867 0.050889466 0.037260205 0.12924254 0.015965717 0.020194376 0.05711078
0.08962891 0.0005278337 0.017084438 0.10477928 0.012748628 0.023964679 -7.392768e-05 0.016246904
-0.032159418 0.040995717 -0.019223403 0.01821107 0.04047571 0.042958528 -0.02094545 0.04225582
0.027002795 0.016034467 0.020437226 0.104669265 0.040170982 0.04486563 0.085684285 -0.0004660231
0.0052238475 0.019129908 0.018226473 0.002915972 0.033633225 0.012334172 0.026909238 0.005039783
00000000: a208 893d a9a8 2fbd b32a adbd 0802 ddbd
00000010: 2a5d 2f3d de37 643d a244 92bd a401 0abd
00000020: 0424 f63d 3caf f93c b4ad f53d 7f06 943a
00000030: f07e 4b3d f46c 13bd 64c6 b3bd a48d 573d
00000040: 11b7 6f3d f365 ea3d 5f60 1abc 2568 a4bd
00000050: 74d6 06be 7afd bb3c b1e2 13bd 290a c8bc
00000060: c8d1 5c3d 40a9 f4bc 4add 4f3b 95ed dc3c
00000070: 7ec2 0f3d ab7c 3d3c c4ab 833c 7883 66bd
00000080: 7672 d5bd 2b5d 32bb 99ca 93bd f8e3 bcbd
00000090: 0d01 a7bd 1287 c53d ad19 24bc ac85 e33d
000000a0: 6a4b 863d 2d3b d0bc 9e12 35bd 1130 e7bd
000000b0: 1865 2cbd 4f0b aa3d 21bb 48bd 21bd fc3c
000000c0: 0a2d 24bd 15ef 0d3b 4877 cd3b 92d2 ddbd
000000d0: c02f 963d 3c3c a0bd 4071 2bbd 1055 7cbd
000000e0: 82ae 7e3d 4416 96bd cccf 86bc 7d92 973d
000000f0: 784f 4e3c 9fc4 c63d fce3 3e3d 8739 813c
00000100: ac92 a4bb 17c2 983c e93c 223d 5e8e c43c
00000110: 0b69 3f3c ea24 f2ba 01c7 8f3c 89fa 373b
00000120: b40b 443d 4256 243d ac67 8b3d d81d 0cbb
00000130: 2a49 b03c 23f2 a23c e748 8c3d 3700 b43c
00000140: 63c0 0c3d 146d bd3b fa87 1e3c c263 683c
00000150: 9795 433d 5cbc f73c d70f fd3c 4dea bc3c
00000160: 9bea 083c e5f5 d1bb 7971 503d 289e 183d
00000170: 2858 043e 89ca 823c ad6e a53c feec 693d
00000180: 5d8f b73d 525e 0a3a aaf4 8b3c 8596 d63d
00000190: 9fdf 503c 9351 c43c 9f09 9bb8 3a18 853c
000001a0: 98b9 03bd 20eb 273d 667a 9dbc 622f 953c
000001b0: dcc9 253d 48f5 2f3d cb95 abbc 7014 2d3d
000001c0: f734 dd3c b75a 833c f86b a73c d75c d63d
000001d0: 548a 243d 06c5 373d 3e7b af3d 9054 f4b9
000001e0: cf2c ab3b 53b6 9c3c af4f 953c e419 3f3b
000001f0: fec2 093d 4415 4a3c c370 dc3c c424 a53b

backbone.blocks.0.res_conv.weight f4 [64, 6, 1, 1]
0.12281734 -0.1888831 0.3254371 -0.1606445 -0.19488743 0.23737672 -0.2955513 -0.011302649
-0.13049974 -0.3147885 0.023529626 -0.034169596 -0.059230007 0.028373187 -0.2529434 -0.11591454
0.010275002 -0.29877433 -0.2421007 0.12589948 -0.30534938 -0.07868534 -0.15683125 0.19880994
0.21367098 0.14736815 -0.2094799 -0.27284566 -0.004383123 0.21036452 0.08459319 -0.16137698
-0.19160572 0.26517934 -0.033912867 0.13037214 -0.33044443 0.03241702 0.28008282 -0.34490943
-0.21009402 -0.24852128 -0.175728 0.023367055 0.10548507 -0.14393714 0.19800727 0.21057685
0.24434997 -0.06804633 0.1755252 0.20232661 0.13461727 -0.25988168 -0.12613136 -0.060609195
-0.13009252 0.054057103 -0.007476712 0.093282975 -0.3232801 -0.006151343 0.10493866 -0.2256429
0.064112104 -0.19717515 0.2985107 -0.011921732 0.12769437 0.13074534 -0.0026840405 0.22179031
-0.18907365 0.118822575 -0.1296132 -0.07284024 -0.058762304 0.047180038 -0.3356061 -0.026486022
-0.1751288 0.18050002 0.3168616 0.14335196 -0.4401884 0.037635714 -0.15250449 -0.07256918
-0.12522651 0.104338564 0.03693541 0.04320891 0.116874166 0.15112379 0.217266 -0.008286964
-0.28851324 0.04749736 -0.15033793 -0.13958915 -0.033609446 0.11997472 0.28711277 0.0018518819
-0.0780899 0.3085718 0.12991232 -0.21403408 -0.05440107 -0.1627163 -0.08367182 -0.269623
-0.2822832 -0.21349695 -0.12346405 0.07912431 -0.27326047 -0.18810436 0.06464717 0.05399168
-0.03209258 -0.17372674 -0.021693628 0.10107069 -0.2072927 -0.15229827 0.06824627 0.03468335
0.25782964 0.12549499 0.118968755 -0.17597881 -0.069855675 0.008272063 -0.0786136 -0.1143082
0.1336302 -0.159669 -0.09041976 -0.05564648 0.042528346 0.021003675 -0.056939393 0.13978618
-0.23559818 0.09658199 0.12947388 0.16787493 -0.27632812 0.17123492 0.21304399 0.09408672
0.15775633 -0.06442185 -0.10620176 0.00817084 0.06558415 -0.16514139 -0.10177181 -0.2047546
-0.18420593 -0.004144182 -0.20825584 0.02805497 0.24432091 -0.12700199 -0.019236553 0.109408975
0.20430988 0.10477972 -0.03483151 0.073050894 -0.18942793 0.1367592 0.20827782 0.04421164
-0.020764403 -0.009979503 0.12454247 0.022349477 -0.027857605 -0.20329385 0.13417083 -0.15842697
0.046583876 0.1197055 0.19687667 -0.024895055 0.06890166 0.2907626 -0.15480304 -0.15374981
0.28243476 0.12073854 0.28391394 0.30608737 -0.20112392 0.17792465 -0.2154063 0.10240938
0.24688335 -0.14300917 -0.16306292 -0.20916727 -0.12848036 -0.049302414 0.23085348 0.051397543
-0.06555513 -0.039498143 -0.1622548 0.016431734 0.07993491 -0.20773341 0.13353983 0.07075321
-0.0015977634 -0.1035105 0.14531988 -0.2812822 0.18586527 0.081603125 -0.11619313 -0.034307666
0.060592107 -0.1816366 -0.023482334 0.19576801 0.042934235 -0.106599696 0.22132073 0.2179922
0.17920029 -0.099968895 -0.3359679 -0.109330155 0.25313154 0.06676052 0.25392446 0.12335136
-0.36364564 -0.20293652 -0.09867411 -0.2948687 -0.114513904 -0.009552294 -0.07052479 0.0886148
-0.14541724 0.10885294 -0.11059263 -0.19325185 0.28367296 0.109216765 0.30708358 -0.20052256
00000000: a887 fb3d 926a 41be b19f a63e fe7f 24be
00000010: 9290 47be e212 733e 8052 97be bf2e 39bc
00000020: b9a1 05be f52b a1be 34c1 c03c 6bf5 0bbd
00000030: 2a9b 72bd e36e e83c cc81 81be 9a64 edbd
00000040: 7b58 283c f3f8 98be 3fe9 77be cbeb 003e
00000050: c156 9cbe c825 a1bd 5f98 20be d594 4b3e
00000060: 91cc 5a3e ade7 163e e681 56be 6db2 8bbe
00000070: 4da0 8fbb cc69 573e 323f ad3d 0240 25be
00000080: 4a34 44be 96c5 873e 38e8 0abd 4680 053e
00000090: 0330 a9be b6c7 043d 0467 8f3e f897 b0be
000000a0: e322 57be 5d7c 7ebe 0af2 33be 446c bf3c
000000b0: 8e08 d83d 4264 13be 6bc2 4a3e 75a1 573e
000000c0: e136 7a3e e05b 8bbd e1bc 333e b52e 4f3e
000000d0: 1cd9 093e 360f 85be 9428 01be 5941 78bd
000000e0: f936 05be fb6a 5d3d 35ff f4bb 250b bf3d
000000f0: f884 a5be 3591 c9bb 15ea d63d ef0e 67be
00000100: 354d 833d 48e8 49be 65d6 983e 5e53 43bc
00000110: 50c2 023e 1be2 053e bae6 2fbb 001d 633e
00000120: 869c 41be 4059 f33d 53b9 04be 442d 95bd
00000130: beb0 70bd db3f 413d 90d4 abbe 37f9 d8bc
00000140: f754 33be ffd4 383e af3b a23e dbca 123e
00000150: 6060 e1be e827 1a3d 232a 1cbe 269f 94bd
00000160: 613b 00be 75af d53d 9649 173d d3fb 303d
00000170: b95b ef3d 32c0 1a3e fa7a 5e3e 0cc6 07bc
00000180: 02b8 93be 978c 423d 30f2 19be 75f0 0ebe
00000190: 0faa 09bd 4eb5 f53d 7200 933e d8ba f23a
000001a0: 99ed 9fbd 1ffd 9d3e bc07 053e c02b 5bbe
000001b0: a8d3 5ebd 1a9f 26be 225c abbd 070c 8abe
000001c0: 6c87 90be f29e 5abe b8da fcbd ed0b a23d
000001d0: cce8 8bbe 6e9e 40be bc65 843d 6126 5d3d
000001e0: 8273 03bd 6ce5 31be d6b6 b1bc 26fe ce3d
000001f0: 8a44 54be 14f4 1bbe b3c4 8b3d 2110 0e3d
00000200: 3f02 843e c281 003e e4a5 f33d ca33 34be
00000210: 7e10 8fbd 8c87 073c 2b00 a1bd 6b1a eabd
00000220: 5bd6 083e 4580 23be ff2d b9bd 90ed 63bd
00000230: 3432 2e3d e60f ac3c 4839 69bd 1c24 0f3e
00000240: a640 71be c7cc c53d cd94 043e 68e7 2b3e
00000250: e17a 8dbe 3558 2f3e 3428 5a3e 8ab0 c03d
00000260: e08a 213e 9aef 83bd 4f80 d9bd fdde 053c
00000270: fc50 863d d31a 29be bd6d d0bd 31ab 51be
00000280: 7ba0 3cbe ebcb 87bb 0541 55be 89d3 e53c
00000290: 432f 7a3e cf0c 02be fa95 9dbc d011 e03d
000002a0: 9c36 513e c096 d63d 7cab 0ebd b59b 953d
000002b0: 65f9 41be 9b0a 0c3e c846 553e 4417 353d
000002c0: 1c1a aabc 1281 23bc 1f10 ff3d 4016 b73c
000002d0: a235 e4bc 432c 50be 1464 093e ae3a 22be
000002e0: bcce 3e3d 2828 f53d 0a9a 493e b7f0 cbbc
000002f0: 501c 8d3d d6de 943e b084 1ebe 9770 1dbe
00000300: 4a9b 903e c545 f73d 2b5d 913e 7cb7 9c3e
00000310: 6ef3 4dbe e131 363e 7893 5cbe 02bc d13d
00000320: fdce 7c3e ff70 12be f7f9 26be f22f 56be
00000330: 5b90 03be 54f1 49bd db64 6c3e 3b86 523d
00000340: c541 86bd cec8 21bd 1f26 26be d89b 863c
00000350: eab4 a33d 11b8 54be aabe 083e 0fe7 903d
00000360: 0b6c d1ba 50fd d3bd bcce 143e 3804 90be
00000370: 7753 3e3e 8a1f a73d aaf6 edbd 3286 0cbd
00000380: 6e2f 783d f2fe 39be 065e c0bc 6977 483e
00000390: cfdb 2f3d f150 dabd e7a1 623e 5939 5f3e
000003a0: 4880 373e 7ebc ccbd fc03 acbe 7de8 dfbd
000003b0: 759a 813e bdb9 883d 6302 823e a39f fc3d
000003c0: c32f babe 97ce 4fbe a715 cabd 08f9 96be
000003d0: 4486 eabd 3a81 1cbc 4d6f 90bd ad7b b53d
000003e0: 42e8 14be 4aee de3d 647e e2bd d0e3 45be
000003f0: 953d 913e 0aad df3d 0f3a 9d3e c955 4dbe

backbone.blocks.0.res_conv.bias f4 [64]
0.11616879 -0.3242397 -0.14823675 0.29992566 -0.019392978 0.20555165 0.27865392 -0.025659017
-0.036261387 -0.024899384 -0.14496732 0.0010810673 0.109279595 0.28558737 0.20363393 0.33163628
-0.13246691 -0.22199085 -0.37000474 0.18194032 0.11092268 -0.032094337 0.262793 -0.20429786
-0.096589565 0.014788117 0.1372009 0.25074142 -0.18313226 0.3596587 0.28019392 0.09655562
-0.22505905 0.06955164 0.060564645 -0.1401437 0.31101137 -0.24856211 -0.04863098 -0.08746008
-0.09783451 0.19265412 0.0059860814 0.021491555 -0.25889722 -0.22024503 0.25528702 -0.056806
0.042668656 -0.24554168 -0.20043619 0.12592654 0.23291364 0.013175379 -0.29701015 -0.19010095
-0.10925231 0.14399703 -0.25849584 -0.21277261 -0.3036843 -0.23860386 0.2515674 -0.09507971
00000000: e7e9 ed3d bf02 a6be 60cb 17be db8f 993e
00000010: 06de 9ebc 227c 523e baab 8e3e dc32 d2bc
00000020: d286 14bd cbf9 cbbc 5072 14be 99b2 8d3a
00000030: fbcd df3d 8238 923e 6a85 503e 3bcc a93e
00000040: 68a5 07be 9251 63be 4371 bdbe 904e 3a3e
00000050: 6e2b e33d 5a75 03bd ce8c 863e 7533 51be
00000060: c0d0 c5bd dc49 723c 657e 0c3e 2e61 803e
00000070: 0687 3bbe 2f25 b83e 9475 8f3e f4be c53d
00000080: e175 66be 1771 8e3d a212 783d d581 0fbe
00000090: e23c 9f3e 1187 7ebe 4731 47bd 451e b3bd
000000a0: 765d c8bd 1f47 453e e426 c43b 0f0f b03c
000000b0: 2d8e 84be ea87 61be fbb4 823e 69ad 68bd
000000c0: 54c5 2e3d 476f 7bbe 253f 4dbe e3f2 003e
000000d0: ea80 6e3e 8bdd 573c b711 98be d3a9 42be
000000e0: adbf dfbd f573 133e 9159 84be 10e1 59be
000000f0: 827c 9bbe 9254 74be 71cd 803e 27b9 c2bd

backbone.blocks.0.ln.weight f4 [64]
0.89672595 0.83042544 0.7780327 0.887761 0.8659008 0.5930644 1.0616176 0.72360253
0.82923496 0.5996178 0.8271667 0.86570376 0.5921264 0.98543346 1.018245 0.7827169
0.73377407 0.8964807 0.94255096 0.72524726 0.6832893 0.6305723 0.624385 0.6643
0.9888686 0.6758847 0.8426036 0.8328413 0.95181155 0.97930545 0.7069999 0.69339406
1.036574 0.7938702 0.52860034 0.87885004 0.80987835 0.67097545 0.77283543 1.0403439
0.841547 0.7395902 0.85715014 0.9417107 0.9005519 0.8081921 0.8516584 0.8562433
0.80904055 0.73320645 0.7149809 0.888653 0.7740849 0.8071529 1.0352914 0.72034
0.7605993 0.77753294 0.80460626 0.72198987 0.9008594 0.7325435 0.72742516 0.5869554
00000000: d58f 653f c396 543f 272d 473f 4e44 633f
00000010: adab 5d3f 12d3 173f 16e3 873f 043e 393f
00000020: be48 543f 8d80 193f 32c1 533f c39e 5d3f
00000030: 9995 173f 5e45 7c3f da55 823f 2260 483f
00000040: 9ed8 3b3f c27f 653f 054b 713f cea9 393f
00000050: 0cec 2e3f 306d 213f b2d7 1f3f 910f 2a3f
00000060: 7e26 7d3f c806 2d3f dfb4 573f 1635 553f
00000070: eca9 733f c3b3 7a3f f2fd 343f 4682 313f
00000080: 75ae 843f 143b 4b3f 5a52 073f 51fc 603f
00000090: 3054 4f3f 0cc5 2b3f 8bd8 453f fd29 853f
000000a0: a06f 573f c955 3d3f 316e 5b3f f413 713f
000000b0: 928a 663f ade5 4e3f 4906 5a3f c332 5b3f
000000c0: 481d 4f3f 6bb3 3b3f fd08 373f c37e 633f
000000d0: 6e2a 463f 93a1 4e3f 6e84 843f 3468 383f
000000e0: a3b6 423f 660c 473f adfa 4d3f 54d4 383f
000000f0: b99e 663f f987 3b3f 8938 3a3f b642 163f

backbone.blocks.0.ln.bias f4 [64]
0.070839435 -0.029826468 -0.00650406 -0.01690865 0.05985738 -0.0009240296 0.033469502 -0.014027776
0.06937303 -0.09727813 -0.08873362 0.0025522287 0.023396848 -0.0119066145 -0.014627739 0.07525001
-0.11366031 -0.011724497 -0.049987268 0.08981397 0.04869927 0.004166781 0.056726437 -0.06510053
-0.02643905 -0.010750575 0.061606724 0.018473204 -0.11218112 0.06152962 0.012362307 0.04903637
0.032861423 -0.009101444 -0.017752869 -0.050010283 0.06659322 0.007365909 0.00043834196 -0.023924846
-0.010153082 0.035388693 0.013038084 0.02793341 -0.022178272 -0.085950695 -0.012230647 -0.08129636
0.07439696 -0.06788903 0.016482346 -0.0034271968 0.03365112 0.019609112 -0.035772078 -0.052915763
0.09760334 0.06979583 -0.03846744 0.016428342 -0.014345152 -0.057831414 -0.089271896 0.01836682
00000000: 4414 913d a356 f4bc 0220 d5bb 0284 8abc
00000010: 032d 753d 943a 72ba 5117 093d c2d4 65bc
00000020: 7213 8e3d c239 c7bd f9b9 b5bd 4b43 273b
00000030: bfaa bf3c f613 43bc 2fa9 6fbc ad1c 9a3d
00000040: bdc6 e8bd 1b18 40bc 73bf 4cbd 63f0 b73d
00000050: e378 473d 7e89 883b fb59 683d 6d53 85bd
00000060: b596 d8bc 2e23 30bc 5557 7c3d 1e55 973c
00000070: 37bf e5bd 7c06 7c3d 468b 4a3c 5cda 483d
00000080: b399 063d 391e 15bc 776e 91bc 95d7 4cbd
00000090: 0762 883d b95d f13b 43d1 e539 0afe c3bc
000000a0: 1d59 26bc bcf3 103d b09d 553c 9bd4 e43c
000000b0: 35af b5bc eb06 b0bd 0d63 48bc b57e a6bd
000000c0: 6f5d 983d 6709 8bbd fc05 873c d29a 60bb
000000d0: c2d5 093d 4aa3 a03c be85 12bd 33be 58bd
000000e0: 43e4 c73d 1ef1 8e3d 0990 1dbd bb94 863c
000000f0: ee07 6bbc a2e0 6cbd 2fd4 b6bd 0376 963c

backbone.blocks.1.temporal1.conv.weight f4 [128, 64, 1, 3]
-0.019147921 -0.008043579 -0.013317262 -0.027274046 -0.013718384 -0.02483136 0.03582041 0.028743194
0.043420468 -0.047274895 -0.060159717 -0.06941722 -0.047929082 -0.036153067 0.017182067 -0.04757441
-0.041183386 -0.015211786 0.09871213 0.0254295 0.02125349 -0.009038705 -0.033668637 -0.03985081
0.06025662 0.068627566 0.101890825 -0.01922287 -0.033504967 -0.030798083 0.046452165 0.03429971
-0.0029978512 -0.03508004 -0.003876662 0.016841734 0.009923375 -0.016571 -0.031917028 -0.047699194
-0.055130877 -0.06639432 -0.027640788 -0.03951837 -0.09452893 0.038303725 0.032850493 0.022166388
-0.037995156 -0.071075745 -0.10209748 0.01801525 0.023160191 0.032698542 -0.008066394 0.01760211
0.036180004 0.0059019024 -0.02158368 -0.01698407 0.029426971 -0.01061903 -0.014341079 0.07677996
0.05699103 0.05217159 0.050412994 0.05363896 0.06185015 -0.062111154 -0.0543427 -0.058558237
-0.03780846 -0.058068845 -0.10920637 0.030471863 0.035746716 0.052609164 0.0061029587 -0.0027373324
-0.0008847725 0.072547555 0.0027584662 -0.03363616 -0.06754485 -0.081258476 -0.04793115 0.014914969
-0.011062846 0.011875173 0.0016849213 0.0022215515 0.0067437016 -0.0047125374 0.013107093 0.027304584
-0.039671473 -0.022520911 -0.013753424 0.10143071 0.02920644 0.019322552 0.038689084 0.017378638
-0.0029199936 -0.0043463777 0.048696782 0.054833543 0.040516112 0.036716945 0.039930847 -0.04062202
-0.019335572 -0.027360555 0.031677023 0.029844599 0.033827655 -0.027097987 -0.025688384 -0.039953664
-0.002425079 -0.0031398667 -0.028166754 0.01374351 0.028384667 0.019979317 0.08525375 0.089700796
0.09661832 -0.02635489 -0.0019044222 0.023226716 0.022000315 0.06799118 0.08787349 0.013400388
-0.023809439 -0.030979078 0.07406899 0.05479363 0.032039937 -0.11001464 -0.06404607 -0.043675683
-0.04797654 -0.015567024 -0.026370546 0.02758978 0.03423959 0.037364624 -0.019225722 -0.044657737
-0.0603459 -0.040228974 -0.0061058514 0.054836288 0.0416057 0.062373355 0.09572561 0.024648732
0.037438776 0.07702671 -0.10601722 -0.03781173 0.014199414 -0.02634588 -0.035366096 -0.052714508
-0.0031747867 -0.01791817 -0.049002193 -0.0084074875 -0.0070649344 -0.015429095 -0.038424853 -0.035366
0.009048593 -0.053556792 -0.017215095 -0.040477928 0.007727842 0.036956687 0.03886385 -0.040556733
-0.036600217 -0.06433303 -0.040538214 -0.02255409 -0.014047693 0.05271051 0.039551035 0.04263553
-0.0641592 -0.066620305 -0.12031674 -0.0072368826 0.006300039 0.048707366 -0.009245445 0.0025254583
0.015621137 0.047525626 0.090473905 0.08887932 -0.060922466 -0.047448687 -0.09033121 0.053345494
0.034787066 -0.007966144 -0.02370445 0.0005367437 0.024179207 -0.06666796 -0.0346437 0.008285059
-0.042295765 -0.08106183 -0.10865864 0.023102578 0.037813365 0.042868152 0.019181272 0.02523468
0.07351222 -0.0070273997 -0.04495113 -0.103070855 -0.0020783346 0.0238666 0.057355583 0.04064863
0.0693951 0.11618493 0.07433556 0.07635903 0.10437881 -0.04747728 -0.048064288 -0.039268516
-0.008181989 0.06994974 0.13485152 0.0152483 -0.01299428 -0.061848123 -0.022838198 -0.014302272
-0.039285414 -0.03435333 -0.01317415 0.0015020816 0.010054609 0.027376182 0.014463755 -0.024380356
00000000: 1adc 9cbc 37c9 03bc a530 5abc d26d dfbc
00000010: 13c3 60bc 236b cbbc 6cb8 123d d976 eb3c
00000020: a9d9 313d 52a3 41bd 096a 76bd 9e2a 8ebd
00000030: 4951 44bd 3d15 14bd 68c1 8c3c 62dd 42bd
00000040: e9af 28bd db3a 79bc 9629 ca3d 8751 d03c
00000050: cd1b ae3c 1417 14bc 20e8 09bd 9a3a 23bd
00000060: a5cf 763d 9c8c 8c3d 23ac d03d 4879 9dbc
00000070: 813c 09bd 434c fcbc a044 3e3d da7d 0c3d
00000080: 9977 44bb 17b0 0fbd 990f 7ebb adf7 893c
00000090: a795 223c e8bf 87bc 6ebb 02bd 3b60 43bd
000000a0: ead0 61bd bff9 87bd ef6e e2bc 04de 21bd
000000b0: 6298 c1bd 5ee4 1c3d 3d8e 063d 4996 b53c
000000c0: cfa0 1bbd 2990 91bd 7c18 d1bd b894 933c
000000d0: 71ba bd3c e8ee 053d e928 04bc 4d32 903c
000000e0: 7c31 143d bf64 c13b 42d0 b0bc 2d22 8bbc
000000f0: d510 f13c 71fb 2dbc d8f6 6abc d03e 9d3d
00000100: 6d6f 693d e1b1 553d db7d 4e3d 87b4 5b3d
00000110: 9556 7d3d 4468 7ebd 7396 5ebd c3da 6fbd
00000120: 0bdd 1abd 99d9 6dbd 97a7 dfbd 21a0 f93c
00000130: 266b 123d b57c 573d 54fb c73b d164 33bb
00000140: 14f0 67ba d093 943d 62c7 343b 12c6 09bd
00000150: f454 8abd d86a a6bd 7453 44bd ea5d 743c
00000160: f040 35bc 1690 423c 94d8 dc3a 7397 113b
00000170: 45fa dc3b a16b 9abb 22bf 563c ddad df3c
00000180: 8e7e 22bd c67d b8bc 0b56 61bc e7ba cf3d
00000190: 5842 ef3c 544a 9e3c 7278 1e3d a55d 8e3c
000001a0: 5d5d 3fbb 0f6c 8ebb 4776 473d 2399 603d
000001b0: 39f4 253d 8264 163d 878e 233d 4663 26bd
000001c0: a265 9ebc 3e23 e0bc c4bf 013d a97c f43c
000001d0: de8e 0a3d 99fc ddbc 7270 d2bc 74a6 23bd
000001e0: 13ee 1ebb 39c6 4dbb f7bd e6bc 752c 613c
000001f0: f686 e83c aaab a33c 8599 ae3d 0db5 b73d
00000200: d3df c53d 36e6 d7bc ce9d f9ba f445 be3c
00000210: 013a b43c f63e 8b3d 04f7 b33d 4d8d 5b3c
00000220: 030c c3bc d6c7 fdbc 7cb1 973d 496f 603d
00000230: 4f3c 033d 5b4f e1bd 962a 83bd 46e5 32bd
00000240: 0c83 44bd d50c 7fbc 0b07 d8bc f603 e23c
00000250: d03e 0c3d a60b 193d 437f 9dbc 08eb 36bd
00000260: 432d 77bd 23c7 24bd 9813 c8bb 049c 603d
00000270: bd6a 2a3d 347b 7f3d ca0b c43d 23ec c93c
00000280: 6759 193d 2ec0 9d3d 8e1f d9bd 79e0 1abd
00000290: a9a4 683c 51d3 d7bc 0adc 10bd 2beb 57bd
000002a0: 1510 50bb 20c9 92bc 86b6 48bd 8fbf 09bc
000002b0: f780 e7bb 51ca 7cbc 6163 1dbd f0db 10bd
000002c0: 8d40 143c 5e5e 5bbd ac06 8dbc 2fcc 25bd
000002d0: d639 fd3b e55f 173d b32f 1f3d d11e 26bd
000002e0: 1cea 15bd 09c1 83bd 660b 26bd 5bc3 b8bc
000002f0: 4c28 66bc fae6 573d 4400 223d 98a2 2e3d
00000300: e665 83bd 3a70 88bd 9f68 f6bd 5f23 edbb
00000310: 8f70 ce3b 6081 473d 357a 17bc 2982 253b
00000320: ccef 7f3c 3baa 423d 624a b93d 5c06 b63d
00000330: d689 79bd 8e59 42bd 92ff b8bd ce80 5a3d
00000340: e27c 0e3d 6e84 02bc d62f c2bc 43b4 0c3a
00000350: 7913 c63c 3689 88bd 8de6 0dbd 0ebe 073c
00000360: 533e 2dbd bf03 a6bd 6c88 debd 9e41 bd3c
00000370: 30e2 1a3d 8496 2f3d 0b22 9d3c f6b8 ce3c
00000380: 938d 963d 1a46 e6bb ad1e 38bd d016 d3bd
00000390: ab34 08bb e383 c33c b0ed 6a3d 2e7f 263d
000003a0: 051f 8e3d 5df2 ed3d 3e3d 983d 2062 9c3d
000003b0: 8fc4 d53d 8977 42bd 0fdf 44bd 06d8 20bd
000003c0: c00d 06bc cf41 8f3d 8416 0a3e 01d4 793c
000003d0: f6e5 54bc 7554 7dbd 2c17 bbbc 1454 6abc
000003e0: bee9 20bd 14b6 0cbd 64d8 57bc 7fe1 c43a
000003f0: 16bc 243c 0444 e03c 63f9 6c3c 50b9 c7bc

backbone.blocks.1.temporal1.conv.bias f4 [128]
0.016306926 -0.025502564 -0.043999184 0.027529908 -0.047913667 0.04783463 0.034735437 -0.022986798
-0.0010235914 0.02143397 -0.11042258 -0.0068153925 0.009327862 -0.052062172 0.10652623 -0.012862288
-0.05704275 -0.057679072 -0.014995474 -0.06436853 0.08045797 -0.038970783 0.004418083 -0.04799133
-0.0050957077 0.04014352 0.026629781 -0.022163227 -0.061752666 0.030162664 0.03809593 0.051947284
-0.050300796 0.02784007 -0.0036239666 -0.02017909 -0.048582252 -0.028317768 -0.059163567 0.005902344
0.08254993 0.0020900224 0.04669081 -0.03200474 0.037174165 0.023769904 0.02740679 0.040846255
-0.0753616 0.02886604 0.041152317 0.01355638 0.103201024 0.03288387 -0.06615264 -0.024717612
0.05526268 0.051593464 0.014508276 0.041234516 0.0038704532 -0.05716637 0.072404295 0.03793862
0.03136436 0.03746316 0.017577738 0.044598535 0.020699978 0.046816546 -0.0066053555 0.014074339
0.022460366 0.025153065 0.049762078 -0.010732851 0.04819431 0.009429154 0.04957207 0.0007505438
-0.018667316 0.08887363 0.0019578552 0.061050385 0.048904225 0.017099962 0.014791627 0.0053647785
-0.01647699 0.059342287 0.0057110228 -0.029211337 0.029655058 0.011498937 0.03053188 -0.010224195
-0.052181404 0.021817364 0.029236399 0.011116195 -0.0345174 0.007483131 -0.035290904 0.05561095
0.0030569509 0.049297296 0.044220425 -0.0012922455 0.03719888 0.09502601 0.007994611 0.021687994
0.029488077 -0.0798228 0.012233021 0.015630241 -0.01429597 -0.033297427 -0.035607062 0.044047486
0.020752415 0.0520787 0.067451656 -0.0012148484 -0.0016280577 0.01324447 0.015401975 -0.05844238
00000000: 1a96 853c c1ea d0bc 7d38 34bd 6786 e13c
00000010: 1f41 44bd 3fee 433d bf46 0e3d cf4e bcbc
00000020: 072a 86ba 4b96 af3c 3c25 e2bd a853 dfbb
00000030: e4d3 183c 253f 55bd 6d2a da3d 59bc 52bc
00000040: a9a5 69bd e440 6cbd 94af 75bc a6d3 83bd
00000050: 26c7 a43d d49f 1fbd 91c5 903b 8f92 44bd
00000060: e5f9 a6bb 886d 243d b326 da3c a88f b5bc
00000070: 5df0 7cbd b117 f73c 7a0a 1c3d adc6 543d
00000080: 3508 4ebd dc10 e43c 1280 6dbb 9e4e a5bc
00000090: 2ffe 46bd aafa e7bc 7f55 72bd 7368 c13b
000000a0: f00f a93d c2f8 083b dd3e 3f3d 6717 03bd
000000b0: f043 183d 1ab9 c23c 3484 e03c 674e 273d
000000c0: 2f57 9abd 7978 ec3c 558f 283d 941b 5e3c
000000d0: 0f5b d33d 3db1 063d 097b 87bd 977c cabc
000000e0: 1f5b 623d ab53 533d 1fb4 6d3c 86e5 283d
000000f0: 6ea7 7d3b 4927 6abd b448 943d 8765 1b3d
00000100: ea77 003d f872 193d 30ff 8f3c f4ac 363d
00000110: 0093 a93c b5c2 3f3d bd71 d8bb 0e98 663c
00000120: cdfe b73c cd0d ce3c 52d3 4b3d d7d8 2fbc
00000130: 6667 453d bd7c 1a3c 150c 4b3d 24c0 443a
00000140: 33ec 98bc 6103 b63d 5c4f 003b f80f 7a3d
00000150: cc4f 483d 3815 8c3c 9558 723c 06cb af3b
00000160: c1fa 86bc e610 733d 8823 bb3b 9d4c efbc
00000170: 2aef f23c 0a66 3c3c fe1d fa3c 6283 27bc
00000180: 2bbc 55bd 54ba b23c 2c81 ef3c b320 363c
00000190: 1e62 0dbd 0d35 f53b 328d 10bd 4fc8 633d
000001a0: 2057 483b f6eb 493d 7a20 353d 9060 a9ba
000001b0: da5d 183d ff9c c23d d4fb 023c 05ab b13c
000001c0: fb90 f13c 237a a3bd 026d 483c fe0a 803c
000001d0: a539 6abc e262 08bd b6d8 11bd 236b 343d
000001e0: f800 aa3c 7a50 553d 1824 8a3d 8c3b 9fba
000001f0: 8d64 d5ba 55ff 583c 9158 7c3c 4761 6fbd
