artifacts/runs/20260209_015638_STGCN/best.pt (torch, 541782 bytes, 27 tensors)

encoder.start.weight f4 [64, 6, 1, 1]
000000 a2 f2 31 be 52 15 fd bc db c4 b6 3c a5 07 a2 3e
       -0.17377713 -0.030893955 0.022310665 0.31646457
000010 88 02 57 be 11 e5 32 3e 22 4e d2 be 2f 18 1b 3e
       -0.2099706 0.17470194 -0.41075236 0.15145944
000020 f4 47 41 3e 17 46 85 be ec a5 a0 3e df 20 28 be
       0.18875104 -0.26030037 0.31376588 -0.1641879
000030 8b fa 95 3e 2b fe bd be e1 bb b6 3e 3b 1b b4 be
       0.29292712 -0.37107977 0.35690215 -0.35177025
000040 bd a0 82 bc 95 77 98 3c 56 3e 7a 3e ad b4 54 3e
       -0.015945787 0.018611709 0.24437842 0.20772047
000050 85 d9 23 3d 96 b7 88 3d 14 d6 b6 be 9a 0e a8 be
       0.040002365 0.06675641 -0.35710204 -0.3282364
000060 c0 8f 32 3e 8e 71 1d 3e fd 77 a1 be 49 0f bd be
       0.17437649 0.15375349 -0.31536856 -0.36925724
000070 67 ff 83 3d 36 fa 08 bd a4 9d 16 3e 60 b6 a0 be
       0.064451985 -0.033441745 0.14708573 -0.3138914
000080 52 36 15 3e c2 59 4f 3d ee 32 94 be 7d ee b8 3d
       0.14571503 0.05062271 -0.28945106 0.09029863
000090 36 47 65 3d 7b 30 c2 3e 56 a8 dd 3b 5f a9 9a be
       0.055976115 0.37927613 0.006764452 -0.30207345
0000a0 6c f7 63 be 9a 2b b8 3e 64 32 66 be 7c ac 8b be
       -0.22262353 0.35970765 -0.2248016 -0.27280033
0000b0 0a 07 b8 3e 3a 1d bd 3e 4a c3 7b 3e b5 7a 96 3e
       0.3594287 0.3693636 0.24586216 0.29390493
0000c0 cc cc a4 3e 24 23 1e bd 55 bf 99 be d6 4f b6 3e
       0.32187498 -0.03860773 -0.30028787 0.35607785
0000d0 86 a3 a7 bc 77 11 92 3e ae 8a c0 3e b2 fd 0d 3e
       -0.020463716 0.2852895 0.37605804 0.13866308
0000e0 b2 f1 b2 3e 95 9e 8d be 4d e0 be bd 9e 78 a3 3e
       0.34950024 -0.2766005 -0.09320126 0.3192796
0000f0 d2 e8 ff bc 1c 22 b4 3e 0e 81 4e be f9 41 46 be
       -0.031238947 0.35182273 -0.20166418 -0.19361104
000100 0e 06 6e 3d b7 40 02 be ec cf 12 bd 23 93 ba 3e
       0.058111243 -0.12719999 -0.03584282 0.3644038
000110 ea d9 a9 3e 83 4b c3 bd cb c9 8b be 78 b1 bf 3e
       0.33174068 -0.09535887 -0.27302393 0.37440085
000120 5d 21 7a 3d 26 dc b7 3d f9 c0 10 3e 99 c8 8a 3d
       0.061066974 0.08977537 0.14136113 0.06776542
000130 10 e1 2e 3e 64 05 35 be bf 58 01 be c5 cd c2 3c
       0.17078042 -0.17677838 -0.1263151 0.02377976
000140 40 88 4b be 62 7b 55 be a8 65 5b 3e d1 dc 64 3e
       -0.19876194 -0.20847848 0.21425498 0.2234986
000150 ac 96 fc 3d c2 bf c5 be a8 b8 1f be 1c 44 8b 3d
       0.12333426 -0.38622862 -0.15597785 0.068001
000160 ef 80 84 be 15 d9 b3 3e 2c 69 91 be e4 8c c7 be
       -0.2587962 0.35126558 -0.28400552 -0.3897468
000170 aa 0a 56 3e b7 65 35 be a5 77 ae 3e 5a a3 2d bd
       0.20902506 -0.17714582 0.34075657 -0.042392112
000180 50 34 b7 be 15 86 ad 3e 9a b4 8e 3e 05 76 6c 3e
       -0.357821 0.3389136 0.27872163 0.23091896
000190 b6 57 92 3e 59 8a 16 bd 94 33 65 be 79 be b9 bd
       0.28582543 -0.036753032 -0.22382957 -0.09069533
0001a0 3f 18 b8 bd 45 d3 b5 bd 17 bf 9b 3e 62 9d 9a be
       -0.089889996 -0.08878187 0.30419227 -0.301982
0001b0 56 33 c0 3d f4 52 68 3d 66 10 72 3e 08 ff 2a be
       0.093847916 0.056719735 0.23639068 -0.16698849
0001c0 7f 45 ed bd 89 a6 c1 bd b6 0f e5 3e 34 1b 33 be
       -0.11585521 -0.09455592 0.4473855 -0.17490846
0001d0 07 c4 3a 3c 61 18 81 be 47 29 86 be 05 cd b6 3d
       0.011399276 -0.25213912 -0.26203367 0.08925823
0001e0 a9 4f 37 3e d9 6c 18 be 22 a7 ff bd 64 98 c7 3e
       0.17901482 -0.14885272 -0.1248305 0.38983452
0001f0 0c 4c 83 3e 4d b9 ad be 61 d3 01 be 13 4b 8a 3d
       0.25643957 -0.33930436 -0.12678291 0.067526005
000200 9f 87 99 be 04 bc 89 be 36 2f 0c be 24 8b 78 be
       -0.29986283 -0.26901257 -0.13689885 -0.24271828
000210 97 47 df 3e 7e 25 48 be 48 87 7e be af 18 9a 3e
       0.43609306 -0.19545552 -0.24856293 0.30096957
000220 ca 27 92 3e 4a bf 94 be 84 59 7d be 94 ec 11 be
       0.28545982 -0.29052192 -0.24741179 -0.14250404
000230 88 81 64 3d 0d 58 62 bd 86 b0 bf be 0f f1 11 3e
       0.055787593 -0.055259753 -0.37439364 0.14252113
000240 c3 63 ec bd a7 32 97 be 84 b8 b7 3e 3c c9 af be
       -0.115424655 -0.29530832 0.35882962 -0.34333217
000250 51 0d d7 3d 72 88 ca 3b 82 67 ae 3d 41 2f 7a 3e
       0.10500587 0.0061808163 0.08515836 0.24432088
000260 b7 6d 83 3e 5f cd 65 bd 63 c1 aa be 01 8d d3 bd
       0.25669643 -0.05610406 -0.33350667 -0.10329629
000270 9d 85 76 be 02 26 98 be 69 af b9 3e 55 5d e9 3d
       -0.24074407 -0.29716498 0.3626664 0.11394755
000280 e8 2a 9f bd d6 be 9c 3e 65 64 ce 3e 68 f6 b3 3e
       -0.077718556 0.30614346 0.4031097 0.3514893
000290 c5 83 a3 3e f9 3a 3a 3e 25 6d 9e 3e 98 67 20 be
       0.3193647 0.18186559 0.30942646 -0.15664518
0002a0 1e 0f c2 be c7 7e 71 3e f8 59 44 be 7c 45 6c be
       -0.37902158 0.23583518 -0.19174945 -0.23073381
0002b0 b2 f2 a4 be 8b 27 9a be 4a d8 ab bd 03 01 17 be
       -0.32216412 -0.30108294 -0.08390863 -0.1474648
0002c0 9d f2 67 3d 54 30 a6 3e 05 e1 99 3e 3b ee 9b bd
       0.05662786 0.32458746 0.3005449 -0.07613798
0002d0 0d c2 b8 be fb 7f 11 bd 05 4c 4e 3e 9f 05 31 3e
       -0.3608555 -0.035522442 0.20146187 0.172873
0002e0 42 89 90 bd 60 4e f1 bc e8 af c4 3e 93 3e 25 be
       -0.0705743 -0.029456317 0.38415456 -0.16137151
0002f0 34 48 61 3e 6a f9 9c be dd 0b 3e bd 97 dd 9f be
       0.220002 -0.30659038 -0.046398032 -0.31223747
000300 43 f5 47 be 3b 92 1c 3e 93 0d 1e 3c 10 aa 87 3d
       -0.19527154 0.15290157 0.009646791 0.06624234
000310 46 ba 5d bd b6 0b 99 3e 63 18 04 be 97 8d c7 3d
       -0.054132722 0.29891747 -0.12899928 0.09743803
000320 76 7e c1 3e 98 1c 3b bc 8a 46 e5 bd 90 0a a0 be
       0.37791795 -0.0114203915 -0.11195095 -0.3125806
000330 e8 2a b5 3e 5f 52 aa be fa a7 16 be fa 2d 5a be
       0.35384297 -0.3326597 -0.14712515 -0.21306601
000340 5c 6f d1 3c f9 61 30 3e ef 75 07 3e 3c 85 8d 3e
       0.025565796 0.17224874 0.13228582 0.27640712
000350 7d a1 9f bb 70 e0 f4 3c 02 95 02 3e 06 ea a6 be
       -0.004871546 0.029892176 0.12752154 -0.3260042
000360 b3 24 56 3e 7e 64 b9 bc 1d 04 2c be 06 38 8f 3e
       0.20912437 -0.022630926 -0.16798444 0.2797243
000370 b1 6d 0a 3e 27 41 fd bd 73 76 95 be 71 64 83 be
       0.13518406 -0.123659424 -0.29191932 -0.25662568
000380 d0 4c 4b be 53 f0 3f be 3b 3f 4a 3e e9 66 b0 3e
       -0.1985352 -0.1874402 0.19750683 0.34453514
000390 97 8a a6 3e ea 5e 84 3e f8 95 ee 3d bf b4 bc 3e
       0.3252761 0.25853664 0.11649698 0.36856648
0003a0 28 f3 23 3e be 66 fa 3b 72 d9 2e bc 9c 79 15 bd
       0.16010725 0.0076416424 -0.01067196 -0.03649293
0003b0 36 5a 96 bd 96 cd 5e be ae 37 bf 3c 21 5a 72 bd
       -0.07341425 -0.21758112 0.02334198 -0.059167985
0003c0 bd 1e b8 3d 4d b1 96 be 31 b3 b9 3d da 8a bc be
       0.08990238 -0.29432145 0.09067381 -0.36824685
0003d0 8c 25 64 3e a0 e8 3a bd a5 da 2a 3e 41 98 4a be
       0.22279948 -0.045632005 0.16684969 -0.19784643
0003e0 28 69 73 3c e5 ea 03 3e 35 a1 a8 be 7c 7a 91 bd
       0.014856614 0.12882574 -0.3293549 -0.0710344
0003f0 79 42 16 be 58 b1 45 3d 8e d6 a9 be 70 1a 48 3e
       -0.14673795 0.04826483 -0.33171505 0.19541335

encoder.start.bias f4 [64]
000000 05 fc 4a 3e 8e ce 89 bd 92 95 40 3e 25 3f f9 bd
       0.198227 -0.0672885 0.18807057 -0.12170247
000010 c0 41 bf 3d 0f e0 70 3e e5 6a 3c be 74 9e d2 bd
       0.09338713 0.23522972 -0.18400152 -0.10284129
000020 fd c1 93 be 0e 08 a9 be 46 0d b3 3e e9 be f5 3d
       -0.2885894 -0.33013958 0.34971064 0.11999304
000030 b9 1a 8c 3d 8a ba 62 3e b1 e7 b5 3e 7a 3d f7 3d
       0.068410344 0.22141472 0.3552833 0.120722726
000040 fd 1e c4 3e d3 78 b6 be b9 96 ad be ee 18 70 be
       0.38304892 -0.35639057 -0.33904055 -0.2344701
000050 20 3e 94 be ad 08 1e be 52 3f 0e 3e bd d2 93 bd
       -0.28953648 -0.15432997 0.13891342 -0.072179295
000060 44 50 de bd e2 18 2e 3e f5 0c 37 be 88 2e 0e be
       -0.10855153 0.1700168 -0.17876036 -0.13884938
000070 ba ab ab 3e c3 ef 9d bd d7 8d 3c be 3d 8f 57 3e
       0.33529454 -0.077117465 -0.18413483 0.21050735
000080 3d dd 94 3e 2b 5d 59 be a0 12 ba 3e 6f b8 f0 3d
       0.2907504 -0.21226947 0.36342335 0.11753928
000090 d1 99 af 3e ee be 0a 3e f8 41 8f 3e 22 50 c2 3e
       0.3429704 0.13549396 0.27980018 0.3795176
0000a0 e3 0d 47 be 6d 62 9d bd 40 3a 18 3e d7 28 84 3d
       -0.19438891 -0.07684789 0.1486597 0.06453102
0000b0 b4 cc a4 be 8a bb af be 34 cb 4c 3e a7 8c d6 3e
       -0.32187426 -0.34322768 0.19999391 0.41904184
0000c0 56 ba 75 bc 4b 07 93 3e 50 f5 60 3d 4d d1 86 3d
       -0.014998039 0.28716502 0.05492145 0.0658289
0000d0 a9 36 29 be d6 6e ab 3e 94 b5 af be f1 56 bf 3d
       -0.16524757 0.33483 -0.3431822 0.09342755
0000e0 55 9b cb 3d fe 5c 5b be bc 70 86 be 0d d3 f0 3b
       0.099417366 -0.21422192 -0.26257885 0.007349378
0000f0 1e e9 46 be 4c a0 3d be 7d e4 b0 bd 94 78 6c be
       -0.19424865 -0.1851818 -0.08637331 -0.23092872

encoder.blocks.0.temp1.conv.weight f4 [128, 64, 1, 3]
000000 3d 43 f2 bc 63 83 07 3c ba 8f 5c bc 03 dd ca 3c
       -0.029573077 0.008271071 -0.013462001 0.02476359
000010 79 d2 1e 3d 28 23 88 3d 6f 93 4a bd 5f 70 46 3d
       0.03877494 0.066473305 -0.04945701 0.04844701
000020 1d a9 c6 bc ab 53 67 bc 50 b0 63 3d cf e9 9d bc
       -0.024250561 -0.014119069 0.055588067 -0.019276528
000030 08 2c 51 3c 31 23 23 3d 93 73 fc bc 51 a1 00 3c
       0.0127668455 0.039828483 -0.030816829 0.007850961
000040 a2 3a 5d 3d c8 95 6f bd 1c c4 e1 bc ad c0 85 bd
       0.054010995 -0.058492452 -0.027559333 -0.065308906
000050 8b e4 f1 3c 54 0d 9b bb f2 bd 63 3d a3 1c 0c bd
       0.029527923 -0.0047318134 0.055601068 -0.034206998
000060 bb 9b 20 bc b8 50 53 3c 6b 7d 91 3c 66 1c aa ba
       -0.009802754 0.012897663 0.01776 -0.0012978434
000070 65 f4 27 3d d2 6b 60 bd ae 7c 6a 3b c4 ca 51 3d
       0.041004557 -0.054790325 0.0035779881 0.051218763
000080 75 7b c6 3c 4f b7 b1 3c b9 07 aa 3c d9 f2 8a bc
       0.02422879 0.021693854 0.020755636 -0.016961502
000090 f9 eb 3f 3d 10 21 71 3d 9c 73 cb bc 1f 59 36 bb
       0.0468559 0.05886942 -0.0248354 -0.0027824116
0000a0 16 49 5f bd e1 6e 8a bc 95 82 40 3d fa 12 4f 3d
       -0.05451306 -0.016898574 0.046999533 0.050555207
0000b0 15 1b 26 bd 8d 84 66 bd a6 15 91 bd 71 58 27 bd
       -0.04055317 -0.056278754 -0.07084207 -0.04085583
0000c0 0d b4 bb bc 0c ca 56 bd 17 d0 34 bd 21 ee 5c 3c
       -0.022913003 -0.05243878 -0.044143762 0.013484509
0000d0 7f 84 4c 3d 1e 69 f6 3c 55 ec 81 3c ba 85 7e bc
       0.049931046 0.03007942 0.015859762 -0.015534813
0000e0 9c 4d 3b ba af b6 84 3d 54 55 24 bd 75 1a 54 3c
       -0.00071450486 0.06480157 -0.040120438 0.012945761
0000f0 c5 1b f9 3b d6 57 76 bd 95 08 0f bd 39 e9 c4 3c
       0.0076021873 -0.06014236 -0.034920294 0.02403699
000100 69 e9 d3 bb 38 c6 4c bd d0 b6 5a 3d 3c 7e 09 bb
       -0.0064670336 -0.049993724 0.053397 -0.0020979783
000110 c5 1f 18 bc 4b 09 55 bd 28 75 2a 3d c2 94 0f 3c
       -0.009284918 -0.052010816 0.041615635 0.008763494
000120 ab b4 29 bd 8c 4d 76 bc 4a d5 c0 bc cd 45 8c 3d
       -0.041432064 -0.015033137 -0.023539204 0.06849251
000130 b9 67 79 3d 07 c6 e5 bc 69 1d cd 3c 90 cd 3e bd
       0.060889933 -0.028048528 0.025038438 -0.04658276
000140 e8 5b db bc 8c 41 f9 bc 60 9f 0a 3c d9 73 19 bd
       -0.026777223 -0.030426763 0.0084608495 -0.037463997
000150 95 7f be bc 88 71 b9 3c 95 f0 4c 3d 55 f9 28 bd
       -0.023254195 0.022637144 0.050034124 -0.041253407
000160 4e ca 3d bd 2b 2b 79 bd 4d 2a 04 bd 4d b0 3c 3c
       -0.04633551 -0.060832184 -0.032266904 0.011516643
000170 54 cc 27 bd f8 a5 2f bd b0 dd 83 3d 5b 33 d6 bb
       -0.040966347 -0.04288289 0.06438768 -0.006536884
000180 25 46 b1 3b f8 36 86 bd eb cb 15 3d 2b 7d 0b 3d
       0.005409973 -0.06553453 0.036571424 0.034054916
000190 41 fa 23 3d 92 e8 3a 3c a0 d7 ab 3c 9d 5a 74 bd
       0.040033583 0.011407988 0.020976841 -0.059656728
0001a0 38 ed 14 bd 95 56 0c bd e1 de ba 3c e8 68 3e bd
       -0.036359042 -0.03426226 0.022811355 -0.046486765
0001b0 9f 17 d0 bc 02 82 47 3d ad 91 81 bd 68 5a 20 3d
       -0.025401888 0.04870797 -0.063266136 0.039148718
0001c0 46 15 28 3d 01 ba 25 bd 0b b4 8f 3d e2 d3 1e bd
       0.041035913 -0.04046059 0.07016762 -0.038776286
0001d0 08 8b 35 3d 44 64 12 3c dd 32 ec 3c b4 8a 20 3d
       0.044322044 0.008935038 0.028832847 0.039194778
0001e0 cf 03 48 bd e5 69 65 3c ce 9f f0 3c a1 91 01 3d
       -0.048831757 0.014002298 0.029373076 0.031633023
0001f0 0f cf 03 bd 69 1c 16 bb dc 2c 05 bd 15 0e 78 bd
       -0.03217989 -0.0022905117 -0.032513484 -0.060560305
000200 b5 65 ee 3c 96 93 eb 3c 55 eb 70 3d 1f 03 81 bc
       0.029101232 0.028756898 0.05881818 -0.015748559
000210 47 bc 3a 3c d6 9d a6 bb 76 02 42 bb 83 d5 53 3d
       0.011397428 -0.0050847335 -0.0029603518 0.051717293
000220 7e 5a ce bc a6 03 0b bd 79 f2 84 bd a4 a2 29 3d
       -0.025189634 -0.033939026 -0.064915605 0.04141487
000230 bf 6d b3 3c 5c 92 c3 3c ea fd 1d 3d 12 c1 ad 3c
       0.021902917 0.0238735 0.03857223 0.021210227
000240 31 47 00 bc ce 06 bc 3c b3 19 23 3c c0 3e 7c 3d
       -0.007829473 0.022952463 0.009954858 0.06158328
000250 a4 18 51 3c 01 a3 a2 bb 31 5c 48 bd 9f 47 a7 bc
       0.012762222 -0.0049632792 -0.048916046 -0.020419894
000260 bd de 07 3d 45 b7 7f 3d 6e ea 32 bb 20 4e 53 bc
       0.033171404 0.06243064 -0.0027300376 -0.012897044
000270 15 7b d4 bc 29 e5 cc 3c 24 4a 3e 3d d1 00 7c bc
       -0.025937596 0.025011616 0.046457425 -0.015381054
000280 0d 05 47 bd d6 22 d1 3c eb 9e 11 bd 33 39 c9 3c
       -0.0485888 0.025529306 -0.035551947 0.024563408
000290 dd 00 a0 3c 5e 3e d6 bc e2 f0 22 bd 0c fc 55 bd
       0.019531662 -0.026152786 -0.039780505 -0.052242324
0002a0 c6 ed cc bc 8f 09 47 bd 69 04 61 bd c1 cd 1f bd
       -0.025015723 -0.0485931 -0.054935846 -0.03901458
0002b0 8d 18 0a 3d e3 7c a8 3c d7 cc 5b 3d ef f8 42 3c
       0.03371482 0.020567363 0.053662147 0.011900171
0002c0 e2 b2 81 bd 3a e9 64 3d 77 80 1d bd b0 89 40 bc
       -0.06332947 0.055886485 -0.03845259 -0.011751577
0002d0 e2 ac 2c 38 69 04 63 3c b3 20 11 3c df d0 d7 3c
       4.1169005e-05 0.013856032 0.008857894 0.026344715
0002e0 48 66 64 3d 0b 7a 04 bd 0e 26 d9 bc d1 1e f5 bc
       0.055761606 -0.03234295 -0.026507404 -0.029921921
0002f0 ec c6 3b bd 65 f2 10 3b 64 48 18 bb 80 7c 1c 3c
       -0.045844004 0.0022117135 -0.0023236508 0.0095511675
000300 41 03 80 3d c2 bc 1e bc e4 77 8b bd e5 22 c3 3c
       0.06250621 -0.009688558 -0.06809977 0.02382035
000310 62 d7 92 bd 2c 07 5d bc ac 68 2d 3c a7 65 47 3d
       -0.07169987 -0.013490479 0.010584038 0.048680928
000320 6e 7f cb bc 0e 6d 29 3d 38 77 80 bd d2 50 2f 3d
       -0.024841037 0.04136377 -0.06272739 0.042801686
000330 cd af 5d 3b 43 3f 83 bb 25 a8 51 bd 18 fa b3 bc
       0.003382671 -0.004005344 -0.051185746 -0.02196984
000340 8b d8 d5 ba 42 69 9f 3a 73 56 8c bc d5 f4 83 bd
       -0.0016315145 0.0012162107 -0.017131066 -0.064431824
000350 7b c0 05 bd 2e 7c df 3c ef f0 39 3c 2c f9 4d bd
       -0.032654267 0.027280893 0.011348947 -0.050286457
000360 c6 0e 29 3c 4a 51 2e bb 05 0e 40 3d c5 08 56 bb
       0.010318464 -0.0026598745 0.04688837 -0.0032659036
000370 85 35 49 bc fd 5a c6 3c e6 bc d8 3c 88 c7 10 3d
       -0.012280826 0.024213308 0.026457261 0.035346538
000380 fb 2a 9f bc 6f 59 a9 bc 62 69 5d 3d 02 ee 63 bc
       -0.019429674 -0.020672528 0.05405558 -0.013911726
000390 54 a1 a6 3c 07 8a dc bc c4 5a d7 3c d0 3f 79 bd
       0.0203406 -0.026921285 0.026288398 -0.060851872
0003a0 af bb 13 3c 15 54 b4 bd 83 f0 27 3d 7b 13 85 3d
       0.009016915 -0.088051 0.041000854 0.06497856
0003b0 af 3f 8d ba 61 41 94 3c 78 63 14 3d 1e d5 9d ba
       -0.0010776425 0.018097581 0.036227673 -0.0012041663
0003c0 09 cc a9 bc b0 44 72 bd 66 09 21 bd 54 a8 82 bd
       -0.020727174 -0.059147537 -0.039315604 -0.06379762
0003d0 ac 62 54 bd 6b 15 1d 3d ec 57 e3 3b 1d 7e 24 bd
       -0.051851913 0.038350504 0.0069379713 -0.040159333
0003e0 ce 19 9b 3d d5 1a 1d bd bb 89 dc 3c b8 f4 29 3d
       0.07573281 -0.038355667 0.026921144 0.041493148
0003f0 c4 e9 a0 3c 72 ce 8f 3c d7 3a 0f 3d e8 a5 9f bd
       0.019642718 0.017554495 0.034968223 -0.07795316

encoder.blocks.0.temp1.conv.bias f4 [128]
000000 ae 19 0d bb a2 d5 29 3c d2 eb 61 3c 5c 9c 02 3d
       -0.00215302 0.010365875 0.013789134 0.031887397
000010 9d cc 4f bc 38 fc 69 3d c1 a6 1c 3d d9 09 37 bd
       -0.012683061 0.0571253 0.038244966 -0.044687126
000020 6e 56 5a bc c4 f5 37 3c 9d ea 9c bd 2c 4d d9 b9
       -0.0133262705 0.011228029 -0.076619364 -0.00041446963
000030 ec 67 a9 3c 53 68 38 3d 5b d7 2f 3d 43 c7 4d bd
       0.020679437 0.045021366 0.04292999 -0.05023886
000040 b4 c7 6b bd 88 2d f2 bc 79 9c 0e 3c 1c 53 6c bd
       -0.0575635 -0.029562727 0.008704298 -0.057696447
000050 0a e6 67 bb b1 63 25 3d 0e 8e 42 bd d2 8a 02 3c
       -0.0035384917 0.040378276 -0.047498755 0.007967668
000060 64 ce 2f 3c f0 9a b0 bc a7 a3 67 bb ec bc 09 3c
       0.01073036 -0.021558255 -0.0035345347 0.008406859
000070 be bb 76 3c db 74 b8 bc ec e7 b8 bc 8e 9e 54 bd
       0.01505941 -0.022516659 -0.022571526 -0.051909022
000080 73 d4 de 3c 60 77 f9 3c 91 4a 28 bd 98 62 1c bb
       0.027200913 0.03045243 -0.041086737 -0.0023862477
000090 e0 89 ae bc 50 47 d1 bb ba 4e 19 3d 50 f6 01 3d
       -0.021305978 -0.006386675 0.037428595 0.031729043
0000a0 04 20 38 bc 56 e5 2f bd b8 44 48 3a 74 81 08 bb
       -0.011238102 -0.04294332 0.00076396344 -0.0020829113
0000b0 44 41 3f 3d f6 53 46 3d ce 8c 07 3d a8 1f a5 3c
       0.0466931 0.048419915 0.033093266 0.020156696
0000c0 bd 5a 3b 3c c0 1c 8c 3d f1 39 d3 3c 36 31 be bc
       0.011435208 0.06841421 0.025784465 -0.023216825
0000d0 1c f2 46 3d d5 f3 8d 3d 27 b8 09 bd bd d2 10 3d
       0.048570737 0.06931273 -0.033622887 0.035357226
0000e0 bf 30 4d 3d e0 6e 4e bd 30 7f 23 bd 1f 42 98 3b
       0.050095316 -0.050398707 -0.039916217 0.004646554
0000f0 da 78 6a 3d de 62 d7 bc da 24 ab 3c 67 1c 5f bc
       0.05724416 -0.02629226 0.020891596 -0.0136176115
000100 e2 2c c5 3c 09 66 fd 3c 88 d0 89 bc 41 11 db bc
       0.024069253 0.030932443 -0.016823068 -0.026741626
000110 74 fb 10 3d 80 a7 8c bd fd 54 7b bd 50 e0 a9 bc
       0.035396054 -0.068678856 -0.061360348 -0.020736843
000120 d2 10 85 bd f4 82 81 3c 04 da 06 3d 36 55 c3 3c
       -0.06497349 0.015809514 0.03292276 0.023844343
000130 18 5e 6d bc 4b 1f c4 ba 25 eb 37 3c 16 08 27 bd
       -0.014487766 -0.0014962939 0.011225496 -0.040779196
000140 85 31 b1 bb 93 f2 63 3d 6a 9a 90 bd b8 1f ca bc
       -0.0054075145 0.05565126 -0.07060702 -0.024673328
000150 0a 29 2e bd ec 8c 43 bd a1 26 94 bc 48 bd 7a bd
       -0.042519607 -0.047741815 -0.018084826 -0.06121567
000160 cb 7b ca bc 21 50 5a bd 57 ba 53 bd 8c a0 b3 3c
       -0.024717232 -0.053299073 -0.05169138 0.02192714
000170 3b dc bf bc 91 05 40 bd 65 07 a3 bc c8 8e fa bc
       -0.023420444 -0.04688031 -0.019900987 -0.030585662
000180 42 ae 82 bb 5e e9 ae bc 66 4b 30 bd 60 91 81 bb
       -0.0039880583 -0.021351513 -0.043040656 -0.0039540976
000190 b4 f0 48 bd 99 24 40 bd 53 ff 6e bc 83 a7 df 3b
       -0.049057677 -0.046909902 -0.014587241 0.006825389
0001a0 2b 59 35 bc 7d df 35 bd 16 54 0b bd d0 c1 9b 3c
       -0.011068623 -0.04440259 -0.034015737 0.019013315
0001b0 1e f0 36 bd 1e f7 d2 bb 85 42 8c bc 97 27 01 bd
       -0.044662587 -0.00643815 -0.017121563 -0.031531896
0001c0 a5 0d 3c bd 6e 0f 9f 3c 8a fa 0b 3d 31 1b d8 bc
       -0.04591145 0.019416537 0.03417448 -0.026380153
0001d0 de 28 c0 3b 23 2e 00 bd aa 9b 37 bd f1 c9 e4 3b
       0.0058642467 -0.031294 -0.044826187 0.006982081
0001e0 0e 67 13 bd 29 07 ca 3b de 52 25 bd 9e f7 13 3d
       -0.035986952 0.0061654043 -0.04036223 0.036124818
0001f0 ba 46 e6 bb d7 62 01 bd 6c 03 89 3d bb 7d c4 3a
       -0.007027474 -0.0315884 0.06690106 0.0014991084

encoder.blocks.0.gconv.mlp.weight f4 [64, 192, 1, 1]
000000 bc c8 03 3b 8a a5 43 bd b6 e9 36 bd 9e 5e 04 3d
       0.002010866 -0.047765292 -0.044656478 0.032316796
000010 25 48 6d bd 25 e9 b7 3c 72 c7 60 bd 0b 72 26 3d
       -0.05793013 0.02245004 -0.054877706 0.040636104
000020 88 d9 25 3c 75 b1 84 bd cd d1 f1 3c f8 13 6d 3d
       0.010122664 -0.0647916 0.029518986 0.05788037
000030 c4 70 a0 3b f6 aa 88 3d 78 db a8 bc 33 2e 8e bc
       0.004896255 0.06673233 -0.020612463 -0.017356014
000040 7e 6f 7a 3d 9b 47 f0 3c 9d 16 98 bc 55 84 a2 3c
       0.061141483 0.02933102 -0.01856547 0.019838491
000050 86 ca b3 bb af 74 0f bc 7b 37 b1 bb b3 51 4d 3c
       -0.005486789 -0.008755847 -0.005408225 0.012531686
000060 b2 f7 2c 3d 0e fe bb bc 3a 37 38 bd ba bd 15 3d
       0.04222841 -0.022948291 -0.044974543 0.03655789
000070 ba 61 87 3c 1f 60 48 bd cb d1 53 3d 51 26 f8 bc
       0.016526092 -0.048919793 0.051713746 -0.030291708
000080 9f b8 92 3c 1f ad f6 3c 71 dc 81 bc 0f 0f 03 3d
       0.0179103 0.030111847 -0.015852185 0.031996783
000090 6b 16 f5 3c eb 59 4a bc c4 52 90 3d d5 e7 16 bd
       0.029917916 -0.01235054 0.07047036 -0.036842186
0000a0 23 fe 24 bd 80 05 03 bd 9c 6b d0 3c 85 e8 a5 3c
       -0.040281426 -0.031987667 0.025441937 0.020252476
0000b0 9e 09 ae 3c 13 00 ba 3b e3 9a 83 3d a6 7b 15 bb
       0.02124482 0.0056762784 0.06426027 -0.0022809296
0000c0 dc b4 b1 3a 33 b3 80 3d 87 e5 49 3c 15 5b 71 3b
       0.0013557929 0.062841795 0.01232279 0.003682797
0000d0 ad cb 60 3d 6f 92 91 3c f4 50 9c 3c af e9 53 3d
       0.05488174 0.01777002 0.01908157 0.05173653
0000e0 fe db 5d bc 2e c8 2d bd 63 e5 98 bd a0 ab fe bb
       -0.01354122 -0.042427234 -0.07465627 -0.007771924
0000f0 34 c3 3e bd d1 31 50 3d d5 3a 6a bd ff 29 02 3d
       -0.04657288 0.05082876 -0.057185013 0.03177833
000100 b0 24 75 bd 19 cd 63 3d 95 45 93 3c b0 40 17 3d
       -0.05984944 0.05561552 0.017977515 0.036926925
000110 0a af 80 3d 71 ce d5 bc b7 f4 0d bd 4d dc cb bc
       0.06283386 -0.026099415 -0.034657206 -0.024885321
000120 88 cf 6c 3c 0a 84 32 3d 6c fc 5d bd 33 70 85 3d
       0.014453776 0.043582954 -0.054195806 0.06515541
000130 d2 31 32 3d b2 e2 ff 3b 30 aa a6 bb d2 85 25 bd
       0.043504544 0.0078090066 -0.005086206 -0.040410824
000140 f8 c2 16 3d 9f 1f e5 3c 89 57 59 3d 31 73 86 bd
       0.03680703 0.02796918 0.053061996 -0.0656494
000150 86 e7 a8 3c f9 ee a2 3c 68 27 92 bd 41 a8 15 bc
       0.020618211 0.019889342 -0.071364224 -0.009134353
000160 bf 9e 89 3c fb bf 80 bd 46 99 65 3c 83 e4 7e 3b
       0.016799329 -0.06286617 0.014013594 0.0038893528
000170 ab 10 39 bd eb 3f ba bb ee 0f 62 bd 00 7e 08 3c
       -0.04518191 -0.005683889 -0.055190973 0.008330822
000180 13 4d 5b 3b ad b2 4f bd 7b d0 83 3d 11 2a 27 3b
       0.0033462688 -0.050707508 0.06436249 0.0025507251
000190 91 e1 5e 3d 59 43 47 3d 16 dd 2d 3d d8 fa 64 bd
       0.054414336 0.048648212 0.042447172 -0.055903286
0001a0 81 05 da bc 46 33 9d bc b0 53 58 bd 44 35 71 3d
       -0.026613953 -0.019189488 -0.052814186 0.05888869
0001b0 8c 2b cb 3c 0e 26 ab 3c 86 90 dc 3c 32 7e 84 3b
       0.024801038 0.02089217 0.026924383 0.004043364
0001c0 78 d3 f7 bc a8 d9 55 bd 9f c8 c2 3c 85 7c a9 3c
       -0.030252203 -0.052209526 0.023777304 0.020689258
0001d0 ec 2e 74 bb 7e 3e 36 3d 4f 2b eb bc 47 a2 94 3a
       -0.0037259413 0.04449319 -0.028707175 0.0011339866
0001e0 2f da ce 3c d0 ca e9 bc 3d a6 e8 bc 03 5b 1f bb
       0.025250522 -0.028539091 -0.028399581 -0.0024315722
0001f0 46 8b 2f bd 8f 95 9c bc f7 25 a0 3d d4 b2 5d bc
       -0.04285743 -0.019114284 0.07819741 -0.0135314055
000200 fa 04 16 3c ea 49 cd bb be a9 60 3d 18 a6 e8 3c
       0.00915646 -0.0062649148 0.05484938 0.028399512
000210 13 70 2f bd d3 12 4c bd ca 61 2c 3d cc 98 8a 3c
       -0.04283149 -0.04982264 0.042085446 0.016918562
000220 b0 71 3c 3d 41 ac 84 bd b3 e7 80 bd 46 b8 64 3d
       0.04600686 -0.06478167 -0.06294193 0.0558398
000230 72 88 bd bc 3a 7b 76 3d 2c c6 00 bd 59 83 55 bd
       -0.023136351 0.06017611 -0.03143899 -0.052127216
000240 b2 63 f5 bc e4 63 62 bd f2 ad 6d 3c 1c 38 e2 bc
       -0.029954765 -0.055271044 0.014506804 -0.027614646
000250 05 f7 55 bc 28 2c 52 bd 0b 59 85 3b a1 84 55 3c
       -0.013059382 -0.051311642 0.0040694526 0.0130321095
000260 13 76 33 bd 50 da 81 bc 91 30 c9 3b 71 2c 2e bd
       -0.043813776 -0.01585117 0.006139823 -0.04252285
000270 d7 74 b3 bc 08 6b 50 bd 36 c4 1f 3c 81 83 9f bc
       -0.0219063 -0.050883323 0.00975137 -0.019471886
000280 25 c8 5b bd fa a8 c3 bc 84 8e 4c 3d 45 13 92 3c
       -0.05365767 -0.023884285 0.0499406 0.017831454
000290 7e 25 74 3d b6 0c 6b 3d d9 f8 31 bd d3 87 48 bc
       0.059606068 0.05738517 -0.04345021 -0.012239414
0002a0 9f cd 1e bd 4d 88 83 3d 1c dd 45 3d 90 ad 6a 3d
       -0.038770314 0.06422482 0.04830657 0.05729443
0002b0 95 b0 0f 3b 1e 39 3e ba ef 58 b5 3c 12 77 80 bb
       0.002192532 -0.0007256436 0.022137133 -0.0039204443
0002c0 da 39 58 3a 48 36 32 bd 72 97 0f bb f3 5f 10 bd
       0.00082483666 -0.043508798 -0.0021910337 -0.035247754
0002d0 7b a6 46 bd 38 a9 07 3c 72 3d 06 bc 59 0b 5f 3d
       -0.048498612 0.008280091 -0.008193361 0.05445418
0002e0 21 a0 eb 3c 1e 3e fb 3c 49 27 55 3d 02 40 38 3d
       0.028762879 0.030669268 0.05203942 0.044982918
0002f0 c0 10 b0 3c 40 b8 f9 3c cf ff f1 bc 25 f7 f6 bc
       0.021492362 0.030483365 -0.029540924 -0.030147145
000300 27 11 c4 bb 87 1b 28 3d 97 7a 3a 3c bc 52 cb bb
       -0.00598349 0.041041877 0.011381767 -0.006204931
000310 38 c1 b0 bb 6d d9 4f bc 4f 02 b5 3c 6b cc dc 3b
       -0.005394127 -0.012686116 0.022095827 0.0067382357
000320 8f 13 78 bd da 8d 3a bd 00 cb ed bc 6d b0 02 bd
       -0.060565528 -0.045545436 -0.029027462 -0.031906534
000330 81 0c 7e bb 53 e4 96 3b 46 bd 47 3d 29 9e 0e 3d
       -0.0038764777 0.004604855 0.04876449 0.034818802
000340 25 b0 5a 3d 24 d4 9a 3c ad 99 e1 3c 11 b1 07 bc
       0.05339064 0.018899985 0.027539099 -0.008281962
000350 d8 11 6f bd d8 d9 7b 3d f8 59 74 bd 2b 97 db bc
       -0.058366627 0.06148705 -0.059656113 -0.026805481
000360 46 9c 82 3d 2d d7 86 3d b0 ba ac 3c da 66 79 bd
       0.06377463 0.0658401 0.021085113 -0.060889103
000370 ff 9f a2 bd 36 99 0f bd c9 eb 7f bb 48 46 b2 bc
       -0.07940673 -0.035058223 -0.003905045 -0.021762028
000380 d6 29 85 3c f5 b2 6f bd 0c e2 9f bd 61 a2 85 3d
       0.0162553 -0.058520276 -0.07806787 0.06525112
000390 cd b5 8e 3d d8 9e 4f 3d ef e1 88 3b 6d 27 0f bc
       0.069682695 0.050688595 0.004177324 -0.008737427
0003a0 f4 ed 57 bd 8b e5 ec 3c 82 1c fc bc 03 29 9b bb
       -0.052717164 0.028918048 -0.030775312 -0.0047351136
0003b0 fc be 47 3d e6 7e 88 bd 61 78 68 3d f0 65 c5 bb
       0.04876612 -0.06664829 0.056755427 -0.006024115
0003c0 30 84 2c bd 75 21 a9 3c 01 90 d1 3c 9b c4 b4 3d
       -0.04211825 0.020645836 0.025581362 0.08826562
0003d0 da ad 80 ba 73 6c 6f 3d f4 82 16 bd f4 4d 9a 3c
       -0.0009817437 0.058453035 -0.03674598 0.018836
0003e0 41 f5 38 3d 2d de 81 bc 3f 02 2c 3c 37 a8 30 3b
       0.045155767 -0.015853012 0.010498582 0.0026955733
0003f0 43 ae 5e 3d ca 88 7a bd de 8c 7d 3d a6 f0 82 bd
       0.054365408 -0.06116561 0.06190192 -0.06393556

encoder.blocks.0.gconv.mlp.bias f4 [64]
000000 20 a4 ad bc cc e3 f8 bc 4e aa 41 3d c7 5b 1a 3d
       -0.021196425 -0.03038206 0.047281556 0.037685182
000010 7d c4 6c 3d 5c 1c 50 bd 3d ac 3d bd 7d ea 40 3d
       0.057804573 -0.050808296 -0.046306837 0.047098625
000020 75 e0 14 3d ff 8e b3 bc 82 cb fe bb 86 8d 5c bc
       0.03634687 -0.021918772 -0.007775725 -0.013461476
000030 b6 fa 1d bd 9e 42 d1 3d 01 a3 be 3c 36 7d 26 3d
       -0.038569175 0.10217784 0.023271086 0.040646754
000040 cc 70 74 bc 02 cb c4 3d fe 4a 88 bc c1 4e 4c bd
       -0.014919471 0.09609033 -0.016637322 -0.049879793
000050 67 c7 79 bd b9 74 b3 39 cc 1a 4d bd db ed e0 bc
       -0.06098118 0.00034228506 -0.050074384 -0.027457168
000060 c6 5e 5c 3c 0c 16 fd bc b2 56 3e bd c5 44 66 bd
       0.01345033 -0.030894302 -0.046469398 -0.056217927
000070 fa f1 3b 3d 87 fb 13 bd 62 76 11 bd 43 58 a5 3c
       0.045885064 -0.036128547 -0.03551329 0.020183688
000080 14 67 e6 39 b5 1e f8 3b 94 bb 80 bd 43 8b 4e bd
       0.00043945818 0.00757202 -0.06285778 -0.05042578
000090 3f 04 18 3d c6 ac 0c bd 91 59 c0 3c 03 32 f8 3c
       0.037113424 -0.034344457 0.023480209 0.030297285
0000a0 75 0f 3a bd fc ee e3 3c a4 da 2d 3d a2 44 4f bc
       -0.045424897 0.027823918 0.04244484 -0.012650641
0000b0 b1 47 87 bd f0 36 eb 3c 04 f4 17 bd 44 4c 1a 3d
       -0.06605471 0.02871272 -0.037097946 0.03767039
0000c0 d3 f0 03 bd 5d c0 34 3d 7a 93 79 bd 04 88 09 3d
       -0.03221209 0.044128764 -0.06093166 0.03357698
0000d0 f7 80 9d bd 6d f7 2f 3b 20 74 5e 3d cd d1 c1 bc
       -0.07690614 0.0026850358 0.054309964 -0.023659611
0000e0 ae 5f 79 bd af 2a 02 3d fc 77 a1 3c 19 75 33 3d
       -0.060882263 0.031778987 0.019710533 0.043812845
0000f0 18 fb 0b 3d b6 f1 93 3d c5 a0 01 3b 3b 3f 97 bd
       0.03417501 0.07223837 0.0019779664 -0.07385107

encoder.blocks.0.temp2.conv.weight f4 [128, 64, 1, 3]
000000 ac 1e 24 3c 4f b7 6f 3d c9 e8 43 bd aa c3 f7 3c
       0.010017078 0.058524426 -0.047829423 0.030244667
000010 36 f9 8e 3d cf 20 64 bd 9d 8f 40 3d 53 7c 43 bd
       0.06981127 -0.05569535 0.04701196 -0.047725987
000020 1e d9 32 bd 4a 77 78 3d 0d 38 a5 3c b3 29 73 3b
       -0.04366409 0.060660638 0.020168329 0.0037103712
000030 87 be 05 3d 24 df 6f bd e8 b5 91 bc 87 ad 50 bd
       0.032652404 -0.058562413 -0.017786935 -0.05094674
000040 0f fd 70 3d 91 c2 85 bc 3d b4 8e 3d a2 71 e3 3c
       0.058835085 -0.016328128 0.069679715 0.027764145
000050 7f 16 f0 3c f5 6c 2d 3d 50 97 78 3d 07 26 1a 3d
       0.029307602 0.042340238 0.060691178 0.037633922
000060 7c 84 26 3d 7b 97 8a bd 81 30 66 bd fc f5 58 bd
       0.04065369 -0.06767174 -0.0561986 -0.052968964
000070 50 f3 3d 3d 14 43 81 3d b8 df 05 3d 33 06 b6 bc
       0.04637462 0.06311622 0.032684058 -0.022219753
000080 c3 1f 50 bd 0a f5 f5 3c cf 4f 1d bd bd f5 88 3d
       -0.05081154 0.03002407 -0.03840619 0.06687496
000090 b3 5a e0 bc 4b 60 96 3d bc df 3f bd d6 fd 59 bd
       -0.027386999 0.07342585 -0.04684423 -0.053220592
0000a0 46 91 6a 3d d1 95 89 bd 08 b7 cb bc 25 6e eb bb
       0.05726745 -0.06718028 -0.02486755 -0.007184761
0000b0 40 5f 6f bc 65 b3 58 bd 2d fc 2a 3d a1 d6 a3 3c
       -0.014610112 -0.05290546 0.0417444 0.019999804
0000c0 b2 91 89 bb e0 1c 11 bc 20 9c 13 3d 19 b6 4e 3c
       -0.0041982764 -0.008856982 0.036037564 0.012616658
0000d0 41 23 6b bd de 12 76 bc 2a db f7 bc df 3a 3d 3d
       -0.057406668 -0.015019147 -0.030255873 0.046198722
0000e0 81 0a 45 3d 3b a0 dd bc ee 65 0c 3d c3 0f b5 3c
       0.04810572 -0.027053943 0.034276895 0.022102242
0000f0 ab 61 e3 3b b1 06 6b 3d c0 5f 21 3c 33 55 5e bd
       0.006939133 0.05737943 0.009849489 -0.05428047
000100 70 e4 33 bd 58 ff 35 3c 77 5e 44 3d ec f8 3a bc
       -0.043919027 0.011108242 0.04794165 -0.011411887
000110 d5 9a a5 bd 09 8d b0 bb 0a e9 84 bd 67 bb 00 3d
       -0.080861725 -0.0053879065 -0.06489761 0.03142872
000120 3c 46 e6 3b 56 c3 79 bc a9 43 e3 3c 4d 09 1d bd
       0.0070274156 -0.015244326 0.027742224 -0.038338948
000130 25 1c 3a 3d da 43 a4 bd 8c 06 d1 bc 88 9d aa bc
       0.045436997 -0.08020754 -0.025515817 -0.02082707
000140 d8 a4 0d 3d a8 13 8d bd ce 6e 59 bd c6 d7 3b bd
       0.034581035 -0.06888515 -0.053084187 -0.045860074
000150 f1 b1 c7 bc 82 86 0e bd 5c ce c1 3c 36 f0 14 bd
       -0.024376841 -0.034796245 0.02365797 -0.036361896
000160 9f eb 54 bc 70 a6 83 bd af 88 b0 3d 8e f6 7a 3d
       -0.01299563 -0.0642823 0.0861982 0.06127029
000170 57 da 85 bd 65 d2 0a 3d 82 67 1e 3d 06 d4 d9 3c
       -0.06535786 0.033892054 0.03867293 0.026590358
000180 52 15 a0 3c 64 fc 19 bd c2 df 61 3d 89 0d 70 3d
       0.019541416 -0.037594214 0.055145033 0.058606658
000190 fc 09 0b 3d 0c 1f ed bc 4d 2e bb 3c 71 cc 5c 3b
       0.03394507 -0.028945468 0.022849226 0.0033691193
0001a0 91 8d 14 3d 0b ce 71 3d 4a d5 65 bd ee 48 03 3b
       0.03626782 0.05903439 -0.05611161 0.0020032483
0001b0 cb ea 19 3d a1 81 b3 3c 8b af 3b 3d 4f 81 d6 3c
       0.03757743 0.021912398 0.045821708 0.026184706
0001c0 23 c3 fa 3b 89 16 05 3d c7 ae 50 3d 00 c1 72 bd
       0.0076526566 0.032492194 0.05094793 -0.05926609
0001d0 71 5c 89 bd f9 53 b1 39 00 40 f5 3c 40 54 46 bd
       -0.06707085 0.00033822635 0.029937744 -0.04842019
0001e0 eb 37 16 3d 35 15 5e bd 7a 34 f4 bc 0d 4f d2 bc
       0.03667442 -0.054219443 -0.029810179 -0.02567246
0001f0 ad 3f 1e bd 8b 33 3e 3d 43 6b 4f bd a2 d9 a4 bc
       -0.038634945 0.046435874 -0.050639402 -0.020123307
000200 9f f9 97 3a 64 ad de 3c 0c 5a 91 3d e8 8d 5a 3d
       0.0011594779 0.027182288 0.07097253 0.05335799
000210 1e a6 94 3d ce 14 cb 3c c8 d8 aa 3c b3 8b 48 bd
       0.07258247 0.024790194 0.020855322 -0.048961353
000220 99 6d 6c 3d bc 47 55 3d b9 9e 50 3b 18 54 40 3c
       0.057721708 0.052070364 0.0031832887 0.0117387995
000230 35 24 16 bb 0f 56 aa bd 15 13 17 bd 41 a1 e2 3b
       -0.0022909765 -0.083171956 -0.036883432 0.0069161956
000240 1f 41 f7 bb e8 cc 65 3d 01 11 0b 3b b2 59 84 bd
       -0.007545605 0.056103617 0.0021219852 -0.064624205
000250 b5 c6 25 bd ef 4d 2f 3d 0d bc 04 bd 7d c7 95 3b
       -0.040472705 0.042798933 -0.0324059 0.0045709
000260 68 02 ad 3b 99 2b 8c bc 44 01 b7 bc e4 e2 c2 bc
       0.005279828 -0.017110633 -0.02233947 -0.02378983
000270 94 05 00 bd 06 02 d9 3a bd bf 5d 3d 1c e0 69 bd
       -0.03125532 0.0016556389 0.054137934 -0.057098493
000280 c8 0f 5b 3d e2 6a df bc e4 8a 48 3d 54 55 38 ba
       0.053481847 -0.027272645 0.04896058 -0.0007031758
000290 f3 50 e9 3c 07 44 3d 3c 4c 46 af 3c c9 03 7a bd
       0.028480982 0.0115518635 0.021395825 -0.061038766
0002a0 52 30 6b 3d e4 7c 3f 3d 6b 0e 5a 3d c4 2c a0 3a
       0.05741913 0.046749964 0.053236406 0.0012220372
0002b0 0a 8d 07 bc a0 e6 09 3c a1 a7 d8 bc 89 5e 47 3d
       -0.008273372 0.008416802 -0.02644712 0.04867414
0002c0 a3 0b 3f bd 92 e5 2f 3c ce 41 80 3d 83 0b 34 bd
       -0.046641957 0.010735886 0.06262551 -0.04395629
0002d0 61 fc 1e bd 1f 10 e4 bc 3f 96 4c bd 9c 9c ea ba
       -0.038814906 -0.027839718 -0.049947973 -0.0017899456
0002e0 2e da 88 bd a0 e6 a3 3c 49 01 b4 bc b0 4f 9d ba
       -0.066822395 0.020007432 -0.021973269 -0.0012001898
0002f0 02 8b 59 bd ea 0f 20 3d 61 9e ea bc a6 c6 2f bd
       -0.053111084 0.039077677 -0.028639974 -0.042914055
000300 65 da 74 bd 9b 36 80 bd de d7 2c bd f8 02 1d bd
       -0.05977859 -0.06260415 -0.042198054 -0.03833291
000310 be 47 5f bc 5d fa 73 3d 78 dc 2d 3d 0c e8 09 bd
       -0.0136279445 0.059564937 0.042446584 -0.033668563
000320 05 25 89 bd ac eb 1e bd dc d1 8a bc 23 08 59 3d
       -0.06696514 -0.038798973 -0.016945772 0.052986275
000330 69 ba 54 bc 98 91 07 bc 5d 79 a7 3d 55 6d 57 3d
       -0.012983897 -0.008274458 0.08177445 0.0525945
000340 10 79 8b 3d 5a ef ee bb 5d 2d f5 bc 07 67 a7 3c
       0.068102 -0.0072917165 -0.029928857 0.02043487
000350 f2 08 2b bd ad fb 8a bd c7 58 a7 3c 04 90 ce 3c
       -0.041756578 -0.067862846 0.020428075 0.025215156
000360 ce 45 b1 3c 15 74 45 3c 84 c3 f2 bb d0 2c 80 bd
       0.02163973 0.012051602 -0.007408561 -0.06258547
000370 7e 56 b5 bc ea 1e 6d 3d 62 56 87 3d 56 33 f8 bc
       -0.02213597 0.05789081 0.06608273 -0.030297916
000380 35 54 2b bc fc 1e a8 bc 9a 11 a6 3c ec 6a 75 bd
       -0.010457088 -0.020522587 0.020272065 -0.05991642
000390 79 4e 67 3d 64 58 88 bd 33 fa 82 bd e2 54 03 3d
       0.05647132 -0.06657484 -0.06395378 0.032063372
0003a0 16 38 98 bc ce e4 93 bd d4 d1 46 bd ab 59 17 3d
       -0.018581431 -0.072213754 -0.04853995 0.03695075
0003b0 32 12 0f bd 87 79 23 bd 77 1f 8b ba b3 5d 0e bd
       -0.03492946 -0.03991082 -0.0010614236 -0.034757327
0003c0 fe 13 34 3d da ce e0 3c ad 3c b9 bd 0e 08 32 bd
       0.04396438 0.027442385 -0.09044776 -0.043464713
0003d0 28 e1 32 3a 34 9b 41 3d fa d2 81 3d 5e d1 7a bc
       0.0006823712 0.047267154 0.06339069 -0.015308706
0003e0 bb ce 0c bd ae aa 08 bd 1c d5 63 bd 64 7c 14 bc
       -0.03437684 -0.033365898 -0.05562316 -0.00906286
0003f0 5c 41 e9 3b 15 c1 4b bd cd 60 b7 3c d2 97 05 bd
       0.007118387 -0.049744684 0.022385025 -0.03261549

encoder.blocks.0.temp2.conv.bias f4 [128]
000000 52 b5 be bc d2 12 4a bc 71 72 86 bd 6b ae 6d bd
       -0.02327982 -0.012333589 -0.06564797 -0.058027666
000010 4a 01 7d bc 5d bf d3 bd 58 01 15 3d ca 66 2c bc
       -0.015442202 -0.10339234 0.036378235 -0.010522554
000020 4f 57 0f 3d b9 b2 46 3d ad 03 5d 3c 73 14 ae 3c
       0.034995373 0.048510287 0.013489646 0.021249985
000030 ee a0 9f bc 2f e9 84 bd a6 48 ca bb ed f7 ce 3c
       -0.019485917 -0.06489789 -0.006173211 0.025264705
000040 40 cc 81 bd cf e9 bb bc 16 bb cc 3c 37 1f 68 3c
       -0.06337786 -0.022938637 0.024991553 0.014167598
000050 2a 4a 1f 3d b7 8b 5c bd 8e a9 43 bd 4b f1 85 3b
       0.038889088 -0.05384418 -0.04776912 0.0040876023
000060 01 8e da bb d5 6e 6e bd 11 29 c2 bc be 0c 3a 3c
       -0.00666976 -0.058211166 -0.023701223 0.011355577
000070 2e 31 44 3d 7c 05 9e 3d 65 73 31 3d 94 40 2f bd
       0.047898464 0.0771589 0.04332294 -0.042786196
000080 c9 a6 e3 bc 49 4d 18 3d b9 02 34 bd e9 d3 8a bd
       -0.02778949 0.03718308 -0.04394791 -0.067787
000090 65 9a 25 bd 42 28 58 bc c5 f2 9f 3d a3 4d 63 bd
       -0.040430445 -0.013193192 0.078099765 -0.055493962
0000a0 a2 b7 d3 3c da 18 48 3d 2a b4 ad bb aa b3 b5 bd
       0.025844399 0.048851825 -0.0053010182 -0.08872159
0000b0 0e 1a 9e bd 5b 4f 19 3d 09 00 44 bd 76 d1 50 bc
       -0.07719813 0.037429195 -0.047851596 -0.012745252
0000c0 f3 3c cd bd 1e 56 b3 3b b5 31 e5 bc 0c ca 5c 3d
       -0.10021391 0.0054729125 -0.027977804 0.053903624
0000d0 fc 11 62 3d 56 91 20 3d b0 1e d4 3c d7 54 58 bd
       0.055192932 0.039201103 0.02589354 -0.052815285
0000e0 d4 81 ad bc 09 c5 c4 3c cc 49 ef 3c 5e 2f 1c bc
       -0.021180071 0.024019735 0.029209994 -0.009532778
0000f0 ee 31 44 3d c0 7b e6 bb 6c ad d0 b9 53 85 f2 3c
       0.04789918 -0.007033795 -0.0003980206 0.02960459
000100 50 7a 62 bb 17 0f 43 ba 5a 35 de bb f6 86 17 bc
       -0.0034557767 -0.0007440908 -0.0067812623 -0.009248486
000110 4c 7c 15 bc f9 f3 76 bc a0 45 40 bc 7f 22 86 bc
       -0.009123873 -0.015072816 -0.01173535 -0.01637387
000120 7b af 7b bc f7 2b f5 bb d8 a8 0c bd f8 05 3c bc
       -0.015361662 -0.0074820477 -0.03434071 -0.011476032
000130 e9 5d 5c bb 55 ac 02 bc 47 78 89 bc 79 e1 57 bd
       -0.003362531 -0.0079756575 -0.016780986 -0.05270526
000140 9f dd 91 bc fe 37 3e bd 4f 18 f9 bc 40 f3 99 bb
       -0.017805872 -0.046440117 -0.030407099 -0.004698187
000150 39 c3 7d bb f7 7f 5f bc e8 cc 58 bc 86 e3 1b bc
       -0.0038721098 -0.013641349 -0.013232447 -0.009514695
000160 e4 d7 87 bb 41 6c b1 bc 22 c2 8a bc d6 32 24 bc
       -0.004145609 -0.021658065 -0.016938273 -0.010021886
000170 36 4b 93 bc 93 9f c6 bb 3f 5b 41 bc e6 3d d4 ba
       -0.0179802 -0.006061503 -0.01180154 -0.0016192764
000180 0d 5d 14 bb e6 e1 92 bc bc 93 ba bb 40 e5 30 bd
       -0.002263847 -0.017929982 -0.005693881 -0.04318738
000190 a4 ff ef bc a0 04 dd 39 db 92 ea bc 2d 51 31 bb
       -0.029296704 0.0004215585 -0.02863448 -0.0027056441
0001a0 75 0f 97 bc a4 eb 8e bd 41 39 0d bc 95 3a 90 bb
       -0.018439988 -0.06978539 -0.008619607 -0.004401515
0001b0 97 be d3 bc 30 8e 20 bc 7a 10 49 bc 55 42 66 bc
       -0.025847716 -0.009799525 -0.012271995 -0.014053901
0001c0 f3 6b 08 bd 6c 3e 72 bd 43 25 ab bc c5 4b 8e bc
       -0.033306073 -0.05914156 -0.020891791 -0.017370114
0001d0 df 73 2d bd 5e 01 35 bd 2b 57 16 bd 5d b6 fd bc
       -0.04234683 -0.044190757 -0.036704224 -0.030970747
0001e0 21 59 c1 bb 5b 7e 3b bc 3c 8e 9b bc 8d 9e d1 bb
       -0.0059005176 -0.0114437 -0.018988721 -0.0063970746
0001f0 dc 4c 8d bc 40 db 95 bc 93 11 9f bc 04 a0 97 3b
       -0.017248563 -0.018293023 -0.01941756 0.0046272296

encoder.blocks.0.bn.weight f4 [64]
000000 ab 00 6e 3f 82 b6 73 3f 66 33 67 3f b0 03 6f 3f
       0.9296977 0.9520036 0.903128 0.93365
000010 0f 07 70 3f 76 c1 71 3f 70 9c 72 3f fa 92 65 3f
       0.9376077 0.9443582 0.94769955 0.89677393
000020 3d 7e 6e 3f 52 00 75 3f a7 5e 76 3f 9f 56 69 3f
       0.93161374 0.95703614 0.9623818 0.911478
000030 6d 36 73 3f c7 bb 69 3f 98 06 7c 3f 13 0f 78 3f
       0.9500492 0.9130215 0.9844756 0.96898
000040 ea 64 6e 3f e4 f8 7e 3f b7 d6 74 3f 16 ce 70 3f
       0.9312273 0.99598527 0.9564013 0.9406446
000050 d7 18 6a 3f 5c 11 70 3f 72 14 74 3f ba 0f 72 3f
       0.9144415 0.9377649 0.953437 0.94555247
000060 7a 2c 73 3f 66 b9 75 3f ad 9a 72 3f 3c d6 6d 3f
       0.9498974 0.9598602 0.94767267 0.9290502
000070 4f 57 6c 3f 0f 9a 6a 3f bb c2 70 3f 88 de 71 3f
       0.9232072 0.91641325 0.94047135 0.9448018
000080 fc 90 6f 3f 40 91 71 3f c8 61 6a 3f 3c 51 7a 3f
       0.93580604 0.9436226 0.9155545 0.97780204
000090 b2 0d 6e 3f a0 19 73 3f 6f 9e 75 3f 2a 32 6c 3f
       0.9298965 0.94960976 0.95944875 0.92264044
0000a0 d7 91 77 3f d2 c8 7a 3f 4d 00 6f 3f fd 1f 74 3f
       0.9670691 0.9796268 0.93359834 0.9536131
0000b0 cf 7c 75 3f f1 1b 75 3f 4b 72 6f 3f 2b c9 6d 3f
       0.9589357 0.9574576 0.9353377 0.9288508
0000c0 9b 3c 76 3f 3c 24 76 3f ed 76 6c 3f 26 70 71 3f
       0.96186227 0.9614904 0.92368966 0.9431175
0000d0 33 2c 6e 3f cc c0 65 3f e2 a3 76 3f 40 1d 6e 3f
       0.9303619 0.8974731 0.96343815 0.9301338
0000e0 9c 17 64 3f cc 0f 71 3f fd 95 73 3f 36 05 69 3f
       0.89098525 0.9416473 0.9515074 0.91023576
0000f0 06 97 60 3f f1 17 74 3f e1 a8 72 3f ef e5 70 3f
       0.87730443 0.9534903 0.9478894 0.9410085

encoder.blocks.0.bn.bias f4 [64]
000000 ab a5 d8 bc e0 98 2d bd 0a 37 40 bb 0c c7 ff 3c
       -0.026446184 -0.04238212 -0.002932968 0.031222843
000010 40 b7 ec 3b a7 d1 2b 3d 12 63 e2 bc ac a5 a3 3b
       0.0072239935 0.041947987 -0.027635131 0.004994115
000020 e9 6e 69 3c dd 82 be 39 3b 1a 9a 3c 18 da 29 bc
       0.014247634 0.00036337125 0.018811336 -0.010366939
000030 ff 95 09 bc 52 5f 71 bc 3f 69 b3 bc f5 c4 fb 3b
       -0.008397578 -0.014732199 -0.021900771 0.007683391
000040 16 b2 8f 3c 91 e6 15 bd f7 d9 94 bc db d6 f8 3c
       0.017540973 -0.03659684 -0.01817034 0.030375889
000050 bb 94 29 bd de a2 cb 3c 03 f5 54 bc f3 8d cc bc
       -0.041401606 0.024857935 -0.0129978685 -0.02497003
000060 3a e8 81 3c 1a 13 a7 3c de 59 18 3b 33 e1 7d 3a
       0.015857805 0.02039485 0.0023246924 0.00096847414
000070 74 1a f0 3c ae 51 3b 3c 91 02 25 bc 34 da 9d 3c
       0.029309489 0.011433048 -0.010071413 0.019269086
000080 a5 7b fd 3a 54 bd 0b ba b7 b3 76 3a 09 f4 19 bc
       0.0019339217 -0.0005330641 0.0009410935 -0.009396561
000090 e7 c1 b8 3c cb 06 12 3d 8a 14 d5 3b 28 b2 09 3c
       0.022553397 0.03565101 0.0065026926 0.008404292
0000a0 7f bf a0 bc 70 dc 1d bc 2b f6 0c bc 24 9b 20 bc
       -0.019622562 -0.009635076 -0.008603613 -0.009802613
0000b0 c0 a6 19 3d c7 90 09 bd 36 2d 09 3d 60 33 0d 3c
       0.03751254 -0.033585336 0.033490382 0.008618206
0000c0 c8 9e 88 3b 68 ad c7 3b 5f be e1 bc 19 ca 39 3c
       0.004169319 0.0060936697 -0.027556596 0.011339688
0000d0 47 c2 df 3c 98 ce 7d bb 96 db 7f 3b 93 59 1b bc
       0.027314318 -0.0038727876 0.0039040796 -0.009481805
0000e0 0c de b2 3b a5 0c 65 3c 43 3d cd bc ce 39 9a 3b
       0.005458599 0.0139800655 -0.025053626 0.004706598
0000f0 54 dd e6 3b 43 5f 12 3d f0 a2 cb bc 0d 6e 10 3d
       0.0070454273 0.03573538 -0.024857968 0.035261203

encoder.blocks.0.bn.running_mean f4 [64]
000000 64 d1 ac bd 8c a4 9d bd 14 5c d3 bb 75 d7 51 3d
       -0.084383756 -0.076974005 -0.0064501856 0.051230866
000010 be a8 90 3c 74 c5 11 3d f5 c1 05 3d 63 26 99 3c
       0.017658588 0.035588697 0.032655675 0.018695062
000020 0d e4 2d 3d 3e 1d e5 3c 9a 23 64 3d 08 13 87 bc
       0.042453814 0.027968045 0.055698015 -0.016488567
000030 7e 65 6d bd 96 b2 1b bb 71 60 b1 bc c1 53 33 3c
       -0.05795812 -0.0023757569 -0.021652432 0.010945261
000040 6a 44 05 3c 6c 8b 09 3c 5a 35 e2 3b 49 10 15 3d
       0.008133987 0.008395057 0.0069033327 0.036392484
000050 4b ce 81 bd c6 65 96 3c 0d e2 b3 bd 5b 5a 88 bd
       -0.063381754 0.018359076 -0.0878335 -0.06657859
000060 f3 6b b5 3d b8 b4 4e 3d 9d 59 1f bc ae 0a b5 3d
       0.0885848 0.050465316 -0.009725955 0.088399276
000070 4f 9e 85 3c 19 a8 81 3b 35 38 8c bc 36 d1 cb 3c
       0.016310839 0.0039568064 -0.017116645 0.024880033
000080 56 af d8 3b e4 74 21 3c 0c 79 89 3c 53 67 36 bc
       0.0066126985 0.009854529 0.016781352 -0.011133033
000090 36 95 03 3c 9f a6 2a 3d 80 40 15 bc 3d 10 61 3d
       0.00803118 0.04166281 -0.009109616 0.054947127
0000a0 4c d8 18 bd ab 67 f6 ba 93 a0 1b bd b3 e6 d5 3b
       -0.03731565 -0.0018799206 -0.037994932 0.0065277456
0000b0 9a d3 d0 3b 96 df a7 bd 12 ef 75 3c 26 9c e3 3c
       0.006372881 -0.081969425 0.015010612 0.027784418
0000c0 b6 14 c1 3c 0f 67 36 3c 11 78 f5 bc 56 2d f4 bc
       0.023569446 0.0111329695 -0.029964479 -0.029806774
0000d0 39 53 89 3c 1b 70 5c bc b5 2c 5e bc 75 ce 89 bc
       0.016763316 -0.013454462 -0.013560464 -0.01682208
0000e0 40 a4 9d bd b3 28 42 3d 57 86 c4 3b 80 1a fe 3c
       -0.07697344 0.047402095 0.00599746 0.031018496
0000f0 f2 66 66 3d 4f 77 0e bc 8e 65 b7 bb 77 19 f7 3d
       0.05625052 -0.008695438 -0.005596823 0.12065404

encoder.blocks.0.bn.running_var f4 [64]
000000 1d 10 e6 3b b9 17 0a 3c 15 a1 56 3b 80 c3 33 3c
       0.007020964 0.0084285075 0.003274982 0.010971904
000010 50 62 ad 3b 29 16 57 3b 7d e9 ef 3b 26 9f b7 3b
       0.005291261 0.0032819605 0.007321535 0.005603689
000020 dd 8e db 3b 24 06 df 3b ea 3c fe 3b 8c ca 66 3b
       0.0067003802 0.006806152 0.0077587264 0.0035215942
000030 06 d2 e9 3b 3b e7 1d 3c ac 64 e8 3b 66 9f ee 3b
       0.0071356324 0.009637649 0.007092079 0.0072821854
000040 e6 6a c5 3b 65 c4 c4 3b 48 0e 6f 3b 0c 07 c4 3b
       0.006024706 0.0060048574 0.0036477018 0.0059822854
000050 ec 4b b5 3b 2e f4 00 3b ac a5 68 3c ba 32 f3 3b
       0.0055327322 0.0019676792 0.0141996555 0.0074218186
000060 bd 28 8e 3c 0d 42 d5 3b 65 d6 04 3c 80 15 01 3c
       0.01735341 0.006508118 0.008107756 0.007878661
000070 0c 8a e9 3b 15 b6 2e 3c 99 9e 8c 3b e4 75 48 3b
       0.007127052 0.010663529 0.0042913673 0.0030587846
000080 1e c1 83 3b 44 e1 9d 3b 18 87 e5 3b e9 27 b3 3b
       0.004020824 0.0048181135 0.00700463 0.005467404
000090 c8 c4 d6 3b 1c f7 eb 3b 34 bf 3e 3b 39 25 82 3c
       0.00655422 0.0072010886 0.0029105665 0.01588689
0000a0 83 18 ad 3b e4 6d 8c 3b de f9 6b 3b 48 de 5d 3b
       0.005282463 0.004285561 0.0036007087 0.0033854414
0000b0 ad 0b 8e 3b c0 78 a7 3b 83 80 4b 3b 37 4f 0b 3b
       0.004334888 0.00511083 0.003105194 0.0021256933
0000c0 45 c9 6a 3b a4 72 ea 3b b7 41 51 3c 48 ba 36 3c
       0.0035825532 0.0071547795 0.012772015 0.011152811
0000d0 db eb e6 3b 10 04 03 3c 92 24 e1 3b e5 67 ae 3b
       0.007047159 0.007996574 0.0068708146 0.005322444
0000e0 93 d2 0e 3c 90 86 06 3c 1b ac d1 3b 24 4b a3 3b
       0.008717197 0.008210793 0.0063986904 0.0049833227
0000f0 f9 f8 a1 3b 0c 67 aa 3b 8a 1e a1 3b 50 84 fe 3b
       0.00494301 0.0052002724 0.0049169706 0.0077672377
