artifacts/runs/20260210_161819_STGCN/best.pt (torch, 208234 bytes, 16 tensors)

blocks.0.temp1.conv.weight f4 [128, 6, 1, 3]
0.14963618 -0.1757278 -0.13587965 0.11144509 -0.06308139 0.104832925 -0.13229564 0.1263506
0.08566513 0.23288894 0.11818489 0.03665857 0.12991525 -0.16757306 0.0066555482 0.043108508
0.10977254 0.056893345 0.19875252 0.13698682 -0.033867367 0.01785206 0.05757373 0.09430359
-0.16487326 -0.13363735 0.102961935 -0.064850785 -0.013841383 0.009497352 0.05847641 0.12488063
0.07440723 -0.06677209 0.0704844 0.04270406 -0.17377256 -0.09972562 -0.00010184335 -0.150309
-0.14849652 0.0675882 0.010648349 0.10156962 0.05759057 -0.007965368 0.123604715 0.058782503
-0.10243217 -0.0070728804 -0.075083904 0.05310011 -0.1683755 -0.05902673 0.5154518 0.21633369
-0.25270095 -0.119802125 -0.07120652 -0.25850615 0.17175883 0.032675564 0.0071138125 -0.049194835
0.13627434 -0.052895337 0.1506175 -0.14589347 0.12004004 0.1332843 0.039364066 -0.11690927
-0.006590275 -0.03285855 0.018592952 -0.072293356 0.0023871893 0.051900737 -0.16608828 -0.050603192
-0.06836281 0.08990895 -0.023487536 0.08631826 0.02893058 -0.12837902 -0.04234892 0.095416605
0.052450497 -0.06230904 -0.32362196 0.0900448 0.002745862 -0.03650824 0.04326496 -0.12642454
0.058027208 0.128419 -0.014419444 0.09567429 -0.17659803 -0.0075239525 -0.09880221 -0.046628714
-0.034455314 -0.18539427 -0.1917212 0.11582311 0.4255144 0.1474514 -0.28912032 0.099904016
0.099085286 0.018663023 0.1446855 -0.14725043 0.13359793 0.17077674 0.24525116 0.054584593
0.072125666 -0.17715757 -0.078804746 0.16647616 -0.114392646 0.15257157 0.0054343706 0.21018772
0.29185683 -0.092894696 -0.17345978 -0.13930811 0.049786907 0.051937964 -0.120507605 -0.023316123
0.10656689 -0.101722844 -0.007960605 -0.04603248 -0.015711818 0.004420415 -0.0025690708 0.19053839
0.38478845 0.16478658 0.032049038 0.011065904 -0.10288565 0.047898084 0.04764093 -0.12347568
0.04401856 0.034630176 0.17598113 0.12199336 0.04421236 -0.13694018 -0.022842882 -0.10028287
0.059114777 -0.079602234 -0.0017651529 0.108355254 0.11172942 0.09720295 0.043587267 0.110668465
-0.07636301 -0.17336662 -0.092632696 0.025881689 0.038272943 -5.9280724e-06 0.15353835 0.049746078
-0.029945765 0.03853103 0.05002429 0.1594834 0.14058289 -0.18520145 -0.29447818 0.071736656
0.049062125 0.007185437 -0.036309347 0.00035206098 0.12790768 -0.06897039 -0.18345273 -0.17776997
0.077427946 0.053144738 0.007856492 -0.13109055 -0.052227903 0.07172677 -0.08207159 0.17587282
0.13493901 0.05892917 -0.01613468 0.05076829 0.12132765 0.1780303 0.016074367 0.15673697
0.10511347 0.20538403 0.12004189 -0.122578934 0.07813784 -0.018892411 -0.009105551 0.12988077
0.0660093 -0.17453606 -0.11004326 -0.025401132 0.15795636 0.06163813 0.0023931658 0.16297284
0.207293 0.09254218 0.017370129 0.08956138 0.08497401 0.15173215 0.015243821 -0.20585899
-0.20082125 0.07502196 -0.17016 -0.14724489 0.13803571 0.19452846 -0.03580263 0.08210067
0.14345336 0.18835677 0.12633254 0.025495563 0.12944908 -0.06357653 0.031933565 -0.0054046987
0.09731259 0.033564158 0.014867227 -0.08834744 -0.20289938 -0.2524262 -0.11221527 0.013693117
00000000: 3a3a 193e fdf1 33be 0924 0bbe 533d e43d
00000010: d130 81bd a5b2 d63d 8278 07be 0d62 013e
00000020: 3371 af3d 707a 6e3e eb0a f23d 4c27 163d
00000030: 8108 053e 4698 2bbe c916 da3b 8c92 303d
00000040: 6dd0 e03d ff08 693d c885 4b3e 4646 0c3e
00000050: 82b8 0abd 7c3e 923c 6ed2 6b3d 3e22 c13d
00000060: 89d4 28be 3bd8 08be b5dd d23d 7dd0 84bd
00000070: f8c6 62bc c89a 1b3c f684 6f3d 6ac1 ff3d
00000080: d162 983d cebf 88bd 205a 903d 74ea 2e3d
00000090: 6ff1 31be f23c ccbd bb94 d5b8 9aea 19be
000000a0: 790f 18be af6b 8a3d 6a76 2e3c bc03 d03d
000000b0: 17e4 6b3d 2d81 02bc 7824 fd3d ecc5 703d
000000c0: f5c7 d1bd 9fc3 e7bb 97c5 99bd 807f 593d
000000d0: a16a 2cbe 03c6 71bd a6f4 033f 9486 5d3e
000000e0: 0562 81be d15a f5bd b9d4 91bd eb5a 84be
000000f0: 8ce1 2f3e d0d6 053d fc1a e93b 8680 49bd
00000100: 808b 0b3e c8a8 58bd 793b 1a3e 1965 15be
00000110: 8dd7 f53d ae7b 083e 373c 213d 216e efbd
00000120: 3cf3 d7bb b096 06bd 3f50 983c 8a0e 94bd
00000130: 6472 1c3b de95 543d 0c13 2abe 4b45 4fbd
00000140: cd01 8cbd 2f22 b83d ef68 c0bc a1c7 b03d
00000150: d3ff ec3c ca75 03be 1076 2dbd c869 c33d
00000160: 55d6 563d c437 7fbd c7b1 a5be 6869 b83d
00000170: ebf3 333b aa89 15bd 9936 313d 6f75 01be
00000180: f0ad 6d3d 4580 033e 883f 6cbc e2f0 c33d
00000190: 1dd6 34be 7d8b f6bb d058 cabd c0fd 3ebd
000001a0: 0421 0dbd ffd7 3dbe 9052 44be ab34 ed3d
000001b0: 06dd d93e 80fd 163e 9407 94be 7a9a cc3d
000001c0: 3aed ca3d 32e3 983c 7028 143e d1c8 16be
000001d0: e5cd 083e 19e0 2e3e 1f23 7b3e 1894 5f3d
000001e0: 9fb6 933d cb68 35be 6264 a1bd ba78 2a3e
000001f0: b146 eabd b93b 1c3e ce12 b23b 733b 573e
00000200: 426e 953e 933f bebd 719f 31be c9a6 0ebe
00000210: 5bed 4b3d e7bc 543d b1cc f6bd 7401 bfbc
00000220: be3f da3d 1154 d0bd 336d 02bc 8e8c 3cbd
00000230: 12b6 80bc 21d9 903b db5d 28bb 7f1c 433e
00000240: fe02 c53e d0bd 283e da45 033d c44d 353c
00000250: b6b5 d2bd c830 443d 2323 433d d1e0 fcbd
00000260: ce4c 343d 5fd8 0d3d 6634 343e a8d7 f93d
00000270: 0518 353d 0c3a 0cbe ff20 bbbc 1b61 cdbd
00000280: 5622 723d 7f06 a3bd b45c e7ba 5ce9 dd3d
00000290: 65d2 e43d 5712 c73d 9088 323d 26a6 e23d
000002a0: 3664 9cbd 0587 31be 36b6 bdbd d605 d43c
000002b0: 17c4 1c3d c1e9 c6b6 2839 1d3e 8bc2 4b3d
000002c0: d250 f5bc b7d2 1d3d 45e6 4c3d 9e4f 233e
000002d0: f6f4 0f3e 73a5 3dbe d8c5 96be abea 923d
000002e0: 5ef5 483d d073 eb3b 1cb9 14bd d394 b839
000002f0: 3bfa 023e 5940 8dbd 08db 3bbe 5509 36be
00000300: 8b92 9e3d 4cae 593d 84b8 003c 9a3c 06be
00000310: edec 55bd 7ce5 923d 2615 a8bd 0118 343e
00000320: 742d 0a3e b75f 713d e02c 84bc 69f2 4f3d
00000330: a27a f83d 934d 363e 64ae 833c a87f 203e
00000340: bb45 d73d 3150 523e 86d8 f53d aa0a fbbd
00000350: bb06 a03d 42c4 9abc 732f 15bc 77ff 043e
00000360: e22f 873d 95b9 32be 5c5e e1bd 0916 d0bc
00000370: 50bf 213e 4478 7c3d a9d6 1c3b 5ae2 263e
00000380: 9e44 543e c186 bd3d cd4b 8e3c f56b b73d
00000390: db06 ae3d ac5f 1b3e 38c1 793c b3cc 52be
000003a0: 16a4 4dbe 1da5 993d 6c3e 2ebe 5dc7 16be
000003b0: 3c59 0d3e 7832 473e c7a5 12bd 6524 a83d
000003c0: 70e5 123e 99e0 403e 515d 013e 12dc d03c
000003d0: 4d8e 043e 6934 82bd c5cc 023d e619 b1bb
000003e0: d34b c73d 927a 093d ab95 733c 81ef b4bd
000003f0: dbc4 4fbe 023e 81be 1fd1 e5bd 1859 603c

blocks.0.temp1.conv.bias f4 [128]
-0.0046402747 0.04332669 0.025314428 -0.1186634 -0.03813924 -0.14537954 -0.024990398 0.18125731
-0.17111257 -0.23877399 -0.0027863593 0.19334218 -0.10359795 0.20100956 -0.06223729 -0.116274625
0.038974613 0.035545256 0.17348109 -0.17792295 0.1079032 0.19707868 -0.053895622 -0.12619339
0.17121172 -0.12869383 0.1060046 -0.14592949 -0.079606496 0.025029588 -0.012936394 0.19302039
-0.17173982 0.20886171 0.17964211 -0.26292956 -0.17547718 0.0062201926 0.15193246 -0.0010311865
-0.0011196156 0.15357792 0.06534673 -0.033146337 0.19854464 0.02713309 0.22138871 -0.08353426
-0.1304343 -0.14434493 -0.0022535939 0.18301232 0.2074098 -0.22678523 0.12252395 -0.12226777
-0.09765091 0.042010684 0.10149311 -0.124767214 0.08645527 -0.118736625 0.11144848 -0.018946996
0.10178042 0.12998036 -0.004570908 0.22192228 0.021769775 0.13726921 0.20226996 0.13343306
0.1457959 0.085283935 0.066881046 0.09079996 -0.037983816 0.026692262 -0.05176093 0.14206429
0.1043383 0.046081033 0.043614432 0.21182103 0.089266255 -0.059988525 -0.009341664 0.027792923
-0.06751683 0.05910159 0.08588485 0.0974677 0.110393584 0.013270852 0.025798874 0.15695128
0.067920685 0.013231697 0.12837987 0.074931405 -0.040822636 0.034737263 -0.045900065 0.020854989
0.053798 0.068654634 -0.08920378 0.0589003 0.060980234 0.089910105 0.13117138 -0.008589789
0.09419444 0.10642157 0.04927388 0.02332155 0.097329244 0.027757071 0.15616056 0.13778397
0.03184508 0.032896988 0.11474434 -0.0019225167 0.0666333 0.044735275 0.021102032 0.0039820937
00000000: 720d 98bb 5477 313d 3460 cf3c cc05 f3bd
00000010: e437 1cbd 60de 14be aab8 ccbc 849b 393e
00000020: 2238 2fbe 2b81 74be 5a9b 36bb 7efb 453e
00000030: 292b d4bd 73d5 4d3e 87ec 7ebd 6421 eebd
00000040: d8a3 1f3d e797 113d 07a5 313e 6f31 36be
00000050: 5afc dc3d fece 493e a8c1 5cbd d738 01be
00000060: 2052 2f3e 51c8 03be f118 d93d 8a6e 15be
00000070: bb08 a3bd da0a cd3c 2bf3 53bc 23a7 453e
00000080: 90dc 2fbe d8df 553e 1af4 373e b49e 86be
00000090: 4ab0 33be c2d2 cb3b 2f94 1b3e e128 87ba
000000a0: 11c0 92ba 8843 1d3e 82d4 853d 74c4 07bd
000000b0: 494f 4b3e 3746 de3c b9b3 623e 0314 abbd
000000c0: 9290 05be 28cf 13be 08b1 13bb 9567 3b3e
000000d0: 3c63 543e 633a 68be d6ed fa3d 8667 fabd
000000e0: 33fd c7bd 6513 2c3d 9fdb cf3d f485 ffbd
000000f0: 760f b13d 302c f3bd 1a3f e43d bb36 9bbc
00000100: 4172 d03d 9219 053e 8ec7 95bb 983f 633e
00000110: 8756 b23c 4d90 0c3e db1f 4f3e ada2 083e
00000120: 854b 153e 58a9 ae3d eef8 883d 54f5 b93d
00000130: eb94 1bbd bba9 da3c 4503 54bd 4d79 113e
00000140: 52af d53d 77bf 3c3d 0ca5 323d 9de7 583e
00000150: 3ad1 b63d 87b6 75bd c70d 19bc fcad e33c
00000160: 4446 8abd 8214 723d 65e4 af3d 259d c73d
00000170: 0816 e23d fd6d 593c 2958 d33c d6b7 203e
00000180: 001a 8b3d c2c9 583c 0376 033e a375 993d
00000190: a335 27bd a948 0e3d b501 3cbd 15d8 aa3c
000001a0: 4b5b 5c3d cd9a 8c3d 79b0 b6bd 7141 713d
000001b0: 69c6 793d ca22 b83d ca51 063e 30bc 0cbc
000001c0: 04e9 c03d 8df3 d93d 68d3 493d d60c bf3c
000001d0: 8e54 c73d cc62 e33c 8ee8 1f3e 3e17 0d3e
000001e0: fd6f 023d febe 063d 15ff ea3d f5fc fbba
000001f0: 0a77 883d 563c 373d 2bde ac3c 397c 823b

blocks.0.gconv.theta.weight f4 [16, 192, 1, 1]
-0.060477924 0.032242604 -0.043894913 0.20954816 -0.015365279 -0.04225215 0.06431619 0.10012932
0.07756573 -0.014485212 0.0004945992 -0.094827965 -0.066340804 -0.13609426 -0.035987884 -0.14968579
0.008419484 -0.033132765 0.042421456 0.14115745 -0.06769486 0.034263656 0.022114092 0.052965093
0.0834436 -0.06090034 -0.0023142865 0.018573398 0.060965654 -0.082463786 0.08157112 0.028163675
0.09226463 0.001535147 0.015697185 -0.055789564 -0.06829047 0.1098158 0.13631025 0.08260353
-0.16048722 -0.016118059 0.1350804 0.10505898 -0.06780971 0.030973574 -0.14249478 -0.021287858
0.08638412 0.00321789 0.035259612 0.0603347 -0.02456108 0.14504471 -0.067372635 -0.081272066
0.07709366 0.0011316485 0.047322825 -0.054251455 -0.009221493 0.0043300074 -0.020501278 -0.10694345
0.019235998 -0.073245525 -0.0070608156 -0.0701371 -0.031674758 0.034447916 0.023877103 -0.05047392
-0.13268363 -0.02973575 -0.022959776 0.055144746 0.010001799 0.11434178 0.036482256 0.024113918
0.017062593 0.060798462 -5.81268e-05 -0.05915734 -0.010354217 -0.03468576 -0.013397527 -0.05452483
-0.065827616 0.015790176 -0.025369478 -0.052952792 -0.05669303 0.077356294 -0.03212818 0.040674962
-0.07390113 -0.051843256 -0.010510286 0.047343742 -0.0236817 0.0036971413 -0.037214536 -0.09882665
0.093899235 0.011806981 -0.05077241 -0.07739338 -0.019964516 -0.015851084 0.05158767 0.057230785
-0.023605969 -0.027118228 -0.06527607 -0.03462611 0.020395497 -0.04089628 -0.0036355732 0.01248276
-0.061384343 0.08631005 -0.072457455 0.019911367 -0.009162797 0.006355193 0.041483432 0.03622778
-0.06607921 0.047550734 -0.035153765 -0.0005337216 -0.029797625 -0.056083303 -0.04401555 0.016631601
0.056529183 0.107914135 0.0045581358 -0.00059320766 0.02936366 -0.052007094 0.014126125 0.034237195
0.049711205 -0.032114606 -0.04623023 0.078177355 -0.0018342154 0.06960955 0.07208277 -0.047750674
0.04955267 0.030838272 0.02995803 -0.011933757 0.0563401 5.2534502e-05 -0.031405248 -0.06155966
0.034830544 -0.06261934 0.052840605 0.052228663 -0.021547168 0.045552265 0.026289087 0.034969382
0.023300672 -0.07120681 0.018503893 0.07088 -0.012970349 -0.011301813 -0.0044367244 -0.017250147
0.050434608 -0.04963425 -0.04383004 0.0035456165 -0.020807695 -0.00076085795 -0.011941407 0.06805368
-0.023083065 0.032512914 -0.032412972 -0.037870795 0.033522584 0.009371326 -0.025632111 -0.027545106
-0.0010825782 0.11534026 -0.0072039072 0.04079 -0.007974864 -0.07461872 0.055402253 -0.0002962425
0.12159918 0.021793855 -0.0011619075 0.07923787 0.11636669 -0.0064968527 -0.030073505 -0.09066758
0.0920261 -0.10140366 0.10723621 0.0022767466 -0.08253212 0.031579394 0.10790083 0.023320386
0.055077255 -0.116236106 0.04552152 0.108938485 0.07431901 -0.019744415 0.049304124 0.11277166
0.020102171 0.107275054 0.117409185 -0.06911784 -0.12806307 -3.793579e-05 0.04528679 -0.029173221
0.014539536 -0.12412834 0.048125178 -0.08627734 0.058926515 0.20469289 -0.025762286 0.0625706
0.060239717 -0.07364847 -0.03931594 0.0703098 0.13353322 -0.032352857 -0.029526616 0.19418637
0.027203828 -0.030031703 0.06939213 -0.010523156 -0.049305864 -0.0023776414 0.03917214 -0.027001124
00000000: b3b7 77bd d210 043d 27cb 33bd cb93 563e
00000010: a7be 7bbc 9710 2dbd 35b8 833d 9a10 cd3d
00000020: c8da 9e3d 6253 6dbc fea7 013a 2a35 c2bd
00000030: b0dd 87bd 4b5c 0bbe 0868 13bd 3b47 19be
00000040: e0f1 093c 39b6 07bd 1fc2 2d3d 948b 103e
00000050: 9aa3 8abd 0c58 0c3d 9d28 b53c edf1 583d
00000060: 7ae4 aa3d a372 79bd 49ab 17bb 3d27 983c
00000070: 1fb7 793d c6e2 a8bd c20e a73d 82b7 e63c
00000080: 3df5 bc3d fc36 c93a 6297 803c 9983 64bd
00000090: e0db 8bbd 1be7 e03d ea94 0b3e 0a2c a93d
000000a0: c356 24be 050a 84bc 8452 0a3e 2a29 d73d
000000b0: d1df 8abd 4bbc fd3c 27ea 11be e063 aebc
000000c0: 28ea b03d 3ce3 523b 626c 103d 8521 773d
000000d0: 5134 c9bc 9a86 143e aafa 89bd f871 a6bd
000000e0: 48e3 9d3d d353 943a 94d5 413d c636 5ebd
000000f0: bf15 17bc bce2 8d3b 4cf2 a7bc 2b05 dbbd
00000100: d094 9d3c c001 96bd 6a5e e7bb 0aa4 8fbd
00000110: 64bd 01bd 4219 0d3d ea99 c33c bebd 4ebd
00000120: 38de 07be 6398 f3bc 2416 bcbc 75df 613d
00000130: 96de 233c 062c ea3d 6b6e 153d 8d8a c53c
00000140: dac6 8b3c cf07 793d 2dcd 73b8 f84e 72bd
00000150: bca4 29bc a812 0ebd 4d81 5bbc 6e55 5fbd
00000160: a1d0 86bd 665a 813c a7d3 cfbc 07e5 58bd
00000170: f336 68bd fa6c 9e3d d798 03bd ca9a 263d
00000180: 7a59 97bd 9859 54bd 5633 2cbc 83eb 413d
00000190: 2000 c2bc bd4b 723b 456e 18bd a065 cabd
000001a0: 3e4e c03d 1172 413c bbf6 4fbd 6c80 9ebd
000001b0: a08c a3bc 22da 81bc 984d 533d d46a 6a3d
000001c0: 4e61 c1bc 0c27 debc 76af 85bd 1cd4 0dbd
000001d0: 7514 a73c dc82 27bd cc42 6ebb 7d84 4c3c
000001e0: 266e 7bbd 53c3 b03d 9364 94bd 2a1d a33c
000001f0: 8e1f 16bc 393f d03b 88ea 293d 9563 143d
00000200: 8954 87bd 8fc4 423d 65fd 0fbd 73e9 0bba
00000210: 261a f4bc 9bb7 65bd a649 34bd ff3e 883c
00000220: 258b 673d 1602 dd3d 6a5c 953b 7e81 1bba
00000230: 0f8c f03c 6405 55bd 4371 673c 4d3c 0c3d
00000240: fa9d 4b3d 9b8a 03bd e95b 3dbd 731b a03d
00000250: 0e6a f0ba 748f 8e3d 22a0 933d 3696 43bd
00000260: bef7 4a3d 8ba0 fc3c 8b6a f53c ce85 43bc
00000270: e0c4 663d 7e58 5c38 caa2 00bd fb25 7cbd
00000280: 79aa 0e3d 923e 80bd 646f 583d b9ed 553d
00000290: b083 b0bc 0395 3a3d 365c d73c 0e3c 0f3d
000002a0: 0de1 be3c e0d4 91bd 7a95 973c 8929 913d
000002b0: 9681 54bc 3d2b 39bc f161 91bb 2e50 8dbc
000002c0: 8594 4e3d 494d 4bbd 2187 33bd 935d 683b
000002d0: e674 aabc 5074 47ba e4a5 43bc ba5f 8b3d
000002e0: b218 bdbc 432c 053d 77c3 04bd 681e 1bbd
000002f0: fa4e 093d 318a 193c 6ffa d1bc 46a6 e1bc
00000300: 4ce5 8dba 8437 ec3d c10e ecbb 6a13 273d
00000310: 01a9 02bc b3d1 98bd 79ed 623d ff50 9bb9
00000320: fe08 f93d 0789 b23c 254b 98ba 7747 a23d
00000330: a951 ee3d 8de3 d4bb b65c f6bc edaf b9bd
00000340: 2e78 bc3d b9ac cfbd a89e db3d 7835 153b
00000350: 9a06 a9bd 6559 013d 1cfb dc3d 650a bf3c
00000360: b098 613d 320d eebd c674 3a3d 241b df3d
00000370: 9134 983d 0abf a1bc 1ff3 493d d4f4 e63d
00000380: 4fad a43c 06b3 db3d 3a74 f03d a78d 8dbd
00000390: f722 03be 3f1d 1fb8 a47e 393d aefc eebc
000003a0: 3c37 6e3c 0037 febd e81e 453d 2db2 b0bd
000003b0: ee5c 713d 039b 513e 6e0b d3bc 0425 803d
000003c0: ecbd 763d 02d5 96bd c009 21bd 96fe 8f3d
000003d0: efbc 083e 6e84 04bd cde1 f1bc cbd8 463e
000003e0: 90da de3c 0c05 f6bc 761d 8e3d 5169 2cbc
000003f0: f2f4 49bd 34d2 1bbb f772 203d 7631 ddbc

blocks.0.gconv.theta.bias f4 [16]
-0.041703697 0.055306323 -0.047896955 0.042751826 0.03344265 0.004895906 0.055018835 0.051639024
0.018995404 0.03983822 0.022370383 0.019879466 0.026734922 0.03699814 0.020941138 0.0087705385
00000000: 7fd1 2abd e288 623d 992f 44bd 8a1c 2f3d
00000010: 29fb 083d d66d a03b 6e5b 613d 7183 533d
00000020: 409c 9b3c 672d 233d 1842 b73c 43da a23c
00000030: 3203 db3c 5d8b 173d c08c ab3c 4eb2 0f3c

blocks.0.temp2.conv.weight f4 [128, 16, 1, 3]
0.010102411 -0.16081086 -0.12945804 -0.077867016 0.007296046 -0.059465222 0.003829159 -0.04832061
-0.18508014 0.012515144 -0.09277052 -0.060931362 -0.1607917 -0.14409293 0.020943454 -0.06443348
-0.052911602 -0.017010722 -0.037867744 -0.015674219 0.11852099 0.051194474 0.030743532 -0.123194635
-0.15995383 0.008151989 -0.07439269 0.065400496 0.10956225 0.12203994 0.026834382 0.019902762
0.011939406 0.19474934 -0.02218011 0.13993762 -0.025182195 0.14264943 0.053528547 -0.040790327
0.15896508 -0.057308447 -0.021650326 0.04792233 0.14627007 -0.104607224 0.06450507 0.09359077
0.08052644 0.052849878 -0.03154833 0.0073123914 -0.16414057 -0.093843944 0.00815937 0.07627705
0.023832256 -0.046523295 -0.048664674 -0.038046416 0.10408939 0.043525234 -0.07900664 0.03702978
-0.045872133 0.014732727 0.027454816 0.073537074 -0.009410435 -0.0875183 -0.050888304 0.017411333
-0.0059266696 0.039044797 -0.0417423 0.15441409 0.022296065 0.08082221 0.033482816 0.01179079
0.01737412 0.098869815 0.0015078365 0.038786035 -0.10797599 0.055943675 -0.0139759565 0.006546551
-0.047500923 -0.09674089 0.057713274 0.012912697 -0.075162865 0.03254083 0.107535355 -0.056449417
-0.031504564 0.019110823 -0.0023698064 0.018028833 0.07839484 -0.06054477 -0.010008719 -0.023642302
0.05928717 -0.010520489 0.048283238 -0.07334595 -0.037847295 0.044198003 -0.07298685 -0.090663135
-0.12108596 -0.016381795 0.056990273 0.112355925 0.12907438 -0.076596364 -0.058947816 -0.110800914
0.091887146 -0.013417811 0.035505217 -0.0763497 0.010907847 0.06039772 -0.043341734 -0.088771746
-0.0005822666 0.103199005 -0.015351106 -0.011515239 -0.05842214 -0.06830909 0.046734996 -0.015520742
-0.01994271 -0.075604424 -0.0037079947 -0.036918934 -0.015143736 0.13561115 0.014173499 0.012396679
-0.11631828 -0.006113984 -0.041748956 -0.11488103 -0.07409053 -0.02153327 -0.06980482 0.07407682
0.06482535 0.1483824 0.0108122695 -0.015654162 -0.11441001 0.0347038 0.041408047 -0.1826777
-0.053471003 -0.048770502 -0.12189907 -0.104945965 -0.091778144 0.03138532 0.034703724 -0.05762886
0.1748753 0.058175895 0.0005411427 -0.01232892 -0.014117408 -0.088255584 0.11099101 -0.07163662
-0.008074999 0.022393558 0.073797286 -0.05479771 -0.057669513 0.11015052 0.05088418 -0.059150107
-0.05007363 0.050432093 -0.072872765 0.024782768 -0.073680915 0.01936494 0.0039998125 0.009426606
0.08300779 0.017906593 -0.11634258 0.07379047 -0.03651593 0.048018385 -0.41612345 -0.3421609
-0.3435587 -0.26399785 -0.022450188 -0.08851802 -0.058390155 -0.05960219 -0.031327356 0.15850054
-0.1032834 -0.04801726 0.020180237 0.07762439 -0.041865636 -0.17516759 -0.0457396 -0.10051676
0.009696158 0.16507447 0.07851508 -0.071617454 0.09970923 -0.07677352 0.07364124 0.026514472
0.06247205 0.07019818 -0.055511314 -0.03550518 0.10179721 -0.013409864 0.016630175 0.07056853
0.04299019 -0.087009646 0.07501608 0.020531373 0.07407224 -0.12279267 -0.02092709 -0.0021209668
-0.020408813 0.026515499 0.0897033 0.17468911 0.1416308 0.01111923 0.052402444 0.05490177
-0.05184104 -0.13893355 -0.047391564 0.019786516 -0.10895515 0.008786658 -0.028025573 0.012850215
00000000: 9584 253c 9aab 24be a690 04be be78 9fbd
00000010: ab13 ef3b ce91 73bd a1f2 7a3b d5eb 45bd
00000020: a685 3dbe 520c 4d3c 78fe bdbd 2a93 79bd
00000030: 94a6 24be 198d 13be 9b91 ab3c b3f5 83bd
00000040: d6b9 58bd 125a 8bbc 351b 1bbd 3867 80bc
00000050: 22bb f23d 4cb1 513d dcd9 fb3c 784d fcbd
00000060: f0ca 23be ec8f 053c 325b 98bd b2f0 853d
00000070: 2c62 e03d 13f0 f93d c7d3 db3c 1e0b a33c
00000080: 809d 433c 5f6c 473e 10b3 b5bc cf4b 0f3e
00000090: e44a cebc b112 123e c040 5b3d c213 27bd
000000a0: bec7 223e 43bc 6abd 065c b1bc 354a 443d
000000b0: d2c7 153e 503c d6bd 3c1b 843d 85ac bf3d
000000c0: 0ceb a43d 1d79 583d d238 01bd c99c ef3b
000000d0: 7714 28be 4131 c0bd e1ae 053c 2437 9c3d
000000e0: dd3b c33c 368f 3ebd 9c54 47bd 8fd6 1bbd
000000f0: d12c d53d 8447 323d 3cce a1bd 8aac 173d
00000100: 6be4 3bbd 8961 713c ece8 e03c 9b9a 963d
00000110: 3a2e 1abc cb3c b3bd 4170 50bd 36a2 8e3c
00000120: 8234 c2bb 70ed 1f3d f9f9 2abd ba1e 1e3e
00000130: 3da6 b63c 1d86 a53d 4725 093d 282e 413c
00000140: 2c54 8e3c 427c ca3d 99a2 c53a 1bde 1e3d
00000150: 8422 ddbd 3225 653d 69fb 64bc 7384 d63b
00000160: 5490 42bd 1620 c6bd c164 6c3d c78f 533c
00000170: fdee 99bd 8949 053d 7f3b dc3d 8137 67bd
00000180: ee0a 01bd 4d8e 9c3c c14e 1bbb 34b1 933c
00000190: 798d a03d cbfd 77bd 9cfb 23bc 80ad c1bc
000001a0: 1bd7 723d 215e 2cbc a5c4 453d 6736 96bd
000001b0: c405 1bbd f708 353d 217a 95bd 98ad b9bd
000001c0: eafb f7bd 1d33 86bc a26e 693d dd1a e63d
000001d0: 132c 043e 8ede 9cbd 4473 71bd 97eb e2bd
000001e0: 542f bc3d 61d6 5bbc eb6d 113d 3b5d 9cbd
000001f0: d4b6 323c 9a63 773d 1a87 31bd f6cd b5bd
00000200: 40a3 18ba 005a d33d 3583 7bbc 6aaa 3cbc
00000210: 0e4c 6fbd a3e5 8bbd 326d 3f3d b64a 7ebc
00000220: e55e a3bc 7ed6 9abd d401 73bb 4f38 17bd
00000230: 6f1d 78bc a6dd 0a3e f737 683c 711b 4b3c
00000240: 4738 eebd d157 c8bb f400 2bbd bf46 ebbd
00000250: c7bc 97bd 8a66 b0bc d4f5 8ebd 96b5 973d
00000260: 27c3 843d 8ef1 173e f225 313c 283d 80bc
00000270: cc4f eabd 9225 0e3d 7c9b 293d dd0f 3bbe
00000280: 6904 5bbd 94c3 47bd 38a6 f9bd e9ed d6bd
00000290: 2ef6 bbbd e58d 003d 7e25 0e3d 3d0c 6cbd
000002a0: 8312 333e d949 6e3d 79db 0d3a 3dff 49bc
000002b0: b34c 67bc 58bf b4bd 414f e33d 38b6 92bd
000002c0: 004d 04bc b272 b73c 0823 973d 9073 60bd
000002d0: de36 6cbd 9996 e13d ee6b 503d 6247 72bd
000002e0: 021a 4dbd e291 4e3d 513e 95bd 3b05 cb3c
000002f0: 05e6 96bd 39a3 9e3c dc10 833b 0d72 1a3c
00000300: fdff a93d d9b0 923c 0545 eebd 751f 973d
00000310: ba91 15bd edae 443d 220e d5be b72f afbe
00000320: ede6 afbe ba2a 87be 75e9 b7bc f048 b5bd
00000330: 842a 6fbd 6d21 74bd 1d51 00bd f74d 223e
00000340: 3f86 d3bd bfad 44bd 0651 a53c 89f9 9e3d
00000350: 4d7b 2bbd 225f 33be 7259 3bbd bbdb cdbd
00000360: a2dc 1e3c 4809 293e 84cc a03d 2cac 92bd
00000370: 5a34 cc3d 6f3b 9dbd 38d1 963d e134 d93c
00000380: b1e2 7f3d 10c4 8f3d d55f 63bd e16d 11bd
00000390: 0e7b d03d 0cb5 5bbc 013c 883c 3c86 903d
000003a0: 7b16 303d 1d32 b2bd 08a2 993d 6931 a83c
000003b0: 30b3 973d b97a fbbd 4a6f abbc ebff 0abb
000003c0: 6230 a7bc 0837 d93c 5db6 b73d b4e1 323e
000003d0: aa07 113e 6e2d 363c f2a3 563d aee0 603d
000003e0: 4557 54bd 9944 0ebe a81d 42bd 5517 a23c
000003f0: e123 dfbd eaf5 0f3c e395 e5bc b589 523c

blocks.0.temp2.conv.bias f4 [128]
-0.03392734 -0.072914615 -0.08459051 0.032064077 0.05871993 0.0563098 -0.08797139 -0.0979315
-0.028135158 -0.03017585 -0.11627405 5.4021253e-05 -0.09189416 0.08303474 0.01336532 -0.06991426
0.005595933 0.088492215 0.0127890725 -0.008320031 0.050915062 0.0007833651 0.08046737 -0.0744571
0.06960606 0.10346201 0.08274322 0.042825345 0.018480103 -0.033854943 -0.08863267 -0.09316031
0.005776647 -0.09456144 -0.011502591 0.07561784 0.07003979 0.0515479 0.13463923 0.0030694394
0.013163724 0.02603788 -0.081311256 -0.0083035715 0.092568405 0.11914257 0.06496658 0.107163176
0.12187255 0.101314984 0.057280894 0.067543894 0.063409515 -0.002165791 0.14218564 -0.107006595
-0.15087111 0.08175857 0.074958555 0.035521716 0.15089056 0.0892105 0.10842081 -0.08300015
0.07074587 0.033503786 -0.037990276 0.012702631 0.07777994 0.01207016 0.08664441 0.0773476
0.0760468 0.011198259 0.010494752 0.0640231 0.08445958 -0.019141734 -0.037139557 0.04956569
0.016132373 -0.07442988 -0.050924696 0.08495597 0.059785567 0.011593493 0.021304285 0.040458016
-0.030370964 0.0375499 0.005407372 0.035987444 0.0066848723 -0.0024668286 0.064776875 -0.0074894996
0.07149857 0.050305955 0.018206395 0.013105746 0.012135978 0.07243556 0.11898058 -0.015923172
0.06707588 0.015929766 0.0373805 0.10521714 0.0588011 0.20151615 0.04353913 0.090361424
0.081928656 -0.0067459913 -0.04041846 0.031383984 0.10744933 0.014353112 -0.021609718 0.046191912
0.06261112 -0.05358711 0.02854757 -0.014364255 -0.0045030382 0.073046856 0.02304266 0.069543235
00000000: 65f7 0abd 4254 95bd ca3d adbd 9f55 033d
00000010: 4f84 703d 1ba5 663d 582a b4bd 4f90 c8bd
00000020: b47b e6bc 5833 f7bc 1721 eebd e194 6238
00000030: 0133 bcbd 1e0e aa3d 37fa 5a3c 352f 8fbd
00000040: 175e b73b 683b b53d 4289 513c bd50 08bc
00000050: 508c 503d be5a 4d3a 14cc a43d f77c 98bd
00000060: 9f8d 8e3d e4e3 d33d 4775 a93d a169 2f3d
00000070: 9663 973c 7bab 0abd 0c85 b5bd d5ca bebd
00000080: 074a bd3b 6ea9 c1bd 5d75 3cbc 87dd 9a3d
00000090: 0571 8f3d e423 533d dede 093e a628 493b
000000a0: a9ac 573c 644d d53c 8486 a6bd b40b 08bc
000000b0: 8194 bd3d 0501 f43d 330d 853d 5e78 db3d
000000c0: 5198 f93d 3b7e cf3d 5f9f 6a3d 7454 8a3d
000000d0: d9dc 813d f2ef 0dbb 1d99 113e 4626 dbbd
000000e0: f57d 1abe 0a71 a73d df83 993d 387f 113d
000000f0: 0e83 1a3e ffb3 b63d bb0b de3d fcfb a9bd
00000100: 36e3 903d 443b 093d b19b 1bbd b21e 503c
00000110: 174b 9f3d ecc1 453c a072 b13d 6b68 9e3d
00000120: 6dbe 9b3d e778 373c 2ef2 2b3c 8b1e 833d
00000130: 25f9 ac3d 20cf 9cbc a61f 18bd 6505 4b3d
00000140: 0a28 843c b16e 98bd 6a96 50bd 65fd ad3d
00000150: b6e1 743d a2f2 3d3c 5386 ae3c 4eb7 253d
00000160: 87cc f8bc edcd 193d 5330 b13b 9267 133d
00000170: c60c db3b 84aa 21bb bda9 843d 7a6a f5bb
00000180: d86d 923d 9e0d 4e3d 9425 953c 7cb9 563c
00000190: fbd5 463c 1859 943d 17ac f33d 5071 82bc
000001a0: 145f 893d 247f 823c 4c1c 193d 157c d73d
000001b0: 6cd9 703d 405a 4e3e 1656 323d 690f b93d
000001c0: 36ca a73d 7a0d ddbb d48d 25bd 7e8c 003d
000001d0: 650e dc3d 5129 6b3c dd06 b1bc bb33 3d3d
000001e0: 423a 803d 287e 5bbd 98dc e93c 0d58 6bbc
000001f0: 398e 93bb 9799 953d f6c3 bc3c af6c 8e3d

blocks.0.res.weight f4 [64, 6, 1, 1]
0.33606836 0.12366735 -0.021716272 -0.28688297 0.13274243 -0.057436593 -0.33723634 0.16283973
-0.38788587 0.13859257 -0.0036121141 -0.040596444 0.092132546 0.06595048 -0.118762136 -0.32492995
-0.28521347 -0.101246156 -0.15556495 -0.11281389 0.21533307 -0.31690505 0.092858784 0.072548136
0.046359625 0.19078104 -0.23754632 0.0872684 0.032677833 -0.20340985 -0.34010878 0.008189098
-0.28507465 -0.098881066 -0.113515005 0.15115848 -0.23166679 -0.07555436 -0.25845775 0.21690589
-0.23567432 -0.3962804 -0.20775358 0.034686416 0.02278992 0.2137173 -0.27933013 0.07951223
0.04231423 0.05791553 0.37240815 0.26278856 -0.1939221 -0.25662896 -0.38050032 -0.0009487115
-0.29424056 -0.10098559 -0.2538125 -0.22291368 0.18079378 -0.10093507 -0.28224412 0.022031635
0.35704744 -0.41197285 0.16595984 -0.087412044 -0.3581817 0.40831 0.11680554 0.07104321
-0.25833675 -0.2400757 0.34143233 0.34726468 -0.032258086 0.12956943 -0.063355684 0.07889437
0.17751905 -0.33478555 0.033299603 0.12861556 0.28915417 0.012525918 -0.3345886 -0.14906879
-0.05052022 0.33870953 0.10402743 -0.06811113 -0.108758144 -0.04660275 -0.045146994 -0.38303247
-0.301427 0.021786803 -0.14767663 0.27325675 0.19679867 0.22014171 0.3423763 0.07189513
0.18930049 -0.245638 -0.044705406 -0.14372754 -0.053342465 0.17249188 -0.24470492 -0.4209763
0.16015853 0.4224199 0.36461267 -0.0159805 -0.3700382 0.27655062 0.0128292795 -0.29822478
-0.039588504 -0.10756174 0.03896799 0.109490074 0.23821792 -0.34416816 -0.149994 0.1271385
-0.12542245 -0.0647475 0.06120638 -0.24562386 -0.18479833 0.20863073 0.29208955 -0.37808856
-0.29061994 -0.13681863 -0.13414545 0.08344244 0.36189398 -0.0296879 -0.17156297 0.14394228
0.34245902 0.22996959 0.35016164 0.24751441 0.046909913 0.2300281 0.34818986 -0.05300533
0.042738315 -0.29672658 -0.3704423 -0.10317188 0.25670636 -0.019031186 0.06596913 0.082666874
-0.016487958 0.1938386 -0.10382403 -0.0064228047 0.0015129409 -0.2904401 0.025327906 0.14704962
-0.42108056 -0.03569582 0.057843678 0.12962824 0.18088458 0.25241375 -0.016416758 -0.11865522
-0.00057730154 0.1019021 0.06416347 0.04550924 -0.3209069 -0.050852217 0.062294297 0.25533754
-0.24440813 0.16276069 0.1234873 -0.10608828 -0.35346362 -0.09373969 -0.2600846 -0.10600132
-0.36734286 -0.020651117 -0.06533282 0.06515679 -0.017290456 0.08158336 -0.35632175 -0.06966972
0.05821199 0.3695606 0.09211718 0.12328953 -0.012223908 0.13274625 0.24379809 0.2870883
0.013983699 0.30813283 -0.4339358 0.29105926 -0.34802985 0.20925154 0.013708065 -0.118242726
-0.02506542 0.21036243 -0.057529863 -0.11238913 0.19108823 -0.29842445 -0.29272455 -0.10369212
0.22056636 0.24402228 -0.03679166 0.08967656 0.30896986 0.11374966 -0.34391323 0.19653182
-0.102811344 0.10958794 -0.19418539 -0.033188455 -0.2902518 0.22518504 0.13906375 0.30186445
-0.122514956 -0.12245507 0.23718484 -0.1637651 0.22689877 -0.17655997 -0.1249432 0.03754145
-0.23347953 0.3643007 0.19784218 -0.37241054 -0.1638723 0.18781239 0.3677445 0.18600744
00000000: 2711 ac3e 4f45 fd3d 53e6 b1bc 53e2 92be
00000010: a2ed 073e a242 6bbd 3eaa acbe 75bf 263e
00000020: fa98 c6be 36eb 0d3e 38b9 6cbb 7548 26bd
00000030: fdaf bc3d 0c11 873d 9039 f3bd 385d a6be
00000040: 8007 92be 255a cfbd 6b4c 1fbe f80a e7bd
00000050: 4680 5c3e 6141 a2be bf2c be3d 1e94 943d
00000060: 97e3 3d3d 1b5c 433e 583f 73be c6b9 b23d
00000070: 31d9 053d ac4a 50be bd22 aebe 912b 063c
00000080: 4ef5 91be 2882 cabd 8e7a e8bd 4ac9 1a3e
00000090: 0f3a 6dbe 3fbc 9abd 9354 84be 941c 5e3e
000000a0: 9c54 71be 44e5 cabe 5bbd 54be 5813 0e3d
000000b0: edb1 ba3c b5d8 5a3e 5c04 8fbe 4fd7 a23d
000000c0: b051 2d3d d638 6d3d 48ac be3e 398c 863e
000000d0: 8493 46be df64 83be f0d0 c2be f3b2 78ba
000000e0: b3a6 96be 88d1 cebd b6f3 81be 7c43 64be
000000f0: 0122 393e 0cb7 cebd 4d82 90be b07b b43c
00000100: ecce b63e 1bee d2be 60f1 293e 1605 b3bd
00000110: 9763 b7be 020e d13e be37 ef3d 1a7f 913d
00000120: b744 84be 68d6 75be 38d0 ae3e adcc b13e
00000130: 0e21 04bd d9ad 043e a0c0 81bd 5f93 a13d
00000140: 8ec7 353e 0369 abbe 2a65 083d ccb3 033e
00000150: 040c 943e 8239 4d3c 324f abbe 7da5 18be
00000160: 4aee 4ebd 566b ad3e 550c d53d d97d 8bbd
00000170: 97bc debd 86e2 3ebd 0eec 38bd d51c c4be
00000180: a454 9abe 3d7a b23c 8b38 17be 4fe8 8b3e
00000190: 9785 493e d46c 613e f24b af3e c13d 933d
000001a0: fdd7 413e 8788 7bbe 041d 37bd 502d 13be
000001b0: a17d 5abd b6a1 303e ed93 7abe 358a d7be
000001c0: 9900 243e 6c47 d83e 83ae ba3e 8ae9 82bc
000001d0: a675 bdbe 0b98 8d3e e631 523c ebb0 98be
000001e0: 8e27 22bd 5449 dcbd e69c 1f3d 553c e03d
000001f0: 66ef 733e cf36 b0be 0798 19be 9830 023e
00000200: be6e 00be 569a 84bd 8bb3 7a3d d284 7bbe
00000210: c63b 3dbe 4ba3 553e c38c 953e d394 c1be
00000220: 23cc 94be 2f1a 0cbe 6d5d 09be dfe3 aa3d
00000230: 2b4a b93e 0a34 f3bc 34ae 2fbe 9b65 133e
00000240: ca56 af3e 267d 6b3e 6348 b33e 6b74 7d3e
00000250: 9c24 403d 7c8c 6b3e f145 b23e 1e1c 59bd
00000260: 5f0e 2f3d 8cec 97be 9daa bdbe c74b d3bd
00000270: 046f 833e 4ae7 9bbc d31a 873d 404d a93d
00000280: c111 87bc a07d 463e b1a1 d4bd 6476 d2bb
00000290: df4d c63a 91b4 94be 787c cf3c 2d94 163e
000002a0: df97 d7be c835 12bd 7eed 6c3d 44bd 043e
000002b0: cf39 393e 603c 813e 707c 86bc 8201 f3bd
000002c0: 0d56 17ba 0cb2 d03d 2368 833d e667 3a3d
000002d0: e94d a4be 6a4a 50bd 4e28 7f3d 9abb 823e
000002e0: 2046 7abe bdaa 263e e9e6 fc3d d044 d9bd
000002f0: 2ff9 b4be 98fa bfbd cf29 85be 3817 d9bd
00000300: 5d14 bcbe 882c a9bc 37cd 85bd ec70 853d
00000310: b7a4 8dbc 2d15 a73d ce6f b6be 00af 8ebd
00000320: b26f 6e3d 0c37 bd3e efa7 bc3d 397f fc3d
00000330: c946 48bc a2ee 073e 35a6 793e 3dfd 923e
00000340: e21b 653c 96c3 9d3e d52c debe b805 953e
00000350: f830 b2be 0946 563e cb97 603c 3e29 f2bd
00000360: ff55 cdbc 4069 573e 6fa4 6bbd 462c e6bd
00000370: a2ac 433e 17cb 98be fedf 95be 895c d4bd
00000380: 26dc 613e fae0 793e dab2 16bd 58a8 b73d
00000390: 4c31 9e3e 95f5 e83d 6515 b0be a33f 493e
000003a0: c18e d2bd a46f e03d 89d8 46be 9ef0 07bd
000003b0: e29b 94be e896 663e ba66 0e3e fa8d 9a3e
000003c0: 1fe9 fabd b9c9 fabd 95e0 723e 0ab2 27be
000003d0: 2758 683e 23cc 34be 38e2 ffbd 10c5 193d
000003e0: 4215 6fbe 9f85 ba3e 2497 4a3e 98ac bebe
000003f0: 24ce 27be e451 403e 0249 bc3e bc78 3e3e

blocks.0.res.bias f4 [64]
0.25573483 0.27133533 0.21573786 0.16597725 0.12143155 0.2727674 -0.024077771 0.110787846
0.028757006 -0.08749768 0.32652852 0.16487277 0.14305657 -0.30187863 0.27545604 0.04826247
-0.03169084 -0.08026675 -0.090996064 -0.08331493 0.17736764 0.010588121 -0.10955707 0.31998688
-0.34779269 -0.018614337 0.20547852 -0.2494272 -0.28955022 -0.21120109 -0.028350607 0.09575034
0.14345 -0.044836238 0.018369993 -0.33415788 -0.08030573 0.070654295 -0.21377161 0.31761438
0.35583082 -0.053492073 0.18425718 -0.047250725 -0.13551746 -0.24023353 0.3033015 0.023608211
0.22596584 -0.019284396 -0.18375595 0.15380037 0.3387649 -0.14643502 -0.0032531745 0.015366318
0.08198587 0.25345656 0.04459069 0.27649894 -0.23014416 0.02991307 -0.20019574 0.3146445
00000000: adef 823e 77ec 8a3e 63ea 5c3e f1f5 293e
00000010: 1bb1 f83d 2ba8 8b3e bf3e c5bc bde4 e23d
00000020: d093 eb3c fc31 b3bd bf2e a73e 68d4 283e
00000030: 6c7d 123e d68f 9abe 9308 8d3e deae 453d
00000040: 41ce 01bd e562 a4bd 255c babd 05a1 aabd
00000050: dd9f 353e cc79 2d3c 755f e0bd 52d5 a33e
00000060: e211 b2be 187d 98bc f668 523e d869 7fbe
00000070: ed3f 94be 1945 58be 883f e8bc c118 c43d
00000080: 8fe4 123e 34a6 37bd ab7c 963c be16 abbe
00000090: 5577 a4bd 33b3 903d f2e6 5abe 5a9e a23e
000000a0: 752f b63e 811a 5bbd eaad 3c3e fa89 41bd
000000b0: 17c5 0abe c7ff 75be 564a 9b3e 0266 c13c
000000c0: 9763 673e 4ffa 9dbc 852a 3cbe d87d 1d3e
000000d0: 9872 ad3e 10f3 15be 3633 55bb 02c3 7b3c
000000e0: 35e8 a73d 0fc5 813e baa4 363d 4591 8d3e
000000f0: e9aa 6bbe 410c f53c 1d00 4dbe 1519 a13e

blocks.1.temp1.conv.weight f4 [128, 64, 1, 3]
-0.05420162 -0.0015818304 -0.09777007 -0.040995114 0.00936727 0.042559363 0.007800765 -0.0031577542
0.028169349 -0.027344206 -0.012522084 0.0038231018 -0.016902268 -0.06986064 -0.053350773 -0.025007939
0.009706217 0.11540523 0.08646211 0.07942206 0.12507588 -0.045331158 0.007958198 0.037157312
-0.04094025 -0.034310654 0.028303105 0.08879255 0.11631964 0.14975512 0.061971605 0.03348329
-0.07742517 -0.0027463413 0.015398861 -0.06143493 -0.08339676 -0.067741245 -0.0139852185 0.03100085
0.0028382114 -0.0011425273 0.064221665 -0.019324386 -0.034285255 0.020514483 0.029509196 -0.02615538
-0.09648921 -0.038090322 0.057864204 0.007900419 0.02300147 -0.07122032 0.123847306 0.10509073
0.005925375 0.03580876 -0.032284066 -0.082069725 -0.0011849485 0.00037916386 -0.037156858 0.07053398
0.03041271 0.060458444 -0.0013435042 0.035801783 0.042119764 -0.010610273 -0.019638183 0.024450943
-0.06900268 -0.1210839 -0.14435126 0.038738847 0.05654022 -0.0025160147 -0.055623382 -0.069831274
-0.118099004 0.07140953 0.058678444 0.07132795 -0.11114889 -0.05538474 -0.024676159 -0.0073410333
-0.024725221 -0.049892917 -0.028585628 -0.03480673 0.008431488 0.051549867 0.095205225 -0.01632687
-0.0070309243 0.019792596 0.041604593 -0.033663988 -0.028983576 0.023222594 -0.085746266 -0.11506627
-0.09017472 0.05459453 0.07031306 0.11471142 -0.0062304125 -0.0059335004 -0.002658187 -0.041106854
-0.007901898 0.006611995 -0.039694868 -0.015794938 -0.11010688 -0.1023867 -0.024426885 0.020096561
-0.053488545 -0.024183253 0.020942004 -0.042988893 -0.020131472 0.006196828 0.041966427 0.047147118
0.12687726 0.055754505 0.04037863 -0.023743086 0.0662632 0.08453294 0.1404797 -0.21270841
-0.22645089 -0.29335725 0.08245048 0.052699354 0.009713569 0.002224992 -0.018090023 -0.04914079
-0.048763357 0.01635758 0.04528344 0.011251681 0.015312451 0.017672585 -0.013097787 0.033600245
0.088810995 0.0021206914 -0.002626004 -0.030837607 0.0015637409 0.052801408 0.046394464 0.072024174
-0.00085958315 -0.07521212 -0.0082692625 -0.03081209 -0.11833991 0.036619607 0.014351161 0.00046547622
0.117407106 0.13732481 0.14429829 0.012919875 0.016171558 0.0016138967 -0.06411318 -0.045042757
-0.1351584 -0.048889667 -0.015191837 0.016341323 0.021201517 -0.020887384 -0.03611137 0.0756605
0.0842199 0.03802917 0.04767372 0.050113328 0.09770891 0.015853517 -0.0034286487 -0.050112445
0.032953523 0.034825493 -0.030507615 -0.022651149 -0.022412013 -0.039164186 -0.016555231 -0.021343913
-0.012262633 -0.05490195 -0.06538962 -0.044276185 0.045623235 0.006869677 -0.016194297 0.006006085
-0.018973386 0.006697067 -0.04436852 -0.02231392 -0.022321217 -0.08029755 -0.020407436 -0.03742861
-0.020557242 0.0008289999 -0.048283484 0.017042054 0.009246753 -0.009088487 0.07966091 0.012603931
0.0066672913 0.07782481 0.071950026 0.047551144 -0.03139892 0.0054452294 -0.0175863 0.006339589
-0.011813894 0.0024085524 0.09711528 0.097465284 0.04987758 0.008401509 0.017977368 -0.023065683
-0.035675235 -0.053890973 -0.04554425 0.0111880405 -0.027903747 -0.06193096 0.059097767 0.07825904
-0.00019053265 0.081648365 0.07572108 -0.003813417 0.005976262 -0.025681708 -0.040329505 0.03195783
00000000: 8502 5ebd 6c55 cfba ad3b c8bd 7eea 27bd
00000010: 2e79 193c ba52 2e3d 8f9d ff3b 53f2 4ebb
00000020: 68c3 e63c f500 e0bc 6d29 4dbc 018d 7a3b
00000030: a076 8abc 1813 8fbd 5786 5abd 73dd ccbc
00000040: d306 1f3c 9459 ec3d 0c13 b13d 08a8 a23d
00000050: e413 003e 2aad 39bd 1a63 023c 4432 183d
00000060: f7b0 27bd 5489 0cbd eadb e73c ded8 b53d
00000070: fe38 ee3d 6859 193e f0d5 7d3d c625 093d
00000080: 1691 9ebd f6fb 33bb 814b 7c3c 31a3 7bbd
00000090: eccb aabd ecbb 8abd 4222 65bc 7ff5 fd3c
000000a0: 4901 3a3b dbc0 95ba a686 833d 2d4e 9ebc
000000b0: b26e 0cbd fd0d a83c 45bd f13c cf43 d6bc
000000c0: 239c c5bd 9904 1cbd 0403 6d3d c270 013c
000000d0: 946d bc3c f6db 91bd a8a3 fd3d cf39 d73d
000000e0: a629 c23b 35ac 123d 4c3c 04bd 2c14 a8bd
000000f0: 4650 9bba 83ca c639 ca31 18bd 1f74 903d
00000100: 1324 f93c 46a3 773d 8518 b0ba e4a4 123d
00000110: c685 2c3d b6d6 2dbc 41e0 a0bc 584d c83c
00000120: 4751 8dbd d6fa f7bd d1d0 13be a0ac 1e3d
00000130: b896 673d b9e3 24bb 58d5 63bd b303 8fbd
00000140: e4dd f1bd 293f 923d cf58 703d 6314 923d
00000150: 07a2 e3bd 1cdb 62bd a825 cabc 0d8d f0bb
00000160: 8c8c cabc 845c 4cbd 682c eabc 8091 0ebd
00000170: 3924 0a3c f425 533d f5fa c23d eebf 85bc
00000180: ab63 e6bb 1524 a23c 9469 2a3d 40e3 09bd
00000190: f76e edbc 4f3d be3c bd9b afbd dda7 ebbd
000001a0: 86ad b8bd 849e 5f3d 4b00 903d d2ed ea3d
000001b0: 7d28 ccbb cf6d c2bb fa34 2ebb a95f 28bd
000001c0: f676 01bc 6fa9 d83b 1697 22bd 6364 81bc
000001d0: b77f e1bd 1eb0 d1bd e41a c8bc 8ba1 a43c
000001e0: ce16 5bbd f51b c6bc 918e ab3c 1f15 30bd
000001f0: c2ea a4bc c30e cb3b fde4 2b3d 561d 413d
00000200: 1dec 013e d65e 643d 1064 253d dc80 c2bc
00000210: 00b5 873d 9b1f ad3d e9d9 0f3e 3cd0 59be
00000220: bee2 67be ec32 96be ccdb a83d 47db 573d
00000230: a925 1f3c 2cd1 113b 8731 94bc da47 49bd
00000240: 16bc 47bd 5500 863c 217b 393d f858 383c
00000250: 13e1 7a3c 19c6 903c 1a98 56bc 69a0 093d
00000260: 8ae2 b53d 4cfb 0a3b 0919 2cbb 269f fcbc
00000270: 70f6 cc3a 4a46 583d 1f08 3e3d 6981 933d
00000280: a655 61ba d008 9abd cd7b 07bc a369 fcbc
00000290: 325c f2bd 71fe 153d 2221 6b3c 290b f439
000002a0: 2373 f03d e09e 0c3e eec2 133e e2ad 533c
000002b0: 377a 843c 6389 d33a c54d 83bd c17e 38bd
000002c0: f766 0abe 8840 48bd 2fe7 78bc 3dde 853c
000002d0: ceae ad3c 051c abbc 84e9 13bd e4f3 9a3d
000002e0: 7c7b ac3d 7ac4 1b3d 8545 433d a243 4d3d
000002f0: 9c1b c83d 3cdf 813c 2eb3 60bb b542 4dbd
00000300: 46fa 063d 2da5 0e3d 1beb f9bc e78e b9bc
00000310: 6699 b7bc a06a 20bd d69e 87bc 6ed9 aebc
00000320: 36e9 48bc dee0 60bd feea 85bd f25a 35bd
00000330: 6edf 3a3d 071b e13b e7a9 84bc b1ce c43b
00000340: 136e 9bbc 1273 db3b c4bb 35bd afcb b6bc
00000350: fcda b6bc 0b73 a4bd 7f2d a7bc be4e 19bd
00000360: a967 a8bc 3e51 593a e7c4 45bd c79b 8b3c
00000370: b17f 173c e1e7 14bc 4225 a33d b880 4e3c
00000380: 4b79 da3b 9d62 9f3d 895a 933d fdc4 423d
00000390: 279c 00bd e56d b23b 2511 90bc 54bc cf3b
000003a0: 108f 41bc ced8 1d3b 60e4 c63d e19b c73d
000003b0: 6f4c 4c3d 7ca6 093c 4645 933c 3ef4 bcbc
000003c0: 3220 12bd c8bc 5cbd 9c8c 3abd 0b4e 373c
000003d0: 6696 e4bc 51ab 7dbd 8010 723d 4746 a03d
000003e0: b8c9 47b9 4237 a73d a713 9b3d 85ea 79bb
000003f0: 85d4 c33b 7262 d2bc 8d30 25bd 37e6 023d

blocks.1.temp1.conv.bias f4 [128]
-0.057044208 0.01668383 -0.009191937 -0.057932787 0.059090573 -0.04675187 -0.024058128 -0.058212392
0.04967463 0.057072595 0.022238605 -0.002187924 -0.011384888 -0.018903289 -0.013507252 -0.012925362
-0.018813355 0.0058179083 0.05427786 0.022618111 -0.049270265 -0.05633106 -0.01755417 0.04092314
-0.054936744 -0.006356118 0.03493287 -0.008372986 -0.010953154 -0.03021986 -0.049140077 0.021670425
0.0054278458 -0.05550753 -0.032285433 0.04119471 -0.037811864 -0.044558927 -0.02804188 0.056686796
0.0658038 -0.0066150865 -0.003925081 -0.021869002 -0.02288243 -0.007919629 0.052835166 0.012778708
0.005334856 0.061254013 0.06273157 -0.016811928 0.0632248 -0.0504196 0.035896596 -0.039808806
-0.010601455 -0.014264796 -0.039203763 -0.05519749 -0.021569394 -0.0040105185 -0.05239484 -0.003907644
0.13434958 0.02826966 0.08076805 0.059653115 0.03945274 0.04729962 0.057028968 0.047162574
0.013218928 0.00620435 0.05682965 0.0137153 0.057591524 0.06985882 0.07344158 0.031052228
0.06772339 0.053848226 0.053335004 0.057821475 0.086421885 0.06374919 0.045258787 0.058439393
0.04562627 0.11000251 0.031725563 0.035300374 0.027736245 0.042335447 0.043765504 0.0936618
0.07672474 0.05937778 0.048844755 0.064059034 0.11965873 0.023682175 0.121098876 0.0412542
0.056509662 0.086658925 0.0524247 0.07660344 0.04784276 0.022642974 0.048089463 0.041691013
0.08488082 0.03893899 0.046951964 0.07119667 0.050659046 0.08029313 0.07824839 0.06870767
0.026196081 0.097398944 0.012073267 0.07973329 0.049276635 0.0791012 0.055503994 0.05537575
00000000: 30a7 69bd 87ac 883c c799 16bc ee4a 6dbd
00000010: f508 723d e47e 3fbd 8d15 c5bc 1e70 6ebd
00000020: a077 4b3d f4c4 693d bc2d b63c 4663 0fbb
00000030: ae87 3abc 12db 9abc 854d 5dbc e6c4 53bc
00000040: 771e 9abc 27a4 be3b 7652 5e3d 9e49 b93c
00000050: 9ecf 49bd 66bb 66bd c3cd 8fbc 069f 273d
00000060: 5a05 61bd fb46 d0bb c515 0f3d d92e 09bc
00000070: dc74 33bc a48f f7bc 1b47 49bd 2d86 b13c
00000080: 12dc b13b dd5b 63bd bb3d 04bd c9bb 283d
00000090: 9de0 1abd 6c83 36bd 16b8 e5bc 6a30 683d
000000a0: 25c4 863d 5ec3 d8bb f79d 80bb 9f26 b3bc
000000b0: ef73 bbbc 55c1 01bc b069 583d c95d 513c
000000c0: 04d0 ae3b 7de5 7a3d 6979 803d 2bb9 89bc
000000d0: 017c 813d c884 4ebd 4f08 133d 8f0e 23bd
000000e0: bab1 2dbc e4b6 69bc 2094 20bd c316 62bd
000000f0: 4cb2 b0bc ab6a 83bb f99b 56bd b20b 80bb
00000100: f092 093e c695 e73c b869 a53d d356 743d
00000110: 3299 213d 3fbd 413d 3597 693d 8b2d 413d
00000120: 3494 583c dc4d cb3b 35c6 683d 23b6 603c
00000130: 17e5 6b3d 2412 8f3d 8a68 963d 3e61 fe3c
00000140: 90b2 8a3d f58f 5c3d ce75 5a3d 36d6 6c3d
00000150: f5fd b03d ef8e 823d 4761 393d 255e 6f3d
00000160: 9de2 3a3d ff48 e13d aaf2 013d 2097 103d
00000170: 1f37 e33c ef67 2d3d 7543 333d c2d1 bf3d
00000180: dc21 9d3d 1d36 733d 7011 483d 6231 833d
00000190: a30f f53d 1f01 c23c b002 f83d 2afa 283d
000001a0: ad76 673d 3c7a b13d 48bb 563d 44e2 9c3d
000001b0: c5f6 433d c27d b93c 75f9 443d 32c4 2a3d
000001c0: ffd5 ad3d 7e7e 1f3d b450 403d 8fcf 913d
000001d0: dc7f 4f3d b970 a43d b140 a03d 9bb6 8c3d
000001e0: 2a99 d63c 1979 c73d f4ce 453c 354b a33d
000001f0: 4cd6 493d cfff a13d 2858 633d afd1 623d

blocks.1.gconv.theta.weight f4 [16, 192, 1, 1]
4.802762e-05 1.3018024e-05 -2.5876057e-05 0.000108072694 -0.00066388235 -3.489473e-06 6.941516e-05 0.00032376722
-1.07835185e-05 -3.067338e-05 -8.9663095e-05 0.00038050124 -0.000104638384 0.00016727463 -4.0119397e-05 -3.923412e-05
-1.6813001e-05 3.364641e-05 -1.1770117e-05 -0.0003106492 0.0028727124 0.0033852062 -8.555967e-05 -5.613644e-07
0.00047721496 -0.0022719475 -7.109398e-06 -0.0003083207 -0.00015436295 -6.752502e-07 4.180893e-06 1.2675699e-05
3.907199e-06 0.00012141847 -3.248158e-05 -1.5000486e-05 -7.3452815e-05 0.0001621052 0.00010893219 -0.00046820924
-0.00039418013 -8.766572e-06 -0.000108808024 8.988122e-05 0.00035317487 4.1829044e-05 5.037446e-05 -5.8945676e-05
2.8314682e-05 -0.00032654335 -6.7693595e-06 -3.0916573e-05 -0.00073870295 -0.0003490953 0.00016875823 0.00026825647
4.387402e-05 4.8694517e-05 0.00092676067 -0.00012095969 -0.0013877233 -0.00038003924 9.471106e-06 0.00039255022
-2.2234623e-05 -1.2183986e-06 4.0078918e-05 2.7336973e-05 0.00020527828 5.337009e-06 -0.00012817343 -0.00027831487
1.110034e-05 3.8489165e-05 0.00029600767 -0.0009270293 5.4363954e-05 -0.0004036462 5.670972e-05 9.2697024e-05
-1.0186852e-05 -4.1644045e-05 1.8023899e-05 0.00018743127 0.0026745377 -0.003032348 7.9392026e-05 -8.731187e-06
-0.0018979874 0.0017849342 7.799394e-06 -4.407524e-05 0.00015464348 1.2192182e-05 -7.899429e-06 -3.4112356e-05
1.2363277e-05 -6.2643965e-05 4.5875175e-05 8.3321975e-06 8.2449864e-05 -0.00033903174 2.619569e-05 0.0009885597
0.00033314232 1.3561659e-05 9.5900454e-05 -5.975708e-05 -0.0003174113 -5.1153616e-05 -5.8398095e-05 6.139994e-05
-2.3725366e-05 0.00046070607 8.565254e-06 5.2370524e-05 -7.5038624e-05 -0.00023130508 -0.0001406648 -0.00021122355
-4.7021185e-05 -4.7657122e-05 -0.0007013202 4.286384e-05 0.0026780372 0.0004253249 -1.4251466e-05 -0.000102529804
-1.9847057e-05 -8.726829e-06 -6.0646213e-05 5.08933e-06 -0.0003870876 -1.56044e-05 8.0654e-05 0.00035788753
-1.3703079e-05 -4.860726e-05 2.3709605e-05 0.00089612004 0.0002497232 0.00032914462 -7.341417e-05 -0.00013460743
-3.3844724e-06 4.932715e-05 -1.8314398e-05 -0.00018343604 0.0034386357 0.0029921571 -0.0001647428 1.6125436e-05
-0.00024689667 -0.00025903655 -8.428575e-06 -0.00023599282 -0.000116750605 9.540433e-06 1.3117004e-05 6.531876e-05
-3.1088624e-05 0.00014360673 -5.328586e-05 -8.007635e-06 -7.4512436e-06 0.00017962398 5.413017e-05 -0.00042257126
-0.0003367251 -2.189961e-05 -8.617532e-05 1.8851426e-05 0.00029148487 6.227304e-05 6.709823e-05 -6.692017e-05
1.543278e-05 -0.0002613558 -1.2099144e-05 0.00039527687 0.0005682934 -5.7488996e-05 8.759121e-05 0.0001594376
5.3990832e-05 6.7011475e-05 0.0010404758 -2.085634e-05 0.0006631153 -0.0003229999 2.0342812e-05 -0.00020818885
-0.20992444 0.07335974 -0.3802734 0.13638599 0.017772032 -0.0429583 0.018139523 0.023774548
-0.029833706 -0.042041283 -0.07242042 0.059090037 0.22131139 0.098741844 -0.15198687 -0.020300522
0.015925162 -0.012709465 -0.06093905 0.13468732 0.055642266 0.13984823 -0.05332371 0.15109739
0.2194711 0.29413933 -0.13833463 0.07387611 -0.009451152 0.1441999 0.08885301 0.17821828
-0.14764279 0.122037075 -0.06587979 -0.06481752 0.16326089 0.06104672 0.34666875 -0.033827487
-0.1054192 -0.16859834 -0.18274076 -0.2794522 0.12260256 0.018236093 0.07811326 -0.14004868
-0.19704415 -0.10529004 -0.088361055 -0.01035255 0.020296205 -0.018330723 -0.22443536 -0.1993855
0.045728706 0.3064247 0.08692194 -0.055592228 0.053727176 -0.30591556 0.06782367 -0.060478546
00000000: 4471 4938 fd67 5a37 6910 d9b7 16a5 e238
00000010: 6408 2eba b12c 6ab6 fb92 9138 4dbf a939
00000020: dcea 34b7 4aa7 00b8 8209 bcb8 037e c739
00000030: 4e71 dbb8 7166 2f39 e045 28b8 518f 24b8
00000040: a509 8db7 8f1f 0d38 4578 45b7 a1de a2b9
00000050: 1e44 3c3b 56da 5d3b 806e b3b8 abb0 16b5
00000060: b532 fa39 f4e4 14bb 448d eeb6 1ba6 a1b9
00000070: 7ddc 21b9 d742 35b5 9949 8c36 b6a9 5437
00000080: 951a 8336 0ba2 fe38 d53c 08b8 99aa 7bb7
00000090: ae0a 9ab8 c9fa 2939 8672 e438 fb79 f5b9
000000a0: f6a9 ceb9 2414 13b7 dd2f e4b8 9d7e bc38
000000b0: 542a b939 9871 2f38 2a49 5338 703c 77b8
000000c0: 5185 ed37 e833 abb9 5b24 e3b6 6bac 01b8
000000d0: 84a5 41ba c706 b7b9 b1f4 3039 c6a4 8c39
000000e0: 5f05 3838 573d 4c38 dbf1 723a bdab fdb8
000000f0: 44e4 b5ba 0140 c7b9 17e6 1e37 33cf cd39
00000100: 7d84 bab7 db87 a3b5 691a 2838 b451 e537
00000110: f83f 5739 8f14 b336 4b66 06b9 caea 91b9
00000120: 993b 3a37 6d6f 2138 7a31 9b39 e203 73ba
00000130: da04 6438 7aa0 d3b9 99db 6d38 5666 c238
00000140: 32e8 2ab7 f4aa 2eb8 0732 9737 3389 4439
00000150: 4c47 2f3b 5bba 46bb 457f a638 2a7c 12b7
00000160: e4c5 f8ba 74f4 e93a 24da 0237 6edd 38b8
00000170: cb27 2239 068d 4c37 ca87 04b7 dd13 0fb8
00000180: df6b 4f37 b95f 83b8 186a 4038 84ca 0b37
00000190: efe8 ac38 12c0 b1b9 d1be db37 8f92 813a
000001a0: 9ba9 ae39 e286 6337 2a1e c938 ada3 7ab8
000001b0: 396a a6b9 c78d 56b8 7af0 74b8 d7c3 8038
000001c0: d605 c7b7 ec8a f139 7cb3 0f37 6ca8 5b38
000001d0: 0e5e 9db8 7c8a 72b9 6b7f 13b9 e47b 5db9
000001e0: 9d38 45b8 72e3 47b8 cdd8 37ba b3c8 3338
000001f0: 0282 2f3b 24fe de39 9519 6fb7 4505 d7b8
00000200: 3b7d a6b7 7269 12b7 605e 7eb8 03c5 aa36
00000210: 05f2 cab9 32e6 82b7 c924 a938 daa2 bb39
00000220: 47e6 65b7 a6df 4bb8 fde3 c637 99e9 6a3a
00000230: 48ed 8239 0b91 ac39 eff5 99b8 6825 0db9
00000240: cb20 63b6 a0e4 4e38 dfa1 99b7 bd58 40b9
00000250: bc5a 613b 1118 443b cfbe 2cb9 1c45 8737
00000260: e971 81b9 4ccf 87b9 7468 0db7 d774 77b9
00000270: 01d8 f4b8 d90f 2037 1a11 5c37 befb 8838
00000280: 2865 02b8 2395 1639 427f 5fb8 8858 06b7
00000290: b205 fab6 7259 3c39 d409 6338 8e8c ddb9
000002a0: 7a8a b0b9 0eb5 b7b7 06b9 b4b8 2123 9e37
000002b0: 70d2 9839 9598 8238 17b7 8c38 7e57 8cb8
000002c0: a575 8137 9506 89b9 6efd 4ab7 2a3d cf39
000002d0: 86f9 143a 5720 71b8 2cb1 b738 b42e 2739
000002e0: 3774 6238 8388 8c38 9360 883a a6f4 aeb7
000002f0: ead4 2d3a 5058 a9b9 dba5 aa37 454d 5ab9
00000300: 6ff6 56be a23d 963d 32b3 c2be c5a8 0b3e
00000310: a796 913c 0bf5 2fbd 5699 943c d7c2 c23c
00000320: d165 f4bc 7b33 2cbd 2851 94bd 6508 723d
00000330: 749f 623e 2a39 ca3d 72a2 1bbe 484d a6bc
00000340: 7c75 823c 5c3b 50bc 3a9b 79bd 79eb 093e
00000350: 25e9 633d 6034 0f3e f669 5abd 46b9 1a3e
00000360: 08bd 603e 6e99 963e 98a7 0dbe 5c4c 973d
00000370: 01d9 1abc 23a9 133e 91f8 b53d da7e 363e
00000380: ac2f 17be 93ee f93d fceb 86bd 0cbf 84bd
00000390: dd2d 273e 200c 7a3d 917e b13e b18e 0abd
000003a0: 06e6 d7bd 0ba5 2cbe 6520 3bbe 5c14 8fbe
000003b0: 0d17 fb3d dc63 953c d8f9 9f3d ec68 0fbe
000003c0: f1c5 49be 4ea2 d7bd a4f6 b4bd be9d 29bc
000003d0: 3a44 a63c 502a 96bc 62d2 65be b62b 4cbe
000003e0: 064e 3b3d b3e3 9c3e 2104 b23d adb4 63bd
000003f0: 0711 5c3d f7a0 9cbe 23e7 8a3d 5ab8 77bd

blocks.1.gconv.theta.bias f4 [16]
0.0024716007 0.05510419 -0.04931778 0.07251644 0.07879409 0.07322893 -0.01764998 0.022186028
0.094270065 0.010061385 0.050594714 0.07456944 0.0028502739 0.020390272 0.061184138 0.017569838
00000000: 94fa 213b eeb4 613d 7101 4abd 8083 943d
00000010: cc5e a13d 0df9 953d b196 90bc 79bf b53c
00000020: aa10 c13d 82d8 243c 673c 4f3d ddb7 983d
00000030: a9cb 3a3b 8009 a73c 389c 7a3d 9fee 8f3c
