artifacts/runs/20260208_182608_GraphWaveNet_GRU/best.pt (torch, 765602 bytes, 107 tensors)

encoder.start_conv.weight f4 [32, 6, 1, 1]
-0.1553573 -0.21096185 0.16189574 -0.026760908 0.19538411 0.055793975 0.23916027 0.17347342
-0.17861553 0.10974725 -0.07363676 -0.19112384 -0.09296742 0.14759226 0.028830886 -0.118020676
-0.0009534587 0.078142375 0.18229738 -0.011790479 0.1343521 0.08832274 -0.034462422 0.058450222
-0.29481462 0.054488104 -0.079370365 0.08779816 0.21440841 -0.16332473 0.27419814 0.053239778
0.23859297 -0.03710008 0.07197841 0.12998007 0.26669675 0.23990892 -0.03530912 -0.13864918
-0.28174427 0.13387598 -0.25876078 -0.091650724 -0.20368144 -0.28567246 0.108692594 -0.17306839
0.3080804 -0.09057474 0.24431199 0.16810371 -0.0044254055 -0.15777268 -0.09524922 0.07747795
0.116300516 0.030368673 -0.22046575 0.09129509 0.0487561 -0.07682328 -0.26449385 -0.062174257
-0.18562558 0.197964 0.09146285 -0.0073799007 -0.00084611063 -0.016624125 0.22460021 0.10831277
0.23326835 0.04519717 0.20016897 -0.019195335 0.21899693 -0.11550494 0.25561792 -0.008560467
0.257845 0.3934045 -0.11458253 -0.14004023 0.12618221 -0.17674847 0.1908551 0.051564224
0.056684908 0.14903103 0.15472598 -0.09670352 0.15593536 0.01093858 -0.07561304 -0.009982301
0.010640054 -0.058750477 -0.1450086 -0.21624058 -0.2764048 -0.13013306 0.0963447 0.012610871
0.14333482 -0.15995766 0.1163732 -0.10517439 -0.1614053 -0.12090848 0.08669105 0.029208217
-0.2086899 0.008638595 0.07462813 -0.21467791 -0.029004192 -0.085981585 -0.37262467 0.03965599
0.010864932 0.00023175032 -0.21629727 -0.30047423 -0.2780644 0.028790116 0.22869912 -0.124614045
-0.108087264 0.2863502 0.22211426 -0.18125309 0.19701101 -0.022908727 -0.058990486 -0.120557725
0.18369983 -0.11703269 0.18935512 -0.013823569 -0.2366929 0.3281458 0.1450255 -0.01687812
-0.22098264 0.0005708535 -0.101564616 -0.33777276 0.14465602 -0.054870933 -0.027514802 -0.10686422
0.22009712 -0.212154 0.17979586 0.03749101 0.13352697 -0.05695606 0.1015281 0.12068918
0.15990032 -0.025224052 -0.22608098 -0.09066205 0.059364725 0.089361355 -0.26543275 0.1689304
0.14483586 0.031233987 -0.099110916 -0.049933594 0.13693501 -0.0028759046 0.2403747 -0.1552239
-0.16644925 0.083753824 0.35078803 -0.17535666 -0.36206058 0.00015768378 -0.04907197 -0.39833102
0.028276833 -0.09777382 -0.13066702 0.0125240525 0.1615464 0.055398505 0.0021306681 0.03668622
00000000: fc15 1fbe 6206 58be ffc7 253e b139 dbbc
00000010: c612 483e 3988 643d 6ee6 743e 04a3 313e
00000020: fde6 36be 2bc3 e03d dfce 96bd f8b5 43be
00000030: b465 bebd 6d22 173e c02e ec3c d3b4 f1bd
00000040: 88f1 79ba 1c09 a03d 2aac 3a3e da2c 41bc
00000050: 9993 093e 8de2 b43d 7828 0dbd 8069 6f3d
00000060: f1f1 96be eb2e 5f3d ee8c a2bd 86cf b33d
00000070: e18d 5b3e 993e 27be b363 8c3e f411 5a3d
00000080: b751 743e 41f6 17bd 6b69 933d 7f19 053e
00000090: 7a8c 883e afaa 753e 4ca0 10bd 0dfa 0dbe
000000a0: c940 90be c916 093e 4b7c 84be 60b3 bbbd
000000b0: de91 50be a943 92be 399a de3d d738 31be
000000c0: b7bc 9d3e 407f b9bd ec2c 7a3e 6123 2c3e
000000d0: fe02 91bb 298f 21be 0612 c3bd c2ac 9e3d
000000e0: f72e ee3d b9c7 f83c c6c1 61be ecf8 ba3d
000000f0: 7ab4 473d 8655 9dbd bd6b 87be 6faa 7ebd
00000100: a214 3ebe 13b7 4a3e e050 bb3d 18d3 f1bb
00000110: 86cd 5dba 512f 88bc 99fd 653e 16d3 dd3d
00000120: e6dd 6e3e ab20 393d 18f9 4c3e 893f 9dbc
00000130: bb40 603e db8d ecbd 5ae0 823e 3341 0cbc
00000140: 4304 843e 516c c93e 3faa eabd b566 0fbe
00000150: e935 013e 8dfd 34be 856f 433e 0235 533d
00000160: 6f2e 683d 979b 183e 7d70 1e3e 7f0c c6bd
00000170: 85ad 1f3e bb37 333c 02db 9abd ce8c 23bc
00000180: 9f53 2e3c 57a4 70bd 227d 14be 2c6e 5dbe
00000190: ee84 8dbe 9a41 05be 5f50 c53d d49d 4e3c
000001a0: 5dc6 123e f1cb 23be 1355 ee3d ac65 d7bd
000001b0: 6e47 25be dd9e f7bd 148b b13d 1246 ef3c
000001c0: ceb2 55be e588 0d3c a2d6 983d 87d4 5bbe
000001d0: 339a edbc 1d17 b0bd a9c8 bebe 526e 223d
000001e0: d402 323c 0102 7339 087d 5dbe c2d7 99be
000001f0: 755e 8ebe 40d9 eb3c 1a30 6a3e a635 ffbd
00000200: db5c ddbd 7e9c 923e ec71 633e 699a 39be
00000210: 41bd 493e 15ab bbbc 02a0 71bd f8e6 f6bd
00000220: cf1b 3c3e d6ae efbd 4fe6 413e 407c 62bc
00000230: a05f 72be ba02 a83e 9181 143e fc43 8abc
00000240: 4649 62be 54a5 153a 1c01 d0bd 8df0 acbe
00000250: b520 143e 58c0 60bd b966 e1bc a1db dabd
00000260: 2461 613e e63e 59be 681c 383e 2c90 193d
00000270: 4bbb 083e c24a 69bd f7ed cf3d e42b f73d
00000280: e9bc 233e aca2 cebc c681 67be 06ad b9bd
00000290: 6d28 733d 1603 b73d cde6 87be 17fc 2c3e
000002a0: da4f 143e 6bde ff3c aafa cabd 2b87 4cbd
000002b0: b138 0c3e ac79 3cbb c924 763e 04f3 1ebe
000002c0: ac71 2abe 2087 ab3d 7d9a b33e b290 33be
000002d0: 0160 b9be eb57 2539 b1ff 48bd 0bf2 cbbe
000002e0: d1a4 e73c a43d c8bd 93cd 05be af31 4d3c
000002f0: 6b6c 253e 8be9 623d aea2 0b3b 4a44 163d

encoder.start_conv.bias f4 [32]
-0.05559033 -0.013038294 -0.0122055495 0.006976781 0.0307179 0.010231544 -0.1273939 -0.07679469
0.02154947 0.0734028 0.015857054 0.08260173 0.011180067 -0.037890874 0.025240993 -0.01845235
-0.010750319 0.00041583844 -0.09380943 -0.05747249 0.035220552 0.083848886 0.0041115736 -0.033361048
0.03945353 0.048763376 0.008601155 -0.025016613 -0.02523534 0.09120093 -0.016110037 0.002457053
00000000: b0b2 63bd 929e 55bc c9f9 47bc 7b9d e43b
00000010: 1ba4 fb3c 35a2 273c 8c73 02be 8946 9dbd
00000020: 8488 b03c 3554 963d a7e6 813c 192b a93d
00000030: 9a2c 373c 7633 1bbd 33c6 ce3c 6229 97bc
00000040: 1b22 30bc e404 da39 291f c0bd 4668 6bbd
00000050: 6d43 103d f7b8 ab3d 61ba 863b 98a5 08bd
00000060: 069a 213d 1bbc 473d dceb 0c3c a4ef ccbc
00000070: 58ba cebc 8ec7 ba3d 32f9 83bc 8206 213b

encoder.filter_convs.0.conv.weight f4 [32, 32, 1, 2]
-0.1320862 -0.12204423 0.1025327 0.07503777 0.021377958 0.035951428 -0.00927112 -0.028441234
0.007860045 0.05880606 -0.063256666 -0.088236 0.09656112 0.052301317 -0.0675217 -0.039851204
-0.02987117 -0.050697684 0.053147346 0.07646415 0.04245568 0.0014180237 -0.06928929 -0.06591956
-0.07966991 -0.09330147 0.05595963 0.05668434 -0.10585176 -0.11573004 -0.03975486 -0.06329184
0.025659462 0.023550926 -0.07037001 -0.06827556 0.008602122 0.019676976 -0.008463536 -0.013040497
0.031681314 0.001952851 -0.026507473 -0.039249804 -0.058721043 -0.08788327 0.043898653 0.04746201
-0.058412116 -0.060646378 -0.11288073 -0.13172045 -0.06028269 -0.07558522 0.004799509 0.05243182
-0.017595368 -0.052285407 -0.049318336 -0.08912633 -0.050845295 -0.0226824 -0.011242793 0.015867941
0.02121057 0.027860107 -0.02641005 -0.039332997 -0.002919238 0.004284051 -0.0003599541 -0.011935686
-0.0069407593 0.018130431 0.00088354305 -0.016730536 -0.014714783 -0.03068122 0.009105381 0.025287185
-0.00674743 -0.027936291 -0.002098528 0.0050228825 0.013673245 0.010121629 0.0070695463 0.0004935019
-0.008147275 -0.022268742 -0.018769663 -0.03529096 0.01713712 0.0062858774 0.0040565627 -0.006859675
0.0013927898 0.0014868693 -0.0012585801 -0.006463005 0.0067260354 0.01679337 0.012370255 0.0041226544
0.0064964797 0.0073215677 -0.0058919103 -0.024282511 -0.0009687036 -0.012415376 -0.009002843 -0.022875125
0.008733703 0.022684515 0.016902804 0.017395057 -0.00052557874 -0.009739688 0.011249556 0.025170371
-0.0021949739 -0.010280888 0.0029171465 -0.016581431 0.0088171065 0.032376617 0.0011133131 0.007880753
7.681225e-05 0.0003821036 0.0010034023 0.00036635806 0.0012457161 0.0016542469 -0.00044791508 -0.0002151763
0.0024069704 0.0013708574 0.00040850142 0.00058492133 -0.00020930632 -0.00012039216 0.0010960985 0.0008362975
0.00023017361 -0.00018213257 -0.0006551436 -0.00076864526 -0.0034824419 -0.0021360735 0.00052892393 0.0007848694
0.002693351 0.0017670322 -0.00028406913 -0.0009686597 -0.0015758075 -0.0007595306 -0.0008478364 -0.0005868052
-0.0010334363 -0.0010235964 0.0023424418 0.0015283644 -0.0016284406 -0.0013857485 -0.003653805 -0.0027591581
-0.0015592874 -0.0010623625 -0.00018513044 -0.00026225287 0.0011712015 0.0011844309 -0.00088937813 -0.0004285682
0.0025182664 0.002080679 0.000803382 0.00064854266 0.0010971761 0.0005319307 -0.002523524 -0.0020782899
0.0004341761 0.0006849306 1.5059101e-05 0.00041591475 0.0021909107 0.0017684813 0.0004300081 0.0002045753
-0.0011843824 -0.0034615186 9.289936e-06 0.0028317864 -0.012586605 -0.019137638 0.0001231815 0.007199795
-0.012888364 -0.029550513 -0.009493495 -0.0019392137 -0.0017693886 0.005205513 0.003924023 -0.004612243
0.0082683675 0.019268028 0.003382303 0.0015644265 0.013807305 0.022362541 -0.0101338355 -0.008779908
-0.011794314 -0.009864845 0.006178009 0.014707771 0.004502954 0.01386057 0.008411018 0.016715363
0.020844871 0.025387222 -0.004959738 -0.005044692 0.013871971 0.014401355 0.031009976 0.045274027
0.017353818 0.022237957 0.0035180068 0.011003127 -0.0027368553 0.0011743847 -0.0020906476 0.0034424493
-0.0053308695 -0.01499511 -0.0052408 -0.005949301 -0.0033782434 9.414696e-05 0.012924309 0.0119957235
-0.0056453934 -0.0030529692 -0.0003343207 0.0063273096 -0.001804164 -0.01580236 -0.00463335 -0.008979646
00000000: 9b41 07be 53f2 f9bd aafc d13d 67ad 993d
00000010: d420 af3c ce41 133d e5e5 17bc 97fd e8bc
00000020: 6bc7 003c a0de 703d b68c 81bd 13b5 b4bd
00000030: d6c1 c53d e839 563d d148 8abd 043b 23bd
00000040: 62b4 f4bc 60a8 4fbd 08b1 593d 3c99 9c3d
00000050: 02e6 2d3d fbdc b93a 8be7 8dbd d600 87bd
00000060: fa29 a3bd d714 bfbd ed35 653d d72d 683d
00000070: cfc8 d8bd df03 edbd fed5 22bd 279f 81bd
00000080: cb33 d23c dfed c03c 271e 90bd 0fd4 8bbd
00000090: eaef 0c3c 9c31 a13c a5aa 0abc cfa7 55bc
000000a0: 44c4 013d cef6 ff3a 3326 d9bc 67c4 20bd
000000b0: 7a85 70bd 25fc b3bd 13cf 333d 8667 423d
000000c0: 8b41 6fbd 5668 78bd 032e e7bd bae1 06be
000000d0: fbea 76bd 6ccc 9abd 3345 9d3b c0c2 563d
000000e0: 2924 90bc 3929 56bd 0602 4abd de87 b6bd
000000f0: 2843 50bd 71d0 b9bc b133 38bc 7cfd 813c
00000100: cac1 ad3c e13a e43c e459 d8bc a31b 21bd
00000110: b050 3fbb 3961 8c3b 39b8 bcb9 e58d 43bc
00000120: 4f6f e3bb 4586 943c 929d 673a 7a0e 89bc
00000130: 4616 71bc 2f57 fbbc bc2e 153c 1227 cf3c
00000140: 8c19 ddbb a6da e4bc 7587 09bb fe96 a43b
00000150: bf05 603c 30d5 253c a7a7 e73b 5a5e 013a
00000160: 267c 05bc f06c b6bc d6c2 99bc 418d 10bd
00000170: 2563 8c3c c3f9 cd3b eaec 843b 20c7 e0bb
00000180: 458e b63a 0ee3 c23a f1f6 a4ba 9ec7 d3bb
00000190: 1366 dc3b 4092 893c 9cac 4a3c 5517 873b
000001a0: 6ce0 d43b c3e9 ef3b ed10 c1bb 1eec c6bc
000001b0: 99f0 7dba dc69 4bbc a980 13bc 9d64 bbbc
000001c0: ce17 0f3c e0d4 b93c c077 8a3c 1480 8e3c
000001d0: fec6 09ba 3693 1fbc 0f50 383c 1832 ce3c
000001e0: 8dd9 0fbb 2b71 28bc 992d 3f3b c8d5 87bc
000001f0: a075 103c 589d 043d 97ec 913a 461e 013c
00000200: 4316 a138 1455 c839 9884 833a bf13 c039
00000210: 4c47 a33a 51d3 d83a 25d6 eab9 f3a0 61b9
00000220: 43be 1d3b 57ae b33a 222c d639 6855 193a
00000230: 3d79 5bb9 0c7b fcb8 f6aa 8f3a fa3a 5b3a
00000240: c25a 7139 d7fa 3eb9 f1bd 2bba e97e 49ba
00000250: ae39 64bb 5efd 0bbb 7ca7 0a3a b2bf 4d3a
00000260: ee82 303b c39b e73a 1def 94b9 a7ed 7dba
00000270: 538b ceba 3c1b 47ba 5641 5eba d5d3 19ba
00000280: 5e74 87ba 322a 86ba a783 193b 6653 c83a
00000290: 6671 d5ba 01a2 b5ba ad74 6fbb fed2 34bb
000002a0: 0161 ccba f83e 8bba 931f 42b9 fc7e 89b9
000002b0: 0083 993a e83e 9b3a 2825 69ba 73b1 e0b9
000002c0: 8009 253b 005c 083b 0e9a 523a f602 2a3a
000002d0: 1fcf 8f3a 4471 0b3a b561 25bb eb33 08bb
000002e0: 21a2 e339 ea8c 333a 59a6 7c37 220f da39
000002f0: 6295 0f3b 63cc e73a b672 e139 4483 5639
00000300: 473d 9bba a5da 62bb f9db 1b37 7e95 393b
00000310: 0c38 4ebc 89c6 9cbc 482a 0139 42ec eb3b
00000320: b729 53bc eb13 f2bc 9b8a 1bbc 372d feba
00000330: d4ea e7ba 0293 aa3b 1795 803b 4c22 97bb
00000340: 0c78 073c fcd7 9d3c a1a9 5d3b 710d cd3a
00000350: 0938 623c a631 b73c 6308 26bc 9ad9 0fbc
00000360: f03c 41bc 29a0 21bc e570 ca3b ddf8 703c
00000370: 848d 933b 7217 633c 5ece 093c a8ee 883c
00000380: ddc2 aa3c ddf8 cf3c 4c85 a2bb f24d a5bb
00000390: 4347 633c a9f3 6b3c a208 fe3c 4271 393d
000003a0: 9829 8e3c 602c b63c 5c8e 663b 7646 343c
000003b0: d05c 33bb d0ed 993a 3f03 09bb b79a 613b
000003c0: 93ae aebb 0dae 75bc 04bb abbb 5bf2 c2bb
000003d0: 8565 5dbb c470 c538 7bc0 533c b689 443c
000003e0: fefc b8bb 5314 48bb c447 afb9 5255 cf3b
000003f0: b379 ecba f373 81bc 5bd3 97bb 5d1f 13bc

encoder.filter_convs.0.conv.bias f4 [32]
0.009276821 -0.0018079331 -0.001055403 0.021945436 -0.025743792 0.0076482655 0.0028108729 0.016889514
0.008946776 -0.0021273033 0.0013220239 0.0017575857 0.007328236 -0.0038870983 -0.0037550782 -0.0076919906
-0.0018252294 0.001964663 0.022623442 0.13014735 -0.006650711 -0.001778748 -0.0054332213 0.0035978374
0.008982546 0.13792256 -0.06437759 -0.00019365865 0.013108419 0.017599372 0.017897092 6.819151e-05
00000000: cffd 173c 2bf8 ecba 7355 8aba eac6 b33c
00000010: a5e4 d2bc 4d9e fa3b 9f36 383b e15b 8a3c
00000020: 8095 123c 3a6a 0bbb c347 ad3a ca5e e63a
00000030: b321 f03b b0be 7ebb c217 76bb 180d fcbb
00000040: 893c efba 93c1 003b cc54 b93c 5945 053e
00000050: 35ee d9bb e124 e9ba 2a09 b2bb b2c9 6b3b
00000060: 872b 133c 923b 0d3e 66d8 83bd d910 4bb9
00000070: b2c4 563c 8f2c 903c ec9c 923c 0a02 8f38

encoder.filter_convs.1.conv.weight f4 [32, 32, 1, 2]
-0.09457732 -0.15805525 0.075624235 0.1634891 0.19113587 0.1632784 -0.0714601 -0.01847038
0.083835155 0.050027538 0.025495194 0.055663105 0.07855948 0.10827784 -0.042806387 -0.12684469
-0.12782004 -0.073422395 0.01777066 0.006628227 -0.098818325 -0.080761194 0.013565406 0.008782786
0.046350215 0.07538318 -0.039268598 0.010445748 -0.17586623 -0.18783078 -0.11106302 -0.095365115
-0.041650996 -0.036892794 0.013869192 0.017814452 -0.06802641 -0.09246988 -0.17672876 -0.18499231
-0.02252772 -0.038067803 -0.09561272 -0.03819833 -0.009390114 0.012865638 -0.04462385 0.026505867
0.096776284 0.009864827 -0.014220674 -0.043826032 -0.057711087 -0.037978135 -0.03964094 -0.072297126
0.027280772 0.04464713 -0.044345476 -0.016983705 0.087274164 -0.054697383 0.025389293 -0.00036580072
0.009119796 0.046974555 -0.010763664 -0.094399124 -0.008154884 0.04643219 0.007197343 -0.056382786
0.017566811 0.06695874 -0.020865742 -0.05775106 -0.031084638 -0.07167192 -0.02971025 0.048701428
0.021081567 -0.05287376 0.015637081 0.027769193 -0.0010642627 -0.05720184 -0.016952248 -0.032217383
-0.019514104 -0.0544621 0.060723625 0.009843005 0.0059083495 -0.011482871 0.001307861 -0.026209403
-0.0065115835 -0.02415227 -0.02228192 -0.016909229 0.023823822 0.04754941 0.0061081937 -0.027694382
-0.04044576 -0.044678997 0.004598216 -0.07384164 -0.027089238 -0.06540444 0.016565237 -0.08366704
-0.058745716 0.026815843 -0.017255671 0.009536234 0.002368178 -0.032856546 0.026818568 0.060434014
-0.024831813 -0.06416306 -0.014933618 -0.0504197 -0.05958913 0.14023094 0.024857832 0.06748234
-0.022332689 0.005627761 0.032984726 -0.028568266 -0.06362964 -0.007297035 -0.019919038 -0.061735105
-0.002323625 0.034539632 -0.04442243 -0.07730491 -0.0038659074 -0.0206597 0.06132201 0.076401345
-0.022657163 -0.11737599 -0.021259306 -0.001618968 0.05781298 0.052735537 -0.0012755388 -0.013179092
-0.021658828 -0.06287248 -0.03186204 -0.10266855 -0.019313015 -0.041252773 -0.015123763 -0.048892666
0.017029751 0.00016446198 -0.022789048 -0.03518009 -0.014567977 0.0067264116 0.021456894 0.0051279
0.041183867 0.032175336 0.056619342 -0.006395811 0.024784187 -0.013154772 0.08129047 0.02662737
0.014910778 0.041756194 -0.033588942 -0.028705545 0.012122474 -0.037548132 -0.014491396 0.016884157
0.026167577 -0.0061741928 0.032726042 0.004752716 -0.034055922 0.07941726 -0.035910364 -0.0052016033
-0.014708531 -0.0086714355 0.0130093405 0.017237231 -0.0055724587 -0.038332246 -0.007739426 0.03531347
-0.011936283 -0.027038716 -0.009301906 0.01364933 0.017057065 0.012634887 -0.009499455 -0.07155513
-0.034736168 0.012034093 -0.0029056221 -0.005584107 0.039199952 0.039456997 0.002147984 0.013942964
-0.023520283 -0.010865821 -0.031788494 0.01718324 0.0011157768 0.03966699 -0.010044691 0.010813279
0.0054428303 -0.0049214056 -0.012159199 -0.01707824 -0.0029746664 -0.003317354 0.0137445945 0.02163896
0.015572117 -0.005318504 0.0077253464 0.044467542 0.003542463 0.003600685 0.02982592 0.06281118
-0.0070340806 -0.07531446 -0.01095308 -0.015091974 -0.011854722 0.026499357 0.0012025085 0.0019277993
0.010916177 0.014004311 0.003996452 0.014766968 -0.026141495 -0.1377901 -0.016519045 -0.016891066
00000000: c1b1 c1bd 3cd9 21be e1e0 9a3d b069 273e
00000010: 1fb9 433e 7432 273e ac59 92bd 324f 97bc
00000020: c4b1 ab3d ade9 4c3d 4cdb d03c fffe 633d
00000030: cbe3 a03d c6c0 dd3d c055 2fbd 93e3 01be
00000040: 42e3 02be 7b5e 96bd c693 913c 9931 d93b
00000050: 4361 cabd 2066 a5bd 7041 5e3c ade5 0f3c
00000060: b9d9 3d3d 7f62 9a3d 1cd8 20bd a524 2b3c
00000070: 4716 34be b656 40be 0275 e3bd c94e c3bd
00000080: 3c9a 2abd e61c 17bd 9c3b 633c 9def 913c
00000090: 6e51 8bbd d960 bdbd 62f8 34be a06e 3dbe
000000a0: 0e8c b8bc fcec 1bbd 9ad0 c3bd da75 1cbd
000000b0: fed8 19bc 66ca 523c 80c7 36bd d522 d93c
000000c0: a532 c63d 15a0 213c d4fd 68bc ed82 33bd
000000d0: 7662 6cbd f68e 1bbd 8a5e 22bd 8410 94bd
000000e0: ed7b df3c e9df 363d 9aa3 35bd 6921 8bbc
000000f0: ccbc b23d 5d0a 60bd 35fd cf3c f1c8 bfb9
00000100: 326b 153c 6468 403d 145a 30bc 5454 c1bd
00000110: 109c 05bc ae2f 3e3d b0d7 eb3b a3f1 66bd
00000120: 46e8 8f3c aa21 893d a2ee aabc 608c 6cbd
00000130: 36a5 febc bac8 92bd e962 f3bc 267b 473d
00000140: 40b3 ac3c 2892 58bd 5619 803c 387c e33c
00000150: bb7e 8bba 7a4c 6abd 71df 8abc 60f6 03bd
00000160: 0bdc 9fbc a713 5fbd 56b9 783d 8e44 213c
00000170: d49a c13b a722 3cbc 886c ab3a 1ab5 d6bc
00000180: 1f5f d5bb fbda c5bc 9388 b6bc 3985 8abc
00000190: 2d2a c33c 2cc3 423d 3e27 c83b 54df e2bc
000001a0: 74aa 25bd 5301 37bd a2ac 963b 493a 97bd
000001b0: 40ea ddbc c3f2 85bd d2b3 873c a059 abbd
000001c0: 599f 70bd e6ac db3c c45b 8dbc dd3d 1c3c
000001d0: 6f33 1b3b 9694 06bd 9db2 db3c a889 773d
000001e0: 166c cbbc ec67 83bd 22ac 74bc e384 4ebd
000001f0: bb13 74bd b398 0f3e a7a2 cb3c 2e34 8a3d
00000200: 0bf3 b6bc 1569 b83b fe1a 073d ff07 eabc
00000210: 4250 82bd f71b efbb 402d a3bc f3dd 7cbd
00000220: f547 18bb 6e79 0d3d 4bf4 35bd 0952 9ebd
00000230: 2a5b 7dbb 883e a9bc ca2c 7b3d 4f78 9c3d
00000240: 849b b9bc d362 f0bd ff27 aebc 8d33 d4ba
00000250: 4ecd 6c3d 3801 583d fb2f a7ba 1eed 57bc
00000260: db6d b1bc 49c3 80bd c581 02bd e443 d2bd
00000270: 5436 9ebc abf8 28bd a9c9 77bc ad43 48bd
00000280: fa81 8b3c 6d73 2c39 19b0 babc 0019 10bd
00000290: 86ae 6ebc 3b69 dc3b 5ec6 af3c f107 a83b
000002a0: 6ab0 283d 49ca 033d afe9 673d f493 d1bb
000002b0: 3508 cb3c 1d87 57bc 9e7b a63d a421 da3c
000002c0: 564c 743c 8b08 2b3d 8f94 09bd e427 ebbc
000002d0: 579d 463c 12cc 19bd 526d 6dbc a550 8a3c
000002e0: 635d d63c e250 cabb be0b 063d acbc 9b3b
000002f0: 397e 0bbd 84a5 a23d bf16 13bd 3672 aabb
00000300: 0dfc 70bc a312 0ebc 2125 553c 1835 8d3c
00000310: 2c99 b6bb 4602 1dbd 039b fdbb dba4 103d
00000320: 6690 43bc 4c80 ddbc 0667 18bc 70a1 5f3c
00000330: 42bb 8b3c 8f02 4f3c 9aa3 1bbc 7f8b 92bd
00000340: 8347 0ebd a52a 453c 406c 3ebb e2fa b6bb
00000350: 2190 203d a99d 213d 31c5 0c3b 0871 643c
00000360: 9cad c0bc 8e06 32bc a734 02bd dec3 8c3c
00000370: 423f 923a db79 223d 7d92 24bc 2e2a 313c
00000380: c559 b23b be43 a1bb 6137 47bc aae7 8bbc
00000390: 9ff2 42bb f767 59bb 0231 613c 3044 b13c
000003a0: 3122 7f3c d846 aebb e724 fd3b 9923 363d
000003b0: ab28 683b 78f9 6b3b 7d55 f43c 26a3 803d
000003c0: 257e e6bb 783e 9abd 8c74 33bc 5444 77bc
000003d0: 4f3a 42bc 2e15 d93c 7d9d 9d3a 36ae fc3a
000003e0: c4d9 323c 5672 653c abf4 823b 27f1 713c
000003f0: b026 d6bc d918 0dbe f352 87bc 225f 8abc

encoder.filter_convs.1.conv.bias f4 [32]
-0.057264335 0.0070462534 -0.0066759326 0.036522035 0.08983699 -0.025154456 0.012812335 -0.01730478
0.0025747765 0.044602238 -0.024765158 0.024405072 0.00877493 0.004634732 0.005734669 -0.06359658
-0.078602694 0.03387236 -0.00919706 -0.002911259 0.03654329 -0.002048567 -0.011060439 0.016435856
0.06425317 0.0035061373 -0.024495684 0.025288919 0.006610528 0.01905668 -0.10132366 0.062131047
00000000: 028e 6abd 42e4 e63b c8c1 dabb 2198 153d
00000010: 75fc b73d b810 cebc d4ea 513c c1c2 8dbc
00000020: 95bd 283b d6b0 363d 4de0 cabc 25ed c73c
00000030: b9c4 0f3c f3de 973b e4e9 bb3b ec3e 82bd
00000040: 73fa a0bd bebd 0a3d 44af 16bc d2ca 3ebb
00000050: 6bae 153d 4041 06bb d836 35bc 7da4 863c
00000060: 2a97 833d 39c7 653b 2cab c8bc b52a cf3c
00000070: 219d d83b c11c 9c3c c782 cfbd 207d 7e3d

encoder.filter_convs.2.conv.weight f4 [32, 32, 1, 2]
0.033534326 0.00057700276 -0.06598981 0.016531525 0.012863572 -0.008541083 -0.07852969 0.09194329
0.014344474 -0.032043684 -0.06335704 0.09051364 -0.02939146 0.027315494 0.078099765 -0.072712235
-0.068001464 0.07731547 0.0061238734 -0.043228768 -0.034811977 0.011488291 -0.030755535 0.02443462
-0.0318556 0.046421815 -0.0634986 0.028142484 -0.014066645 0.044179358 -0.028343765 0.05768297
0.013481618 0.031993892 0.004233465 0.0327359 0.04255424 -0.019085892 -0.0028230033 0.0400149
-0.002523384 0.012213648 -0.05354132 0.020495767 -0.028230397 0.03466072 -0.10218153 0.012003682
0.09917367 -0.04208834 0.047006186 0.05555421 -0.029976944 0.045069214 0.026556037 -0.024647025
-0.029167358 0.041079335 -0.044833835 0.047078785 0.17428811 -0.099903375 0.04249155 -0.042491514
0.013337583 -0.0052308296 -0.027790865 0.012479648 0.0068242517 0.0048272433 -0.08612072 -0.00048746128
0.014732272 0.004285025 -0.07884615 -0.0052368217 -0.026849262 -0.002905035 0.06448414 -0.04202286
-0.060385883 -0.007616713 -0.0006342762 -0.0011952106 -0.0037144849 -0.012882342 -0.02497817 -0.0052570365
-0.050663356 -0.010581564 -0.04751168 0.02951012 -0.021839738 -0.0051995786 -0.036771163 -0.013774851
0.017550372 -0.011705564 -0.010960792 -0.0046704947 0.028335841 -0.0015650981 -0.008347311 -0.01963191
0.00011930874 -0.019165656 -0.024444483 9.2639566e-05 -0.02059439 -0.01280959 -0.028091954 0.0048239576
0.05847648 -0.034926597 0.0040727314 -0.00848058 -0.037353024 0.0070588104 0.02373351 0.003294931
-0.017280862 -0.0050715175 -0.0272698 -0.0074979938 0.09628318 -0.041732863 0.02029451 0.013849939
-0.011614431 0.0221253 0.015114952 -0.023409314 0.0043190075 0.013135192 -0.059892863 -0.04277692
0.017089805 0.032355413 -0.044013195 0.0010704414 -0.010741154 -0.029175593 -0.0032590257 -0.05192084
-0.04604551 -0.037834655 -0.0007406689 0.037570905 -0.0049952064 -0.07530425 -0.0053560515 -0.015321776
-0.031504568 -0.01508944 0.0034472616 0.049133677 -0.028064322 -0.017965846 -0.046385057 -0.042051747
-0.04175281 -0.09493382 -0.032610796 -0.03257494 -0.013356898 0.010023385 -0.04386929 -0.08317492
-0.026068559 -0.08452066 0.01967473 0.001636162 -0.012443683 -0.036545567 0.07592903 0.031245925
-0.010748432 -0.02061136 -0.06146354 -0.039519392 -0.017000377 0.008585156 0.004398573 0.024837924
0.0008249792 -0.032568112 0.00022597569 -0.02831014 -0.034877144 -0.03120359 -0.000695435 0.07366808
0.029703883 0.027123498 -0.031649135 -0.034820765 -0.009771146 -0.007128569 0.064641 0.07115117
-0.0025912793 -0.0101524 0.022830695 0.015196231 -0.020512417 -0.021747427 -0.03626408 -0.0357444
0.020933487 0.041609157 0.022651663 0.022097763 0.0073290267 -0.0038828638 0.0046648723 -0.013501611
0.001965817 0.002213253 0.037190426 0.04673499 0.03452843 0.03163051 0.023853205 0.03818033
-0.06113406 -0.013821846 -0.024789877 -0.00924268 0.03883064 0.054578364 0.006710573 0.030330822
-0.036996968 -0.024882369 0.031035485 0.004984554 -0.008793564 -0.016057681 0.044492066 -0.027701085
-0.06617576 -0.06188666 -0.008471822 0.023278767 0.020970298 0.006765216 0.023552027 0.028493777
-0.019798897 -0.024371987 0.02556443 0.0044952324 -0.05119425 -0.02522164 0.021819476 0.026057191
00000000: 4a5b 093d 0042 173a aa25 87bd 1f6d 873c
00000010: bbc1 523c e6ef 0bbc 2dd4 a0bd c34c bc3d
00000020: 1605 6b3c 3d40 03bd 56c1 81bd 375f b93d
00000030: 5cc6 f0bc bec4 df3c c5f2 9f3d 27ea 94bd
00000040: 5a44 8bbd 9357 9e3d c6aa c83b a610 31bd
00000050: 0197 0ebd 6339 3c3c 08f3 fbbc 1d2b c83c
00000060: 057b 02bd cd24 3e3d 8e0b 82bd 118b e63c
00000070: c977 66bc 6af5 343d 2f31 e8bc fa44 6c3d
00000080: 01e2 5c3c 070c 033d e1b8 8a3b 1416 063d
00000090: 5b4d 2e3d 045a 9cbc 2302 39bb aae6 233d
000000a0: 5c5f 25bb c11b 483c 254e 5bbd bde6 a73c
000000b0: 6f43 e7bc 66f8 0d3d 8d44 d1bd 17ab 443c
000000c0: 911b cb3d d364 2cbd 8f89 403d d08c 633d
000000d0: 3592 f5bc 7f9a 383d 0c8c d93c 8fe8 c9bc
000000e0: 62f0 eebc ce42 283d afa3 37bd afd5 403d
000000f0: 9578 323e 249a ccbd 9f0b 2e3d 950b 2ebd
00000100: e185 5a3c 6167 abbb aba9 e3bc 7077 4c3c
00000110: f99d df3b da2d 9e3b 0f60 b0bd f291 ffb9
00000120: a15f 713c 6569 8c3b 177a a1bd a599 abbb
00000130: fcf2 dbbc 6662 3ebb 4310 843d 2a20 2cbd
00000140: 3057 77bd 9f95 f9bb 8e45 26ba 9da8 9cba
00000150: b76e 73bb 7510 53bc 059f ccbc 3843 acbb
00000160: 6184 4fbd 4c5e 2dbc 9b9b 42bd 35bf f13c
00000170: 40e9 b2bc 3a61 aabb 5c9d 16bd eaaf 61bc
00000180: ccc5 8f3c b2c8 3fbc e594 33bc f30a 99bb
00000190: 9120 e83c fa23 cdba 29c3 08bc 19d3 a0bc
000001a0: 6435 fa38 4b01 9dbc cc3f c8bc 7d47 c238
000001b0: 91b5 a8bc 51df 51bc 1921 e6bc 4a12 9e3b
000001c0: 0985 6f3d 310f 0fbd 8c74 853b 21f2 0abc
000001d0: 7cff 18bd 984d e73b c76c c23c c5ef 573b
000001e0: 9890 8dbc f92e a6bb ea64 dfbc bbb1 f5bb
000001f0: 1e30 c53d 14f0 2abd ac40 a63c dbea 623c
00000200: 744a 3ebc 1e40 b53c b4a4 773c e4c4 bfbc
00000210: 7686 8d3b fd34 573c 3852 75bd da36 2fbd
00000220: ebff 8b3c 1c87 043d 2e47 34bd 0e4e 8c3a
00000230: aafb 2fbc a701 efbc 6195 55bb f2aa 54bd
00000240: 379a 3cbd 83f8 1abd 7329 42ba f3e3 193d
00000250: d4ae a3bb 1d39 9abd d181 afbb 3008 7bbc
00000260: ef0a 01bd b339 77bc 74eb 613b 6540 493d
00000270: 26e7 e5bc 1c2d 93bc 42fe 3dbd 743e 2cbd
00000280: ff04 2bbd aa6c c2bd e692 05bd 4d6d 05bd
00000290: e4d6 5abc 2039 243c 49b0 33bd 9d57 aabd
000002a0: bb8d d5bc 2b19 adbd e62c a13c 7d74 d63a
000002b0: 97e0 4bbc ceb0 15bd ae80 9b3d 74f7 ff3c
000002c0: 311a 30bc 28d9 a8bc 31c1 7bbd 16df 21bd
000002d0: 6044 8bbc c1a8 0c3c e821 903b e778 cb3c
000002e0: 6b43 583a 2466 05bd e3f3 6c39 abea e7bc
000002f0: 56db 0ebd ac9e ffbc da4d 36ba 4adf 963d
00000300: 8f55 f33c 1932 de3c 86a2 01bd 38a0 0ebd
00000310: 2817 20bc c596 e9bb 8062 843d b4b7 913d
00000320: 74d2 29bb 4056 26bc 7007 bb3c 9df9 783c
00000330: a809 a8bc a927 b2bc a589 14bd b868 12bd
00000340: b47c ab3c 5d6e 2a3d fb8f b93c 5e06 b53c
00000350: 5528 f03b a577 7ebb c9db 983b dc35 5dbc
00000360: f0d4 003b 390c 113b fd54 183d 306d 3f3d
00000370: af6d 0d3d fe8e 013d cc67 c33c fa62 1c3d
00000380: b567 7abd 0675 62bc 2414 cbbc 9c6e 17bc
00000390: e10c 1f3d 908d 5f3d 5ee4 db3b 5878 f83c
000003a0: 228a 17bd 1cd6 cbbc 213e fe3c 7855 a33b
000003b0: e112 10bc 668b 83bc 503d 363d 63ed e2bc
000003c0: 2887 87bd de7c 7dbd 66cd 0abc 1db3 be3c
000003d0: e7c9 ab3c bfae dd3b 2ef0 c03c c86b e93c
000003e0: 4c31 a2bc c3a7 c7bc 7f6c d13c be4c 933b
000003f0: 10b1 51bd 9d9d cebc c2be b23c e475 d53c

encoder.filter_convs.2.conv.bias f4 [32]
-0.0059964685 -0.0008506892 -0.005623806 0.017875671 0.0056021176 0.022698583 0.030268526 0.008630277
0.026255593 -0.013071075 -0.003442526 0.023310153 -0.022035317 0.014554606 -0.0323496 -0.06516604
0.037747372 0.0046776007 -0.01791761 0.07007511 0.052214336 0.013785784 -0.0052409586 -0.0010688384
0.0012806399 0.024584593 -0.007229604 -0.006702651 0.011370845 -0.012259388 -0.028629074 -0.0022442692
00000000: 067e c4bb c900 5fba e747 b8bb 0070 923c
00000010: f891 b73b 61f2 b93c b3f5 f73c 0166 0d3c
00000020: f815 d73c 1028 56bc 019c 61bb eff4 be3c
00000030: 6983 b4bc 7176 6e3c 0481 04bd c675 85bd
00000040: fd9c 1a3d 8f46 993b f4c7 92bc 8a83 8f3d
00000050: b3de 553d c5dd 613c 59bc abbb 4418 8cba
00000060: 25db a73a a165 c93c 50e6 ecbb e9a1 dbbb
00000070: c84c 3a3c 9adb 48bc 8587 eabc 9714 13bb

encoder.filter_convs.3.conv.weight f4 [32, 32, 1, 2]
0.010091825 -0.0050360267 -0.01679796 0.009357495 0.00040334635 -0.0026368275 -0.0068791495 0.017872036
0.0019223485 -0.018247359 -0.012151973 0.013473495 -0.01039661 0.0023033044 0.02473506 -0.014203433
0.0038797394 0.009909253 -0.0014250099 -0.014823919 -0.0041541914 0.0193136 0.0011259665 0.0011263709
-0.00056508806 0.001000207 -0.017799007 0.0040691644 0.0065389345 0.010127877 0.0029449763 0.004551381
0.0058844727 0.008438252 0.010811233 -0.0029517214 0.006678913 0.00097274646 0.0003764923 0.0022573313
4.8373666e-05 0.0041718557 -0.0050309463 0.017679237 -0.0053698765 0.008760656 -0.024966517 0.029557949
0.02922346 -0.030458612 0.029736329 -0.004190942 0.0039558695 0.009292698 0.0007328094 -0.0017917573
-0.002573774 0.011506588 -0.005806885 0.027023586 0.036404528 -0.05311208 0.00859333 -0.021631274
0.004257318 -0.00016167204 -0.010249091 -0.0004705651 0.0020656465 -0.001504862 -0.023506848 -0.008712966
0.005011386 0.0094772 -0.013241127 -0.029057525 0.00026724927 -0.004780223 0.030885486 0.011151771
-0.0227008 -0.029548123 -0.0008286128 0.0016263652 -0.0062987423 0.016048426 0.00065250526 -0.0012348975
-0.0038972658 -0.029645193 -0.04319584 -0.016808266 -0.006666402 -0.0045818817 -0.0057060565 -0.008622043
0.014324868 -0.006054663 0.019754479 -0.032177947 -0.0073335804 0.011643943 -0.0003859375 0.0005865283
0.0044241278 -0.00027356832 -0.02088744 -0.00045468146 -0.0013762508 -0.008897128 -0.035241444 0.029204238
0.067231506 -0.0018464052 0.02706804 -0.026249813 -0.009894402 -0.014506592 -0.00429792 0.014352519
0.001391553 -0.005114641 -0.022650508 0.005110947 0.06963333 -0.007850324 0.0046025044 -0.0025565247
-0.009004171 -0.012679351 0.019413652 0.02334596 2.8821103e-05 -0.0054172496 0.034089554 -0.0040598502
-0.017683433 -0.009000298 0.07020681 0.004094409 0.023507468 0.014854834 -0.054910876 0.04177024
0.06057573 0.019391207 0.0036119474 -0.03526815 -0.01869097 0.013090515 0.0038941249 0.0036820218
0.053748358 0.018010752 0.05778852 -0.029670862 0.009668699 0.0013518537 0.01901129 0.007343204
-0.006728241 0.034992293 0.029177276 0.029366001 -0.026992055 -0.028738411 -0.000788657 0.004356782
-0.0010134509 0.017049154 0.011221628 0.024369258 0.031323098 0.042598415 -0.0022094299 0.028128352
-0.044221442 0.038140472 0.007573063 0.0058129625 0.033175677 0.023185482 -0.023133503 -0.025789153
0.016637027 0.03618354 0.0028292423 0.031352326 -0.072914846 -0.017866645 -0.004627242 -0.041004065
0.0070271143 0.00511438 -0.012595325 -0.006633861 0.00033972788 -0.00080113515 -0.017368264 0.0018653198
0.006722157 0.006885412 -0.023703407 -0.006363136 -0.009485487 -0.009663254 0.039032 -0.010008864
-0.01990465 -0.009916053 -0.009743075 0.0054677282 0.0044305176 0.0030668133 0.0005912989 -0.00055771973
-0.013689612 -0.012679869 -0.040738735 0.012442282 -0.0006332179 0.0019250507 -0.0040932107 -0.004079948
0.012942053 -0.018355845 0.0057877493 -0.025979482 0.004780687 0.011970432 0.0004244769 -0.0011756497
0.0030706087 -0.007401734 -0.006892735 0.0065136612 -0.0066073416 -0.013033714 -0.014747221 0.020645022
0.052610982 -0.022801593 0.021182138 -0.012443951 -0.0035689182 0.0030936813 0.002458117 0.013017244
0.00050673436 -0.010394395 -0.003425963 0.0034102742 0.052350145 -0.026350448 -0.00043359556 0.009121512
00000000: 2f58 253c 4105 a5bb e09b 89bc 2e50 193c
00000010: 3b78 d339 a0ce 2cbb 7d6a e1bb 6068 923c
00000020: 50f7 fb3a 7c7b 95bc 1219 47bc efbf 5c3c
00000030: 8b56 2abc 09f3 163b 2ea1 ca3c 84b5 68bc
00000040: 3a43 7e3b 6b5a 223c 66c7 baba 06e0 72bc
00000050: e21f 88bb 8e37 9e3c 2b95 933a bca2 933a
00000060: 6b22 14ba 6119 833a 39cf 91bc a056 853b
00000070: 8f44 d63b 65ef 253c 8100 413b c023 953b
00000080: 89d2 c03b 9840 0a3c 9921 313c ab71 41bb
00000090: c8da da3b e9ff 7e3a f163 c539 bcef 133b
000000a0: d4e4 4a38 10b4 883b a3da a4bb 0cd4 903c
000000b0: caf5 afbb db88 0f3c 9586 ccbc 8323 f23c
000000c0: 0a66 ef3c 5784 f9bc 9a99 f33c 2b54 89bb
000000d0: 3da0 813b 6740 183c 021a 403a 66d9 eaba
000000e0: c3ac 28bb 2186 3c3c af47 bebb 9160 dd3c
000000f0: ea1c 153d 0d8c 59bd 0acb 0c3c 1234 b1bc
00000100: f980 8b3b 8286 29b9 ceeb 27bc 2eb6 f6b9
00000110: cc5f 073b ca3e c5ba 6f91 c0bc d4c0 0ebc
00000120: 8d36 a43b 4246 1b3c 50f1 58bc 0c0a eebc
00000130: 971d 8c39 6ba3 9cbb 8f03 fd3c ebb5 363c
00000140: 07f7 b9bc e80e f2bc 4437 59ba c32b d53a
00000150: ae65 cebb fd77 833c e30c 2b3a 49dc a1ba
00000160: 4569 7fbb 7ada f2bc 1fee 30bd 7db1 89bc
00000170: d571 dabb 9c23 96bb dff9 babb 7843 0dbc
00000180: dab2 6a3c 3266 c6bb 25d4 a13c 06cd 03bd
00000190: 884e f0bb 3dc6 3e3c a857 cab9 3fc1 193a
000001a0: 46f8 903b b86d 8fb9 231c abbc 5062 eeb9
000001b0: 5063 b4ba 42c5 11bc 5559 10bd ba3d ef3c
000001c0: acb0 893d 1403 f2ba cbbd dd3c d909 d7bc
000001d0: 211c 22bc 0fad 6dbc 91d5 8cbb d426 6b3c
000001e0: c564 b63a b898 a7bb 8f8d b9bc bb79 a73b
000001f0: eb9b 8e3d a59e 00bc 9bd0 963b 5e8b 27bb
00000200: 3b86 13bc 0dbd 4fbc 6109 9f3c 0740 bf3c
00000210: d9c4 f137 2f83 b1bb 7da1 0b3d 7e08 85bb
00000220: d9dc 90bc fc75 13bc 97c8 8f3d 642a 863b
00000230: bc92 c03c b161 733c 3aea 60bd 4517 2b3d
00000240: 421e 783d 4fda 9e3c 6cb6 6c3b 5675 10bd
00000250: ce1d 99bc 9979 563c 9334 7f3b 134e 713b
00000260: 3d27 5c3d 498b 933c a8b3 6c3d 4f10 f3bc
00000270: 7669 1e3c af30 b13a 91bd 9b3c 439f f03b
00000280: 9478 dcbb 1454 0f3d 2f05 ef3c f890 f03c
00000290: 711e ddbc d16c ebbc e0bd 4eba 56c3 8e3b
000002a0: c5d5 84ba abaa 8b3c ebda 373c 0aa2 c73c
000002b0: a64c 003d ad7b 2e3d 15cc 10bb 6e6d e63c
000002c0: 8b21 35bd 2f39 1c3d 7527 f83b aa7a be3b
000002d0: 38e3 073d 7bef bd3c 7982 bdbc c643 d3bc
000002e0: 604a 883c 3135 143d cf6a 393b 4c6b 003d
000002f0: 6154 95bd 125d 92bc 1fa0 97bb e1f3 27bd
00000300: b543 e63b 8796 a73b 9f5c 4ebc dc60 d9bb
00000310: 811d b239 4503 52ba e447 8ebc bf7d f43a
00000320: 8a45 dc3b 069f e13b a62d c2bc db81 d0bb
00000330: 0469 1bbc a052 1ebc 05e0 1f3d 38fc 23bc
00000340: 140f a3bc f176 22bc 6ba1 1fbc a12a b33b
00000350: e02d 913b 97fc 483b 6601 1b3a f033 12ba
00000360: 654a 60bc 3abf 4fbc a9dd 26bd b7da 4b3c
00000370: 89fe 25ba fc51 fc3a 5720 86bb 16b1 85bb
00000380: e80a 543c ff5e 96bc 29a7 bd3b ecd2 d4bc
00000390: 4fa7 9c3b a11f 443c 538c de39 4218 9aba
000003a0: 443c 493b 3f8a f2bb 74dc e1bb 8d70 d53b
000003b0: 6682 d8bb 5c8b 55bc 549e 71bc c01f a93c
000003c0: 9d7e 573d 68ca babc 2a86 ad3c b7e1 4bbc
000003d0: 83e4 69bb 5cbf 4a3b 5c18 213b 4746 553c
000003e0: 5ed6 043a 414d 2abc 1f86 60bb e87e 5f3b
000003f0: 1b6d 563d e5dc d7bc 3654 e3b9 6572 153c

encoder.filter_convs.3.conv.bias f4 [32]
0.010201532 0.004045523 0.02546842 0.0055232127 -0.006429409 -0.023661898 0.004458431 -0.008633733
0.035042524 0.0026877185 -0.017457198 -0.0012984804 0.029895067 0.01594056 0.018226385 -0.024853498
-0.0038708097 0.007861032 0.05096567 0.017266601 0.0055356207 -0.0016330071 -0.039093502 -0.012668617
-0.0034761245 0.010258695 -0.088751085 -0.014127871 0.019276887 -0.00019804972 0.015096948 -0.004419105
00000000: 5424 273c 4e90 843b 26a3 d03c 11fc b43b
00000010: cbad d2bb 99d6 c1bc 0818 923b 8074 0dbc
00000020: c088 0f3d 6f24 303b 6602 8fbc c631 aaba
00000030: 80e6 f43c c795 823c 804f 953c 9099 cbbc
00000040: 69ad 7dbb 8fcb 003c 61c1 503d b072 8d3c
00000050: 2764 b53b a00a d6ba 8220 20bd 0890 4fbc
00000060: b1cf 63bb 1614 283c 21c3 b5bd 9678 67bc
00000070: 90ea 9d3c 91ab 4fb9 3059 773c 24ce 90bb

encoder.filter_convs.4.conv.weight f4 [32, 32, 1, 2]
0.0097109685 0.012784547 -0.006804909 -0.012532876 0.005606531 0.009310898 -0.0071312543 -0.028284118
0.042168442 0.06099161 0.028883005 0.005311668 -0.013286163 -0.012602363 -0.024568262 -0.010885713
0.02398085 0.005512634 0.021509252 0.027621796 -0.08559683 -0.114414275 0.006345336 0.0012377194
0.028324667 0.04786397 0.025757104 0.011023155 0.018444007 -0.0005650558 -0.00017052342 -0.010302018
-0.056234736 -0.049661554 0.0014282897 0.010790891 -0.0044807126 -0.0036261468 -0.031541113 -0.03734957
-0.064975634 -0.061599836 0.008743458 -0.0126339095 -0.03309176 -0.031538825 0.009072176 -0.039929636
-0.017043324 0.009499445 0.0017128418 0.015657661 0.02264669 0.020821137 0.001576501 -0.0053356495
-0.018176684 -0.025072629 -0.021874165 -0.044519532 -0.036626663 0.009521615 0.056151766 0.069764294
-0.0002960443 0.0007576165 0.0006959347 6.4548214e-05 0.0033702734 0.0019215117 0.0034271826 0.0058822446
0.0028993054 0.0039610555 0.0045729605 0.0071889344 -0.003348595 -0.003924979 -0.008468236 -0.008161797
-0.0019238062 0.0026910452 0.004832718 0.0040325187 0.0012121629 -0.005090064 0.001116868 -0.00012580396
0.0046605445 0.012595601 0.005181926 0.006228109 0.0047293007 0.0039318916 -0.0044739908 -0.0033414261
-0.014937121 -0.0138807725 -0.014125177 -0.0119015 -0.001731646 0.00021840606 -0.009606967 -0.006970439
-0.0112381205 -0.014270368 0.0058855205 0.004691763 -0.011224866 -0.010963334 0.026342964 0.019336322
-0.00872188 -0.0075912517 -0.012308856 -0.008189819 0.0019346075 0.0035256403 -0.001244298 0.001086554
-0.0014146523 -0.0029806697 0.005658509 0.0029851478 -0.022553077 -0.023330621 0.006279492 0.0077374973
0.002727449 -0.0029054892 -0.008848857 -0.00014919636 -0.006231597 -0.0057008495 -0.045554 -0.023765132
0.046640124 0.02542467 -0.10909077 -0.08208958 -0.017153054 -0.006781046 0.060929306 0.031467345
-0.07330753 -0.055005763 -0.030893726 -0.010860328 0.093824565 0.09841663 -0.030116068 -0.020145535
-0.14169161 -0.1242023 -0.043548293 -0.031103965 -0.041062806 -0.028838536 -0.03805756 -0.027552262
0.053631004 0.045168504 -0.042837653 -0.04856223 0.046256572 0.04716657 0.04466211 0.04068063
0.05087941 0.03788475 -0.019994922 -0.017805083 -0.026844762 -0.035101347 -0.01790629 -0.018339142
0.041959804 0.012104256 0.001231652 -0.013713877 -0.03552756 -0.028380258 0.05656923 0.034598198
-0.010080687 -0.010844009 -0.003123604 0.0028569214 0.08741299 0.047742147 -0.024845464 -0.027131248
0.0005709948 0.0016521675 8.535005e-05 -0.00065309345 0.0035138451 0.0016894484 0.015260889 0.01722669
-0.018354982 -0.013039343 0.007498406 0.0028943154 -0.0071985573 -0.007839701 -0.0070314715 -0.0054069036
0.0025569499 0.0036288574 0.007336173 0.0050288937 0.014630329 0.012668367 -0.0013343282 -0.0032870471
0.006361349 0.0011762346 0.0052987733 0.0060948716 0.014900684 0.012295392 0.0034479897 0.0053347396
-0.014256327 -0.010740143 -0.019799568 -0.016720641 0.007213114 0.010485237 -0.0060097557 -0.001246243
-0.00972966 -0.011825107 0.008831627 0.0052624946 -0.016261244 -0.014882011 0.026496343 0.018695455
-0.010834177 -0.010022671 -0.013634607 -0.010109357 -0.0009831492 -0.00046542485 0.0016540103 0.007472914
-0.0047318856 -0.006458519 0.015411091 0.01022146 -0.019084979 -0.015906112 0.0060925675 0.0060231634
00000000: c11a 1f3c 4776 513c b7fb debb b156 4dbc
00000010: feb6 b73b bd8c 183c 4cad e9bb 18b4 e7bc
00000020: d1b8 2c3d 57d2 793d 0d9c ec3c 800d ae3b
00000030: 35ae 59bc 247a 4ebc 6143 c9bc fd59 32bc
00000040: 7d73 c43c 53a3 b43b 2c34 b03c 1b47 e23c
00000050: 644d afbd 0852 eabd 89ec cf3b f93a a23a
00000060: 2209 e83c 030d 443d 9000 d33c 779a 343c
00000070: e317 973c 4120 14ba 88ce 32b9 ccc9 28bc
00000080: 6556 66bd ea69 4bbd 7335 bb3a 47cc 303c
00000090: f1d2 92bb a6a4 6dbb 4131 01bd ddfb 18bd
000000a0: f211 85bd 1c50 7cbd b940 0f3c 75fe 4ebc
000000b0: 3a8b 07bd db2e 01bd 77a3 143c 428d 23bd
000000c0: 719e 8bbc 8fa3 1b3c 6f81 e03a 7f44 803c
000000d0: 8d85 b93c 1791 aa3c 98a2 ce3a acd6 aebb
000000e0: 45e7 94bc 1d65 cdbc 7331 b3bc 1d5a 36bd
000000f0: d705 16bd 8c00 1c3c 65ff 653d 95e0 8e3d
00000100: 6536 9bb9 c89a 463a 636f 363a 0f5e 8738
00000110: cedf 5c3b 3cdb fb3a 959a 603b d8bf c03b
00000120: 4602 3e3b becb 813b c6d8 953b 2791 eb3b
00000130: 1a74 5bbb 1c9d 80bb 5bbe 0abc 0fb9 05bc
00000140: 3928 fcba 3f5c 303b c75b 9e3b 3823 843b
00000150: 70e1 9e3a 8dca a6bb df63 923a 3eea 03b9
00000160: 7bb7 983b c85d 4e3c 25cd a93b 2a15 cc3b
00000170: 40f8 9a3b 19d7 803b 8e9a 92bb d4fb 5abb
00000180: d4ba 74bc 2e6c 63bc 496d 67bc 82fe 42bc
00000190: 66f8 e2ba ee03 6539 8a66 1dbc 4868 e4bb
000001a0: 1820 38bc 43ce 69bc 53db c03b 5cbd 993b
000001b0: 80e8 37bc 8e9f 33bc 33cd d73c 3567 9e3c
000001c0: 37e6 0ebc 09c0 f8bb 15ab 49bc 972e 06bc
000001d0: a892 fd3a 6e0e 673b b617 a3ba b46a 8e3a
000001e0: db6b b9ba 5757 43bb 046b b93b 78a2 433b
000001f0: 3bc1 b8bc dc1f bfbc 32c4 cd3b d58a fd3b
00000200: 00bf 323b 056a 3ebb ccfa 10bc 9871 1cb9
00000210: 6d32 ccbb 31ce babb d596 3abd 18af c2bc
00000220: b709 3f3d 6647 d03c fb6a dfbd 951e a8bd
00000230: 9084 8cbc 8933 debb 0291 793d e7e3 003d
00000240: 4222 96bd b94d 61bd d714 fdbc 84ef 31bc
00000250: 1827 c03d a88e c93d f9b5 f6bc 4008 a5bc
00000260: 9b17 11be c75d febd b25f 32bd becd febc
00000270: 7931 28bd cb3e ecbc 3ee2 1bbd 48b5 e1bc
00000280: 2fac 5b3d 9c02 393d 8976 2fbd 30e9 46bd
00000290: 8877 3d3d bc31 413d 9eef 363d bba0 263d
000002a0: ee66 503d 0a2d 1b3d 64cc a3bc f7db 91bc
000002b0: 8ce9 dbbc 6ec6 0fbd 36b0 92bc f83b 96bc
000002c0: 0bde 2b3d ee50 463c 626f a13a 2bb0 60bc
000002d0: 5985 11bd b77d e8bc 23b5 673d d7b6 0d3d
000002e0: 7729 25bc 12ab 31bc 61b5 4cbb 303b 3b3b
000002f0: 9505 b33d 458d 433d b788 cbbc 5a42 debc
00000300: d0ae 153a 8b8d d83a f6fd b238 5c34 2bba
00000310: 8a48 663b 7b70 dd3a cf08 7a3c fd1e 8d3c
00000320: 305d 96bc f8a2 55bc 30b5 f53b 8eae 3d3b
00000330: e0e1 ebbb 1772 00bc 4268 e6bb 652c b1bb
00000340: 8092 273b 20d2 6d3b 4864 f03b 6bc9 a43b
00000350: 0cb4 6f3c fb8e 4f3c a0e4 aeba 806b 57bb
00000360: dd72 d03b e22b 9a3a 55a1 ad3b 7db7 c73b
00000370: 0022 743c 9d72 493c abf7 613b 0acf ae3b
00000380: 5f93 69bc 6df7 2fbc b432 a2bc baf9 88bc
00000390: fc5b ec3b 46ca 2b3c 7ced c4bb fa58 a3ba
000003a0: 2769 1fbc 18be 41bc 87b2 103c 0171 ac3b
000003b0: 4d36 85bc aed3 73bc dc0e d93c 3627 993c
000003c0: d581 31bc 2136 24bc b063 5fbc b7a1 25bc
000003d0: 03dd 80ba 4404 f4b9 60cb d83a 59df f43b
000003e0: ef0d 9bbb fca1 d3bb cd7e 7c3c e977 273c
000003f0: 1a58 9cbc 894d 82bc 29a4 c73b f55d c53b

encoder.filter_convs.4.conv.bias f4 [32]
-0.017903602 -0.0015917877 -0.02302947 0.0049671927 0.016141929 0.0028105418 -0.016608754 0.0039433744
0.020328522 0.0021430375 0.0048872256 -0.072313555 0.0045992825 0.007918669 -0.0032978714 0.0059829843
-0.0011630125 -0.00045463486 -0.00021101815 -0.0057111075 0.0015408137 0.0056334734 -0.00913905 -0.019745683
0.00268537 0.0020640355 -0.016607068 0.00080471946 -0.0016031853 0.0035692935 -0.0027991228 0.0070659877
00000000: 93aa 92bc 88a3 d0ba 4da8 bcbc d5c3 a23b
00000010: 143c 843c 1131 383b 150f 88bc 6c37 813b
00000020: 0088 a63c 3472 0c3b 0525 a03b 2119 94bd
00000030: 94b5 963b 4ebd 013c 1a21 58bb e90c c43b
00000040: 3970 98ba 0f5c eeb9 c144 5db9 3e24 bbbb
00000050: 21f5 c93a 0099 b83b f4bb 15bc b3c1 a1bc
00000060: 08fd 2f3b c544 073b 8c0b 88bc cff3 523a
00000070: f921 d2ba cfea 693b 7d71 37bb cd89 e73b

encoder.filter_convs.5.conv.weight f4 [32, 32, 1, 2]
0.00015103567 0.0005559903 7.2695846e-05 -0.00038978766 0.00013280456 -2.41602e-05 0.0005232211 0.00016659022
-0.0012946198 -0.00032821755 0.0005393506 -0.00038608184 -0.0005269302 -0.0008364411 -0.00041071617 0.00094329804
0.00058045186 4.7289457e-05 0.00010697521 0.00040969523 0.0010908798 0.0012996249 0.0004132073 -6.346601e-05
0.00087270595 -0.00080189976 0.0004659855 -0.0002723047 0.0009717676 0.00057035475 0.00034596026 0.00020664059
-0.00024639317 2.0676156e-05 0.00016740865 -0.00066719094 0.00039467734 0.0012411076 5.4686967e-05 0.00047760637
-0.00017606143 -5.375363e-05 0.0006052213 -3.7481597e-05 -0.0002629719 -0.00050744595 0.002196559 -0.0011399175
-0.0007609847 0.00017829439 9.524615e-05 0.0007112796 8.5425054e-05 -1.1087173e-05 -0.0002005911 0.00034449124
-2.115581e-05 -0.00025030103 0.0014233564 0.00015159008 -0.000759783 0.0007206944 -3.414127e-05 0.00028091384
0.003698292 0.005224795 -0.009034732 -0.007741349 -0.0019133539 -0.0037964422 -0.008790612 -0.001352881
0.0091877915 -0.000682663 -0.03500248 -0.023335304 -0.025325106 -0.018482713 0.029805316 0.009586584
-0.01683401 -0.0103327185 -0.023087664 -0.014950017 0.06552638 0.058985367 -0.01133656 -0.010010681
-0.050949875 -0.037979532 -0.017380053 -0.0016533978 -0.0032569382 0.001231579 -0.00505989 -0.0038519886
0.01597714 0.0008965286 -0.018997183 -0.026664754 0.024715822 0.021195803 0.006998357 0.0059099197
0.019298935 0.0031793022 0.0026646988 0.009645514 -0.016504964 -0.014762251 0.018533973 0.045666326
0.011955869 -0.008741917 -0.0051079146 -0.017689824 -0.001817016 0.00011455831 0.012362098 0.011869116
-0.00031218154 -0.0024078866 0.019255154 0.026201935 0.008396589 -0.013971147 -0.007956975 -0.0059796814
-0.009452801 -0.0104211755 0.002630971 0.003985867 -0.0046365648 -0.001671702 -0.012489986 -0.026408922
0.013128243 0.023568995 -0.014369652 -0.027618172 0.006721397 0.0075901235 0.030629762 0.035989523
0.00036969344 -0.015373205 -0.033340205 -0.01847713 -0.019047428 -0.023242533 0.0013461349 0.0031676586
-0.010405077 -0.024367506 -0.014986086 -0.019171426 -0.012838226 -0.020283088 -0.0014968708 -0.008537202
0.02513644 0.017855268 0.020319944 0.016646959 -0.015495468 -0.019055402 0.006834634 0.0004142606
0.02156947 0.017852569 -0.006697646 -0.005634353 0.023866227 0.015890287 -0.030974211 -0.015355614
0.025296312 0.032609187 0.02119001 0.012306421 0.0017450901 0.0007739988 -0.001973224 -0.0038966618
0.008264275 0.0056257034 -0.0156207 -0.017862372 0.018757971 0.027927661 -0.010088839 -0.0053605693
0.0033777922 -0.0006234068 -0.004972602 -0.0007033011 -0.003364155 -0.00057192723 -0.0021484932 0.00027253354
0.0066261576 -0.0004875665 -0.004963932 0.0040885205 -0.0024562774 6.065019e-05 0.00442871 -0.0022305509
-0.0013972194 0.0039276006 -0.0011000535 -0.0022352685 -0.009769943 -0.011913429 -0.0052969838 0.00050996616
-0.009797726 0.006752055 -0.00070980965 0.00023773218 -0.0044381046 0.0010251423 -0.00086380733 0.0012886876
0.0030336406 0.004808863 -0.00010093644 0.013182127 0.006740619 -0.0015805854 0.004003056 0.0006894913
-0.0024978907 0.0013750301 -0.0062066475 -0.002568772 -0.0028368253 -4.530978e-07 -0.03217362 -0.027151931
0.0035759471 0.0013267564 0.011109735 0.014285005 -0.0004916322 0.0005295819 0.00569977 -0.0011237189
-0.0016983838 0.0007625636 -0.012680881 -0.006629774 0.00832181 0.0025767193 0.0020550906 0.00026616378
00000000: 545f 1e39 e1bf 113a 4974 9838 6a5c ccb9
00000010: 7441 0b39 a2ab cab7 c628 093a b9ae 2e39
00000020: 3bb0 a9ba 9d14 acb9 3563 0d3a 076b cab9
00000030: b021 0aba 9d44 5bba 6455 d7b9 a947 773a
00000040: 7729 183a ab58 4638 e157 e038 5dcc d639
00000050: dafb 8e3a 2d58 aa3a bfa3 d839 0e19 85b8
00000060: 4ec6 643a 9536 52ba 844f f439 1ec4 8eb9
00000070: 38be 7e3a dc83 153a 0062 b539 a9ad 5839
00000080: 552e 81b9 b571 ad37 6b8a 2f39 6de6 2eba
00000090: b2ec ce39 a9ac a23a af5f 6538 3e67 fa39
000000a0: 219d 38b9 8575 61b8 b7a7 1e3a 8f35 1db8
000000b0: 7edf 89b9 1f06 05ba 25f4 0f3b 4969 95ba
000000c0: d27c 47ba 89f4 3a39 e3be c738 2a75 3a3a
000000d0: 3a26 b338 0c03 3ab7 c355 52b9 d59c b439
000000e0: c277 b1b7 d63a 83b9 ea8f ba3a 27f4 1e39
000000f0: 2d2c 47ba fcec 3c3a e932 0fb8 9e47 9339
00000100: 0b5f 723b c234 ab3b 6a06 14bc 24ab fdbb
00000110: 81c9 faba bbcd 78bb 8006 10bc 2753 b1ba
00000120: 6488 163c bdf4 32ba c35e 0fbd ae29 bfbc
00000130: 9976 cfbc 0f69 97bc 472a f43c 0c11 1d3c
00000140: 7ae7 89bc 904a 29bc 5722 bdbc ebf0 74bc
00000150: b232 863d a49a 713d fbbc 39bc d703 24bc
00000160: d1b0 50bd 6d90 1bbd 9d60 8ebc d3b6 d8ba
00000170: 5b72 55bb ef6c a13a 6fcd a5bb a571 7cbb
00000180: 7ee2 823c 0405 6b3a fb9f 9bbc 0b70 dabc
00000190: d678 ca3c d2a2 ad3c 7952 e53b 00a8 c13b
000001a0: cd18 9e3c d75b 503b 3aa2 2e3b 3808 1e3c
000001b0: 6b35 87bc 5edd 71bc 8fd4 973c 9d0c 3b3d
000001c0: 8de2 433c 423a 0fbc 4b60 a7bb 40ea 90bc
000001d0: f128 eeba 063f f038 668a 4a3c ae76 423c
000001e0: 4cac a3b9 a2cd 1dbb fcbc 9d3c 71a5 d63c
000001f0: d991 093c 3de7 64bc f95d 02bc 34f1 c3bb
00000200: ecdf 1abc 94bd 2abc 5e6c 2c3b e09b 823b
00000210: 53ee 97bb 031d dbba cca2 4cbc 8657 d8bc
00000220: d817 573c c413 c13c b06e 6bbc 813f e2bc
00000230: 2a3f dc3b 92b6 f83b 44eb fa3c c069 133d
00000240: 6ad3 c139 e5df 7bbc bd8f 08bd 5a5d 97bc
00000250: 5a09 9cbc 2067 bebc cb70 b03a 7e98 4f3b
00000260: 0e7a 2abc 5d9e c7bc 3388 75bc 650d 9dbc
00000270: 6c57 52bc b828 a6bc a632 c4ba 9fdf 0bbc
00000280: efea cd3c 3645 923c 0376 a63c 345f 883c
00000290: b4e0 7dbc 131a 9cbc 11f5 df3b 1e31 d939
000002a0: 75b2 b03c 8d3f 923c ed77 dbbb 61a0 b8bb
000002b0: 1b83 c33c 592c 823c a1bd fdbc 1d96 7bbc
000002c0: 363a cf3c 3691 053d ac96 ad3c dfa0 493c
000002d0: 82bb e43a 2ee6 4a3a 3551 01bb 235f 7fbb
000002e0: e266 073c d257 b83b f7ed 7fbc 1c54 92bc
000002f0: 51aa 993c 8dc8 e43c a84b 25bc b7a7 afbb
00000300: f35d 5d3b 1f6c 23ba 35f1 a2bb bd5d 38ba
00000310: 2879 5cbb 63ed 15ba bccd 0cbb d5e2 8e39
00000320: 3d20 d93b 11a0 ffb9 7ba8 a2bb fff8 853b
00000330: 7ff9 20bb a562 7e38 b61e 913b 6f2e 12bb
00000340: e722 b7ba 1ab3 803b ac2f 90ba 957d 12bb
00000350: 1c12 20bc 8b30 43bc 5292 adbb 40af 053a
00000360: a486 20bc 5840 dd3b 8512 3aba bf47 7939
00000370: 856d 91bb 115e 863a 2171 62ba 2ee9 a83a
00000380: 0bd0 463b ab93 9d3b d7ad d3b8 d9f9 573c
00000390: 69e0 dc3b a52b cfba 112c 833b fabe 343a
000003a0: a7b3 23bb 5b3a b43a 2261 cbbb d858 28bb
000003b0: 08ea 39bb 4a41 f3b4 7cc8 03bd ba6d debc
000003c0: 705a 6a3b 8fe6 ad3a 9b05 363c a70b 6a3c
000003d0: e1e0 00ba a4d3 0a3a 23c5 ba3b c049 93ba
000003e0: 4e9c deba c7e6 473a 78c3 4fbc 933e d9bb
000003f0: 3358 083c 2dde 283b b3ae 063b e68b 8b39

encoder.filter_convs.5.conv.bias f4 [32]
0.00011744987 0.01817844 -0.015616533 -0.004310546 0.016521856 0.01376501 -0.0020876776 -0.011700088
-0.022588618 0.029526953 0.0020270215 -0.0055336934 -0.006527884 -0.0043690116 0.0035877314 0.022036918
0.00027782578 0.0016163497 1.1630561e-05 -0.009717087 0.0029516919 -0.009946319 0.0009896038 -4.7338795e-05
0.005546176 -0.0024468638 -0.0075698234 -0.03503912 0.036223177 0.0010111526 -0.0043748277 -0.0022836048
00000000: 6b4f f638 f4ea 943c 7ddc 7fbc 7b3f 8dbb
00000010: d858 873c a386 613c 6bd1 08bb bab1 3fbc
00000020: c40b b9bc 82e2 f13c c7d7 043b fc53 b5bb
00000030: dce7 d5bb ed29 8fbb 2520 6b3b c486 b43c
00000040: 25a9 9139 b2db d33a e120 4337 6b34 1fbc
00000050: 2c71 413b e3f5 22bc 98b5 813a a58d 46b8
00000060: b2bc b53b 905b 20bb 480c f8bb 2e85 0fbd
00000070: c15e 143d a788 843a b75a 8fbb 88a8 15bb
