artifacts/runs/20260210_201127_STGCN_GRU/best.pt (torch, 539694 bytes, 25 tensors)

backbone.blocks.0.temporal1.conv.weight f4 [128, 6, 1, 3]
0.30767366 0.026076656 0.087371424 0.008856649 0.06548066 0.010168629 0.12091918 0.08473435
0.14017056 0.035930555 -0.028616631 -0.002810568 -0.09925991 -0.08055063 -0.117562436 0.033131182
-0.06003841 -0.06001782 -0.1066182 -0.07553933 0.036598615 -0.059860453 -0.0058427043 -0.035122998
0.019428177 -0.005135832 -0.028029853 -0.005690564 -0.017248983 0.00026334383 0.0052269218 -0.0009906265
0.02945004 0.0048717344 0.025588378 0.04172333 -0.044424504 -0.030045632 0.07979458 0.017105188
0.029765159 0.036570966 -0.05913222 -0.032949932 -0.044393256 0.056018565 0.042120535 0.047129635
0.050762262 0.044412315 0.069373064 -0.065282434 -0.034525495 -0.04128321 0.04398546 -0.048346676
0.036924344 0.02116613 0.10562411 -0.037467103 -0.027826337 -0.026429499 0.12247899 0.032384485
0.067255445 -0.07229563 -0.23955423 -0.21664864 -0.20087932 0.027247686 0.0021927876 0.02021978
-0.550196 -0.3416039 0.13304065 0.020328099 0.07603421 -0.041135658 -0.016302755 -0.174071
-0.16728829 -0.07406082 -0.054198846 -0.070395164 0.069671504 0.078998365 -0.023859631 -0.103546225
0.029443813 -0.060646243 -0.25835225 -0.19020025 -0.021237064 0.036451474 0.0026086962 -0.029888367
-0.015609373 -0.10329312 -0.12356402 -0.08618187 -0.106945336 -0.08184922 0.09755241 0.0439345
0.064494304 -0.124749295 -0.08372981 -0.035242926 0.004149919 -0.026559692 -0.016818337 -0.0018690387
0.0023226822 0.0080781095 0.0004103633 -0.0072238874 -0.012099883 -0.0223069 -0.017891685 -0.02171273
0.006653234 -0.0052237343 0.0070792045 0.0001676162 -0.0029887434 0.010079997 -0.115781784 -0.09617146
-0.08326542 -0.048007023 0.013853705 0.0063629807 -0.0007628059 -0.07564356 -0.007546913 -0.08283269
-0.046635814 -0.014020905 0.0014437998 0.022115717 0.040771693 -0.03819346 -0.0036341394 0.0005160307
0.013194791 0.0042262734 0.13870619 -0.045513242 0.0057045766 -0.026727851 0.05357346 0.015225855
0.076239906 0.0027367596 -0.013983521 -0.058331355 -8.125667e-05 -0.023741838 -0.04440977 0.060068652
0.03265952 -0.003267345 -0.14766921 -0.041153505 0.09564986 -0.027296204 -0.010137969 -0.022276113
-0.037084058 -0.01452982 -0.009819238 -0.025411487 -0.008283172 0.0033662897 -0.00774285 -0.012896113
0.0049630604 -0.004848434 -0.005604749 -0.0027423294 -0.06111986 -0.034771092 -0.029418737 0.01274958
0.011086946 0.02882705 -0.035141066 -0.03480349 -0.015692707 0.01602537 0.026560606 0.030966222
-0.010421958 0.0038418996 0.038360555 0.0017290292 -0.003507034 -0.011409365 -0.29129958 -0.2672459
-0.08806401 0.022847103 0.012590434 0.013502184 -0.060172584 -0.05337011 -0.032069143 0.04371996
-0.018845476 -0.04250988 0.03218361 -0.02736285 -0.032675207 0.090578 0.026516115 0.03521626
-0.081012 0.11110711 0.16220696 -0.05215533 -0.08655947 -0.1378135 -0.034443676 0.06777449
0.06334119 0.10458739 0.07835441 0.055221416 -0.05393627 -0.108770505 -0.12301959 -0.0672859
-0.01973616 -0.06284538 -0.24821799 -0.27773374 -0.09890495 -0.12570223 -0.06647046 -0.0059319674
-0.048735067 0.054908663 -0.07489199 -0.12081479 -0.0700096 -0.09758046 -0.14286256 -0.20468137
-0.04530354 -0.06976971 0.022127625 0.010875111 0.03745879 -0.0048722625 0.0013721278 0.008147743
00000000: 6787 9d3e b69e d53c caef b23d 7a1b 113c
00000010: b91a 863d 529a 263c 7aa4 f73d 3489 ad3d
00000020: df88 0f3e eb2b 133d 6d6d eabc 8231 38bb
00000030: c848 cbbd bbf7 a4bd 93c4 f0bd 90b4 073d
00000040: d6ea 75bd 3fd5 75bd a55a dabd 5db4 9abd
00000050: 6ee8 153d 3c30 75bd 2874 bfbb 22dd 0fbd
00000060: d727 9f3c 7b4a a8bb dd9e e5bc e977 babb
00000070: bd4d 8dbc 6911 8a39 9946 ab3b e9d7 81ba
00000080: 3641 f13c 12a3 9f3b b89e d13c 15e6 2a3d
00000090: 78f6 35bd 4222 f6bc 576b a33d 2e20 8c3c
000000a0: 10d6 f33c 70cb 153d a034 72bd 82f6 06bd
000000b0: b4d5 35bd b973 653d 9586 2c3d 010b 413d
000000c0: 17ec 4f3d b0e9 353d 7713 8e3d ccb2 85bd
000000d0: 9b6a 0dbd 9518 29bd 192a 343d 2a07 46bd
000000e0: fb3d 173d 9864 ad3c 7451 d83d 1b77 19bd
000000f0: 0ff4 e3bc ad82 d8bc 44d6 fa3d 98a5 043d
00000100: 39bd 893d bb0f 94bd b44d 75be 24d9 5dbe
00000110: 4fb3 4dbe 8a36 df3c dfb4 0f3b f4a3 a53c
00000120: a5d9 0cbf b5e6 aebe cf3b 083e 1d87 a63c
00000130: d3b7 9b3d dd7d 28bd 5b8d 85bc ab3f 32be
00000140: 9f4d 2bbe 33ad 97bd 9cff 5dbd 572b 90bd
00000150: efaf 8e3d e5c9 a13d 4675 c3bc 0b10 d4bd
00000160: 2734 f13c 3268 78bd bf46 84be dbc3 42be
00000170: 5af9 adbc 244e 153d a9f6 2a3b 73d8 f4bc
00000180: 75be 7fbc 588b d3bd 220f fdbd 1f80 b0bd
00000190: 2806 dbbd 90a0 a7bd 8fc9 c73d aaf4 333d
000001a0: 9715 843d 8f7c ffbd 897a abbd e35a 10bd
000001b0: 0bfc 873b b693 d9bc 9cc6 89bc 88fa f4ba
000001c0: 2438 183b 0c5a 043c 0826 d739 5cb6 ecbb
000001d0: 963e 46bc f6bc b6bc 9591 92bc e5de b1bc
000001e0: 5f03 da3b dc2b abbb acf8 e73b 22c2 2f39
000001f0: cbde 43bb 9226 253c 001f edbd 8bf5 c4bd
00000200: 0f87 aabd 03a3 44bd a6fa 623c 8d80 d03b
00000210: 0af7 47ba 03eb 9abd 184c f7bb 2fa4 a9bd
00000220: 3205 3fbd f0b7 65bc e23d bd3a 052c b53c
00000230: 3800 273d bf70 1cbd be2a 6ebb 3c46 073a
00000240: f72e 583c 8d7c 8a3b ff08 0e3e 186c 3abd
00000250: 75ed ba3b 5ef4 dabc d86f 5b3d dd75 793c
00000260: ab23 9c3d 355b 333b 231b 65bc dcec 6ebd
00000270: 5868 aab8 3e7e c2bc 05e7 35bd 8c0a 763d
00000280: fdc5 053d f420 56bb 9936 17be 9490 28bd
00000290: 13e4 c33d 4a9c dfbc b919 26bc 657c b6bc
000002a0: 74e5 17bd 7b0e 6ebc dfe0 20bc c02b d0bc
000002b0: 24b6 07bc f89c 5c3b bcb7 fdbb 384a 53bc
000002c0: 2ba1 a23b 9ddf 9ebb 0ba8 b7bb a7b8 33bb
000002d0: d158 7abd 226c 0ebd 90ff f0bc 9de3 503c
000002e0: 06a6 353c b526 ec3c 14f0 0fbd 1b8e 0ebd
000002f0: fe8d 80bc a347 833c a195 d93c e0ac fd3c
00000300: dcc0 2abc 61c8 7b3b f51f 1d3d 98a0 e23a
00000310: 44d6 65bb 58ee 3abc 3825 95be 74d4 88be
00000320: e75a b4bd d929 bb3c 1c48 4e3c 4438 5d3c
00000330: 8777 76bd 9e9a 5abd ef5a 03bd b313 333d
00000340: d461 9abc d71e 2ebd f6d2 033d 0e28 e0bc
00000350: 70d6 05bd f580 b93d 5338 d93c ed3e 103d
00000360: 9fe9 a5bd 208c e33d 9519 263e d4a0 55bd
00000370: 1746 b1bd fb1e 0dbe d014 0dbd 5acd 8a3d
00000380: 07b9 813d ea31 d63d 4778 a03d da2f 623d
00000390: 47ec 5cbd 12c3 debd b2f1 fbbd 31cd 89bd
000003a0: baad a1bc 14b5 80bd db2c 7ebe 1e33 8ebe
000003b0: ae8e cabd 16b8 00be aa21 88bd f360 c2bb
000003c0: 6c9e 47bd e8e7 603d f960 99bd bf6d f7bd
000003d0: 3161 8fbd 44d8 c7bd 904a 12be fe97 51be
000003e0: 3490 39bd 6ce3 8ebd fe44 b53c 862d 323c
000003f0: 636e 193d 80a7 9fbb f8d8 b33a 1c7e 053c

backbone.blocks.0.temporal1.conv.bias f4 [128]
0.014693035 0.016540788 0.020933807 -0.21569303 -0.1815013 -0.11338786 0.006360596 -0.06957625
-0.026845822 -0.01921435 0.050841536 0.07823689 0.040826574 -0.09123882 0.006626949 0.016070256
-0.055968367 -0.053590305 -0.11340912 -0.01874018 -0.07757596 0.034877576 0.07155974 -0.034054432
0.012991744 0.019839205 0.0052527776 -0.059277844 0.07543916 0.0081194 -0.03233628 -0.06528127
0.00014044231 0.017528247 -0.015743265 -0.0111160455 -0.07639979 -0.042532623 -0.069532394 0.024425998
0.044459704 0.025235333 -0.061354782 0.041338097 0.11018543 0.08511804 0.027548077 0.03365932
0.06917149 -0.06785613 -0.022934616 -0.085582316 0.06621994 0.14905678 0.018276308 0.060817894
-0.037717484 0.19981952 0.088612154 0.015767487 -0.029379224 -0.022991527 -0.079620756 0.012735374
0.051264733 0.0053492016 0.009191685 0.043264117 0.22931834 0.051555775 -0.00047639367 0.006497134
0.0068692337 0.011003342 0.00083279354 0.0354959 0.042531908 0.07125227 -0.0008254437 0.0083818175
0.0092578875 0.028363237 0.18523206 0.006566322 0.04590923 0.04580581 0.008577854 0.023062993
0.013861221 0.016230483 0.052507818 0.028576398 0.009449367 0.027999854 0.0153152 0.014395758
0.0033244765 0.052787345 0.022855425 0.07452291 0.014169308 0.004582421 0.023942752 0.010661874
0.10208187 0.011066535 0.06248651 0.11987249 0.036255527 0.047425218 0.07555751 0.051443662
0.030715654 0.019651365 0.04081541 0.031858288 0.03801736 0.019254142 0.004740977 0.0024326055
0.02565381 0.11869494 0.024762074 0.062220745 0.004060123 0.035545602 0.03776922 0.014109531
00000000: 0ebb 703c 8c80 873c 607d ab3c a2de 5cbe
00000010: 7adb 39be e537 e8bd 8c6c d03b fe7d 8ebd
00000020: c5eb dbbc 6a67 9dbc 373f 503d aa3a a03d
00000030: c439 273d 6bdb babd e126 d93b c5a5 833c
00000040: 163f 65bd 8281 5bbd 0a43 e8bd 0285 99bc
00000050: 25e0 9ebd cadb 0e3d ea8d 923d a97c 0bbd
00000060: 53db 543c d485 a23c 7e1f ac3b 53cd 72bd
00000070: d97f 9a3d 3b07 053c 0c73 04bd 30b2 85bd
00000080: b243 1339 6697 8f3c 05f8 80bc 1320 36bc
00000090: 7e77 9cbd b036 2ebd 0067 8ebd 0819 c83c
000000a0: 611b 363d 54ba ce3c 274f 7bbd 2352 293d
000000b0: e6a8 e13d 5e52 ae3d 81ac e13c 5bde 093d
000000c0: c8a9 8d3d 28f8 8abd 60e1 bbbc c845 afbd
000000d0: 529e 873d 57a2 183e 32b8 953c 2f1c 793d
000000e0: a67d 1abd 7d9d 4c3e 4a7a b53d d12a 813c
000000f0: b3ac f0bc ba58 bcbc 3510 a3bd 08a8 503c
00000100: f8fa 513d 5b48 af3b b998 163c b735 313d
00000110: 6dd2 6a3e 262c 533d 7ac4 f9b9 e9e5 d43b
00000120: 4f17 e13b 5d47 343c d44f 5a3a 2664 113d
00000130: f035 2e3d b6ec 913d 9762 58ba e453 093c
00000140: 65ae 173c 055a e83c 79ad 3d3e 4d2a d73b
00000150: 510b 3c3d df9e 3b3d 218a 0c3c 9aee bc3c
00000160: 2d1a 633c caf5 843c 7012 573d 0d19 ea3c
00000170: 85d1 1a3c f35f e53c 9bec 7a3c 2fdc 6b3c
00000180: 76df 593b 8b37 583d 4d3b bb3c 789f 983d
00000190: 6326 683c 2228 963b 9723 c43c 24af 2e3c
000001a0: 4d10 d13d 6950 353c dbf1 7f3d b57f f53d
000001b0: ad80 143d f240 423d e5bd 9a3d 97b6 523d
000001c0: 659f fb3c e6fb a03c 0f2e 273d d67d 023d
000001d0: 17b8 1b3d ddba 9d3c 335a 9b3b 596c 1f3b
000001e0: f027 d23c 5516 f33d d5d9 ca3c 2edb 7e3d
000001f0: c80a 853b 4498 113d e6b3 1a3d aa2b 673c

backbone.blocks.0.graphconv.mlp.weight f4 [16, 192, 1, 1]
-0.054651886 0.030153679 0.043462995 -0.14019825 0.046570886 0.037848376 -0.0035048076 0.013549684
0.048039712 0.041929454 -0.016026214 -0.026017394 0.024859356 -0.04869058 0.03603763 -0.028595194
0.027138669 -0.05221323 0.076499194 0.0069934116 0.11242246 0.058815613 -0.008383258 0.07274255
-0.019891683 0.049270008 0.049686622 -0.08668631 0.007109848 -0.052028358 -0.013854966 -0.026813572
-0.031691857 0.093636766 -0.04148025 0.06538404 -0.010428507 -0.0023111706 0.011296199 -0.019108653
0.15990193 -0.09812906 0.07477176 -0.039052065 0.046102136 -0.040573906 0.08762466 0.06964244
0.06498255 -0.004968058 -0.17386921 -0.012666731 0.06988898 -0.0067453543 -0.003925044 0.020127537
0.07619283 0.11896796 0.0438139 -0.045073982 0.034065373 0.004243402 -0.045863762 0.04554122
0.04009614 -0.016655369 -0.047945514 0.10535747 -0.008794316 -0.046413038 -0.0015439822 -0.019379895
-0.02289944 -0.017739095 0.009430694 0.021578921 0.025173532 0.08009115 -0.0385494 0.015346228
-0.018031245 0.035703648 -0.043132067 0.0053142877 -0.07035826 -0.002218487 0.0029013455 -0.027417473
0.019119045 -0.043065514 -0.03044049 0.07085706 -0.0014104111 0.016953269 0.00015546755 0.022511637
0.015668413 -0.015299181 0.029842883 -0.05422423 0.033579674 0.03075654 -0.012446863 0.004351327
-0.08984987 0.0687303 -0.031620655 0.010863891 -0.06966381 0.04568421 -0.06321934 -0.06242008
-0.043674573 -0.017121432 0.13593905 0.014881247 -0.039273914 0.007814634 0.008871104 -0.013901913
-0.04000932 -0.078434356 -0.00934432 0.036089268 -0.017063007 -0.0046073426 0.017429125 -0.026373997
-0.032396626 -0.0041148756 0.036739577 -0.09845403 -0.052276906 0.05505558 0.008114089 0.029299669
-0.013719259 -0.016058331 -0.0053965054 -0.028189456 -0.07729717 -0.09564543 0.062768064 -0.0049088527
0.012761905 -0.027907357 -0.014429487 -0.012332579 0.0067629977 -0.05546081 0.013472391 -0.028915629
-0.011850654 0.05302236 0.004206618 -0.08034838 0.0043674195 0.0021752683 0.03922711 -0.025426788
0.004123564 -0.060260337 -0.016694706 0.01935003 -0.040540677 -0.02373154 -0.0023434844 0.020972742
0.006468607 -0.03154044 -0.03420372 0.03775247 0.067621306 -0.047949936 0.036619842 0.038049676
0.096056804 0.03921615 -0.113322996 -0.040973492 0.0055286405 -0.025073208 -0.010757885 0.013210545
-0.0060976343 0.11286627 -0.012897256 -0.017022274 -0.008688097 0.013518573 -0.009466948 0.0079015745
0.017200565 0.0060859257 -0.040936645 0.013325967 -0.058569085 -0.026047595 0.017327774 0.032937814
-0.003858308 -0.03043079 -0.0030933006 0.04099737 -0.13756569 0.00465085 0.011389132 -0.008521771
-0.016731355 0.035650115 -0.112731874 -0.04392084 -0.014336102 -0.044762794 -0.0013431801 -0.079855174
0.01638586 -0.022791144 0.028594604 -0.04669912 0.0101629 0.027834011 -0.03351104 0.0006656657
0.029759908 -0.03201551 -0.0106621925 0.015604585 0.039224464 -0.030795002 -0.019622704 0.010506981
-0.09661616 0.00790312 -0.08431406 0.044027474 0.034552738 -0.115128785 -0.046332322 -0.051274918
0.01089395 -0.026502158 0.08616557 -0.05387531 -0.06534362 0.04731075 -0.03266565 -0.00027634136
-0.09588728 -0.05119958 -0.0013387895 0.099152684 -0.01855252 -0.07160845 0.020695195 -0.019501938
00000000: a8da 5fbd d904 f73c 4106 323d 2190 0fbe
00000010: 1dc1 3e3d e606 1b3d eab0 65bb 7eff 5d3c
00000020: 4ac5 443d 38be 2b3d 6849 83bc 6e22 d5bc
00000030: d9a5 cb3c c66f 47bd 329c 133d 7840 eabc
00000040: ea51 de3c 8add 55bd 9cab 9c3d fd28 e53b
00000050: bf3d e63d a4e8 703d ef59 09bc 0cfa 943d
00000060: e2f3 a2bc 59cf 493d 3384 4b3d 9888 b1bd
00000070: baf9 e83b b01b 55bd f0ff 62bc 23a8 dbbc
00000080: 52cf 01bd a2c4 bf3d 32e7 29bd 11e8 853d
00000090: 54dc 2abc 0277 17bb b113 393c c089 9cbc
000000a0: 55bd 233e e3f7 c8bd f021 993d 0ff5 1fbd
000000b0: 98d5 3c3d d330 26bd 8f74 b33d b2a0 8e3d
000000c0: 9215 853d 17cb a2bb c50a 32be 1f88 4fbc
000000d0: f421 8f3d 2208 ddbb a89d 80bb 81e2 a43c
000000e0: fd0a 9c3d 79a5 f33d 3476 333d 7f9f 38bd
000000f0: 2288 0b3d 3c0c 8b3b a4db 3bbd 6e89 3a3d
00000100: da3b 243d d770 88bc 8462 44bd a8c5 d73d
00000110: 0916 10bc 991b 3ebd 725f caba 96c2 9ebc
00000120: 9b97 bbbc 9451 91bc 3383 1a3c 47c6 b03c
00000130: b938 ce3c d406 a43d fae5 1dbd bf6e 7b3c
00000140: 43b6 93bc fd3d 123d 40ab 30bd 7a23 ae3b
00000150: fe17 90bd 0964 11bb 8024 3e3b 9c9a e0bc
00000160: 8b9f 9c3c 7765 30bd 565e f9bc 821d 913d
00000170: 8bdd b8ba 95e1 8a3c 0105 2339 536a b83c
00000180: 0b5b 803c 6ba9 7abc 1079 f43c 3a1a 5ebd
00000190: d78a 093d 24f5 fb3c eded 4bbc 9495 8e3b
000001a0: 3503 b8bd 79c2 8c3d a984 01bd 76fe 313c
000001b0: e6ab 8ebd 5e1f 3b3d 2479 81bd 33ac 7fbd
000001c0: 1ce4 32bd 3f42 8cbc 9b33 0b3e 79d0 733c
000001d0: afdd 20bd f308 003c 1b58 113c d9c4 63bc
000001e0: d0e0 23bd 31a2 a0bd eb18 19bc 57d2 133d
000001f0: b8c7 8bbc 31f9 96bb 86c7 8e3c 480e d8bc
00000200: 53b2 04bd 14d6 86bb 3d7c 163d 44a2 c9bd
00000210: 4f20 56bd f681 613d f5f0 043c dc05 f03c
00000220: bec6 60bc c38c 83bc 2bd5 b0bb 93ed e6bc
00000230: fb4d 9ebd c0e1 c3bd 8b8c 803d 71da a0bb
00000240: 4f17 513c f89d e4bc a869 6cbc 960e 4abc
00000250: 239c dd3b e02a 63bd 4ebb 5c3c 78e0 ecbc
00000260: 3f29 42bc f92d 593d abd7 893b b18d a4bd
00000270: 921c 8f3b f28e 0e3b 9bac 203d d74b d0bc
00000280: f61e 873b 8bd3 76bd 56c3 88bc f483 9e3c
00000290: fb0d 26bd a668 c2bc 2595 19bb 07cf ab3c
000002a0: 9cf6 d33b 8c30 01bd 3319 0cbd 55a2 1a3d
000002b0: 0a7d 8a3d 2767 44bd b0fe 153d fad9 1b3d
000002c0: 6eb9 c43d 1da1 203d e315 e8bd d2d3 27bd
000002d0: 9929 b53b 5466 cdbc d741 30bc 0b71 583c
000002e0: aace c7bb 6e26 e73d 034f 53bc 4c72 8bbc
000002f0: 8558 0ebc 017d 5d3c 421b 1bbc 9b75 013c
00000300: 33e8 8c3c 726c c73b 2fad 27bd 2855 5a3c
00000310: 23e6 6fbd c461 d5bc faf2 8d3c cde9 063d
00000320: abdb 7cbb fe49 f9bc f9b8 4abb dcec 273d
00000330: 05de 0cbe 2866 983b 7b99 3a3c e69e 0bbc
00000340: 3210 89bc db05 123d f8df e6bd 57e6 33bd
00000350: f8e1 6abc 3159 37bd a50d b0ba 1c8b a3bd
00000360: a43b 863c 7eb4 babc 3b3f ea3c 9447 3fbd
00000370: 4b82 263c 2704 e43c df42 09bd 1280 2e3a
00000380: 0dcb f33c b222 03bd 7ab0 2ebc 60aa 7f3c
00000390: d5a9 203d cd45 fcbc cbbf a0bc 7925 2c3c
000003a0: b1de c5bd 167c 013c daac acbd 2756 343d
000003b0: 2c87 0d3d a4c8 ebbd f6c6 3dbd a605 52bd
000003c0: 8a7c 323c 0e1b d9bc 9377 b03d 5bac 5cbd
000003d0: e0d2 85bd ebc8 413d 6bcc 05bd e9e1 90b9
000003e0: 8d60 c4bd a7b6 51bd 527a afba 9010 cb3d
000003f0: 74fb 97bc 73a7 92bd f888 a93c 87c2 9fbc

backbone.blocks.0.graphconv.mlp.bias f4 [16]
-0.006304239 0.013105693 0.0074005327 0.053131264 -0.115820445 0.046709724 0.059405703 0.12005911
-0.012071351 -0.041754484 0.014995599 -0.066863135 -0.035469573 0.076859 0.057154976 0.05022069
00000000: ca93 cebb 43b9 563c 2b80 f23b 2ba0 593d
00000010: 4533 edbd b252 3f3d 6553 733d 8de1 f53d
00000020: eac6 45bc c006 2bbd 1ab0 753c 8aef 88bd
00000030: 8b48 11bd 4068 9d3d 561b 6a3d 36b4 4d3d

backbone.blocks.0.temporal2.conv.weight f4 [128, 16, 1, 3]
0.016243843 0.00155627 -0.044415202 -0.09748268 -0.03863566 0.01765303 0.10478824 0.026544377
-0.08496648 0.022835746 0.008380748 -0.07347849 -0.045643095 -0.00305956 -0.04315846 0.05237515
0.03281409 0.02746083 0.06896577 0.07051037 0.046575204 -0.03417562 0.081249125 0.025477588
-0.01993853 0.0020173262 0.002209132 -0.0940804 -0.13867259 -0.1107426 0.042690214 0.08138827
0.08134645 0.013832531 0.016538363 -0.061719086 0.023739701 0.031040786 0.0037620247 0.048145574
0.008600291 -0.011465028 0.061583906 0.018482588 0.050200686 0.035559677 0.0058848644 0.03193208
0.00095213123 0.04235313 0.041269917 -0.022063818 -0.03107361 0.10382923 -0.030005058 0.065857366
0.10489058 0.012275697 -0.022445919 0.023392193 0.17703979 0.11927555 0.13521062 -0.03559156
0.04937077 0.05688979 -0.03996295 -0.0069028107 -0.012519801 0.121746525 0.11213817 0.15685104
0.053515233 -0.005572984 0.016035032 0.058448683 0.047686156 0.15189177 0.004386904 -0.021178748
0.014579902 -0.002762344 -0.011981841 0.0021750412 -0.00986243 -0.0034838198 0.0016037041 0.07129308
0.003982449 0.081658386 0.05273027 -0.007838182 0.009682823 -0.035271488 -0.029971253 -0.059474256
0.05678473 -0.0068676015 0.009906419 0.06589292 0.047237627 0.010543709 0.06856515 0.10558537
0.052412625 -0.09430372 -0.01795799 0.06811301 0.08548137 0.066370994 0.0047027697 0.04102336
0.0014241898 0.008195149 -0.050782174 -0.06857233 -0.038232826 -0.058976673 0.04745169 0.07280117
-0.05074241 -0.030051872 -0.07671656 0.09816128 0.08258223 0.14452916 -0.010870842 0.03337799
0.012723479 0.06308851 0.032959353 0.005220041 -0.07201672 -0.068146855 -0.040294144 -0.075996265
-0.031803552 0.0021989336 0.10351907 0.021484176 0.08657877 -0.08630567 -0.050664283 -0.020959303
-0.031628385 0.015350498 -0.015550898 -0.053222947 -0.037067052 -0.069091365 -0.023810698 0.041160338
-0.0066782413 -0.07523358 -0.075071126 0.015435057 0.024021259 0.058611993 0.020387137 0.007641786
0.021205131 -0.008387608 -0.019348688 -0.0030188174 0.016614044 -0.1580383 -0.113981016 0.04591346
-0.032646213 0.009293737 0.008114241 -0.10594672 -0.12578647 -0.09494957 -0.039149795 -0.020775544
-0.04744009 0.057616886 0.052082654 0.043349974 -0.021992099 -0.024598448 -0.014398783 -0.07026854
-0.10070922 -0.07046721 0.027980426 -0.01752332 -0.092968225 0.022099148 -0.004634888 -0.0024059357
0.060533933 0.04071506 -0.060003053 -0.013718152 -0.045867845 -0.024811082 0.10583677 0.05780725
0.061750982 -0.05929054 -0.018423907 -0.023660714 -0.082464434 -0.05009423 -0.064805366 0.06119482
0.004766308 0.024532046 0.00162523 -0.008689488 0.06910904 -0.05486849 -0.048667587 0.017599177
0.0067153815 0.036993437 0.009350922 0.034753177 0.11818765 0.06366919 0.067287885 0.05115047
0.018441599 0.048711687 0.044552065 0.019486437 0.009441817 0.018092725 0.048399642 -0.027882628
-0.01836701 -0.06868861 0.07510522 0.026041508 -0.041419357 -0.020207833 -0.08152287 -0.06369388
0.05921222 0.01960096 0.023255447 -0.035664644 0.039678026 0.022524212 0.04343785 0.0072548357
0.007349963 0.036953755 0.074962884 0.0005061665 -0.038103737 -0.026554588 0.04889478 -0.06230622
00000000: cf11 853c c2fb cb3a b7ec 35bd 00a5 c7bd
00000010: 6d40 1ebd 169d 903c 379b d63d 9873 d93c
00000020: e802 aebd 0812 bb3c 684f 093c e47b 96bd
00000030: 41f4 3abd e682 48bb edc6 30bd 5387 563d
00000040: 1168 063d 89f5 e03c ed3d 8d3d be67 903d
00000050: a4c5 3e3d bcfb 0bbd f165 a63d 60b6 d03c
00000060: 2156 a3bc 1e35 043b 16c7 103b 3aad c0bd
00000070: 3000 0ebe 04cd e2bd efdb 2e3d e5ae a63d
00000080: f898 a63d d7a1 623c 767b 873c 27cd 7cbd
00000090: c379 c23c 3f49 fe3c 4d8c 763b 4b34 453d
000000a0: 3ce8 0c3c d0d7 3bbc 683f 7c3d cc68 973c
000000b0: 3c9f 4d3d 06a7 113d d2d5 c03b 36cb 023d
000000c0: 7298 793a 7a7a 2d3d a50a 293d 2ebf b4bc
000000d0: 158e febc 6ba4 d43d 2bcd f5bc 3ae0 863d
000000e0: dfd0 d63d 0120 493c 81e0 b7bc fca0 bf3c
000000f0: eb49 353e bd46 f43d a774 0a3e 75c8 11bd
00000100: 0139 4a3d 4505 693d 31b0 23bd f930 e2bb
00000110: da1f 4dbc 3e56 f93d b2a8 e53d 8f9d 203e
00000120: ca32 5b3d 949d b6bb e65b 833c e367 6f3d
00000130: 8f52 433d 8489 1b3e 05c0 8f3b 0e7f adbc
00000140: 8be0 6e3c 7108 35bb 7c4f 44bc 238b 0e3b
00000150: 0896 21bc cc50 64bb 6133 d23a 1b02 923d
00000160: 347f 823b 833c a73d b2fb 573d b86b 00bc
00000170: b4a4 1e3c d678 10bd 4686 f5bc 479b 73bd
00000180: 1b97 683d 9e09 e1bb 884e 223c def2 863d
00000190: 3e7c 413d 85bf 2c3c e36b 8c3d 243d d83d
000001a0: 9fae 563d 4f22 c1bd a21c 93bc d57e 8b3d
000001b0: db10 af3d 84ed 873d b119 9a3b 1c08 283d
000001c0: e1ab ba3a f244 063c f800 50bd a66f 8cbd
000001d0: 069a 1cbd 8691 71bd b45c 423d c818 953d
000001e0: 46d7 4fbd 582f f6bc 921d 9dbd c808 c93d
000001f0: df20 a93d 74ff 133e 9e1b 32bc 5cb7 083d
00000200: 2476 503c 8c34 813d 6300 073d e10c ab3b
00000210: 817d 93bd 9490 8bbd 790b 25bd eea3 9bbd
00000220: 7144 02bd fc1b 103b ce01 d43d 95ff af3c
00000230: 3650 b13d 07c1 b0bd 5a85 4fbd d8b2 abbc
00000240: c48c 01bd a880 7b3c 32c9 7ebc 4e00 5abd
00000250: 9fd3 17bd c67f 8dbd a70e c3bc be97 283d
00000260: 26d5 dabb 1014 9abd e4be 99bd 52e3 7c3c
00000270: 3bc8 c43c 2113 703d ed02 a73c f267 fa3b
00000280: 62b6 ad3c 2e6c 09bc 2481 9ebc 5ad7 45bb
00000290: 2d1a 883c cbd4 21be e16e e9bd c10f 3c3d
000002a0: 09b8 05bd c244 183c 98f1 043c 98fa d8bd
000002b0: 2bce 00be ec74 c2bd 895b 20bd 7931 aabc
000002c0: 8a50 42bd afff 6b3d 9f54 553d be8f 313d
000002d0: c628 b4bc af82 c9bc e0e8 6bbc f4e8 8fbd
000002e0: a340 cebd 1d51 90bd 3537 e53c 118d 8fbc
000002f0: 2066 bebd 4609 b53c 42e0 97bb e7ac 1dbb
00000300: 6ef2 773d d6c4 263d c3c5 75bd 1ac2 60bc
00000310: ecdf 3bbd 9c40 cbbc f3c0 d83d 4cc7 6c3d
00000320: 99ee 7c3d a3da 72bd bced 96bc 1dd4 c1bc
00000330: 1de3 a8bd 9b2f 4dbd adb8 84bd 6ba7 7a3d
00000340: b02e 9c3b 6ef7 c83c ab05 d53a 5b5e 0ebc
00000350: 0a89 8d3d c8bd 60bd aa57 47bd 262c 903c
00000360: b40c dc3b 6e86 173d 9c34 193c 5959 0e3d
00000370: 5e0c f23d fe64 823d 3bce 893d 2883 513d
00000380: d612 973c e885 473d 3a7c 363d 05a2 9f3c
00000390: dab1 1a3c 3237 943c b43e 463d 1c6a e4bc
000003a0: 6976 96bc 9dac 8cbd c4d0 993d 0055 d53c
000003b0: 58a7 29bd e68a a5bc 76f5 a6bd f071 82bd
000003c0: 8388 723d 3192 a03c 3582 be3c 1715 12bd
000003d0: 6d85 223d b284 b83c e3eb 313d f9b9 ed3b
000003e0: f5d7 f03b d25c 173d 2486 993d 42b0 043a
000003f0: aa12 1cbd 0289 d9bc e545 483d cf34 7fbd

backbone.blocks.0.temporal2.conv.bias f4 [128]
0.06875793 -0.041826874 -0.0810618 -0.106151104 0.0414624 0.051767733 -0.06761254 -0.031917106
0.11974483 0.026970394 0.118126564 0.002343664 0.04518933 -0.035663377 -0.08799556 0.0514777
0.057038393 0.11225982 -0.00928865 -0.07919139 -0.1307886 0.022248285 -0.03681954 -0.022436632
0.05306825 -0.027851596 0.0028048141 0.022854533 0.032887183 0.010839224 0.013651207 -0.054379974
-0.10239746 -0.0034307872 -0.06889597 -0.09469443 -0.081034265 0.09316073 -0.007123785 0.10787881
0.06489354 -0.023122896 -0.042196605 -0.10904855 -0.040009398 0.08297604 -0.04894069 0.033043776
-0.04266496 0.0026355847 0.009004247 -0.10341092 0.06943185 -0.0746561 -0.038474318 -0.06319682
0.06337464 -0.07483379 -0.017724354 0.07322119 0.012273642 0.097806126 0.04448368 0.016463421
-0.0027027328 0.020651506 0.041247804 0.02237895 0.009372534 0.0005851107 0.015468758 0.0027299824
0.048752103 0.038644597 0.0684573 -0.00028531317 0.020178266 0.018905738 0.07077347 0.023461074
0.032924175 0.0057040364 0.0096808 0.016413478 0.05041552 0.03132044 0.031024521 0.023809833
0.008713243 -0.006415162 0.048093285 0.039417412 0.13137084 0.017968675 0.021068238 0.05323032
0.08788178 0.0038571453 0.016500762 0.104972005 0.011409 0.021861969 -0.0034190333 0.014311575
-0.025494061 0.038432408 -0.019322598 0.016546981 0.046185434 0.044048436 -0.017331282 0.042526256
0.028998556 0.0150692165 0.020690883 0.102800235 0.03816421 0.04435956 0.0879829 -0.00068208564
0.005519551 0.018186178 0.0154601 0.0005178487 0.032632377 0.014530217 0.02604546 0.0023082672
00000000: f5d0 8c3d a852 2bbd bb03 a6bd c065 d9bd
00000010: 7ad4 293d 670a 543d 7278 8abd 83bb 02bd
00000020: c73c f53d 04f1 dc3c 57ec f13d 2898 193b
00000030: 7218 393d c313 12bd 0437 b4bd 48da 523d
00000040: 17a1 693d 7ae8 e53d 6c2f 18bc 182f a2bd
00000050: 72ed 05be 0942 b63c 16d0 16bd 07cd b7bc
00000060: 185e 593d 0829 e4bc f9d0 373b 6e39 bb3c
00000070: b6b4 063d 0097 313c 50a9 5f3c 89bd 5ebd
00000080: c2b5 d1bd 0fd7 60bb 5519 8dbd 27ef c1bd
00000090: 4bf5 a5bd 0ecb be3d a46e e9bb 91ef dc3d
000000a0: e8e6 843d 3a6c bdbc 59d6 2cbd d954 dfbd
000000b0: e5e0 23bd 58ef a93d 0876 48bd e958 073d
000000c0: 74c1 2ebd c6b9 2c3b 8d86 133c 1bc9 d3bd
000000d0: 4932 8e3d 4ce5 98bd 3f97 1dbd 566d 81bd
000000e0: 90ca 813d 7542 99bd aa32 91bc fef4 953d
000000f0: 6317 493c 944e c83d 8534 363d 4cde 863c
00000100: 5520 31bb 592d a93c 75f3 283d 0f54 b73c
00000110: 428f 193c 1d62 193a ac70 7d3c 81e9 323b
00000120: 49b0 473d cc49 1e3d 5733 8c3d 1696 95b9
00000130: e44c a53c 35e0 9a3c aef1 903d 7031 c03c
00000140: 80db 063d ede8 ba3b 389c 1e3c 8f75 863c
00000150: 8180 4e3d dd49 003d 2327 fe3c d70c c33c
00000160: fdc1 0e3c 4736 d2bb 77fd 443d 2774 213d
00000170: 1486 063e 0b33 933c 4c97 ac3c 0908 5a3d
00000180: 5dfb b33d 29c8 7c3b 9b2c 873c 90fb d63d
00000190: d0ec 3a3c df17 b33c dc11 60bb 197b 6a3c
000001a0: ecd8 d0bc 4d6b 1d3d 6d4a 9ebc 898d 873c
000001b0: f02c 3d3d 226c 343d 55fa 8dbc 0330 2e3d
000001c0: 618e ed3c e0e4 763c ed7f a93c ee88 d23d
000001d0: 1352 1c3d 5fb2 353d 6130 b43d fecd 32ba
000001e0: 5add b43b 2efb 943c 5c4c 7d3c 3dc0 073a
000001f0: 87a9 053d 2610 6e3c 4a5d d53c 4c46 173b

backbone.blocks.0.res_conv.weight f4 [64, 6, 1, 1]
0.12104844 -0.18550788 0.32189608 -0.15553193 -0.1888717 0.23230112 -0.2954921 -0.008579839
-0.13091762 -0.31427088 0.02508427 -0.035268236 -0.054268084 0.031994693 -0.25177765 -0.11634855
0.014471761 -0.2925293 -0.23840459 0.12665129 -0.30325785 -0.07263115 -0.158143 0.19290692
0.21043646 0.14370973 -0.20864399 -0.27121753 -0.0039868937 0.20800892 0.0862498 -0.15803821
-0.18625474 0.25898987 -0.038886778 0.124659054 -0.32949454 0.03319951 0.2775713 -0.34363225
-0.2049517 -0.24018347 -0.17377907 0.022850517 0.097369134 -0.14270075 0.19160482 0.19985883
0.2388306 -0.0643168 0.17919716 0.19998868 0.1310797 -0.25645489 -0.12431375 -0.05709881
-0.124875106 0.050904363 -0.009507268 0.082093894 -0.3195438 -0.0070777223 0.10074573 -0.22740734
0.06359491 -0.1864188 0.29596996 -0.0122997 0.12563196 0.13216144 -0.003444837 0.21419713
-0.18409507 0.106272385 -0.12742238 -0.072386056 -0.05260435 0.045094293 -0.32995707 -0.027763616
-0.17475802 0.17702848 0.31031647 0.14211474 -0.4395553 0.03434163 -0.15161297 -0.07385901
-0.122053795 0.100026384 0.038172983 0.04295681 0.11455051 0.1486889 0.21221097 -0.007907243
-0.2850597 0.0448265 -0.14820485 -0.13990954 -0.031093666 0.10876572 0.28396013 0.0013828423
-0.07002827 0.3066886 0.12728553 -0.21096972 -0.054013472 -0.16204838 -0.08587366 -0.26733842
-0.28002074 -0.21168531 -0.12413697 0.07728439 -0.26678976 -0.18721922 0.06715318 0.05209653
-0.033340152 -0.16691536 -0.023698214 0.100006126 -0.1925249 -0.14064959 0.06674133 0.033035107
0.2585246 0.12400001 0.11097342 -0.16860108 -0.06727124 0.009135705 -0.07916077 -0.11150713
0.12975623 -0.14923944 -0.09032494 -0.0518139 0.040758714 0.021067373 -0.05673457 0.13646246
-0.23233663 0.09258137 0.13144772 0.16530125 -0.27562463 0.17167772 0.2082449 0.086993955
0.15248837 -0.056774728 -0.10061226 0.008309427 0.0651023 -0.1580427 -0.10388013 -0.19304514
-0.17913225 0.0034545804 -0.2067116 0.02393182 0.24249244 -0.12674119 -0.011607425 0.108168505
0.20259762 0.101358466 -0.036544465 0.07494644 -0.18543342 0.13821077 0.20836923 0.04200432
-0.02182312 -0.008855396 0.12850793 0.02077165 -0.026558233 -0.19619454 0.12980019 -0.15287076
0.04421698 0.115625344 0.19541337 -0.02276639 0.07073122 0.28919026 -0.15309435 -0.14569989
0.28004527 0.11229845 0.28465614 0.30711377 -0.2027177 0.17566274 -0.21407959 0.09883156
0.24216813 -0.14293614 -0.15752439 -0.20494802 -0.12747829 -0.051527135 0.22342005 0.05190427
-0.062402196 -0.036865786 -0.15931149 0.009768728 0.078003526 -0.20774856 0.1340647 0.06587334
-0.0027824622 -0.10220028 0.14276887 -0.27691883 0.18708457 0.08009729 -0.114437856 -0.03285891
0.060054723 -0.17904665 -0.025720138 0.18972954 0.04272414 -0.10336757 0.21706168 0.21734512
0.17213592 -0.10016267 -0.33425945 -0.110155165 0.25356224 0.065915205 0.25235102 0.12444069
-0.36068165 -0.19842848 -0.100971445 -0.2935957 -0.10655384 -0.007014812 -0.06763272 0.089149535
-0.14378187 0.103049845 -0.109455176 -0.19138904 0.2806335 0.10783517 0.30424657 -0.19760695
00000000: 3fe8 f73d c7f5 3dbe 90cf a43e c343 1fbe
00000010: 9567 41be 58e0 6d3e be4a 97be 7492 0cbc
00000020: 450f 06be 1de8 a0be 877d cd3c 6d75 10bd
00000030: 3648 5ebd de0c 033d 00e9 80be 2648 eebd
00000040: f71a 6d3c 67c6 95be 5520 74be e0b0 013e
00000050: 9d44 9bbe a4bf 94bd 3df0 21be 6489 453e
00000060: a87c 573e a528 133e c5a6 55be 06dd 8abe
00000070: 7da4 82bb 4a00 553e bca3 b03d c5d4 21be
00000080: 90b9 3ebe 529a 843e be47 1fbd 3f4d ff3d
00000090: 82b3 a8be 36fc 073d d31d 8e3e 91f0 afbe
000000a0: dcde 51be a8f2 75be 24f3 31be 0231 bb3c
000000b0: 7869 c73d 2520 12be 0e34 443e cba7 4c3e
000000c0: 0290 743e 87b8 83bd 767f 373e d5c9 4c3e
000000d0: c239 063e 0e4e 83be 3598 febd 71e0 69bd
000000e0: 85be ffbd 1881 503d 5fc4 1bbc d820 a83d
000000f0: 3f9b a3be 3dec e7bb c753 ce3d 78dd 68be
00000100: 0c3e 823d 92e4 3ebe 6089 973e ae84 49bc
00000110: aaa5 003e 5455 073e c6c2 61bb 7e56 5b3e
00000120: 6b83 3cbe 56a5 d93d 037b 02be 243f 94bd
00000130: a977 57bd cbb4 383d 22f0 a8be 8670 e3bc
00000140: c4f3 32be f446 353e cde1 9e3e 8786 113e
00000150: 640d e1be cfa9 0c3d 6e40 1bbe 6543 97bd
00000160: 57f7 f9bd a2da cc3d 465b 1c3d 7bf3 2f3d
00000170: 7599 ea3d e741 183e d54d 593e 628d 01bc
00000180: 58f3 91be fe9b 373d 03c3 17be 7244 0fbe
00000190: 25b8 febc 90c0 de3d 3963 913e 7d40 b53a
000001a0: fb6a 8fbd 4a06 9d3e 2357 023e 7208 58be
000001b0: 3b3d 5dbd 03f0 25be 88de afbd 95e0 88be
000001c0: e15e 8fbe 09c4 58be 863b febd 4747 9e3d
000001d0: ab98 88be 65b6 3fbe 9b87 893d 2c63 553d
000001e0: af8f 08bd dceb 2abe c222 c2bc 03d0 cc3d
000001f0: 3f25 45be 7206 10be aeaf 883d d24f 073d
00000200: 565d 843e b8f3 fd3d 0846 e33d c3a5 2cbe
00000210: 81c5 89bd edad 153c 0b1f a2bd da5d e4bd
00000220: d1de 043e 39d2 18be 48fc b8bd d03a 54bd
00000230: 9cf2 263d 7c95 ac3c 8262 68bd d1bc 0b3e
00000240: a7e9 6dbe 4d9b bd3d 3b9a 063e bb44 293e
00000250: ac1e 8dbe 49cc 2f3e 273e 553e e329 b23d
00000260: e925 1c3e 9e8c 68bd cd0d cebd 4324 083c
00000270: 5b54 853d f2d5 21be 1bbf d4bd a0ad 45be
00000280: 726e 37be 3e66 623b 35ac 53be aa0c c43c
00000290: f04f 783e 71c8 01be 122d 3ebc 7387 dd3d
000002a0: c075 4f3e 0795 cf3d a6af 15bd 857d 993d
000002b0: 42e2 3dbe 2087 0d3e be5e 553e b90c 2c3d
000002c0: 66c6 b2bc 3916 11bc 9597 033e 4f29 aa3c
000002d0: a790 d9bc 39e7 48be 57ea 043e 278a 1cbe
000002e0: dd1c 353d fbcc ec3d 711a 483e 9580 babc
000002f0: 88db 903d bf10 943e c4c4 1cbe 5a32 15be
00000300: 1862 8f3e bbfc e53d 73be 913e 043e 9d3e
00000310: 3b95 4fbe efe0 333e ae37 5bbe 3368 ca3d
00000320: ecfa 773e da5d 12be 134e 21be e5dd 51be
00000330: ab89 02be 1e0e 53bd 3ac8 643e 9299 543d
00000340: 7299 7fbd 9400 17bd 8d22 23be 040d 203c
00000350: 50c0 9f3d 0abc 54be 4248 093e 9ae8 863d
00000360: f859 36bb 614e d1bd 0132 123e 4ec8 8dbe
00000370: 1993 3f3e 0c0a a43d 655e eabd 1097 06bd
00000380: f1fb 753d 0158 37be 0ab3 d2bc 7648 423e
00000390: 82ff 2e3d 60b2 d3bd 6b45 5e3e b88f 5e3e
000003a0: 6644 303e 1622 cdbd 0e24 abbe 0899 e1bd
000003b0: e9d2 813e 8dfe 863d 2734 813e c3da fe3d
000003c0: 44ab b8be d630 4bbe 1eca cebd 2d52 96be
000003d0: e638 dabd 82dc e5bb 0683 8abd 0894 b63d
000003e0: 8e3b 13be cc0b d33d 092a e0bd 7dfb 43be
000003f0: 32af 8f3e b0d8 dc3d 35c6 9b3e 7a59 4abe

backbone.blocks.0.res_conv.bias f4 [64]
0.118453056 -0.3211064 -0.14464587 0.29532224 -0.019759998 0.20028155 0.2795276 -0.02413906
-0.0350357 -0.027030263 -0.14289118 0.002501409 0.10374609 0.28287393 0.19870417 0.3288983
-0.13126831 -0.22130391 -0.36769617 0.17893387 0.10900186 -0.032074366 0.25781894 -0.20003764
-0.09585342 0.01522571 0.1357087 0.24481557 -0.18392353 0.35667452 0.27398708 0.09548939
-0.22299051 0.067035474 0.060943834 -0.14334257 0.30499247 -0.24469458 -0.044992324 -0.08755476
-0.0965091 0.19237271 0.007069836 0.022245053 -0.25688618 -0.21737124 0.253447 -0.053872436
0.03764421 -0.24264312 -0.19286609 0.1259665 0.22817522 0.015332739 -0.29177862 -0.19077644
-0.104509 0.14064468 -0.25719786 -0.21129832 -0.30043805 -0.23360367 0.2470932 -0.09239811
00000000: 8497 f23d 0f68 a4be 0c1e 14be 7a34 973e
00000010: b8df a1bc 9b16 4d3e 3e1e 8f3e 47bf c5bc
00000020: 9881 0fbd 926e ddbc 1152 12be aeee 233b
00000030: d478 d43d dad4 903e 1b79 4b3e 5c65 a83e
00000040: 336b 06be 7e9d 62be ac42 bcbe 713a 373e
00000050: 5e3c df3d 6960 03bd d800 843e abd6 4cbe
00000060: cc4e c4bd 4275 793c 39f7 0a3e efb0 7a3e
00000070: 7356 3cbe 0b9e b63e 0948 8c3e f18f c33d
00000080: a057 64be e549 893d 3ea0 793d 65c8 12be
00000090: f927 9c3e 3791 7abe df49 38bd e94f b3bd
000000a0: 90a6 c5bd 5afd 443e 15aa e73b 423b b63c
000000b0: 9686 83be 9196 5ebe cec3 813e 58a9 5cbd
000000c0: d130 1a3d 7077 78be b07e 45be 5dfd 003e
000000d0: c4a6 693e 2b36 7b3c 0264 95be e65a 43be
000000e0: d108 d6bd 2905 103e 70af 83be 965e 58be
000000f0: 04d3 99be cd35 6fbe 0006 7d3e 383b bdbd

backbone.blocks.0.ln.weight f4 [64]
0.8931809 0.8248624 0.7750872 0.8878561 0.8653892 0.56972647 1.0768664 0.7084256
0.82779795 0.5705344 0.81910706 0.85753226 0.57059294 0.9914206 1.0249543 0.7663454
0.7179209 0.89399046 0.9434679 0.71253145 0.65410537 0.6172738 0.59409875 0.66052663
0.99309367 0.6490943 0.83641505 0.83054554 0.9595868 0.9804398 0.69613093 0.68496746
1.0449482 0.7927359 0.5149773 0.88637227 0.80487096 0.65691245 0.76514816 1.0518798
0.83735555 0.7328969 0.85932 0.94454145 0.8944881 0.8156638 0.8481318 0.85519814
0.8036382 0.7172857 0.700974 0.8793401 0.75858706 0.7989694 1.0288417 0.71238774
0.75207144 0.768651 0.7952015 0.7103755 0.89797425 0.71966666 0.716637 0.55586994
00000000: 81a7 643f 2f2a 533f 1d6c 463f 8a4a 633f
00000010: 268a 5d3f 98d9 113f c2d6 893f 615b 353f
00000020: 91ea 533f 8b0e 123f 00b1 513f 3c87 5b3f
00000030: 6112 123f becd 7d3f b431 833f 362f 443f
00000040: aac9 373f 8fdc 643f 1d87 713f 7668 363f
00000050: 7373 273f a805 1e3f db16 183f 4618 293f
00000060: 633b 7e3f 0b2b 263f 4c1f 563f a29e 543f
00000070: 7ba7 753f 1afe 7a3f a335 323f 075a 2f3f
00000080: ddc0 853f bdf0 4a3f 8dd5 033f 4be9 623f
00000090: 060c 4e3f 6a2b 283f c0e0 433f ffa3 863f
000000a0: ef5c 563f 229f 3b3f 65fc 5b3f 78cd 713f
000000b0: 2cfd 643f 58cf 503f 2a1f 593f 44ee 5a3f
000000c0: 3cbb 4d3f 09a0 373f 0873 333f 6f1c 613f
000000d0: c332 423f 4289 4c3f 16b1 833f 0b5f 363f
000000e0: c187 403f 50c6 443f 5392 4b3f 2bdb 353f
000000f0: a4e1 653f 133c 383f 8675 373f 7e4d 0e3f

backbone.blocks.0.ln.bias f4 [64]
0.07662104 -0.02826606 -0.0036187698 -0.0203001 0.060050398 -0.0041298703 0.03796374 -0.014189991
0.07389604 -0.106950074 -0.09074817 0.0016823708 0.024500363 -0.012756905 -0.0125973215 0.07551796
-0.11890919 -0.014713155 -0.049212188 0.09132594 0.050773285 0.0036740657 0.05849407 -0.065539464
-0.026995335 -0.014001066 0.0660506 0.016630344 -0.11916181 0.06066953 0.012196735 0.05339864
0.03435649 -0.008044309 -0.016773187 -0.054030832 0.068127476 0.006322311 0.0019370067 -0.02570372
-0.0071424753 0.038602103 0.01580854 0.030845247 -0.022423632 -0.09319851 -0.014769988 -0.080965355
0.07750666 -0.07202401 0.021100324 -0.0030001707 0.03206274 0.021533793 -0.038868625 -0.057462785
0.10483426 0.0715927 -0.04137418 0.0159254 -0.015015979 -0.05766394 -0.092882305 0.01810953
00000000: 7eeb 9c3d 398e e7bc e228 6dbb 654c a6bc
00000010: 68f7 753d dd53 87bb de7f 1b3d 237d 68bc
00000020: cf56 973d a408 dbbd 2dda b9bd ff82 dc3a
00000030: fcb4 c83c 5602 51bc ff64 4ebc 29a9 9a3d
00000040: a986 f3bd 720f 71bc b892 49bd 1809 bb3d
00000050: a6f7 4f3d 98c8 703b 7a97 6f3d 8e39 86bd
00000060: 5225 ddbc ba64 65bc 8945 873d 5c3c 883c
00000070: 1b0b f4bd 9d80 783d d0d4 473c 88b8 5a3d
00000080: 64b9 0c3d 47cc 03bc ec67 89bc 6f4f 5dbd
00000090: 6b86 8b3d 632b cf3b 29e3 fd3a 9c90 d2bc
000000a0: 6d0b eabb 3d1d 1e3d e980 813c 2caf fc3c
000000b0: c4b1 b7bc dcde bebd d2fd 71bc 2ad1 a5bd
000000c0: d0bb 9e3d 5381 93bd 96da ac3c 839e 44bb
000000d0: 3854 033d a367 b03c b534 1fbd 195e 6bbd
000000e0: 58b3 d63d 329f 923d f977 29bd fc75 823c
000000f0: 9505 76bc 0631 6cbd 1439 bebd 705a 943c

backbone.blocks.1.temporal1.conv.weight f4 [128, 64, 1, 3]
-0.019755172 -0.00945599 -0.014958259 -0.02246578 -0.01401669 -0.024777012 0.034029946 0.028300835
0.04384953 -0.051552925 -0.064699784 -0.071685955 -0.048652202 -0.037247196 0.015475303 -0.044221915
-0.0379371 -0.0134033095 0.09745441 0.025042277 0.020039484 -0.0046270103 -0.029391808 -0.037935484
0.059923463 0.0698112 0.098752394 -0.017628485 -0.031098468 -0.029078642 0.04946984 0.03563068
-0.0015515329 -0.034873266 -0.0026581504 0.020448217 0.008399542 -0.015274496 -0.0259236 -0.044635605
-0.053090014 -0.06485364 -0.02555055 -0.03908166 -0.0951045 0.03710919 0.02995504 0.019981176
-0.033130676 -0.06833148 -0.09775625 0.01734914 0.024294175 0.03465317 -0.009244242 0.016066857
0.033580273 0.0039833514 -0.024710145 -0.018775797 0.02389206 -0.013065504 -0.01707232 0.071723
0.05665212 0.05050677 0.04415029 0.04834379 0.05711854 -0.056442447 -0.05104486 -0.057127934
-0.035805196 -0.05583402 -0.1083723 0.028735217 0.034687553 0.05104092 0.0038564596 -0.005500696
-0.003057817 0.07229619 0.0044847443 -0.033388935 -0.06651845 -0.07903276 -0.046734218 0.012094375
-0.013394826 0.012505567 0.0018340717 0.0024346006 0.006132202 -0.00642012 0.0100686215 0.022996232
-0.04133597 -0.025362661 -0.017982757 0.09797961 0.028304541 0.019623734 0.035350475 0.018314
-0.0011397067 -0.001682738 0.05207891 0.056622013 0.038819566 0.03462904 0.038553994 -0.03573661
-0.01643773 -0.026592776 0.0321102 0.031509172 0.03521311 -0.022308055 -0.02234297 -0.03793698
-0.00086784567 -0.0041361684 -0.028230954 0.012580501 0.02712328 0.0208719 0.08285543 0.085622385
0.09388571 -0.03122561 -0.0044178227 0.021254234 0.021488184 0.06792362 0.08883824 0.014418265
-0.02347824 -0.0304693 0.072685555 0.055770546 0.034381628 -0.10730514 -0.060937155 -0.040560156
-0.044849593 -0.015444722 -0.028968446 0.027920825 0.03430314 0.03664439 -0.020647522 -0.04641915
-0.060186625 -0.040383417 -0.0047863503 0.055765573 0.04002061 0.061258458 0.094896436 0.023753023
0.03517541 0.07623488 -0.100831926 -0.028953811 0.016960036 -0.021625718 -0.03178669 -0.051414613
-0.0060724057 -0.02058856 -0.047760077 -0.006177251 -0.0054283454 -0.01518937 -0.037408862 -0.033823855
0.00926197 -0.05055441 -0.015554602 -0.037962258 0.006211713 0.03510734 0.03683015 -0.037708074
-0.031891517 -0.058429293 -0.0386513 -0.019656187 -0.013509647 0.044161003 0.032627087 0.036172163
-0.06209671 -0.06665506 -0.11991255 -0.011653093 0.0068835784 0.05077764 -0.014621558 0.0010348656
0.014754152 0.05067611 0.09310423 0.09409773 -0.06220025 -0.05025943 -0.09219051 0.051546488
0.031647313 -0.010830911 -0.019145226 0.0028996484 0.027127346 -0.07087137 -0.03614675 0.008344592
-0.04084921 -0.08060486 -0.108652286 0.019295335 0.03473545 0.03966849 0.018546611 0.026339626
0.07226551 -0.0056383233 -0.045686234 -0.10530311 -0.0016776733 0.026505036 0.05591718 0.039357718
0.07058928 0.11991981 0.07675443 0.079667315 0.107847504 -0.044159815 -0.046266753 -0.03862922
-0.0095924605 0.06889703 0.13163674 0.0120037915 -0.018246913 -0.06444015 -0.025514666 -0.015642285
-0.038591642 -0.036769155 -0.013745019 0.00048733232 0.011916057 0.028417343 0.013479359 -0.020835198
00000000: 99d5 a1bc 4ced 1abc 7c13 75bc 280a b8bc
00000010: 42a6 65bc 29f9 cabc fc62 0b3d 27d7 e73c
00000020: 919b 333d 2929 53bd 5281 84bd 16d0 92bd
00000030: 8847 47bd 8490 18bd 208c 7d3c 0a22 35bd
00000040: ef63 1bbd 8e99 5bbc 2d96 c73d 7625 cd3c
00000050: d829 a43c 2d9e 97bb 17c7 f0bc 3d62 1bbd
00000060: 4e72 753d 2df9 8e3d b23e ca3d 9d69 90bc
00000070: 37c2 febc 5536 eebc e3a0 4a3d 7af1 113d
00000080: ce5c cbba 45d7 0ebd 5d34 2ebb 0583 a73c
00000090: 3c9e 093c e141 7abc bb5d d4bc d3d3 36bd
000000a0: ea74 59bd fcd1 84bd 634f d1bc 1714 20bd
000000b0: 26c6 c2bd ceff 173d 4664 f53c 90af a33c
000000c0: 08b4 07bd 60f1 8bbd 6e34 c8bd c91f 8e3c
000000d0: 9404 c73c 7bf0 0d3d 2975 17bc a49e 833c
000000e0: 788b 093d c686 823b ee6c cabc b3cf 99bc
000000f0: 48b9 c33c b210 56bc 40db 8bbc 82e3 923d
00000100: 0e0c 683d 30e0 4e3d efd6 343d 2304 463d
00000110: 21f5 693d 3230 67bd 6a14 51bd fbfe 69bd
00000120: 78a8 12bd 37b2 64bd 4cf2 ddbd 1e66 eb3c
00000130: 8914 0e3d 4910 513d a8bc 7c3b 2f3f b4bb
00000140: a865 48bb 0610 943d c3f4 923b d6c2 08bd
00000150: d33a 88bd eddb a1bd 616c 3fbd 7c27 463c
00000160: f975 5bbc 26e4 4c3c 3c65 f03a d28d 1f3b
00000170: a4f0 c83b df5f d2bb dcf6 243c 9862 bc3c
00000180: e84f 29bd 5bc5 cfbc 9350 93bc 89a9 c83d
00000190: edde e73c f4c1 a03c a9cb 103d 3e07 963c
000001a0: 3662 95ba 518f dcba b250 553d 7cec 673d
000001b0: 4401 1f3d 2ed7 0d3d cbea 1d3d 8d60 12bd
000001c0: 6ba8 86bc 18d9 d9bc fc85 033d c30f 013d
000001d0: 9f3b 103d 62bf b6bc 9b08 b7bc cf63 1bbd
000001e0: 2380 63ba b288 87bb 9a44 e7bc 721e 4e3c
000001f0: a431 de3c 8cfb aa3c 1cb0 a93d ca5a af3d
00000200: 2747 c03d dacc ffbc 62c3 90bb 5c1d ae3c
00000210: fd07 b03c 8a1b 8b3d d3f0 b53d 963a 6c3c
00000220: 7055 c0bc c19a f9bc 2adc 943d a86f 643d
00000230: c0d3 0c3d ccc2 dbbd 3d99 79bd 6822 26bd
00000240: 35b4 37bd dc0b 7dbc 3c4f edbc 37ba e43c
00000250: 7381 0c3d 6e18 163d fe24 a9bc 0222 3ebd
00000260: 4086 76bd 1569 25bd d1d6 9cbb 716a 643d
00000270: a7ec 233d 26ea 7a3d 1059 c23d b395 c23c
00000280: 1714 103d 0821 9c3d f880 cebd 8b30 edbc
00000290: c6ef 8a3c 6b28 b1bc c332 02bd 2198 52bd
000002a0: 08fb c6bb 57a9 a8bc 12a0 43bd 8a6a cabb
000002b0: 43e0 b1bb d6dc 78bc 093a 19bd e28a 0abd
000002c0: 85bf 173c 2412 4fbd bbd8 7ebc 507e 1bbd
000002d0: a08b cb3b b7cc 0f3d 36db 163d c873 1abd
000002e0: aea0 02bd 8e53 6fbd d350 1ebd 0306 a1bc
000002f0: 9157 5dbc 2be2 343d fba3 053d 4329 143d
00000300: 1f59 7ebd 7382 88bd b694 f5bd 9dec 3ebc
00000310: a48f e13b 37fc 4f3d 428f 6fbc 54a4 873a
00000320: 66bb 713c c191 4f3d 6ead be3d 50b6 c03d
00000330: b0c5 7ebd d5dc 4dbd 61ce bcbd 6922 533d
00000340: 9da0 013d 2274 31bc 73d6 9cbc 0708 3e3b
00000350: 2b3a de3c 0225 91bd 9d0e 14bd c1b7 083c
00000360: 8051 27bd 2914 a5bd 1785 debd 4011 9e3c
00000370: c246 0e3d 6d7b 223d 10ef 973c 33c6 d73c
00000380: f1ff 933d afc1 b8bb 7d21 3bbd 28a9 d7bd
00000390: 60e5 dbba 1721 d93c 6a09 653d 8f35 213d
000003a0: 1d91 903d 8498 f53d 6d31 9d3d 9e28 a33d
000003b0: 27df dc3d ece0 34bd 3582 3dbd ac39 1ebd
000003c0: b229 1dbc e319 8d3d c8cb 063e 8dab 443c
000003d0: 8d7a 95bc 33f9 83bd 2204 d1bc 4024 80bc
000003e0: 4512 1ebd 419b 16bd ca32 61bc a380 ff39
000003f0: 913b 433c 7dcb e83c 88d8 5c3c 94ae aabc

backbone.blocks.1.temporal1.conv.bias f4 [128]
0.015497644 -0.025721118 -0.042364012 0.025884692 -0.0521306 0.050502647 0.035486672 -0.02416173
-0.003369763 0.018351056 -0.11137741 -0.009540513 0.010118696 -0.054941118 0.108191 -0.014845453
-0.056444842 -0.0578903 -0.009672573 -0.06565963 0.07751912 -0.037437372 0.0047695907 -0.04386858
-0.0043844106 0.038167283 0.02893716 -0.023044566 -0.062474057 0.023341902 0.037773483 0.053798027
-0.054366257 0.027872223 -0.0028529929 -0.018820373 -0.049552757 -0.02907211 -0.05749339 0.004530181
0.08493306 0.0028524608 0.0470019 -0.03597585 0.036283482 0.023614502 0.031193981 0.03978597
-0.07627625 0.026882213 0.04304188 0.012988205 0.10224861 0.033455122 -0.0705994 -0.022925131
0.05827103 0.05112799 0.01887444 0.039332416 0.00341719 -0.06163858 0.070926875 0.037882447
0.030930547 0.03846938 0.015324878 0.04451688 0.01914599 0.047299646 -0.0008098914 0.018497001
0.020525994 0.021380935 0.0512776 -0.010984221 0.05147797 0.010678607 0.046483185 -0.0031182447
-0.019693924 0.08812042 -0.0023448318 0.058914226 0.052597985 0.01439769 0.01587765 0.0019861497
-0.015753876 0.059525557 0.007188865 -0.027883751 0.031630296 0.0074079568 0.03085676 -0.013473505
-0.055328026 0.020825936 0.029021721 0.010707803 -0.038539134 0.011966753 -0.03953852 0.05600963
0.005222105 0.050326385 0.04341843 0.0017980795 0.03924074 0.09959062 0.0063417205 0.018808406
0.031316705 -0.07801418 0.011042656 0.017620739 -0.011892846 -0.038097113 -0.035581443 0.04512429
0.022267494 0.052410312 0.06441454 -0.0051628067 -0.00049687666 0.0121354675 0.012930017 -0.058766752
00000000: d5e9 7d3c 18b5 d2bc e385 2dbd 220c d43c
00000010: e586 55bd dddb 4e3d 795a 113d d2ee c5bc
00000020: 3ed7 5cbb f454 963c d719 e4bd d04f 1cbc
00000030: e3c8 253c f009 61bd 3e93 dd3d 583a 73bc
00000040: b532 67bd 611e 6dbd b679 1ebc 8e78 86bd
00000050: 58c2 9e3d ee57 19bd 3a4a 9c3b 8aaf 33bd
00000060: 1aab 8fbb 4c55 1c3d 9f0d ed3c f5c7 bcbc
00000070: cce4 7fbd 8437 bf3c 5eb8 1a3d 525b 5c3d
00000080: 27af 5ebd 4a54 e43c 47f9 3abb 2f2d 9abc
00000090: d5f7 4abd a228 eebc 307e 6bbd ea71 943b
000000a0: 62f1 ad3d 5af0 3a3b 1085 403d 6a5b 13bd
000000b0: fd9d 143d 3373 c13c 858a ff3c 9df6 223d
000000c0: b936 9cbd 1638 dc3c af4c 303d 7bcc 543c
000000d0: b867 d13d 3d08 093d 6b96 90bd 7ccd bbbc
000000e0: 9bad 6e3d 956b 513d 929e 9a3c 071b 213d
000000f0: eff2 5f3b bc78 7cbd 1c42 913d a02a 1b3d
00000100: 0f62 fd3c 1292 1d3d 3215 7b3c 5557 363d
00000110: 0dd8 9c3c 46bd 413d e44e 54ba 0687 973c
00000120: 2126 a83c 1227 af3c 7608 523d 29f7 33bc
00000130: 90da 523d 53f5 2e3c 2765 3e3d 775b 4cbb
00000140: 2755 a1bc 7b78 b43d c0ab 19bb 0b50 713d
00000150: fc70 573d 4ae4 6b3c d811 823c 102a 023b
00000160: 460e 81bc 12d1 733d 9290 eb3b 776c e4bc
00000170: c58e 013d 72be f23b 51c7 fc3c fabf 5cbc
00000180: a49f 62bd 279b aa3c f6be ed3c c86f 2f3c
00000190: 36db 1dbd 3310 443c 25f3 21bd 5b6a 653d
000001a0: 311e ab3b 0a23 4e3d 86d7 313d 89ad eb3a
000001b0: e6ba 203d 2bf6 cb3d 35ce cf3b 1614 9a3c
000001c0: f245 003d e6c5 9fbd 42ec 343c 5e59 903c
000001d0: 36da 42bc b80b 1cbd d9bd 11bd 3fd4 383d
000001e0: 526a b63c 32ac 563d c5eb 833d c32c a9bb
000001f0: d440 02ba d7d3 463c 6cd8 533c 68b5 70bd
