artifacts/runs/20260210_194456_LSTM/best.pt (torch, 75967 bytes, 5 tensors)

lstm.weight_ih_l0 f4 [256, 6]
000000 44 3f 2d 3c c3 2b bf bb 5d 63 d6 3b f3 4e 98 b9
       0.010574166 -0.005834074 0.0065426067 -0.0002905052
000010 78 61 e6 bb ab 20 ea 3a e9 95 28 bb ca c4 0a bb
       -0.007030662 0.0017862519 -0.002572412 -0.0021174424
000020 e5 7e 1f 3a c7 e2 6a ba 1c 00 d6 b9 be 9a b6 b9
       0.00060842774 -0.0008960184 -0.00040817342 -0.00034829037
000030 a9 53 ca 3b b7 53 f2 3b 71 46 80 bb 89 f7 1c bc
       0.006174524 0.0073952335 -0.0039146473 -0.009580501
000040 40 2f e1 b9 da 4b 29 3a 4f 51 e0 35 a9 64 dc b4
       -0.00042950548 0.0006458141 1.6712964e-06 -4.1051433e-07
000050 02 7a 8f b6 99 5c 54 b6 d5 17 1f 36 f3 51 69 b6
       -4.2759357e-06 -3.164436e-06 2.3706718e-06 -3.4767406e-06
000060 4c 85 29 be 74 80 89 3d f8 a3 af bc 50 12 e8 bc
       -0.16554755 0.067139536 -0.021440491 -0.028329045
000070 27 0c a1 bd 3f 1a a0 3d 7a 87 94 bd e3 7e 07 bd
       -0.07863646 0.07817506 -0.072524026 -0.033079993
000080 d0 cc 84 bc 40 5d e6 bb 15 6e 61 bc 2e b0 26 3c
       -0.016210943 -0.0070301592 -0.013759156 0.01017384
000090 91 3f bc 3e a8 28 ac bb c3 4b 4b 3d 91 4b 01 3e
       0.36767247 -0.00525387 0.0496328 0.12626483
0000a0 81 c1 dd bc 64 8f d6 bb 61 f7 b9 bc 0a 82 05 bc
       -0.027069809 -0.006547855 -0.022700967 -0.0081486795
0000b0 36 eb ab 3a 9c cc c7 ba fe 05 88 3b a1 a9 60 3a
       0.0013116363 -0.0015243473 0.004151105 0.00085701986
0000c0 ec 2e 27 3a cc c3 bb bb 73 ad d8 bb 9f ad 15 39
       0.00063775363 -0.005730128 -0.0066124736 0.00014274426
0000d0 b3 0f 0a 3c 69 59 ef bb 61 7c 0d bd ee 0e 2e 3b
       0.008426595 -0.0073043597 -0.034542445 0.0026559192
0000e0 e8 bc 7f 3b 3f a7 a9 bc 7f aa 5b 3b 68 6d be 3b
       0.003902251 -0.020709632 0.0033518372 0.005811382
0000f0 6d bb a0 3e 32 8d 53 bc b0 fc 1c 3c f6 36 1f 3c
       0.31392995 -0.012912082 0.00958173 0.009717694
000100 9e c2 b3 3c bc 4e 0e be 8a 10 fa bb 47 f9 3d bb
       0.021943387 -0.13897222 -0.007631366 -0.0028987692
000110 9d 53 ad b9 4d 28 b8 bb 37 2b da bb 6a 2f a8 b8
       -0.00033059428 -0.0056200386 -0.0066579836 -8.019696e-05
000120 d9 e0 77 ba b8 03 43 3a 71 8d c0 3b 41 d9 89 ba
       -0.0009455807 0.0007439214 0.005876236 -0.0010517017
000130 07 a1 b2 bb 03 04 16 bb ab d1 d7 bd 72 86 63 bc
       -0.005451325 -0.0022890575 -0.10538038 -0.013887035
000140 b0 e7 a4 3b c2 35 02 bd d7 4c 9e 3c 61 06 ae 3b
       0.005032502 -0.03178955 0.01932375 0.005310819
000150 16 a3 37 bd f1 9f 35 bd eb ac 5a bd 6b 47 01 3d
       -0.044833265 -0.044341985 -0.053387564 0.03156225
000160 1a 4c 35 3d e4 4b 88 bb e0 06 6e 36 9e d6 c5 b6
       0.04426203 -0.0041594375 3.5468765e-06 -5.8960422e-06
000170 54 bd 21 b8 d5 fe e5 b6 44 14 3d 37 c7 7e 6f b7
       -3.8561717e-05 -6.854398e-06 1.1269996e-05 -1.4275028e-05
000180 26 e1 62 3b cc 75 60 3b cd bc 52 bb 99 c2 5a 3a
       0.0034619062 0.00342499 -0.003215599 0.00083450373
000190 6f ea 15 3c f6 9a 0e 3c 73 a5 02 3a 47 1c 09 ba
       0.009150132 0.008703938 0.00049837603 -0.0005230349
0001a0 32 bb 10 3b 34 c8 13 bb 7b c9 22 bb 0d 69 49 3a
       0.0022084233 -0.002254975 -0.002483933 0.0007683195
0001b0 f7 94 f3 bd 52 3c e7 3b 83 a6 9d 3c cc 6b 49 bd
       -0.11893647 0.0070567513 0.019244438 -0.04917507
0001c0 29 87 9c bd 62 da 37 3c 23 6d 5c ba 23 a2 56 b9
       -0.07642967 0.0112215 -0.00084085966 -0.00020469031
0001d0 d0 e0 9b 3a b0 f7 13 ba 8d 32 ab 39 13 a0 85 ba
       0.0011892561 -0.00056445133 0.00032653325 -0.00101948
0001e0 33 ff 3d 3b 87 dd 0f bb 72 68 bd 3a 47 3d fa b9
       0.0028991222 -0.002195211 0.0014450683 -0.0004772937
0001f0 b3 92 f6 ba 3e ea 46 3a 14 32 12 38 50 a2 53 3b
       -0.001881203 0.00075880054 3.485575e-05 0.003229279
000200 0c c1 1a bb b8 90 89 3c 7a b9 bf 3c e1 95 5e 3b
       -0.00236136 0.01679264 0.023403872 0.0033963847
000210 6f 55 18 b3 62 f6 99 b4 89 6f a9 b3 86 2f fc b3
       -3.546796e-08 -2.8677738e-07 -7.889964e-08 -1.1743309e-07
000220 50 88 95 33 d8 07 a8 33 a6 a1 fb 39 34 2c 89 3c
       6.963148e-08 7.8245364e-08 0.00047994888 0.01674471
000230 12 1d 14 b7 62 3e 55 bc f9 4a 18 bc d4 99 8d 3c
       -8.828256e-06 -0.0130153615 -0.009295219 0.017285265
000240 e1 c4 66 3d 28 d2 a4 bd 52 6a 46 bd c6 3d c2 3d
       0.056340102 -0.080478966 -0.04844124 0.094844386
000250 e4 d9 74 3d 59 84 b1 3d 21 d0 33 ba 8b b4 4c 3a
       0.05977811 0.086678214 -0.0006859322 0.00078088854
000260 1f cc 8e 3a 7f 1c 0d ba f1 95 04 bb d0 4e 0a ba
       0.0010894573 -0.00053829694 -0.0020230974 -0.0005276026
000270 4a 33 af 3c 14 f0 2c bc ea 3d 9f 3c 2a 29 ad bc
       0.021386761 -0.010555286 0.019438703 -0.021137793
000280 08 44 ca bb df 73 80 bb 71 7e 7f bd 25 11 1f 3d
       -0.0061726607 -0.003920063 -0.062376443 0.03883471
000290 0d 81 9a 3c ab 62 d7 bd 66 8e 62 bd d0 67 87 3d
       0.018860364 -0.10516866 -0.055311583 0.066115975
0002a0 ff d3 c0 bb ca 19 cc 3b f8 0e 63 bc 7b 1f a7 3d
       -0.005884647 0.0062286602 -0.013858549 0.08160301
0002b0 52 d9 1d 3d 8d ed 30 bd 3d 34 1f 3b 29 29 23 ba
       0.03853733 -0.043195296 0.002429261 -0.000622409
0002c0 08 42 f6 39 17 8e 73 3a 0c 0b da ba 3e 4c 1b 3b
       0.00046969973 0.00092908874 -0.0016635372 0.0023696567
0002d0 45 cb fc bd 7f 2b c7 3d 78 54 19 bb cc 4c 93 bb
       -0.12343458 0.09725093 -0.0023396295 -0.004495239
0002e0 5a 3f c5 bd de 6f d8 3d 97 c1 0c bb 19 2f af 3a
       -0.09631224 0.10568212 -0.0021477693 0.0013365477
0002f0 4f 56 7a 3b b4 7e 17 ba 06 c5 ce bb c7 50 95 3a
       0.0038198417 -0.0005779073 -0.006310108 0.0011391871
000300 08 99 6e ba 03 b9 a9 b9 9e 52 4b 39 6f 06 0a b9
       -0.0009101783 -0.00032372036 0.00019390366 -0.00013163102
000310 c5 b1 a5 b8 28 54 01 38 c2 03 f8 3d 45 6e 06 bd
       -7.900925e-05 3.0834373e-05 0.12110092 -0.032820005
000320 46 67 62 3d 7a d6 e8 3c c8 40 d9 3d 58 17 4f bd
       0.05527427 0.028422583 0.10608059 -0.05055937
000330 e8 b4 0e b9 7c 14 eb ba 04 74 0f 3b 65 41 84 ba
       -0.00013609568 -0.0017935182 0.002188922 -0.001009029
000340 79 f4 30 bb 45 75 21 3b a0 de 84 b8 14 71 ad b8
       -0.0027001186 0.0024636548 -6.3357176e-05 -8.270345e-05
000350 76 37 54 b6 f6 d0 21 37 f1 7d d3 b5 25 9e c8 35
       -3.1622744e-06 9.645e-06 -1.5757379e-06 1.4947187e-06
000360 ba dc ad bd 33 0d 24 3d 9f 0e 10 bd ac 12 02 bd
       -0.08489366 0.04005165 -0.035170194 -0.03175609
000370 c2 ea 5b bc 02 a1 94 3d 36 70 ec 3a e7 91 9d ba
       -0.01342267 0.07257272 0.0018038813 -0.0012021632
000380 db c6 09 bc 8f fa e8 3a a8 f8 15 3c 4f 25 f0 bb
       -0.008409227 0.0017774868 0.009153523 -0.0073286663
000390 30 32 c7 bc 4d a8 c1 3c 9f fc 44 bc 32 3a 4f 3c
       -0.024315923 0.023639822 -0.01202312 0.012648152
0003a0 d1 0c 8e 3b 31 cd d1 3b e2 47 45 3c b4 9c 98 3b
       0.004335024 0.0064026345 0.012041064 0.0046573523
0003b0 f7 4f e7 bb d3 be e3 3c f4 58 d9 3c 8a 63 78 bc
       -0.007059093 0.027800953 0.026531674 -0.015160451
0003c0 66 c6 36 bc 84 7c 41 3b 9d 37 f5 3a bd a3 62 bb
       -0.0111557 0.002952368 0.0018708591 -0.003458246
0003d0 c0 f2 43 bc b9 3b 72 3b a1 5b a6 3a 55 fe 3e ba
       -0.011959732 0.0036961867 0.0012692102 -0.0007285823
0003e0 e1 9d 52 b9 bc 09 65 b9 58 37 cb 3a a4 44 55 ba
       -0.00020085975 -0.00021842768 0.0015504165 -0.00081355334
0003f0 01 f6 c4 39 7d 83 9a b8 6f 30 a4 3b 6c 7c 09 bb
       0.0003756732 -7.367784e-05 0.0050106565 -0.0020978702

lstm.weight_hh_l0 f4 [256, 64]
000000 6d c2 2d b9 f9 c2 97 b9 0a e4 0b ba 55 03 a6 37
       -0.00016570995 -0.0002894623 -0.00053364097 1.9790294e-05
000010 3a c6 24 bb 05 5d 27 3a 93 70 5e bb 0a ce 49 b8
       -0.0025142566 0.00063844054 -0.0033941611 -4.8114023e-05
000020 0d 67 bd b9 24 6d 5b 38 93 49 9c bb 2d 2e 84 b8
       -0.00036125668 5.2315314e-05 -0.004769513 -6.3028514e-05
000030 13 a8 8d b9 0b 56 9a 3a 1f 11 c8 b7 ce 48 3e b9
       -0.0002701884 0.001177491 -2.384983e-05 -0.00018146934
000040 d0 62 a9 39 f0 8a c5 b9 fe 3b 85 3a 7a 31 d2 39
       0.00032307813 -0.00037678285 0.0010164974 0.00040091184
000050 86 5d f7 b8 ed 99 60 3a fd a6 37 36 36 0d c7 b9
       -0.00011795298 0.00085678586 2.7366325e-06 -0.0003796608
000060 32 f9 ff ba 7e 97 03 39 48 8b f6 b7 12 93 f1 ba
       -0.0019529222 0.00012549569 -2.9390343e-05 -0.0018430671
000070 b7 02 17 3b d6 a4 70 39 2b a4 8e 3a be 0f 65 39
       0.002304239 0.0002294959 0.0010882666 0.00021845006
000080 79 a7 18 b7 17 e4 4f 3b a7 88 f1 39 66 92 fc 38
       -9.098899e-06 0.0031721646 0.00046068916 0.00012043565
000090 04 28 22 3a 0c b5 01 ba c8 95 05 b9 4a fe c3 3a
       0.00061857724 -0.00049479376 -0.00012739666 0.0014953103
0000a0 ab 06 51 3a 4b 76 38 b8 b8 2c 1e ba c5 29 5e ba
       0.0007973711 -4.3979187e-05 -0.00060338853 -0.0008474852
0000b0 8a 21 d4 ba b4 0c da 39 38 a4 c2 b9 2c 13 e0 39
       -0.0016184312 0.00041589665 -0.00037124916 0.00042738894
0000c0 2d 34 51 b6 7b 6a a2 39 2e ae 0f 3a 3b 30 5d 3a
       -3.1173797e-06 0.00030978382 0.0005480972 0.0008437668
0000d0 c8 89 69 b8 92 ef bc 3a 21 19 2f ba 7e 66 4e 39
       -5.5679848e-05 0.0014414659 -0.0006679465 0.00019683872
0000e0 68 90 82 3b c7 39 8b b9 b7 e6 d4 3a fe 5e 63 3a
       0.0039844997 -0.00026555193 0.0016243075 0.0008673518
0000f0 0a 7a fa b8 11 9d 07 ba 13 5f 88 39 26 2e 93 b9
       -0.000119436605 -0.0005173246 0.00026010777 -0.00028072408
000100 1f 2f a4 39 25 e8 1b 39 df b8 a1 37 38 83 9a b6
       0.00031315626 0.00014868432 1.9278783e-05 -4.6048335e-06
000110 17 ff de 39 54 8f e7 b8 85 5e 80 b9 96 bd 8d b9
       0.00042533196 -0.00011041635 -0.00024484485 -0.00027034868
000120 51 11 fa b7 48 6b 9d 39 67 c5 c9 39 3d f1 b2 37
       -2.9810386e-05 0.00030025304 0.00038484784 2.1331589e-05
000130 ad 35 7a b8 10 27 29 ba 58 a5 0f b8 40 d2 25 38
       -5.9654634e-05 -0.0006452659 -3.4247845e-05 3.9534876e-05
000140 f7 72 05 b9 0d 3e 9a 38 2b 83 27 b9 e3 74 85 38
       -0.00012726696 7.35485e-05 -0.00015975225 6.363706e-05
000150 20 7e d2 b7 09 b4 f9 b9 e1 c7 cb 34 b3 41 95 38
       -2.5092682e-05 -0.00047627118 3.7957128e-07 7.117111e-05
000160 80 2d d4 39 ee 09 b9 35 04 00 61 39 94 76 05 38
       0.0004046969 1.3786464e-06 0.00021457678 3.1820106e-05
000170 66 5c 27 b9 47 47 af 37 dd 44 b0 b9 45 45 0a b9
       -0.00015960782 2.0894817e-05 -0.00033620643 -0.0001318651
000180 5f e5 82 b8 ab 2e e9 b9 04 e5 42 b9 55 27 67 37
       -6.241607e-05 -0.00044475993 -0.00018586597 1.3777831e-05
000190 e4 94 73 b9 57 74 0e 39 8a f5 67 39 07 c9 79 b9
       -0.00023229752 0.00013585515 0.00022121347 -0.00023821379
0001a0 74 2c f1 b9 7d e1 8e b8 6e c1 5a 38 90 91 71 39
       -0.00046000222 -6.813088e-05 5.2155396e-05 0.00023037777
0001b0 87 e0 71 b9 18 c6 54 37 11 e6 26 39 82 16 2d b9
       -0.00023067194 1.2682307e-05 0.000159167 -0.0001650695
0001c0 1c 48 70 37 fd 99 56 b9 32 23 dc b8 dc 05 6c b9
       1.4321904e-05 -0.00020465995 -0.00010496973 -0.00022508897
0001d0 20 70 39 b9 72 6f fa b9 4e 4d 8e 38 41 8b d2 b8
       -0.00017684745 -0.0004776675 6.785487e-05 -0.000100395184
0001e0 87 6e a2 b8 3e 8f 96 39 21 fc ff b9 3d 4e fa 38
       -7.745349e-05 0.00028716953 -0.0004882524 0.00011935502
0001f0 c7 4f ba 38 67 40 f2 38 a3 18 91 b8 f7 e9 fe b7
       8.884031e-05 0.00011551455 -6.918728e-05 -3.0388108e-05
000200 b6 bd b6 3a 7e 56 44 3a e2 f3 87 bb d1 23 b2 35
       0.0013942036 0.0007489695 -0.004148946 1.3272457e-06
000210 44 39 ce bb 8b 97 cb 3b c9 72 33 bc c7 50 e6 b9
       -0.0062934477 0.0062131337 -0.01095266 -0.00043929202
000220 4c ed bc 3a 42 19 0b b9 db fd 14 bb 59 d5 59 ba
       0.0014413982 -0.00013265482 -0.0022734317 -0.00083096843
000230 e7 f9 09 3a 9f 9b 87 bb 14 99 8d 3b bb 2f 15 38
       0.00052633736 -0.0041384245 0.004321227 3.556882e-05
000240 ef f9 51 3a 10 9a 89 3a c7 1b a9 3b ce 38 f2 b9
       0.00080099603 0.0010498185 0.005160782 -0.0004620016
000250 66 2f dc b9 9e 12 6b 39 2d f4 e8 35 af 66 8e ba
       -0.00041996985 0.00022418282 1.7356411e-06 -0.0010864342
000260 d0 c8 be bb 99 c4 af b9 1f 26 dd ba b3 f3 ea ba
       -0.0058222786 -0.00033525078 -0.0016872323 -0.0017925411
000270 2e d6 55 bb b9 a7 8e b9 bb 81 18 3c 56 86 ca b9
       -0.0032628882 -0.00027209314 0.009308274 -0.0003862853
000280 b5 03 72 b9 b6 28 84 bb f8 21 d9 b9 60 8c 1b 39
       -0.000230803 -0.0040331734 -0.00041414774 0.00014834246
000290 68 99 25 3b 22 c6 c3 3a f4 c3 34 ba 5d a9 19 bb
       0.002526844 0.0014936368 -0.00068956544 -0.0023446896
0002a0 75 55 2f ba cb dd 1b 37 36 93 4d 3a 67 4a b5 b9
       -0.00066884543 9.29036e-06 0.00078420655 -0.00034578444
0002b0 13 b9 3b bb 65 f2 9a 3a 91 84 cd 3b 7b 92 84 ba
       -0.0028644248 0.0011821507 0.0062719067 -0.0010114455
0002c0 02 60 b9 ba 2a 15 18 ba 5f 64 a6 ba 46 47 f4 ba
       -0.0014142992 -0.00058014935 -0.0012694708 -0.0018636964
0002d0 27 eb 91 b9 fb f5 ef ba ae d7 4c bb ae 0d 9d b9
       -0.00027831757 -0.0018307561 -0.0031256485 -0.00029955566
0002e0 9b f5 4a 3c a9 de 7f ba 05 f3 2d 3b b5 47 52 ba
       0.0123876585 -0.0009760657 0.0026542556 -0.00080215494
0002f0 ef 12 88 bb 66 91 bc 3a 00 be 2f bb 22 59 ad 3a
       -0.0041526477 0.0014386594 -0.002681613 0.0013225416
000300 c6 06 e3 34 51 b2 b9 33 bc 1b 23 34 13 3e c3 af
       4.2286973e-07 8.6471694e-08 1.5190648e-07 -3.55144e-10
000310 39 17 53 b5 fa f0 83 35 d5 ad b2 b5 13 e3 19 31
       -7.863742e-07 9.830394e-07 -1.3312625e-06 2.2393507e-09
000320 32 03 08 b3 c8 39 37 b4 9a 3a 2f 36 cc 71 e6 b4
       -3.1667874e-08 -1.7064224e-07 2.6111143e-06 -4.2923637e-07
000330 a4 19 0b 34 9f ef 09 b5 35 26 64 34 f0 3e c4 32
       1.2954712e-07 -5.138517e-07 2.1248054e-07 2.2846024e-08
000340 68 fc c0 b3 f7 20 56 34 74 df 88 35 79 6a 1f 33
       -8.986609e-08 1.9942296e-07 1.0197823e-06 3.711691e-08
000350 60 53 1a b4 85 f8 bf b3 40 7e 05 30 a6 dc 26 b4
       -1.43727e-07 -8.939336e-08 4.856453e-10 -1.5540226e-07
000360 9c db bd b5 47 b3 e9 b2 29 1d 48 b4 38 4d 53 b5
       -1.4145512e-06 -2.7206296e-08 -1.863706e-07 -7.8715993e-07
000370 6a bd 30 b3 62 6e 9b 2f 06 c2 00 36 3c 96 64 32
       -4.1150464e-08 2.8272767e-10 1.9186423e-06 1.3305506e-08
000380 3e 31 63 b2 9c 7d 03 b6 d7 75 9e b3 52 80 16 31
       -1.3224335e-08 -1.9593635e-06 -7.378883e-08 2.1900814e-09
000390 1e fd b1 35 ae 4b 0c 34 ea 89 8e 34 e5 ac 16 b5
       1.3261194e-06 1.3066048e-07 2.6549907e-07 -5.613095e-07
0003a0 45 ef 37 b4 12 4f 07 31 9d 95 ee 33 eb b3 57 34
       -1.7130249e-07 1.9690032e-09 1.1109953e-07 2.0088889e-07
0003b0 16 34 05 b5 60 05 ce b3 f2 f6 a4 35 28 7f 13 b4
       -4.9622156e-07 -9.5936e-08 1.2290823e-06 -1.3736701e-07
0003c0 01 4d a7 b3 07 d7 03 b4 20 89 0b b5 06 fd 97 b4
       -7.7905504e-08 -1.2278552e-07 -5.198108e-07 -2.831004e-07
0003d0 b2 e6 12 33 c3 06 83 b5 0f e4 fc b4 a0 b7 9c b3
       3.420309e-08 -9.762229e-07 -4.7104592e-07 -7.297717e-08
0003e0 0b 1b db 34 0c f6 88 34 ca 9e 5d b5 db fd 2f b5
       4.0811605e-07 2.5510997e-07 -8.2559984e-07 -6.556199e-07
0003f0 e6 7d 14 b5 dd 6c 13 33 01 2e fe b5 4e 70 9b 34
       -5.53175e-07 3.4325115e-08 -1.8937864e-06 2.8952712e-07

lstm.bias_ih_l0 f4 [256]
000000 62 49 cf bb ef b4 6f 3a c7 d4 7e 3c 99 65 33 35
       -0.0063258866 0.00091440877 0.01555366 6.683054e-07
000010 eb 3b 5e 3d 1d 98 13 3d 6b 0e e3 3c 5e 5e 4f 3a
       0.05425636 0.03603374 0.027716836 0.0007910485
000020 c0 dd 60 3a 4f 9c df 3b ee c8 5e 3d a5 b4 12 39
       0.0008577965 0.0068240534 0.05439084 0.0001399094
000030 1d 82 90 b9 f2 cd c7 3c b2 ca 21 3d 5e 83 ad b5
       -0.00027562762 0.024390195 0.039499946 -1.2927737e-06
000040 cc 7d 84 3b 82 ee 1a bb 79 a1 1c 3d 5a 26 8c 37
       0.0040433165 -0.0023640697 0.03823993 1.670716e-05
000050 a4 a9 6e b9 0b 49 90 3c ab a1 e1 b4 71 95 63 3b
       -0.00022760645 0.017612955 -4.2027145e-07 0.0034726525
000060 43 23 dd 3d e1 0a f1 39 25 b0 90 3b ff 71 95 3d
       0.10797741 0.00045975207 0.0044155293 0.07297134
000070 21 67 4a 3d 43 67 a0 ba 9f 54 98 3d f8 11 30 38
       0.049414758 -0.0012237806 0.07438015 4.1978405e-05
000080 4d 4f a3 b7 c3 09 97 3d 28 94 c1 ba e9 8e 29 b9
       -1.9468042e-05 0.07374909 -0.0014768885 -0.00016170334
000090 0b f5 4b 3d ee 40 f1 ba a4 68 a4 3b 0b d4 41 3c
       0.049794238 -0.0018406191 0.005017357 0.01183034
0000a0 a7 bd 51 bb 1c 59 b9 b9 20 cd d1 39 eb 3e ee 3c
       -0.003200391 -0.0003535234 0.00040016416 0.029082736
0000b0 1e 9d c7 3c c5 a3 0b bb ec 2d a5 3c a4 71 e0 ba
       0.024366912 -0.002130733 0.020163499 -0.0017123711
0000c0 d9 e0 8f 3b 92 f3 ee 39 d9 b8 80 3b 96 52 07 3b
       0.0043908176 0.00045576371 0.0039282856 0.002064859
0000d0 d6 a5 30 bb 18 5a 7d 3c 1d ef ac bb 5c dd 8f b8
       -0.0026954315 0.015463375 -0.005277528 -6.860003e-05
0000e0 29 81 b1 3c 93 56 78 3c bb 78 d6 3d b4 61 69 3d
       0.021668034 0.01515736 0.10472246 0.056977943
0000f0 f3 65 03 3d 89 9d c9 b8 4e 7b 6a 3d 7a 05 2b 3a
       0.03207965 -9.61377e-05 0.0572465 0.00065239484
000100 9c 97 a6 bb e9 43 6f 3a 41 20 b2 3c f7 e0 08 36
       -0.005083991 0.0009127246 0.021743895 2.0396526e-06
000110 36 c2 9c 3d 29 06 1c 3d 75 f8 d6 3d 4d 0e 55 3a
       0.0765423 0.038091812 0.10496608 0.0008127436
000120 e5 43 17 3b 52 10 be 3b 06 53 08 3e 50 c2 1d 3a
       0.002308124 0.0058002854 0.13312921 0.00060180295
000130 c8 9c 1e bb 2c 91 fb 3c 82 6a 4c 3d 34 b2 de 36
       -0.0024202336 0.030708872 0.04990626 6.636861e-06
000140 f6 8c ba 3b 60 70 e5 bb 4a d3 e3 3c fb c2 14 b9
       0.0056930734 -0.0070019215 0.027810711 -0.00014187016
000150 e3 97 e4 ba 99 84 aa 3c ab b0 bb b4 57 5c 16 3c
       -0.0017440285 0.02081518 -3.4960007e-07 0.009177289
000160 ac f7 33 3e 49 94 fc b9 a1 cb b7 3b c0 59 8f 3d
       0.17574948 -0.00048175667 0.0056089913 0.0699954
000170 82 72 56 3d 98 ca fa ba 55 31 9f 3d e8 3e 82 ba
       0.052355297 -0.0019133864 0.07773081 -0.000993696
000180 ad f6 d6 b9 d4 5f ec 3d 7b 79 ec b8 e3 e9 12 b9
       -0.00041001049 0.11541715 -0.000112759844 -0.00014010775
000190 0d 42 b8 3c 3b ae ed ba 62 60 d3 3b 7e 45 4f 3c
       0.022492433 -0.001813359 0.0064506987 0.012650846
0001a0 eb 4f 5c 39 f0 39 4f b9 7b eb 96 b9 f3 80 38 3d
       0.00021010607 -0.00019762642 -0.00028785676 0.04504485
0001b0 e3 b4 5a 3d 2c 86 92 39 90 ec 0d 3e f9 3d cb ba
       0.053395163 0.00027947256 0.13859773 -0.001550614
0001c0 82 cf 7b bc ba 80 fe 3a 34 de 0c bc bb 48 3b 3b
       -0.015369298 0.0019417026 -0.008597899 0.0028577286
0001d0 ed c7 98 3a 82 28 44 3d a7 c8 a5 3b f3 d7 9b b8
       0.0011656262 0.047890194 0.00505932 -7.4311996e-05
0001e0 cf f9 2a 3e 99 c9 d1 3c f3 4b 0b 3e b4 e1 f2 3d
       0.16696857 0.025608825 0.13603191 0.11859456
0001f0 bc 8d a3 3c d0 d7 91 39 67 50 93 3d ea 6a 0c 3b
       0.019965045 0.00027817348 0.0719307 0.002142603
000200 f7 09 7d 3d 32 48 8d 3c 75 cb b0 bd 22 bb 22 bb
       0.06177708 0.01724634 -0.08632556 -0.0024830778
000210 22 c7 6f 3d a2 de ea ba 17 ae b9 bd 84 0e 0d bd
       0.058539517 -0.0017919133 -0.09066408 -0.03443767
000220 32 cc 57 bc 63 33 8b bb 95 3b 4c bd 2b bb d2 bc
       -0.013171243 -0.004248069 -0.04986151 -0.025724014
000230 a3 16 49 bc 8b 50 8f bc 21 a5 84 bc 97 21 b0 3c
       -0.012273463 -0.01749446 -0.01619202 0.021500392
000240 83 78 22 3d cb 44 03 3d e8 2b 27 bd 91 1e 3f bd
       0.03966571 0.032048028 -0.040813357 -0.04666001
000250 0b 50 e1 bb 32 80 92 bd ec 8f 52 b9 95 00 02 bd
       -0.006875997 -0.071533576 -0.00020080776 -0.031738836
000260 4a e8 d6 3d d6 4c 77 bb 70 d4 9b 3d 2b 92 89 3d
       0.104935244 -0.0037735007 0.076088786 0.067173325
000270 c9 eb 71 3c 29 3b c3 3b 57 f7 5b 3d 3f c4 1e 3c
       0.014765688 0.00595798 0.05370268 0.009690343
000280 37 46 e2 3b 1f 28 4c bc 40 34 77 3c 38 04 24 39
       0.006905343 -0.0124607375 0.015088141 0.0001564183
000290 bd 3d 97 bc 4f 1a 3f 3b a3 95 92 3d d3 69 94 3d
       -0.018462056 0.0029159968 0.07157447 0.07246747
0002a0 98 4e 18 bd 69 4c 98 39 ab b0 a7 3c 22 58 63 3d
       -0.037184328 0.0002904863 0.020469984 0.055503972
0002b0 11 f7 c6 bd 7a 68 fe 3c c1 20 d4 ba 92 57 a2 3d
       -0.09715093 0.031055678 -0.0016184078 0.07926859
0002c0 bc 84 a8 3c 8b 64 58 bd 22 ff 70 bc 81 87 ac 3c
       0.020571105 -0.05283026 -0.014709266 0.021060707
0002d0 e0 3c 4b ba c0 6a 22 3d 00 5f 66 3d 51 02 f7 bc
       -0.00077529065 0.039652586 0.056242943 -0.030152472
0002e0 b6 29 22 3c c1 3a c0 bd 5b b3 56 bd ec 58 b5 3d
       0.00989764 -0.093862064 -0.05241714 0.08854851
0002f0 8f 09 98 3c 65 c3 9a 3c f1 39 87 bd d9 ff cc bb
       0.018559245 0.018892 -0.06602848 -0.0062560854
000300 90 a6 e9 bb 83 81 60 3a d8 c9 81 3c 59 24 05 35
       -0.0071304515 0.00085642206 0.015843317 4.9599254e-07
000310 4e c7 8a 3d 54 59 32 3d 34 6c 8d 3d 87 e4 90 3a
       0.067762956 0.04354222 0.06905404 0.0011054435
000320 8c 10 52 3a a8 5b b2 3b 5a 67 f0 3d d0 66 b7 3a
       0.000801333 0.005443055 0.11738463 0.0013992433
000330 97 d4 dc b9 78 16 9e 3c ac c9 27 3d 72 a9 ae b6
       -0.00042120062 0.019297823 0.040963814 -5.20533e-06
000340 c5 12 1e 3c e2 2d 88 bb 7a e5 6e 3d 8d d0 c7 36
       0.00964803 -0.0041558603 0.058324315 5.9549407e-06
000350 ad b4 0b ba 2d 51 d3 3c 46 90 d9 b4 70 11 a4 3b
       -0.0005329352 0.025795544 -4.0524372e-07 0.0050069615
000360 45 d2 bb 3d b7 5c ca 39 37 f6 98 3b 73 e8 23 3d
       0.09170965 0.0003859752 0.004668023 0.040016603
000370 9e 2b ea 3c 68 23 62 ba 4b 24 c5 3d ec e3 1a 38
       0.028585251 -0.0008626492 0.09626063 3.692873e-05
000380 70 f3 a2 b7 e5 57 b0 3d 7a e5 c0 ba b9 2e 30 b9
       -1.9425264e-05 0.086105146 -0.0014716827 -0.00016802074
000390 5e fd 19 3d 89 96 03 bb e4 b2 84 3b 88 5c be 3b
       0.037595145 -0.002007874 0.0040496457 0.0058093704
0003a0 cc 11 57 bb 82 9d bb b9 c8 79 c5 39 fc 2a fe 3c
       -0.0032817004 -0.00035784772 0.00037665502 0.031026356
0003b0 4f d8 14 3d 66 e6 04 39 51 e9 14 3d 06 11 f1 ba
       0.0363391 0.00012674331 0.03635532 -0.0018391914
0003c0 76 dc 33 3b e6 76 d9 39 6e e0 63 3a fa d4 f3 3a
       0.0027444637 0.00041478052 0.00086928054 0.0018602901
0003d0 08 b2 30 bb 7d 12 94 3c 76 cc 4f 3c 30 9f 9d b8
       -0.0026961584 0.018075222 0.012683025 -7.5159944e-05
0003e0 95 7a e8 3d b6 44 b6 3c 6a d0 c4 3d 00 71 8b 3d
       0.11351506 0.02224956 0.09610064 0.068086624
0003f0 38 0f 94 3b ff 44 0c b9 b4 3c c0 3d f5 8b 45 3a
       0.004518416 -0.00013377143 0.09386578 0.0007535809

lstm.bias_hh_l0 f4 [256]
000000 ca 0f 70 bb a1 f5 6f 3a d5 8d 64 3c 5f 11 41 35
       -0.0036630505 0.0009153728 0.013949831 7.192338e-07
000010 14 d5 1f 3d 16 bc f3 3c 00 67 34 3d 73 75 8c 39
       0.039021567 0.029752772 0.04404354 0.00026790387
000020 8c d9 60 3a 2f 95 b7 3b 89 67 50 3d 14 be 71 bb
       0.0008577339 0.005602501 0.05087999 -0.0036886977
000030 3e 70 91 b9 8f 8d c4 3c 29 7c 24 3d ac 18 97 b5
       -0.00027740182 0.023993282 0.04015747 -1.1257557e-06
000040 09 f2 23 3c 3a 3c b1 bb 07 e1 19 3c 27 e8 9e 37
       0.010006436 -0.005408791 0.00939203 1.8943172e-05
000050 e1 52 e9 b9 e4 29 c4 bb 6a d5 e0 b4 4c 8c 62 3c
       -0.00044502973 -0.005986439 -4.187853e-07 0.013827395
000060 80 cb f2 3d c3 b2 f4 39 c1 19 ae 3a 12 6c b1 3d
       0.11855221 0.00046672494 0.0013282822 0.08663191
000070 00 b6 50 3d 45 cc 7c ba 81 68 fe 3d b8 65 1f 38
       0.05095482 -0.00096434756 0.12422276 3.8003287e-05
000080 d4 7a a1 b7 81 04 eb 3d 6c 98 c1 ba cd 0b 28 b9
       -1.9249892e-05 0.114754684 -0.0014770157 -0.00016026125
000090 3b 9d 0b 3d 00 f3 f1 ba 4c 4f 92 3b a5 ff 32 3c
       0.034085494 -0.001845926 0.0044650193 0.010925208
0000a0 9d 46 59 bb 4f 59 b9 b9 fd 7a d2 39 2b 10 d7 3c
       -0.003315366 -0.0003535249 0.00040145955 0.026252827
0000b0 c3 94 f7 3c 9f 7e 40 bb 82 1b 8e 3c a0 2a de ba
       0.030222302 -0.0029372347 0.017347101 -0.0016949959
0000c0 1d 84 8f 3b 0b 58 0e 3a 1d 46 f5 39 97 3c 07 3b
       0.004379763 0.00054299895 0.0004678228 0.002063548
0000d0 57 9a 30 bb 43 39 8d 3c ec 03 0a 3c c4 72 91 b8
       -0.0026947462 0.017239219 0.008423787 -6.9355156e-05
0000e0 c4 21 88 3d a4 74 fb 3b ee 3f 8a 3d 09 69 27 3d
       0.06647065 0.0076738168 0.06750475 0.040871654
0000f0 92 ae 0e 3c 97 99 c7 b8 82 97 91 3d 3a 03 2e 3a
       0.008708613 -9.517668e-05 0.07108976 0.0006638054
000100 df 44 b7 bb 8a bb 6e 3a b2 97 9c 3c d6 17 0a 36
       -0.005592927 0.0009106925 0.019115303 2.0577477e-06
000110 8e b1 d2 3d 77 20 37 3d cf 8d ca 3d 27 73 48 3a
       0.10287772 0.044708695 0.09890329 0.00076465536
000120 2f 1b 17 3b 93 97 2f 3c 60 59 0d 3e e7 4e 2c 3b
       0.0023056974 0.01071729 0.13803625 0.0026292147
000130 e6 1a 1f bb 41 49 0a 3d c2 11 4d 3d 04 73 e2 36
       -0.0024277507 0.033761267 0.050065763 6.7487144e-06
000140 b3 d8 72 3c 4f c1 8f bb c7 5c 53 3d 01 41 16 b9
       0.014822173 -0.004387058 0.05160215 -0.0001432933
000150 27 25 d8 ba 8a 1b 36 3d ff 52 ba b4 fe 18 72 3c
       -0.0016490564 0.044459857 -3.4705587e-07 0.014776466
000160 74 49 4f 3e 56 c8 fc b9 54 6a a1 3b 73 bb 68 3d
       0.20242864 -0.00048214447 0.0049260054 0.05681939
000170 42 77 47 3d b3 b2 fa ba 67 e4 ba 3d 22 26 82 ba
       0.048697717 -0.0019126743 0.091255955 -0.0009929577
000180 4e fa d7 b9 7c 4a 10 3e fa ca ee b8 c9 82 14 b9
       -0.00041194487 0.14090914 -0.00011386532 -0.00014163101
000190 8b 7d 62 3d 35 69 ec ba 53 ee db 3b dd eb 36 3c
       0.05529551 -0.0018036725 0.00671176 0.011164633
0001a0 74 96 84 39 c7 00 4f b9 57 76 96 b9 31 72 ec 3c
       0.00025289098 -0.00019741348 -0.000286984 0.028863044
0001b0 4d d9 38 3d 73 92 ce 39 e2 f5 0c 3e 7c 10 cb ba
       0.04512911 0.00039400495 0.13765672 -0.0015492584
0001c0 01 ff 7a bc da 50 fc 3a 51 e2 0f bc 1e 49 3b 3b
       -0.015319587 0.001925017 -0.008781985 0.0028577517
0001d0 45 c9 98 3a a7 6c 21 3d e4 84 9d 3b 8f ba 9b b8
       0.0011656663 0.03941026 0.0048071016 -7.425725e-05
0001e0 7d 5d 3d 3e 62 aa 76 3b 19 d9 f6 3d f1 82 c4 3d
       0.18492694 0.0037638177 0.12053127 0.095952876
0001f0 64 88 98 3c d7 30 94 39 18 f4 d2 3d c0 24 0d 3b
       0.018619724 0.00028265148 0.103004634 0.0021536797
000200 e9 c1 42 3d 47 b4 cf 3b ed 1f 7e 3d 67 e1 d8 3a
       0.04754821 0.0063386294 0.062042166 0.0016546667
000210 73 be 8c 3d 4e df 11 3c e4 66 08 3d b5 3b 4d 3c
       0.06872263 0.008903338 0.03330125 0.012526442
000220 83 32 6e bc 57 c9 8e 3d 18 1a ba 3d e3 dd 9c bb
       -0.01453841 0.06971996 0.09087008 -0.004787193
000230 24 3f e2 3b e0 2a 84 bd 31 6c 02 3d a7 ff 82 bc
       0.0069044996 -0.0645349 0.03184146 -0.015991045
000240 19 79 a1 bd 09 2b 48 3d e3 28 9f 3c 75 61 67 3d
       -0.07884426 0.048869167 0.019428676 0.056489427
000250 9f 30 bf bc a0 a9 1e bd 45 33 55 39 8b 37 65 3d
       -0.023338614 -0.038735986 0.00020332362 0.055961173
000260 8e 4d b8 bd 8d ee 21 bb 36 fe 05 bd 0c 9e 3c bd
       -0.089991674 -0.0024708838 -0.032713138 -0.046049163
000270 12 61 2c 3d bf 64 90 3b a3 fa a9 bd 35 e2 f9 bc
       0.04208476 0.004406541 -0.08299758 -0.030503372
000280 ae 54 8a bc 84 5e 6f bd ff 28 20 bd 06 2e 6e 3a
       -0.016886082 -0.058439746 -0.039101597 0.00090858375
000290 69 01 1b bd 25 01 53 3c f0 06 4a bd 71 f5 6b bd
       -0.03784314 0.012878691 -0.049323022 -0.057607118
0002a0 4f 72 20 bd 87 63 b4 bc b1 02 a2 bc 37 db 94 bd
       -0.039171513 -0.022020115 -0.019776674 -0.072683744
0002b0 38 3c 84 bb 80 1e 0d bd 03 ba cf 3d 45 df a8 bd
       -0.004035499 -0.034452915 0.10142901 -0.0824571
0002c0 5b d6 2f bc 20 3f 65 3d ab 07 3f bd 30 ee 0e bd
       -0.010732259 0.055968404 -0.046638172 -0.034895122
0002d0 97 45 c5 bc 25 86 a4 bd 87 97 83 3c c1 3d 99 3c
       -0.024081035 -0.080333985 0.016063465 0.018706204
0002e0 2b 42 fc 3c 0f a3 b8 3d 8c 7d a5 bc ff d3 40 bd
       0.03079327 0.09015476 -0.020201467 -0.047077175
0002f0 54 19 ae bd ce a2 02 bc 03 18 67 bd ef bb 9b 3c
       -0.08500925 -0.007973386 -0.056419384 0.019010512
000300 94 f5 be bb bc 60 5f 3a 9e 18 87 3c 8f 1d 41 35
       -0.005827615 0.00085211894 0.01649123 7.1941116e-07
000310 f3 7a 97 3c bc f9 47 3d 32 e0 89 3d b5 90 ac 3a
       0.018491244 0.04882215 0.06732215 0.0013165685
000320 82 4b 50 3a b9 44 b6 3b a5 6d 7d 3d d6 48 e1 3a
       0.0007945822 0.0055623916 0.061872143 0.0017187844
000330 b7 26 dc b9 d9 86 95 3c a0 1d 1b 3d 9b 0e ad b6
       -0.00041990515 0.018252777 0.03787005 -5.157502e-06
000340 ce c0 1c 3c 28 41 fa bb 12 6b 50 3d 38 f5 09 37
       0.009567453 -0.0076371618 0.05088336 8.222931e-06
000350 58 1c 72 ba 83 a9 f1 3c 96 18 d6 b4 c1 bb e6 3b
       -0.0009235791 0.029499775 -3.9878495e-07 0.007041425
000360 c0 14 bc 3d b6 53 cf 39 c7 a2 4b 3b 83 01 28 3d
       0.09183645 0.00039544486 0.0031072365 0.041017067
000370 37 19 f3 3c 12 3c ab ba 1a 4d cd 3d df 5f 3e 38
       0.02967511 -0.0013064167 0.100244716 4.5388817e-05
000380 b3 46 a3 b7 71 00 a6 3d 1f 0a c1 ba d5 81 27 b9
       -1.9464036e-05 0.08105553 -0.0014727748 -0.00015974727
000390 dd 23 69 3d 59 dc 04 bb be e0 8a 3b 56 76 75 3b
       0.056918968 -0.002027294 0.004238217 0.0037454567
0003a0 49 ef 57 bb 6f 9e bb b9 ee 79 c5 39 c9 9c bf 3c
       -0.0032949022 -0.00035785462 0.00037665613 0.02339019
0003b0 fe 10 0b 3d d0 f4 ca b8 41 8e 2d 3d 78 5a f0 ba
       0.033951752 -9.6777105e-05 0.042371992 -0.0018337509
0003c0 fe d9 23 3b 34 6f 2f 3a b5 c2 7c ba f3 cf f3 3a
       0.002500176 0.0006692291 -0.0009642051 0.0018601402
0003d0 af d0 30 bb 2e 79 96 3c c3 36 bd 3a a6 21 9d b8
       -0.0026979854 0.01836833 0.0014435876 -7.492611e-05
0003e0 2a bd a0 3d a0 34 8e b9 80 1b af 3d d2 58 09 3d
       0.0784858 -0.0002712356 0.08550167 0.03353197
0003f0 0d ab d8 3c ac a2 0a b9 15 17 b6 3d c3 2e 32 3a
       0.02644875 -0.00013221306 0.08891121 0.0006797129

head.weight f4 [1, 68]
000000 dc 4d 83 3d 61 a0 91 b9 e2 62 24 bd f6 68 1b b9
       0.06411335 -0.00027776047 -0.040133364 -0.00014821053
000010 6f e8 01 be 2f 54 21 3d a5 72 1e be 92 8a 8b 3c
       -0.12686323 0.039386924 -0.15473421 0.017033849
000020 fa cc e0 bc b1 be 4d bd 14 ac 44 be d5 e0 13 bd
       -0.02744149 -0.050230686 -0.19206268 -0.03610309
000030 80 c3 41 3d 5b f0 d3 3d 9a 15 d2 bd 7b f6 f6 37
       0.047305584 0.103485785 -0.102580264 2.9440262e-05
000040 e8 cc 94 3c dc 28 5f 3d ab 31 2a 3e 71 64 91 bc
       0.018164113 0.054482326 0.1662051 -0.01774809
000050 e8 68 86 bc 5b 2f ae 3d 12 df 7a b9 df 3b 8f bd
       -0.016407445 0.08505126 -0.00023924958 -0.069938414
000060 6e ca 8a bd 59 16 aa bc 99 ed de bd d4 4f 17 be
       -0.06776892 -0.02076261 -0.10885162 -0.14776546
000070 b0 0a 37 3e b6 84 b0 3c 80 24 57 3e 58 b2 16 bd
       0.1787517 0.021547657 0.21010017 -0.036791176
000080 d0 43 d4 3b 53 85 0b 3e bc 5f c1 bc d4 91 b6 b9
       0.0064778104 0.13625078 -0.02360522 -0.00034822396
000090 33 8e a3 3d b4 46 39 bd 85 a6 6b 3d ca 6a bd 3d
       0.07986107 -0.045233443 0.057531852 0.09248884
0000a0 48 c9 64 bd f7 ac 42 bc ba 31 e8 3c 8d 5b a9 bc
       -0.05585602 -0.011882058 0.028344024 -0.020673538
0000b0 e5 61 09 be 0f 87 31 3d eb f1 0e be 01 8c 18 3c
       -0.1341625 0.043341693 -0.13959472 0.009310723
0000c0 aa 55 e9 bd b1 ab d4 3c 95 6e 54 bd 2c 99 3f 3b
       -0.11393292 0.025960775 -0.05186327 0.0029235585
0000d0 93 fb 3d bd ca e0 93 3d 86 f1 00 be 9a ef 65 3c
       -0.046382498 0.072206095 -0.12592134 0.014034176
0000e0 f7 ff 61 3d e1 2d 71 bd 43 a7 de 3d 25 a5 a7 3d
       0.055175748 -0.058881644 0.108717464 0.08185796
0000f0 53 4b 05 be 0b 8a 46 bc 0e 1f 22 3d 57 00 05 bc
       -0.13017015 -0.012117873 0.039580397 -0.008117757
000100 44 fc bc be a9 d8 81 bf 13 dd 86 3d 15 fd fd bd
       -0.36911213 -1.0144244 0.06585135 -0.12401787
