artifacts/runs/20260209_045856_STGCN/best.pt (torch, 486546 bytes, 20 tensors)

blocks.0.temporal1.conv.weight f4 [128, 6, 1, 3]
000000 b3 0a 06 bd 2b 9c 95 bc 48 b7 be bd 93 a1 24 3d
       -0.032725047 -0.018262943 -0.09312302 0.04019315
000010 71 a1 6c 3d 32 d7 b9 bc 87 cf a9 3d 44 09 23 3d
       0.05777115 -0.022685621 0.08291536 0.03980376
000020 af af a3 3d af 86 05 3d 9f dd 1e 3d 55 9f c7 3b
       0.07992493 0.032599147 0.038785573 0.006091992
000030 1e 9f 14 3e 9f 52 c7 3d 8d d6 26 3d 38 a9 82 bc
       0.14513823 0.097325556 0.040731955 -0.01594983
000040 bb 95 00 bd fd 20 40 3c b3 8a 08 3e e9 13 e5 3d
       -0.031392794 0.011726615 0.1333416 0.11185438
000050 98 7c 9b be 0b 72 5b be be dd 3c be bc e2 87 be
       -0.30368495 -0.21430223 -0.18443963 -0.26540172
000060 b6 0a 45 3d e9 29 d0 bd d2 9d 3c 3e cd 90 27 bd
       0.048105918 -0.10164244 0.18419579 -0.040909577
000070 47 d3 0a 3e ef ba 47 3d af d1 3a bd a4 4f ae 3d
       0.13557158 0.04876226 -0.045610126 0.08511284
000080 40 85 89 3b 33 84 30 3e 98 1a ba 3d 81 39 86 3d
       0.004196793 0.1723793 0.090871036 0.06553937
000090 db 6c a1 3d 29 0a b6 bb 94 10 38 3d d7 50 d3 3d
       0.07882091 -0.0055554104 0.044937685 0.10318153
0000a0 ba d1 4f 3d 6f 7c 04 bd 6a 64 aa 3d d7 2d e9 3c
       0.05073712 -0.03234523 0.08319934 0.028464241
0000b0 35 f4 7b 3c 37 38 15 be 46 d9 35 be 35 29 0f be
       0.015378048 -0.14572226 -0.17758664 -0.13980563
0000c0 81 85 d3 bc 6d 25 a4 3d 65 76 e7 3c 81 cb ba 3d
       -0.025820496 0.08014951 0.028254697 0.091208465
0000d0 d9 cb a8 3d 5d ef 88 3d ce f0 2b bc f9 c8 07 be
       0.08242006 0.0668628 -0.010494424 -0.13260259
0000e0 ea ef 94 bc 36 ba cf bd 95 a1 14 bd ec f1 1c be
       -0.018180806 -0.10142939 -0.03628691 -0.15326661
0000f0 a5 de 4a 3d c0 0c 96 bc f4 b3 ba 3d 93 d8 c7 bd
       0.049528737 -0.018316627 0.091163546 -0.09758105
000100 58 28 c1 bd be 9b b8 bd fa af 38 3e 03 c9 d8 3d
       -0.09431523 -0.090140805 0.1803588 0.10585215
000110 25 21 1a 3e be 5f 34 be d3 f3 37 be 55 83 11 be
       0.15051706 -0.17614648 -0.17964105 -0.14210255
000120 4a 39 3f be 29 ee 63 bb 06 11 ce 3d eb 55 10 3b
       -0.18674198 -0.0034779406 0.10061841 0.0022023867
000130 84 05 53 bd ac 9f db bd 38 a6 56 3d da 1d cc bc
       -0.051518932 -0.10723814 0.052404612 -0.024916578
000140 8a c4 37 3d 8f f8 2a bd 2c 7d a3 bb e2 33 8d bd
       0.04486517 -0.04174095 -0.004989287 -0.068946615
000150 ab 0e a1 3c 6f 73 0b 3d b2 28 87 3c 2c 9a 84 bb
       0.019660315 0.034045633 0.016498897 -0.004046699
000160 83 b8 63 3d 95 82 89 3d 27 9d a3 be 6c 52 0a be
       0.055595886 0.0671436 -0.31955835 -0.13508004
000170 c8 23 76 3e 8b 32 07 bd d6 09 1f bd 65 4a e4 bd
       0.24037087 -0.033007186 -0.03882774 -0.11147002
000180 2b 38 db bd d2 ff da bc 4b 92 70 bd 6d 22 85 bd
       -0.107040726 -0.026733313 -0.058733266 -0.06500707
000190 f6 83 b2 3c 55 c2 03 bd f5 e1 08 be 17 dc eb bd
       0.02179144 -0.03216775 -0.13367446 -0.11516588
0001a0 84 d6 e2 bd 53 fb 9f bd 78 b1 77 3d d5 19 0f bd
       -0.11076072 -0.07811608 0.06047198 -0.034936745
0001b0 9b 3c 1d bd c7 31 4a be 69 0e 04 be ed 35 c5 bb
       -0.038387876 -0.19745551 -0.12896122 -0.0060183913
0001c0 91 8d 24 3c da 1a 3f be 61 3e f4 bd e8 49 24 be
       0.010043518 -0.18662587 -0.1192596 -0.16043818
0001d0 e8 4d a6 bd 37 2b 0d be 72 7f a6 bd c7 e9 00 be
       -0.08120328 -0.13786016 -0.08129777 -0.12589179
0001e0 a8 e4 b2 be fc 34 a9 be 40 40 8d be 0a af ba bd
       -0.34940076 -0.33048236 -0.2758808 -0.09115417
0001f0 5a 6e 8b 3d ee 5f af bd 6f 2e 80 3e 48 98 69 3d
       0.06808157 -0.08563219 0.25035426 0.057029992
000200 65 f4 6e be 2e f2 41 3d 1d cf 85 bd 12 3c 3d bd
       -0.23335417 0.0473501 -0.06533644 -0.046199866
000210 d0 e2 26 be c4 61 2f be 6a b4 83 3c 81 85 df 3c
       -0.1629746 -0.17127138 0.016077239 0.02728534
000220 15 5f de 3d cd e5 8a bc cf 23 e0 3c 56 fc d9 bd
       0.10857979 -0.01695528 0.027360825 -0.106438324
000230 a7 53 07 bd cf ad 63 3d b0 93 a6 3d 6c d8 e4 3d
       -0.03303876 0.05558568 0.08133638 0.11174092
000240 73 fe e4 3d 5f 5d 9c bd 1d ac 20 3d 69 3a 24 bd
       0.11181345 -0.076349966 0.03922664 -0.040094767
000250 d8 35 29 bd db 67 31 be 42 b9 01 3e f8 3b 9d bc
       -0.041311115 -0.17324774 0.12668326 -0.019193634
000260 ab 5a 9a 3d d3 4c 81 bc 91 86 0d bd 61 d6 c0 bd
       0.07536825 -0.015783703 -0.03455216 -0.094158895
000270 4c 06 10 3e b8 46 a9 3d bd cf 50 3d 6c 38 95 bd
       0.14064902 0.08265442 0.050979365 -0.07286152
000280 ad 4d 0c 3d fb 3e f9 3b 58 9a bb bd 7b 19 74 3d
       0.034253765 0.007606385 -0.09160298 0.059594613
000290 0b 0d d9 3d d5 79 89 bc 8a 4f b2 bb 61 4e b1 3b
       0.10598191 -0.016781727 -0.0054416107 0.005410955
0002a0 87 ab 41 3d a3 1d d3 3b 01 73 0e bc 08 52 cd 38
       0.04728272 0.006442742 -0.008694411 9.790441e-05
0002b0 8c a5 91 bc 88 b3 63 3c ed 13 46 bc 64 88 67 bd
       -0.017779134 0.013897784 -0.012089712 -0.056526557
0002c0 f7 5b ce bc 1a 96 44 3d 4d b3 1e 3d 46 65 a8 ba
       -0.025190337 0.04799471 0.038745213 -0.0012847565
0002d0 42 b4 aa 3e 14 3d 6b 3e 7e 73 2c 3e c3 43 2f bd
       0.3334065 0.22972518 0.16840932 -0.042789232
0002e0 22 ff 92 bd b8 26 41 bc 63 3f 59 bc e9 d2 b9 bc
       -0.07177569 -0.011789016 -0.0132597415 -0.022683578
0002f0 4b 84 7b 3d 1a 6f 84 3d ea 6c 76 3b 30 0c fc bb
       0.06140546 0.064665034 0.003760154 -0.0076918826
000300 34 33 f7 bd 34 9f ec bd 59 b8 a3 bd c2 27 c8 bc
       -0.12070313 -0.11553803 -0.07994146 -0.02443302
000310 38 fb 02 be 13 63 ba bd 7e 54 32 3e 4f ea 20 3d
       -0.12791145 -0.09100928 0.17415044 0.039285954
000320 d3 a2 ae bd 85 0d 08 bd 5a c8 30 bd 80 14 d5 bd
       -0.0852715 -0.03321602 -0.04315982 -0.10404301
000330 ee f4 04 3d 40 4b aa 3d e3 02 d8 3d 12 fb 6e 3d
       0.032460146 0.08315134 0.105474256 0.058344908
000340 cd 0f 4e bd e9 85 3d bd 31 0b 64 3d a6 8b f8 3d
       -0.050308038 -0.046270285 0.055674735 0.12136011
000350 1d 4c 5b 3d c8 af eb 3b 1c f3 7e 3d 3f 2c f9 3c
       0.053539384 0.0071925856 0.062243566 0.030416606
000360 88 64 58 be 05 f7 e0 3c c5 ed 3b 3c 78 19 6c bb
       -0.211321 0.027461538 0.011470263 -0.0036025923
000370 d9 ed 8c bd c0 b9 63 3d f1 bf c5 3d 7d 8e 10 3d
       -0.06881303 0.055597067 0.096557505 0.035292137
000380 89 17 d9 bd 84 b0 29 be fa 38 16 be a4 2e 1d bd
       -0.10600192 -0.16571242 -0.14670172 -0.038374558
000390 cd d6 b0 3d 65 95 bf 3d 40 f4 5c 3d 1f b3 bc bc
       0.0863472 0.093546666 0.053943872 -0.02303463
0003a0 16 9b 2a bd 7a e7 ca bd b8 0e a2 be 6d 85 40 be
       -0.041651808 -0.09907432 -0.31651855 -0.18800898
0003b0 3d 71 8a 3d d6 64 26 bd 88 5a 25 bd b9 e6 02 be
       0.0675988 -0.04062351 -0.04036954 -0.12783326
0003c0 8d cb 80 bc 3a d3 9e bd 0b 1e 93 bd 9c 28 a9 3c
       -0.01572206 -0.07755132 -0.071834646 0.020649247
0003d0 a5 a2 27 bd 18 e5 42 3d 5e 2e 9e bd 6e 87 f1 bd
       -0.040926594 0.047581762 -0.077236876 -0.11793409
0003e0 09 d8 45 bd 6e ad 07 be 95 7e f8 bd 07 6b 42 be
       -0.04830173 -0.13249752 -0.121335186 -0.1898614
0003f0 cd 1b 12 3c 58 5b 86 bd 31 ff be 3b 9c d2 c2 3b
       0.008917761 -0.06560391 0.005828761 0.0059455168

blocks.0.temporal1.conv.bias f4 [128]
000000 86 4d 0a bd f8 ad 6a 3e db 0b 9a 3d 5a c6 3f bc
       -0.03376534 0.22917926 0.075217925 -0.011705006
000010 c1 55 aa 3c fd 23 c8 bc 39 b1 f1 bc 13 2f b2 bd
       0.020792844 -0.024431223 -0.029503452 -0.08700385
000020 52 26 18 bd 09 e8 75 bd ec 30 35 3c 19 61 2b bc
       -0.03714592 -0.06003574 0.011059027 -0.010460162
000030 f0 b7 2e bc 31 12 98 bd 63 59 47 3d 21 59 25 3e
       -0.010663971 -0.07425345 0.04866923 0.16147281
000040 46 e1 80 3d 16 c4 57 3d aa 3b 82 bd 10 89 85 3d
       0.062929675 0.052677236 -0.06359036 0.06520283
000050 48 f4 82 bc d6 d6 68 bd b4 11 2b bb 99 0f b5 bd
       -0.015985623 -0.05684551 -0.0026103081 -0.08840866
000060 73 2e 02 be 0e 55 69 3d ce fa 34 3e ed 8b 21 bd
       -0.12713031 0.05696588 0.176738 -0.039440084
000070 cd 4b ba 3d e8 04 1f bc ab 75 36 3d 5e a1 30 3d
       0.09096489 -0.00970576 0.04454581 0.04312264
000080 07 77 bc 3d 79 0e cf 3d 6f 63 e7 bd d8 ab 23 bd
       0.0920239 0.10110182 -0.11298262 -0.039958805
000090 c3 31 bf 3d 15 ff f2 3b 4f 9f ce bc 99 6e 81 bc
       0.09335663 0.007415662 -0.025222449 -0.015799807
0000a0 08 de 1c bc 4e d8 12 bc a2 a8 17 be 65 90 f2 3c
       -0.009574421 -0.008962704 -0.14810422 0.029609868
0000b0 08 52 0e bd 17 51 ec 3d 73 cd 85 bd d0 7b 79 3c
       -0.0347462 0.11538904 -0.06533327 0.015227273
0000c0 7f e1 80 3d 47 79 34 3e d3 b5 8d 3d 22 e9 2c 3d
       0.0629301 0.17624389 0.06919446 0.04221452
0000d0 b6 b3 22 3d f2 61 61 bd 9b 3a 19 bd 43 f4 ec 3c
       0.039722167 -0.05502505 -0.037409406 0.028925067
0000e0 25 ef 8f 3d 5d f3 0e 3e 9c f2 89 3d ea f4 c0 3c
       0.07028035 0.13960023 0.06735727 0.023554284
0000f0 70 5d c7 bd d2 e9 b5 3d 69 de ae 3d ac 88 5d bd
       -0.09734619 0.08882488 0.08538515 -0.05408542
000100 22 3f 94 3b 6a be 86 3d 35 7b ed 3c 3e 91 61 3d
       0.0045241276 0.06579287 0.028989414 0.055070154
000110 16 05 a7 3c 5b 58 bd 3d 04 7a 3a 3c 68 fc c6 3c
       0.020388167 0.09245368 0.01138163 0.024290279
000120 22 e8 7e 3c 49 58 e5 3b df f1 99 3c 63 14 8d 3c
       0.015558274 0.00699905 0.018792091 0.017221635
000130 e1 57 08 3d 01 2a 95 3d ea 0f 57 bb d7 52 7e 3d
       0.033286933 0.07283402 -0.0032815882 0.06209072
000140 b7 ba 6e 3e 14 0e ce 3d ed d2 af 3d 3d f4 0c 3e
       0.23313414 0.10061279 0.08585153 0.13765045
000150 12 ac f9 ba b9 b4 d3 3d 78 45 c6 3a 50 3e 22 3e
       -0.0019048473 0.103372045 0.0015126904 0.15844083
000160 4b 3b 76 3b ea 8e f2 3c 58 30 8b 3d 50 32 02 3c
       0.0037571962 0.029609162 0.0679633 0.007946566
000170 1d 90 22 3c f7 23 9a 3b 5a a7 4f 3d 7e d0 0f 3d
       0.009922055 0.0047039944 0.05069671 0.035110943
000180 66 70 54 3d c3 93 a6 3d 46 c5 20 3d 1b f1 55 3d
       0.051865004 0.08133652 0.039250635 0.05223189
000190 06 57 e0 3c 23 a8 e3 3c ae 20 86 b9 43 89 e1 3c
       0.027385246 0.027790135 -0.0002558282 0.027531272
0001a0 51 7e e8 3c 83 14 c5 3d e8 4f 11 3d 74 23 85 3c
       0.028380545 0.09623053 0.035476595 0.016252257
0001b0 dc 41 f3 3b 3c bf b5 3c 5e b1 68 3d dd dc 4d 3c
       0.0074236225 0.022185914 0.056809776 0.012564865
0001c0 72 07 a5 bb b1 25 a4 3d 82 5e 80 3d 08 1d 53 3d
       -0.005036288 0.080150016 0.06268026 0.05154136
0001d0 03 63 2d 3d 13 10 10 3e 3c 81 5e 3d 3e 0a 70 3d
       0.042330753 0.14068632 0.054322466 0.058603518
0001e0 7a d3 9b 3d 37 9a 8e 3c 6e 12 81 3d cb bf 31 3a
       0.07608695 0.01740752 0.06302343 0.00067805935
0001f0 45 a7 50 3d 08 94 4b 3c 4d cc 0c bc 39 f4 3c 3e
       0.05094077 0.01242543 -0.008593631 0.18452539

blocks.0.graphconv.mlp.weight f4 [16, 192, 1, 1]
000000 fe a0 60 bd 88 27 22 3d d8 4d 60 3b 6c 5e 8c bd
       -0.054841034 0.03958848 0.0034226086 -0.06853947
000010 7e 62 a1 bd 0f ee 8e bd 13 14 2b 3e cc 9b df 3d
       -0.07880114 -0.06979 0.16706876 0.10918388
000020 05 b7 15 bc 8d 6c 41 bd af a9 d6 3d a4 95 c7 3c
       -0.009137874 -0.047222663 0.10481583 0.024363346
000030 3a 78 74 bd fb ca 5f bd fa b6 44 bc b3 23 d0 3d
       -0.05968497 -0.054636937 -0.012006516 0.10163059
000040 84 69 96 bd 97 64 45 3d 27 ea 00 be 0d be a4 3d
       -0.07344344 0.048191633 -0.12589322 0.08044062
000050 61 02 c6 3c cf 79 09 3e ee 14 65 bc 4c e1 29 be
       0.024171056 0.13425373 -0.013982041 -0.1658985
000060 9d 07 39 bc 1e 1f 3a 3c 64 ad 99 3d 80 fe 2f 3d
       -0.011293319 0.011359958 0.07503775 0.04296732
000070 00 f3 af bc d7 2c 21 bd 0a 2b 45 3d 57 fa 58 bb
       -0.021478176 -0.039349403 0.04813675 -0.0033108199
000080 2f 4d b0 3d ec 48 9d 3d 33 ad fb 3c 22 0e f3 bd
       0.086084716 0.07679924 0.030722236 -0.1186793
000090 82 0a ad 3c 8d 71 33 3d a5 f2 d9 bd b8 80 2d 3d
       0.021123175 0.043809462 -0.10641984 0.042359084
0000a0 64 c3 8f 3d a5 57 ab 3d 1f 85 9a 3c 65 c2 9e bc
       0.0701969 0.08366326 0.018862305 -0.019379804
0000b0 58 e6 96 bd 48 2d b3 3b f5 ec 55 bd 0d 69 8b bc
       -0.07368153 0.0054680444 -0.052227933 -0.017017866
0000c0 05 c2 6f bd bb 56 2c 3d d0 6a e6 39 f8 3b 4f 3d
       -0.05853464 0.0420749 0.000439486 0.0505943
0000d0 93 3e 09 bd 47 34 1f 3d 75 a0 95 bd 58 f1 01 3e
       -0.03350694 0.038868215 -0.073059954 0.12689722
0000e0 d2 4e ac bd 93 b6 1c 3d cc 0b 87 bd 8c d9 0a bd
       -0.08413471 0.038260054 -0.06594047 -0.033898875
0000f0 b1 e4 42 3d c0 d6 eb 3c 4c 5e 95 bd a8 98 15 be
       0.04758138 0.028788924 -0.07293376 -0.14609015
000100 06 08 95 3d 75 8a d5 bc d5 6f 49 3c 40 0c d6 3c
       0.07276921 -0.026066998 0.012294729 0.026128888
000110 c6 d0 07 3d b6 30 b4 3c 9a f3 00 be c6 3a 00 be
       0.033158086 0.021995883 -0.12592927 -0.1252242
000120 9c 9a c8 3c 38 d0 83 3c 8c 02 9f bd b2 22 2f 3d
       0.024487786 0.016090497 -0.07764158 0.042757697
000130 60 75 0f 3d 49 76 4a 3d eb 0f cc 3c c5 4d a0 bd
       0.035024047 0.04942921 0.024909934 -0.07827333
000140 cd 64 88 3d 11 ef ff 3b 05 0c dc 3d 42 2b 6f bd
       0.06659851 0.0078104814 0.1074448 -0.058390863
000150 ee aa 06 3d a4 26 e9 bd b2 c0 2e 3b d6 98 0d 3e
       0.032877855 -0.11384323 0.0026665148 0.13827834
000160 5b ea 92 3c 80 a9 97 3c 5d b7 e4 bc ad be 80 bc
       0.017934015 0.018513441 -0.027919466 -0.015715921
000170 f6 53 d2 3c dc 85 40 3d 9c 6e ea ba 39 37 05 bd
       0.025674801 0.04700266 -0.0017885747 -0.032523368
000180 d0 1c 3d bd 2b 80 da bd 6f b5 b5 bc 99 2c 7b 3d
       -0.046170056 -0.10668977 -0.02218124 0.06132183
000190 66 e4 25 bc 9c b3 07 bc 4b b5 a8 3d e7 86 85 bd
       -0.010125255 -0.008282568 0.08237704 -0.06519871
0001a0 73 88 c6 bc 67 6f 42 bd f6 e6 59 bd 34 3c d3 3c
       -0.024234986 -0.047469523 -0.053198777 0.025785543
0001b0 2d 58 3e 3d c4 8f 85 ba 6e 34 a5 3b 91 ff 59 ba
       0.04647081 -0.001018994 0.0050416505 -0.00083159754
0001c0 91 3d db bc 04 e6 9d bc 39 e3 9b 3c 6b 62 66 bc
       -0.026762756 -0.019274719 0.019029247 -0.014061551
0001d0 70 34 66 3d c9 96 0a bd 90 80 4a 3d 36 b7 b2 bd
       0.056202352 -0.033835206 0.049439013 -0.08726351
0001e0 94 b2 86 3d 72 33 7f bc a0 59 65 3d e9 d5 94 3c
       0.0657703 -0.01557623 0.055993676 0.018168407
0001f0 9b 52 eb bc d9 9e 3f 3c db d2 ca 3d 35 7c c7 3d
       -0.028725913 0.011695587 0.09903499 0.097404875
000200 ab f8 22 bd ed 84 20 3d 79 cf 22 bd 42 2c 14 3c
       -0.03978793 0.039189268 -0.039748643 0.009043755
000210 aa 47 38 bc 30 42 f3 3c be ac d1 3c 59 5a 02 3e
       -0.011247555 0.029694647 0.025595065 0.12729777
000220 b7 be 68 bc df ee 60 3c c3 e0 b1 bc 60 d2 1f bd
       -0.014205626 0.013728826 -0.02171362 -0.03901899
000230 ad 1d e1 bc d0 e9 5f bc db 8c c0 bc 6b 46 1d 3d
       -0.02747997 -0.013666585 -0.023504665 0.038397234
000240 fa 5e ba 3c 28 8b 7a bd 71 22 0b 3c 36 23 85 bc
       0.022750366 -0.061167866 0.008492098 -0.016252141
000250 b9 b5 0a bd ec 24 18 3d 9a 96 6c 3b 97 75 0d bd
       -0.03386471 0.037144586 0.0036100508 -0.03453597
000260 97 9b d0 3b e9 a6 7e bb 0c ee 05 bb fc dc b0 bc
       0.006366204 -0.003885681 -0.0020436076 -0.021589749
000270 40 43 a8 3c 3b e8 3e bc 1d a2 51 bc ea dd 8d 3d
       0.02053988 -0.011652048 -0.0127949985 0.069270924
000280 71 e4 59 3d f9 32 a6 3d 02 93 a1 3d a0 22 e0 3b
       0.053196374 0.08115191 0.07889368 0.006840065
000290 b1 39 25 bd ee 80 0f bc d8 6a 57 bd 2c 96 56 3d
       -0.040338222 -0.008758767 -0.05259213 0.05238931
0002a0 47 f3 2b 3c aa c3 38 3d 2b 8e 84 3d b1 3e 9d bc
       0.010495014 0.045108475 0.06472429 -0.019194933
0002b0 9e 09 0d 3c fe 99 32 bd 53 1e da 3d 76 e8 40 3a
       0.00860825 -0.04360389 0.10650315 0.0007358858
0002c0 0d a6 7c 3d 66 84 62 bc 5d 95 9c bc b0 8f 44 bd
       0.061681796 -0.013825512 -0.01911419 -0.047988594
0002d0 da 4e 61 3d ba 7d 08 3d 64 78 fa bc b0 18 8d 3a
       0.05500684 0.033323027 -0.030574985 0.0010764804
0002e0 8a fd f9 bc d1 6a 6b bc 42 76 51 bd ce 1b f6 bc
       -0.030516405 -0.014368729 -0.05113817 -0.030042555
0002f0 a4 6d 2a bd 3c 32 19 3d 3d 58 22 bd 0b d6 10 3d
       -0.041608468 0.037401423 -0.03963493 0.035360377
000300 b0 eb 80 3d 0f ca fc bd 4d b6 9d bd 5b ed 81 3d
       0.06294954 -0.12343227 -0.07700787 0.063441
000310 fe c1 ef bc f6 31 36 bd b5 7a 41 be 05 e6 8d bc
       -0.029267307 -0.04448124 -0.18894465 -0.017321596
000320 04 02 33 3d 57 28 a6 bc b1 38 65 bc c1 d5 26 3d
       0.043703094 -0.020282907 -0.013990567 0.040731195
000330 64 e0 4d bc 97 70 5e 3c 4f a2 36 3a 83 36 fa 3c
       -0.012565706 0.013576648 0.0006966935 0.030543571
000340 8a 16 24 be 5f 61 b5 3d 16 d7 5c bd e4 25 4b 3d
       -0.16024223 0.08856463 -0.05391606 0.049596682
000350 55 52 fe 3c 27 6b ad bb 7e ed a1 3c 31 d2 43 bd
       0.031045118 -0.0052923146 0.019766565 -0.047807876
000360 75 8e a2 3c ca 81 e8 bd 0b 76 b6 bd e4 ae bf bc
       0.01984332 -0.1135288 -0.08909234 -0.023398824
000370 fd a7 62 bd 9f 7b 38 bd 65 b2 04 bd ff 1d 5a bc
       -0.055335987 -0.04503977 -0.032396693 -0.013312816
000380 40 d6 a8 3b 48 d8 b4 ba 89 64 ce bd 19 ee d8 bc
       0.0051524937 -0.0013797367 -0.10077769 -0.026480721
000390 15 64 86 bc f1 50 b4 bc 6f 86 8b bc 1e ee ff bc
       -0.016405145 -0.022011252 -0.017031876 -0.031241473
0003a0 17 d2 5a 3c c2 d3 ec bc a5 dd c0 3c 7e 49 c1 3d
       0.013355753 -0.028909568 0.023543188 0.09437846
0003b0 ea 1a 8b bd a3 d2 e1 bb 97 87 06 be d0 ae 1a bd
       -0.06792243 -0.006891565 -0.13137661 -0.03776437
0003c0 78 d2 04 3d 37 06 89 bd e6 49 7f 3d 4b dd 2c be
       0.03242728 -0.066906385 0.062326334 -0.16881292
0003d0 22 44 ec 3d b8 3b 41 3c 44 dc 30 bd 10 60 73 bd
       0.11536433 0.011794023 -0.04317881 -0.059417784
0003e0 7b 8a 37 bd 98 0a 0c 3d bf b7 cb bd 31 a4 58 bb
       -0.0448098 0.03418979 -0.09947156 -0.003305685
0003f0 ae 15 90 bb 37 95 b5 bd f6 5d 15 3d 88 ed 7e 3b
       -0.0043971157 -0.08866351 0.03646656 0.0038898904

blocks.0.graphconv.mlp.bias f4 [16]
000000 38 69 f8 3c 21 99 e1 bc 9e 12 04 bc fd 75 a6 bc
       0.03032361 -0.027538838 -0.008061079 -0.020319933
000010 9f 3e f6 3c 63 61 93 3d ff 7f 17 3d 1f 4e 4f 3c
       0.030059157 0.071963094 0.0369873 0.012652903
000020 b8 c4 2f bd 4f 34 f3 3d f8 d5 c8 3d 05 ee 99 3d
       -0.042912215 0.118752114 0.09806436 0.07516102
000030 30 79 32 bd ed eb 83 bd 1e 09 7e bd 0a 3d 0a bc
       -0.043572605 -0.06441484 -0.062020414 -0.008437404

blocks.0.temporal2.conv.weight f4 [128, 16, 1, 3]
000000 30 23 06 3d 40 75 b9 3d eb 0e 57 3d 94 bd 7b bd
       0.0327484 0.09055567 0.05250446 -0.061460093
000010 b9 bc 79 bd eb 66 08 bd eb fb 59 bd bf fd bf bc
       -0.060970996 -0.033301275 -0.053218763 -0.023436425
000020 12 77 c0 3c d5 9a 37 3d d8 68 5d 3d 99 3d 1a 3d
       0.023494277 0.044825394 0.054055065 0.0376564
000030 a6 f3 c7 bc 02 51 6f 3d 18 6c c2 3d b2 8d 77 3d
       -0.024408173 0.058426864 0.094932735 0.060437866
000040 a3 9a 80 3d ee 0c ed 3d f5 a4 b4 bc 9b bc 43 3d
       0.062794946 0.11574732 -0.022051314 0.04778729
000050 a0 5d ec 3c 7c f6 94 3d f9 e8 a0 3d ad d6 07 3e
       0.028853238 0.07273576 0.07856936 0.13265486
000060 bc d2 90 3d 2c 82 0a bc b2 65 7b 3d c2 09 7a bd
       0.070714444 -0.008453887 0.06137628 -0.061044462
000070 bb 19 47 bd c2 0c e6 b9 a2 7a 04 be 44 68 3b be
       -0.048608523 -0.00043878524 -0.12937406 -0.18301493
000080 5b f7 48 be 28 66 ee 3b fd 58 8d 3d 3f 42 00 3e
       -0.19625609 0.0072753616 0.06901739 0.12525271
000090 ca ca 2f 3d 1b df 87 3c 63 06 68 3d 99 80 d6 bd
       0.042918004 0.016585877 0.056646716 -0.10473747
0000a0 76 ef 8f bd 29 30 15 3d 58 13 ce bd b6 1f 82 3c
       -0.070280954 0.036422882 -0.10062283 0.015884262
0000b0 01 ac 42 b9 2f 6f 26 bd 45 e1 9f 3d 33 9e a6 3d
       -0.00018565358 -0.040633377 0.07806639 0.08135643
0000c0 ca 8e 59 3d 05 ee 12 3d f5 db b9 bc 1d c3 43 3d
       0.05311469 0.035871524 -0.022687891 0.047793496
0000d0 00 56 d0 b9 20 9c 71 3c 5f 40 5f 3c 2f 49 d8 bc
       -0.00039736927 0.014746696 0.013626187 -0.026402084
0000e0 a4 a9 2a bd cd 34 9f bd 7d 36 1f be 1d a4 90 bd
       -0.04166569 -0.07773743 -0.1554813 -0.07062552
0000f0 5b 76 f2 3c ba d8 8d bd 1a 98 d6 bd 42 85 6e 3d
       0.029597452 -0.06926103 -0.1047823 0.058232553
000100 26 59 8f 3d 1c b6 e8 3d 27 8c 91 3d 8c 88 e9 bc
       0.069994256 0.113628596 0.0710681 -0.028507493
000110 66 d3 9a 3d 18 fd db 3d ae ca 99 3d 04 74 a7 3d
       0.07559852 0.10741633 0.07509361 0.08176425
000120 1f a8 ad 3d ca d2 02 3e 39 b1 19 3e e5 6c b5 bd
       0.08479332 0.12775722 0.15009011 -0.088586606
000130 6f 60 85 3d 79 58 8a bc 17 60 8f bd e6 73 8f 3c
       0.06512534 -0.01688789 -0.070007496 0.01751132
000140 da 22 c6 3c 93 ae f4 3d bc ee 02 3e b4 2a 6a 3c
       0.02418654 0.1194736 0.12786382 0.014292408
000150 8d e7 33 bd ab eb 9a bc 60 19 d6 bd a3 99 5c bd
       -0.043921996 -0.018911203 -0.10454059 -0.053857457
000160 31 c0 b5 bc 36 76 51 bd e8 f2 2a 3d 4b 02 11 3d
       -0.02218637 -0.051138125 0.04173556 0.035402577
000170 bb 5c ad bc 73 00 0b 3d b2 ea 46 3d 86 9a 9a b9
       -0.021162381 0.033935975 0.048563667 -0.00029488298
000180 76 db a9 bd 0c b0 97 bc ce 62 f8 3d b7 24 a5 bd
       -0.08293812 -0.018516563 0.121282205 -0.080636434
000190 13 08 90 bb e8 53 eb bd 93 b9 87 bc 09 2a 4a 3d
       -0.004395494 -0.11490613 -0.01656798 0.049356494
0001a0 db 93 e9 3d 19 68 6c 3d 11 c1 8b 3d f5 6e f1 3d
       0.11405154 0.057716463 0.06823934 0.117887415
0001b0 3f 87 cb 3d 68 4b 23 bd 07 2f c9 bd 67 6d 26 3e
       0.099379055 -0.039866835 -0.09823423 0.16252671
0001c0 c3 08 62 3c 5a df 21 bd ba fc c0 bd 5c 40 c5 bc
       0.013796034 -0.039519645 -0.09423204 -0.02407854
0001d0 d7 17 a0 bd eb 9f c9 bc 53 85 0a bd 5b a4 1f be
       -0.07817047 -0.024612388 -0.033818554 -0.1559004
0001e0 4c a4 06 3e 0b 93 a6 3d 73 42 ad 3c 72 38 d8 bd
       0.13148612 0.08133515 0.02114985 -0.10557641
0001f0 95 29 b5 bd 64 f5 95 3d 3e 72 5a be a1 53 b2 3d
       -0.08845822 0.07322195 -0.21332642 0.08707357
000200 7b 62 c7 3d 84 84 fa 3d cb 38 80 bc 4f 30 eb 3d
       0.097355805 0.122323066 -0.015652081 0.114838235
000210 9c ef ba 3b ef 29 a1 3d 45 6c c0 3c a4 9d a7 bd
       0.005704833 0.07869326 0.023489127 -0.081843644
000220 f1 7e 14 be 41 0e 49 be a2 0b 09 3e 49 aa 80 bd
       -0.1450155 -0.19634344 0.13383344 -0.06282479
000230 04 27 a7 bd 4a 30 11 3e e2 7a 12 3e 84 d3 d9 bc
       -0.081617385 0.14178577 0.14304689 -0.026590116
000240 eb 90 eb 3c 54 11 3b bd 9c ca ae bc 9d d6 45 3d
       0.028755626 -0.045670822 -0.021336846 0.048300374
000250 d6 30 03 3c cc 29 61 3d bf 11 a1 3d d8 95 b5 3c
       0.008007249 0.0549715 0.07864713 0.022166178
000260 d9 2f d3 3d bd 50 19 bc 98 6b de bc 38 d0 bf 3c
       0.103118606 -0.009357628 -0.027150914 0.023414716
000270 f3 27 07 3c 42 16 95 bc d8 50 29 bd 61 7f 9b 3c
       0.008249271 -0.01819909 -0.041336864 0.018981637
000280 d0 ab aa 3b 1a 5e 8e bc 1f 89 e8 bc f1 94 b3 3c
       0.00520847 -0.017378855 -0.028385697 0.021921607
000290 af 1c bd 3c bd 69 65 bd cd ee 9f bd 0b e2 f3 bd
       0.023084966 -0.056009043 -0.078092195 -0.11908349
0002a0 a1 e5 78 3d 48 a9 3b 3c e2 da 5f bc f8 2c 72 bc
       0.060765866 0.011453934 -0.013663026 -0.014781229
0002b0 06 7e f5 bd 8d 67 5e 3d 23 b9 e4 3d 29 f0 8d 3d
       -0.11986928 0.054297972 0.111681245 0.069305725
0002c0 fb 89 ba 3d 99 e7 de 3c 1e 8c ed bc 1c 55 75 3d
       0.09108349 0.027210044 -0.028997477 0.05989562
0002d0 72 39 96 bc 65 dd 71 3d 57 f7 ee 3c a4 d8 35 3d
       -0.018337939 0.05904903 0.029170675 0.044396058
0002e0 41 70 ce 3a f8 f2 c9 bc fd b2 7f 3d 64 be fa 3d
       0.0015750007 -0.02465199 0.062426556 0.122433454
0002f0 85 32 05 3d 71 1c 53 3d d1 5e bb 3d 6a 4d 18 bc
       0.032518882 0.051540796 0.09148944 -0.009295801
000300 1b ff 68 bc 75 48 32 3d 6a 86 14 3d d2 bb b1 3d
       -0.014220978 0.04352613 0.036261 0.08678402
000310 be 1b ae 3d 0e 92 b0 3d 31 00 c8 bd d0 08 8d bd
       0.08501385 0.08621608 -0.097656615 -0.068864465
000320 02 db 9e bd b2 f0 cd 3c 2f e5 9f 3d fb a3 33 bd
       -0.07756616 0.025139187 0.07807385 -0.043857556
000330 77 b1 cc 3b e3 f1 2e bd 7b 37 bb 38 41 cd e6 3c
       0.0062467414 -0.04271115 8.927189e-05 0.028174045
000340 e7 d6 00 bc 65 d8 fa 3b 98 b9 bc bd 60 99 bc 3c
       -0.007863737 0.007655191 -0.09215087 0.023022354
000350 6c 66 d6 bd 5d 16 4c 3c 41 a7 84 bd d5 e2 d0 bd
       -0.10468754 0.012456504 -0.06477214 -0.10199515
000360 45 da 8b 3d c2 1b f8 bb 97 dc 12 bd 69 b6 74 3c
       0.06828741 -0.0075716684 -0.035854902 0.014936068
000370 a7 2a 85 bc 6f 4c 7e 3d 7d 20 dc bd 57 6b 9a bd
       -0.01625569 0.06208461 -0.10748384 -0.07540005
000380 09 25 1e 3d cd c3 56 3d 05 2c 10 3d f6 93 89 bd
       0.03860954 0.052432824 0.03519823 -0.067176744
000390 e9 92 82 bd b3 e4 0b bd 58 30 24 bb 70 87 44 bc
       -0.06375677 -0.03415365 -0.002505323 -0.011995181
0003a0 64 9d 45 bd 88 63 6a bd c2 e9 f2 3d 21 f4 bb 3d
       -0.048245803 -0.057223827 0.11860992 0.09177423
0003b0 c5 86 d9 3d 39 26 9a bd 3b f3 c3 3d 43 a8 2b 3d
       0.106214084 -0.07526822 0.09567877 0.041908514
0003c0 c6 4c 3a bd 0e a3 b5 3d 47 89 20 3c 41 d8 f4 bc
       -0.045483373 0.08868991 0.0097983545 -0.029888274
0003d0 98 d4 0f 3d d6 8c 0c 3d b0 63 44 3d 1d d3 1f bd
       0.035114855 0.034314 0.047946632 -0.039019693
0003e0 53 ec f6 bb 4b dc 4e 3d c6 0b f8 3c cc 2a 64 bd
       -0.0075354963 0.050503056 0.030279052 -0.055704877
0003f0 c3 fe 96 3d 14 2a a6 3d b4 01 cb 3d fd 47 9f 3c
       0.07372811 0.081134945 0.09912434 0.019443506

blocks.0.temporal2.conv.bias f4 [128]
000000 b6 41 f7 3d b2 cc 8e 3d d2 ac 08 3a f5 61 c3 bd
       0.1207308 0.06972636 0.00052137405 -0.09540168
000010 98 51 01 3e 8a 80 85 bc 33 c3 94 bd 15 48 06 be
       0.12628782 -0.016296644 -0.07263794 -0.13113435
000020 f4 93 ac 3d f6 22 d5 3c 9c 86 02 bd 42 c7 af bd
       0.08426657 0.026017647 -0.031866655 -0.08582927
000030 04 8e 9e 3d 2d bb 3e ba 0a 49 e1 3d 08 2a a8 bc
       0.07741931 -0.0007275816 0.11000259 -0.020527855
000040 2a 09 d7 3d 75 fc ec bb 1c 06 48 bd a6 b1 af 3b
       0.10499795 -0.0072322437 -0.04883395 0.0053617535
000050 9d 7d e1 3c 06 92 85 3d f2 09 af bb 63 42 f7 bd
       0.027525717 0.065219924 -0.0053417617 -0.12073209
000060 4e 06 aa bd 2b 0d 65 ba da 46 c4 bc 84 6d 8d bd
       -0.08301984 -0.0008737619 -0.023959566 -0.06905654
000070 84 01 fe 3d 10 ee 4b bd 02 0e 1a bd d0 0f 25 3d
       0.12402633 -0.04978758 -0.037611015 0.040298283
000080 58 2a 2a 3d 86 4b 54 bb 61 74 ec 3c 65 32 4a bd
       0.04154429 -0.0032393648 0.028864088 -0.049364466
000090 5d d6 b0 bd d8 e9 49 3d e8 99 ca bd 22 25 5f bd
       -0.086346366 0.049295276 -0.098926365 -0.054478772
0000a0 54 e4 c2 bd 0b 89 cf 3d d3 27 40 bd 51 cd cb 3d
       -0.095162064 0.10133561 -0.04691298 0.0995127
0000b0 cd 8b 95 3d 2c e1 56 bb 5f 22 c2 bc 04 63 52 bd
       0.073020555 -0.0032788021 -0.02369803 -0.05136396
0000c0 2f 8c ad bd fe 47 8c 3d ae 13 b6 bd 89 16 b7 bb
       -0.084740035 0.06849669 -0.08890472 -0.005587403
0000d0 ab 52 9b ba 20 58 ee 3c 2e 7c 59 3d 76 5d da bd
       -0.0011850198 0.029094756 0.053096943 -0.106623575
0000e0 ff 67 6b 3c 85 ca cc bd 9a a8 7c bc 52 d9 b4 bd
       0.014368056 -0.09999565 -0.015421057 -0.08830513
0000f0 5e 6e 74 3d f0 67 a1 bd b0 5c 08 bd c8 8e 96 3d
       0.059675567 -0.07881153 -0.03329152 0.07351452
000100 b7 a7 74 3d 8c f1 20 3d 87 63 a6 3d a3 f7 07 bb
       0.059730258 0.039292857 0.08124452 -0.0020746968
000110 a7 3f d1 bc c4 5f 4f bc 95 46 07 3c 3b 12 14 3d
       -0.025543047 -0.01265711 0.008256574 0.0361502
000120 20 5b 70 3d bc dd 53 bc d1 60 44 3d b7 ce b0 3d
       0.058680654 -0.012931284 0.047943894 0.08633178
000130 08 aa 34 3b ea 31 28 3d 57 0a 80 bc 31 41 8c 3c
       0.0027567167 0.041063227 -0.01562993 0.01712093
000140 67 a4 77 3c d4 79 77 3d ff 5d 24 3a 55 69 ca 3c
       0.01511488 0.06041892 0.000627011 0.02470843
000150 d1 e2 47 3d 83 e1 04 3c 87 c4 3d 3c 5c 4a c1 3c
       0.048800293 0.008110407 0.0115825 0.023595028
000160 88 e5 e6 3c 50 8d 2a 3d 96 24 93 3c 3d fe da 3c
       0.02818562 0.041638672 0.017961781 0.026732558
000170 e4 db 42 3c c9 8b b3 bc 20 2e d8 bc 13 20 dd ba
       0.011893246 -0.02191724 -0.026389182 -0.0016870521
000180 1c 89 3a bb d3 5d 3f 3d 06 df 71 3a a7 b1 18 3d
       -0.0028463071 0.046720337 0.00092266535 0.037278797
000190 8a bb 2c 3d d4 1f 6f bb 05 ab 39 bc 6c 57 e1 3b
       0.04217104 -0.0036487477 -0.011332278 0.0068768766
0001a0 40 70 c8 3c 6d 05 d3 3b 89 e4 0d 3c 50 5c 3d 3c
       0.024467587 0.006439856 0.008660444 0.011557654
0001b0 12 a2 7b bb 76 95 31 3d db 96 bf ba 31 15 a5 bb
       -0.0038396162 0.043355428 -0.0014617102 -0.0050379266
0001c0 e9 7f 06 3d 7d 0f 73 bc a0 51 d8 3b 97 62 9c bb
       0.03283683 -0.014835236 0.0066015273 -0.004772495
0001d0 79 e9 34 bc 40 67 34 3c bd 26 c2 3c ee dd 76 3d
       -0.011041992 0.011010945 0.023700112 0.060270242
0001e0 b7 73 30 ba b8 f6 85 3d c9 54 27 3d bc 65 f5 bc
       -0.000673111 0.065411985 0.04085234 -0.029955737
0001f0 ef f0 86 3d 48 66 82 3d 6a d8 2a 3d 59 d1 8c 3c
       0.06588923 0.06367165 0.041710295 0.017189668

blocks.0.res_conv.weight f4 [64, 6, 1, 1]
000000 7e e8 5a 3e 03 9d 95 3d c1 ee 0f bd 0d 75 31 bd
       0.21377751 0.07305338 -0.035139803 -0.04332452
000010 82 82 d3 3d a9 82 66 be 4e 9c bc 3e e7 b6 89 bd
       0.10327627 -0.2251078 0.36838 -0.06724339
000020 8f d7 33 be 17 19 95 3e af ff 0e be 3b 37 89 bd
       -0.17562698 0.29120705 -0.13964723 -0.066999875
000030 09 93 47 be 39 fa 27 be b9 7a 25 bd 85 5d 8e bd
       -0.19489683 -0.16404046 -0.04040024 -0.06951431
000040 a5 fe 36 bd 2c b7 fd bc 19 61 af be 1e 25 11 bd
       -0.04467644 -0.030971132 -0.34253767 -0.03543579
000050 8c 25 b9 bd 79 d1 a5 be 51 9e 5b be cc 48 31 3e
       -0.090403646 -0.32386377 -0.21447112 0.17312926
000060 79 94 8d be 1f bc bd bd 96 16 22 be 05 6a a7 3e
       -0.27652338 -0.09264397 -0.15828928 0.32698074
000070 5e 0c 87 3e 60 3d 56 3e ed b7 56 be e7 1f 0b be
       0.26376623 0.2092185 -0.209686 -0.13586389
000080 7f 69 5e 3c c4 9b 23 3e ac ff f0 bc 15 6c 0b be
       0.013574957 0.15977389 -0.029418789 -0.13615449
000090 1c a0 8c be ec 93 f0 3d 27 0f 82 3d 08 c4 30 3e
       -0.27465904 0.11746964 0.06350546 0.1726228
0000a0 4b 7d 82 be d0 1b 96 3d e2 cf 5f 3e 2b 6d 3b be
       -0.25486216 0.073295236 0.21856645 -0.18303363
0000b0 bf 3b b0 be 4d e2 65 be 51 34 32 be 9b db 26 bd
       -0.34420583 -0.22449608 -0.1740277 -0.040736776
0000c0 bd 47 85 3e 12 29 42 bd a6 f1 83 3e f9 b3 92 3e
       0.26031294 -0.04740245 0.257703 0.28652933
0000d0 f1 6c 47 3e ec 56 49 be ce ed ab 3d d9 4d ae 3d
       0.19475152 -0.19662064 0.08394967 0.08510942
0000e0 c6 e6 6c 3e b9 34 3b be 01 a9 89 bb 55 a8 18 be
       0.23134908 -0.18281831 -0.004201055 -0.14907964
0000f0 c2 90 19 be 52 3d b1 3c bd 51 e4 bc 87 46 c2 3d
       -0.14996627 0.021635685 -0.027871007 0.09486108
000100 ea ef 37 be 09 01 95 bd 34 1d 2a 3e f6 69 e8 bc
       -0.17962614 -0.07275588 0.16612703 -0.028370839
000110 92 29 1d 3d a1 e8 54 be 9c 5b 62 3e 11 d6 cf bb
       0.038369723 -0.20791866 0.22105259 -0.0063426574
000120 4d bd 68 3e cc d9 98 bc ed de 1e 3d e9 fc 91 3e
       0.22728463 -0.018658541 0.038786817 0.28513268
000130 b8 97 71 bd 1e 54 7c 3e 2d 59 29 be dd 50 02 bd
       -0.05898258 0.24641463 -0.16537924 -0.0318154
000140 53 35 20 be 8f c3 15 3d 67 49 af be 75 ae 83 3d
       -0.15645342 0.036563452 -0.3423569 0.064297594
000150 be b9 a9 bd de 8a c0 3d 5f fb 83 3e 3b 4b 17 3e
       -0.08287381 0.09401487 0.25777718 0.14774792
000160 c7 a0 9f be b5 02 16 3e b4 fa 7a be f1 81 eb bc
       -0.3117735 0.1464947 -0.24509698 -0.028748484
000170 5d c8 1f be 09 61 d5 3d 55 28 94 bd be d0 29 3d
       -0.15603776 0.104188986 -0.07234255 0.041458838
000180 32 52 25 3e 87 b1 05 3e 2b c9 5d 3e cb 96 5f 3d
       0.16144636 0.13056003 0.2165877 0.054587167
000190 af 30 ed bd 49 28 26 3e 48 72 3d bd 03 cf 1e bd
       -0.11581551 0.16226305 -0.046251565 -0.03877164
0001a0 15 ca 37 3d c5 eb 78 3e 2b ab 88 3e 1b 3a 6b bc
       0.044870455 0.24308689 0.2669309 -0.014357115
0001b0 37 c8 4f be 1c 05 0e 3e ef 4b bf 3d 89 76 a6 be
       -0.2029122 0.13869137 0.09340655 -0.3251231
0001c0 b5 1d 3d 3d bc 13 3c be e8 5c 37 be 6a 4b 35 be
       0.04617091 -0.18366903 -0.17906535 -0.1770455
0001d0 90 05 58 be dd 6a 5f be c5 18 46 bd 88 85 d9 3d
       -0.21095872 -0.21818109 -0.048363466 0.10621172
0001e0 f8 4d 9b be d4 8c cc bd e6 27 c9 3d 4b 2e 02 3d
       -0.30332923 -0.09987798 0.09822063 0.03178243
0001f0 a4 2e 23 3d b2 1b 73 be e1 bd 76 bd 4c bd be 3d
       0.0398394 -0.23741034 -0.060239676 0.09313449
000200 79 55 6d be 1a 87 36 be c5 22 cd 3b 28 45 c9 3c
       -0.23177136 -0.17824975 0.0062602484 0.02456911
000210 73 f3 91 3e 32 0c a2 3d e2 a1 14 3e 2b ae 99 be
       0.2850605 0.07912482 0.14514878 -0.30015692
000220 c4 3d f0 bd 80 ea 60 bd 94 bb e7 bd 42 b3 5e bd
       -0.11730531 -0.054911137 -0.113150746 -0.054370172
000230 5f 4d 00 3e d6 ae 6d be 67 82 80 bd 68 75 86 bd
       0.12529515 -0.23211226 -0.06274872 -0.06565362
000240 46 bf 02 3e cf d9 99 bc ec b0 99 3c 4e ee 37 3e
       0.12768278 -0.018780617 0.01876112 0.17962
000250 93 be f7 bd cd 64 f4 3d 71 d6 2d 3e c6 5e 9e 3d
       -0.12096896 0.11933289 0.16976334 0.0773292
000260 78 6a 85 be 44 84 66 3e a6 3b ed 3d fe 49 5e 3e
       -0.26057792 0.22511393 0.11583643 0.21707913
000270 1b bd 43 3e a2 98 fa bc 79 1d 70 3b 42 04 91 3d
       0.19115107 -0.03059036 0.003663866 0.0708089
000280 6a 47 c0 3d 58 a3 46 be 1c e4 14 be 56 d2 9b bd
       0.09388621 -0.19398248 -0.14540142 -0.07608478
000290 b1 a7 31 be 84 aa 22 be 11 33 1f be ef f5 39 3d
       -0.17349125 -0.15885359 -0.15546824 0.045400556
0002a0 10 ef a7 3e 55 aa f5 bc a9 7c 14 bd f4 bd 4a 3e
       0.32799578 -0.029988447 -0.036251698 0.19799024
0002b0 b1 af cd 3c 4a 4b 8b 3e b9 53 77 3d 16 7b f9 3c
       0.02510819 0.27205878 0.06038258 0.0304542
0002c0 eb 79 3f be 3a cf ed 3d 2a 45 cf 3d ee fb d4 3d
       -0.18698852 0.11611791 0.10120614 0.10399614
0002d0 2a 2d 70 bc a2 99 2b bc c9 db c4 3d 7c 03 f2 bc
       -0.014659205 -0.010473641 0.09612233 -0.029542677
0002e0 30 51 56 bd 59 61 a9 be cb 61 61 3e 1a 93 ed bd
       -0.05232352 -0.33082083 0.22009961 -0.11600323
0002f0 39 83 78 3d 86 60 1f 3e 5e 43 e6 3d 6c 5f c5 bb
       0.06067202 0.15564165 0.11243318 -0.006023338
000300 9f ca a3 bd 69 89 0f 3e 2c 01 1f be a1 5c 5b be
       -0.07997631 0.14017262 -0.15527791 -0.21422054
000310 b9 8d 29 3e d2 b6 7a 3e dd a4 a7 3e b2 82 09 3e
       0.16557969 0.24483803 0.32742968 0.13428763
000320 fc 33 f5 bc 5a 00 5b 3e ae fe 09 be a1 1d 12 3e
       -0.029932015 0.21386853 -0.13476059 0.14269115
000330 fd 93 7f 3e 13 62 32 bd c1 17 83 be b6 56 72 be
       0.24958797 -0.043550562 -0.2560406 -0.2366589
000340 b3 04 00 be c5 79 0c bc 13 49 a6 3e aa f7 70 3d
       -0.12501793 -0.008573954 0.32477626 0.05882994
000350 91 d6 1c be bd d4 36 3d 45 b8 c1 bd 01 70 f5 3d
       -0.15316226 0.044636477 -0.09458975 0.11984254
000360 52 f1 74 3e 7e 57 05 bd 00 f3 e0 3d 17 cf 35 3e
       0.23920181 -0.032554142 0.109838486 0.1775478
000370 46 d2 ac bc 7b c2 1d be 15 71 48 3e a7 84 86 bd
       -0.02109636 -0.1540622 0.19574387 -0.0656827
000380 23 b3 13 3e 35 02 60 3d 15 e6 a7 bd de f4 c1 bd
       0.14423804 0.054689605 -0.081981815 -0.09470533
000390 3f aa f9 3d 73 9a 59 bd 8d 5b f7 3d 44 1d 90 3e
       0.12190675 -0.05312581 0.12078009 0.28147328
0003a0 a0 65 f3 3c 0b b3 6a be ba 87 84 3e d7 c2 eb 3d
       0.029711545 -0.22919862 0.258848 0.11511772
0003b0 64 ba 1c 3e 63 5d 82 bc bf 9e 8b be 7e 58 85 bd
       0.15305477 -0.01591367 -0.2726955 -0.06511019
0003c0 77 25 90 3e c2 8a a4 3c a0 0d 74 3e 38 e3 7a 3e
       0.28153583 0.020085696 0.23833323 0.2450074
0003d0 1b 76 52 be 63 47 4e be bd b4 4b bd 71 68 51 bd
       -0.20552866 -0.2014442 -0.049732912 -0.051124994
0003e0 6c 17 26 be 14 8d e6 3c 8d 21 86 bd 0c a9 6d 3e
       -0.16219872 0.028143443 -0.06549368 0.23209018
0003f0 f0 dc 91 be 42 eb 84 38 37 15 1c be cf dd 83 be
       -0.28488874 6.338071e-05 -0.15242468 -0.25755164

blocks.0.res_conv.bias f4 [64]
000000 8d f5 0a be 6c f0 39 be 25 57 e1 3d 23 8a 45 be
       -0.13570233 -0.1815812 0.110029496 -0.19290976
000010 b2 a1 31 3e 68 be 8f be 8c 58 19 be 47 ef a1 3e
       0.17346838 -0.28074956 -0.14975184 0.31627867
000020 0d aa a1 3c d1 5c 27 3e a0 43 9e 3e ee ef ae bd
       0.019734407 0.16344 0.3091097 -0.08541857
000030 b2 75 6c bd 0a c3 7a bd bf 5f 22 be 1b 94 06 bd
       -0.05772943 -0.06122116 -0.15856837 -0.032856088
000040 26 18 2a 3e 22 05 b0 3e 20 4d 6a 3e 29 1d 89 3e
       0.16610774 0.34378916 0.22880983 0.2678006
000050 ef 19 33 be 0c 50 5a be 5f b5 bb be 8e 94 27 3e
       -0.17490362 -0.21319598 -0.36661813 0.16365263
000060 03 65 ed 3d 6e 7f 62 bd 1d 26 89 3e 8a 32 81 be
       0.11591532 -0.055297308 0.2678689 -0.2523387
000070 8e 44 c8 bc 40 c5 f4 3b ba 70 4a 3d fd f9 81 3e
       -0.024446752 0.007469803 0.04942391 0.25386038
000080 94 5b 29 be da 5f ad 3e 9f 00 9f 3e 7e f9 ac 3d
       -0.1653884 0.3386219 0.3105516 0.08446024
000090 cb 4f 4d be 59 ab 01 3e 5d b8 c0 3c 9a 55 ba bd
       -0.2004997 0.1266302 0.023525411 -0.090983585
0000a0 f8 d9 92 3e ed 87 78 be 43 b1 c4 bd a0 c5 c1 bd
       0.28681922 -0.24270602 -0.096041225 -0.09461522
0000b0 ae 96 c0 bd 68 f6 5e 3e df 2c d9 3c f0 a3 aa 3d
       -0.0940374 0.21773684 0.026510654 0.0833205
0000c0 35 d7 9b be 64 27 5f be f9 3a 3a 3e fe b7 9d bd
       -0.30437627 -0.2179237 0.18186559 -0.07701109
0000d0 f6 cc d5 3d 87 3b 5f be 0e 99 1c be 3d a2 07 3e
       0.10439484 -0.21800052 -0.1529276 0.13245483
0000e0 e7 b9 1e 3e 5c 64 e0 bb a1 29 80 be bc a6 56 be
       0.15500604 -0.0068479013 -0.2503176 -0.20962042
0000f0 e6 46 16 be 43 ec 16 3e 2e eb 88 be 1a 96 5d be
       -0.14675483 0.14738564 -0.26741928 -0.2163929

blocks.0.ln.weight f4 [64]
000000 a5 3a 31 3f a3 c6 58 3f 2a ac 76 3f 42 8b 54 3f
       0.6923011 0.84678096 0.9635645 0.8302499
000010 d7 be 85 3f 3f fa 65 3f 4c 70 55 3f 92 98 71 3f
       1.0448865 0.8983497 0.83374476 0.9437343
000020 c0 63 36 3f ee fc 27 3f 1b dd 35 3f 66 94 55 3f
       0.71245956 0.65620315 0.71040505 0.83429563
000030 d6 03 38 3f c1 0f 28 3f 66 cb 46 3f 48 dc 2a 3f
       0.71880853 0.6564904 0.7765411 0.6674237
000040 95 c6 77 3f c1 94 5d 3f 41 7b 4a 3f aa 0d 3c 3f
       0.9678739 0.86555105 0.7909432 0.7345835
000050 cf 5e 4b 3f d2 c8 03 3f 0a 24 85 3f fb aa 3a 3f
       0.7944154 0.514783 1.0401623 0.72917145
000060 01 ed 00 3f 24 2f 6b 3f af 36 2a 3f da 94 3a 3f
       0.5036164 0.91868806 0.6648969 0.7288338
000070 46 88 35 3f e2 11 4e 3f f9 4a 77 3f af 0e 18 3f
       0.7091106 0.80496037 0.96598774 0.59397405
000080 95 de 42 3f f6 34 73 3f 3c ff 84 3f 4e 96 28 3f
       0.76120883 0.95002687 1.0390391 0.65854347
000090 bb 74 46 3f 56 4f 13 3f 8d 04 5a 3f 08 db 37 3f
       0.77521867 0.5754293 0.85163194 0.7181859
0000a0 96 0f 50 3f b4 fb 36 3f 43 7b 2c 3f 90 69 87 3f
       0.8127378 0.7147782 0.6737558 1.057909
0000b0 cc 8c 47 3f cd 6a 41 3f 22 4b 17 3f cf 41 42 3f
       0.77949214 0.7555359 0.5909902 0.75881666
0000c0 67 5f 79 3f b6 ff 3e 3f f7 0a 30 3f 9b ce 34 3f
       0.974112 0.74608934 0.6876673 0.70627755
0000d0 c3 f8 5f 3f aa 0d 4a 3f 68 9c 3a 3f 25 b0 36 3f
       0.87488955 0.789271 0.72894907 0.71362525
0000e0 23 70 62 3f 85 4e 6b 3f 62 61 1c 3f 3f 66 4c 3f
       0.8845236 0.91916686 0.61086094 0.79843515
0000f0 bc e1 67 3f 2f ad 80 3f 72 0a 21 3f 26 bc 49 3f
       0.9057882 1.0052851 0.62906563 0.78802717

blocks.0.ln.bias f4 [64]
000000 27 ba 26 bd 03 e7 f9 bc 86 e8 d8 3b 05 91 b4 bd
       -0.040704872 -0.030505663 0.006619516 -0.08816723
000010 85 2d 85 3d 5b b7 39 be eb a2 8b bd ef 41 14 3d
       0.06502823 -0.18136351 -0.068181835 0.03619569
000020 96 6e 6e 3d 8b 15 37 3d a6 c4 59 bd 61 10 3d 3d
       0.05821093 0.04469828 -0.053166054 0.0461582
000030 49 0c b6 bd 5e 2f 91 bc e9 da ab 3c 81 1a 75 bc
       -0.08889062 -0.017722782 0.020978408 -0.014959932
000040 9a e3 d0 3d d8 f6 22 3d e2 41 eb 3d 7b 34 70 3d
       0.101996616 0.03978619 0.114871755 0.0586438
000050 ce fd 32 3d 0b 2d 1f bd 84 2a 98 bd 2a bb 02 3e
       0.04369908 -0.038861316 -0.07429984 0.1276671
000060 0a 64 17 3d 9d 0a 04 be 6e a5 84 bd ca 28 28 bd
       0.03696064 -0.12894674 -0.06476866 -0.041054524
000070 87 64 13 bc c4 67 fe bd f1 ce ea 3d 2a f4 63 bc
       -0.008996136 -0.124221355 0.11465252 -0.013913194
000080 21 06 9a bd ea 05 ff 3d a2 89 97 3d ce 44 71 bc
       -0.075207 0.124523 0.07399298 -0.014725877
000090 01 38 c8 bc ce 40 9d 3d 54 c3 cc bc 9f 1a 59 3c
       -0.024440767 0.07678376 -0.024995483 0.013250976
0000a0 c2 4b 3d 3d 57 9a b4 bd 35 f9 22 bd c0 d3 93 bd
       0.046214826 -0.088185005 -0.039788444 -0.072181225
0000b0 0f ce 1b bb 49 48 4f 3d 09 bf 80 bd 5c 65 e8 3d
       -0.0023773944 0.050606046 -0.06286437 0.11347458
0000c0 34 1a 69 bb 00 a2 b9 bd d4 2e 34 3d 7d 3f 2b bd
       -0.0035568597 -0.09064102 0.04398997 -0.041808594
0000d0 3b 0f 90 3d 99 a7 9f bd 04 6a 83 bd 8e 03 1a bc
       0.07034155 -0.077956386 -0.06416705 -0.009400262
0000e0 74 71 1a 3e b1 26 41 3d 4b b8 0e 3c 87 14 a9 3b
       0.15082341 0.04715604 0.008710931 0.0051599178
0000f0 1b bb e3 3c 63 dc 10 3d 48 65 ef bd 11 3d 4f bc
       0.02779918 0.035366427 -0.1168924 -0.012648837

blocks.1.temporal1.conv.weight f4 [128, 64, 1, 3]
000000 0e 90 a1 bc a7 0d a7 bc 1b ce a3 bc b9 09 68 3d
       -0.019722011 -0.020392252 -0.01999574 0.056649897
000010 8b 4d 09 3d c1 23 11 3d 36 75 72 bd 42 0b 0f bd
       0.033521216 0.03543449 -0.059193812 -0.034922846
000020 cb af 71 3c 8d 4f 93 bc 33 46 9c bb aa 3a a4 bc
       0.014751385 -0.017982269 -0.0047691106 -0.020047504
000030 6a 6c 2a 3c 0a 11 20 3d 63 d4 3c 3d d5 df 45 3d
       0.0104018245 0.03907875 0.046100985 0.048309166
000040 e1 e3 31 3d 94 42 52 3d 36 b6 55 3c 3f 8a b3 3c
       0.043430213 0.051333025 0.013043931 0.021916507
000050 fd 84 af 3c 3c 76 70 bb 32 81 03 bd 87 29 6a bd
       0.021425718 -0.0036691567 -0.032105632 -0.05716851
000060 c8 34 fd 3c 0e 0a 18 3d 8f ce 51 3d e7 4a d7 bc
       0.030908957 0.037118964 0.05122238 -0.026280833
000070 49 36 6b bb 4d 6c 3f 3b 86 be b9 bd 74 02 8b bd
       -0.003589051 0.002920884 -0.090695426 -0.06787577
000080 b4 7c 20 bd ea 53 a4 3d 4d e9 51 3d 10 d2 6e 3d
       -0.039181426 0.08023818 0.051247884 0.0583058
000090 f4 37 da bc d2 26 9d 3c 7c 56 81 3c 32 6a d6 bc
       -0.026638009 0.01918355 0.01578831 -0.026173685
0000a0 c1 5a ab bc 0d 5c cb bc 12 03 25 bd 6a d5 b0 bc
       -0.020917298 -0.024824167 -0.04028613 -0.021586139
0000b0 59 ee d6 bb ce 4c 83 bc da 0e a1 bb b4 00 18 bc
       -0.006559175 -0.016027834 -0.0049151005 -0.009277511
0000c0 7c 86 f7 bd bf 43 9c bd 4e 20 7e bd 8c d3 c2 bd
       -0.12086198 -0.07630109 -0.062042527 -0.095130056
0000d0 d9 22 7c bd e7 6f 08 bd 3f c0 aa bd 97 08 89 bd
       -0.06155667 -0.033309843 -0.08337449 -0.066910915
0000e0 65 f8 8b bd b0 b1 5d 3b d8 8a 74 bb 06 37 54 bc
       -0.06834487 0.0033827834 -0.0037314203 -0.012952572
0000f0 1e b8 69 bb de 41 de 3c 45 14 15 bc 1d 5b c6 bc
       -0.003566272 0.027131017 -0.009099071 -0.024213368
000100 9d d1 12 bd 3f 13 9a bc d5 0e 2f 3d f1 03 18 3c
       -0.035844434 -0.018808005 0.042738754 0.009278283
000110 df 8d 92 3c cf db 30 bd 3a a5 43 bd 1e d6 57 bd
       0.017889915 -0.043178376 -0.047764994 -0.052694432
000120 9f 79 4e 3c 54 74 47 3b fd cc bb 3b 65 23 c4 bc
       0.012602239 0.0030434327 0.0057312236 -0.023942659
000130 d2 96 cd bc f8 8f 1d bd 72 30 55 3d dc 29 36 3d
       -0.02509633 -0.038467377 0.052048154 0.044473514
000140 11 b4 5e 3d 07 c9 38 3d 5c ac e1 3c 63 19 8e bc
       0.054370943 0.04511359 0.027548008 -0.01734609
000150 78 ab 63 3d 07 09 27 3d 43 87 5a 3d 6f 1d ec 3b
       0.055583447 0.040780094 0.053351652 0.007205657
000160 30 23 d5 3c 7d 72 05 3d 0a c0 2f 3d 91 43 a4 3b
       0.026017755 0.032579888 0.042907752 0.0050129374
000170 64 84 92 3c 1c 2f 09 3d d3 9d dd 3c 58 71 42 3d
       0.017885394 0.033492193 0.027052796 0.047471374
000180 16 cc 03 3b 4b 0f db 3a ba cd ba bc 10 8a fc 39
       0.0020110658 0.0016712932 -0.022803176 0.0004816805
000190 0d 85 aa ba 28 72 df bc 4d 6f 0b bd e6 da 1f bd
       -0.0013009623 -0.027276114 -0.03404169 -0.039027117
0001a0 52 27 88 bd 9d d3 91 3c 44 2a 00 3b 32 05 25 3c
       -0.06648125 0.0178011 0.0019556442 0.010072039
0001b0 c4 3a ea 3d 6f 1c ba 3d 60 0e a6 3d f8 0d 31 3d
       0.1143699 0.090874545 0.081082106 0.043226212
0001c0 7f 5f 11 3d 08 03 24 3d 25 d7 17 3e 81 9e cb 3d
       0.035491463 0.040041953 0.14828165 0.099423416
0001d0 20 0a 96 3d 89 f7 30 bd ec 1d 35 bd 97 1a 98 bc
       0.0732615 -0.043204818 -0.04421799 -0.018567367
0001e0 86 ef db 3c 9e a8 51 3c 9b ce 32 3d 23 7d 55 bc
       0.026847612 0.012796549 0.043654066 -0.013030323
0001f0 fa 28 f1 bb c2 4c 82 bc 4d 97 ae bc 75 de 81 bc
       -0.007359621 -0.015905742 -0.02131238 -0.015853146
000200 a8 79 c6 bc 26 7b 37 bc dd 32 df bc 7e 82 01 bc
       -0.024227932 -0.0111987945 -0.027245933 -0.007904647
000210 b6 21 ff bc d2 38 06 bd f5 aa 06 bd 58 92 16 3d
       -0.031144004 -0.03276903 -0.03287788 0.036760658
000220 29 fc 01 3d 94 84 08 3d 06 37 2f bd d7 a4 5c bd
       0.03173462 0.03332956 -0.042777084 -0.05386814
000230 0e 4a a5 bc 12 1b f7 3b 8f 5f 60 3c 90 ac bb 3c
       -0.020176914 0.007541069 0.013694658 0.022909433
000240 4f 48 8a 3d 40 48 64 3d 1a 55 2b 3d e9 14 93 3d
       0.06752073 0.055732965 0.041829206 0.07181723
000250 b4 85 7e 3d 2e 5c 19 3d 1e 58 55 3d a5 14 8d 3c
       0.062139228 0.037441425 0.05208599 0.017221758
000260 d4 84 f3 3c 3c b9 4b bd 8a f1 1c bd 9b 33 31 bd
       0.029726423 -0.0497372 -0.038316287 -0.043262105
000270 37 86 97 bd 91 e1 8a bd 12 51 aa bd 27 32 2a bd
       -0.07398646 -0.06781305 -0.08316244 -0.041551735
000280 85 72 e8 bc d2 8d e7 bc ef 5d b1 bd 3b 23 1b bd
       -0.02837492 -0.028265867 -0.086604945 -0.037875395
000290 9e 2c 3d bd 0e fd e5 3c 52 fe 04 3c b3 5b 1a 3b
       -0.04618513 0.028074767 0.008117275 0.0023553192
0002a0 40 bb db 3d 61 95 a4 3d 4b 36 5b 3d 95 a6 d9 3c
       0.107290745 0.08036304 0.053518575 0.02656869
0002b0 c8 7a a5 3c 23 fb a3 bc f1 0d 51 bd 86 74 bf bc
       0.020200148 -0.020017212 -0.051038686 -0.023370992
0002c0 1d 74 a8 bc 1c 8e bb bc de 63 07 bc 76 6b da bb
       -0.02056318 -0.022894911 -0.008263556 -0.0066656424
0002d0 2c 85 8b bc 66 1e 1f bc f8 b9 0c bb cc 05 8b bd
       -0.017031275 -0.009711837 -0.002147315 -0.06788215
0002e0 a2 b2 2e bd 74 8c 23 bd b4 ff b4 3c f2 40 1c 3b
       -0.042650826 -0.03992887 0.022094585 0.0023842421
0002f0 e1 af c6 3a 49 26 c0 3c dd 93 e7 3c 1c f5 02 3d
       0.0015158617 0.023455756 0.028268749 0.031972036
000300 c0 b5 89 3a a0 01 7d b9 43 7b ec 3b 15 09 f5 bc
       0.0010506436 -0.00024128566 0.0072168424 -0.029911557
000310 fa 77 94 bc df fe df 3c b5 65 1d bd 6c ab 68 3c
       -0.018123616 0.027343212 -0.038427074 0.014201026
000320 0a f5 4b 3c 4c 98 ab bc 9a 1b 81 38 6f 02 97 bc
       0.012448559 -0.020946644 6.1563405e-05 -0.018433778
000330 32 9e d1 bd 99 51 90 bd 23 38 72 bd 7e dd fb bd
       -0.102352515 -0.070468135 -0.059135567 -0.12298106
000340 c8 f2 dd bd 2e 80 b3 bd d6 8b db bd 4b c3 c6 bd
       -0.108373225 -0.08764683 -0.10720031 -0.09705218
000350 e8 0b ae bd ce 7a 06 3e a8 1c 0b 3e d1 e3 12 3e
       -0.08498365 0.13132784 0.1358515 0.14344718
000360 0c 19 48 bd 51 69 72 bd 3b 22 35 bd f0 13 8f 3c
       -0.04885201 -0.05918247 -0.044222098 0.017465562
000370 8e 3a 6e 3a b5 e1 6b bc 30 98 01 bd de 17 0b bb
       0.0009087705 -0.0143970745 -0.031639278 -0.0021223943
000380 ce 22 6a bc 87 41 3b 3d 16 8c 93 3c 50 23 c9 3c
       -0.014290525 0.04571679 0.018011134 0.024552971
000390 de 0d 45 3c 27 93 b0 3c 9c f4 fe 3c 2e 7a 7b bc
       0.012027232 0.021554543 0.031122498 -0.015348954
0003a0 7c b1 15 3c 4d 99 09 3a 77 f1 a7 bd 74 cd 9c bd
       0.009136554 0.0005248979 -0.08200353 -0.076563746
0003b0 7c 5b 9a bd 2a d0 d1 bc f5 55 62 bb d5 2e 86 bb
       -0.075369805 -0.025611956 -0.0034536098 -0.0040949383
0003c0 2c 7e 0f 3d dd f3 27 3c b1 c6 a1 bc a5 47 68 bd
       0.035032436 0.010251013 -0.019748064 -0.05670895
0003d0 ba 6d 27 bd 44 ec 2c bd f9 12 ab 3c e5 d9 59 3c
       -0.040876128 -0.042217508 0.02088307 0.013296579
0003e0 f5 23 d5 ba 28 45 26 3d b8 2e 4f 3d 92 47 1c 3d
       -0.0016261326 0.040593296 0.050581664 0.038154192
0003f0 98 24 1a bd 29 53 41 bd d0 07 8d bd d2 e2 8a bc
       -0.037632555 -0.04719845 -0.06886256 -0.01695386
