artifacts/runs/20260210_213135_STGCN_LSTM/best.pt (torch, 556846 bytes, 25 tensors)

backbone.blocks.0.temporal1.conv.weight f4 [128, 6, 1, 3]
-0.21564738 -0.18103714 -0.17874761 0.093157575 -0.00704351 0.006261411 0.033958487 -0.09145833
-0.005826668 -0.14128299 -0.07330215 0.09555233 0.055259336 0.14264162 0.21563534 0.11548294
-0.07525418 -0.15639536 -0.053426713 0.011666309 0.19704996 -0.013098055 0.005567415 0.14063099
0.0568471 0.10118897 0.013213777 -0.03434787 0.018423362 -0.03353451 -0.10289282 -0.071553305
-0.09407215 -0.0053536 0.07471283 0.020066028 -0.16039291 -0.09115945 -0.08178395 -0.009173354
-0.058134384 0.02631146 -0.049937773 -0.11103032 0.029712154 0.00034870394 0.016909106 0.077616826
0.06781478 -0.06575823 0.095733225 -0.07486973 -0.07950846 0.124734424 -0.14208314 -0.056757636
0.099024385 -0.08884004 -0.06370107 0.012137859 -0.04045301 0.09206294 0.036139753 0.077807695
0.108821005 0.24129222 -0.13570336 0.10252787 -0.014400027 0.15403129 0.08878211 -0.037548535
0.3216672 0.09278907 -0.21147946 0.16583253 0.12582488 0.16827326 0.08920044 0.11254631
0.038661666 0.15601628 -0.02798809 0.06809376 0.17912558 0.06269871 0.16498914 0.18604726
0.12853292 0.11559647 -0.1384808 -0.042335223 -0.14052613 0.046939794 0.06799779 0.0029559045
-0.1196366 -0.17233892 -0.13453247 0.029886125 -0.1110787 0.11575353 0.113342226 0.095582955
0.00021067276 0.010402746 0.0027827898 0.047943227 0.08252606 0.24998584 0.24673952 0.10358167
0.062909566 0.079125635 0.14416464 0.1545637 0.08262206 -0.14661852 0.13256681 -0.002086966
-0.057746205 0.001523959 0.060483996 -0.21434285 -0.20562519 -0.14727747 0.13322017 0.046503376
0.08698437 0.085509226 0.14392759 0.16131769 0.17452006 0.13370761 0.12095646 0.12041129
0.17910497 -0.11548351 0.1369494 0.19822232 0.08449549 0.03619769 -0.014155511 0.056210548
-0.03732992 0.12520356 0.018018983 0.021718293 -0.14178708 -0.16734405 -0.16272397 0.022562914
0.10142193 0.15573683 -0.09591909 0.107905045 0.07408111 0.12490295 -0.10843331 -0.11184652
-0.15876648 -0.03167156 -0.23118402 0.08873003 -0.09663733 0.028471993 0.03891396 0.0024551617
-0.12510163 0.03808344 0.081685126 -0.08052574 0.014526652 -0.19297595 -0.019488383 -0.010943289
0.15388548 -0.0024650882 -0.13875557 -0.007144171 0.1130971 0.041924626 0.083863676 0.06321839
-0.03891349 0.06358995 -0.039592873 -0.117451355 0.14836101 0.14153923 0.19498782 -0.024808565
0.006788515 -0.10447033 -0.062511206 0.13449448 -0.025835631 0.06287502 0.124545045 -0.08847308
0.069670096 -0.03976688 0.09815204 0.0013427224 -0.15113541 0.02351643 0.17695242 0.11901675
0.02958391 0.08842383 0.03799898 -0.13204059 -0.13166867 -0.13863546 0.07313508 -0.12708317
-0.13791415 0.019189151 -0.07219793 0.06851214 0.12611021 0.0505514 0.0032151286 -0.097173765
-0.07615769 -0.013970542 0.1355752 0.04850004 -0.004872095 -0.027365 -0.040387508 0.18643872
0.106529266 0.11938584 0.18038791 0.18874505 0.2392753 -0.083376616 -0.05642123 0.042599864
0.1392862 0.23337743 -0.034457654 0.11428159 0.20264457 0.15908135 0.18915743 0.0031779725
-0.19560519 0.014275569 -0.12266037 -0.00027978845 -0.25458136 -0.1922243 -0.036797218 -0.036394894
00000000: abd2 5cbe cd61 39be 9d09 37be 66c9 be3d
00000010: 3fcd e6bb 862c cd3b 0e18 0b3d 814e bbbd
00000020: a2ed bebb 7dac 10be 701f 96bd f1b0 c33d
00000030: 9d57 623d a510 123e 83cf 5c3e 5282 ec3d
00000040: dd1e 9abd 1b26 20be f8d5 5abd 0c24 3f3c
00000050: 77c7 493e 3999 56bc dd6e b63b 9201 103e
00000060: 81d8 683d 2a3c cf3d 997e 583c 5ab0 0cbd
00000070: 97ec 963c 7b5b 09bd 79b9 d2bd 8a8a 92bd
00000080: e6a8 c0bd 406d afbb 0a03 993d 8361 a43c
00000090: 0a3e 24be ceb1 babd 587e a7bd d64b 16bc
000000a0: 521e 6ebd 228b d73c 8d8b 4cbd dd63 e3bd
000000b0: e766 f33c 40d2 b639 f784 8a3c 92f5 9e3d
000000c0: 7ae2 8a3d 40ac 86bd c80f c43d 4d55 99bd
000000d0: 55d5 a2bd c374 ff3d 3e7e 11be b27a 68bd
000000e0: 4ccd ca3d c4f1 b5bd b575 82bd dfdd 463c
000000f0: 0eb2 25bd 7f8b bc3d 4707 143d a459 9f3d
00000100: 8cdd de3d 4f15 773e d2f5 0abe 22fa d13d
00000110: 17ee 6bbc 61ba 1d3e 65d3 b53d 7ecc 19bd
00000120: 90b1 a43e 3208 be3d 128e 58be 01d0 293e
00000130: 3dd8 003e d34f 2c3e b8ae b63d ae7e e63d
00000140: b25b 1e3d bbc2 1f3e 4747 e5bc be74 8b3d
00000150: b26c 373e 2e68 803d eaf2 283e 2c83 3e3e
00000160: 229e 033e d8bd ec3d e9cd 0dbe b367 2dbd
00000170: 15e6 0fbe f143 403d 6d42 8b3d d9b7 413b
00000180: 0904 f5bd 9d79 30be e1c2 09be bfd3 f43c
00000190: 3b7d e3bd 3010 ed3d f81f e83d ffc0 c33d
000001a0: 0ae8 5c39 4770 2a3c 775f 363b 1e60 443d
000001b0: 6c03 a93d 4afc 7f3e 49a9 7c3e a022 d43d
000001c0: bbd6 803d 9f0c a23d e59f 133e f245 1e3e
000001d0: c135 a93d 2a23 16be 98bf 073e 7bc5 08bb
000001e0: 4987 6cbd 94bf c73a 11be 773d b17c 5bbe
000001f0: 698f 52be e8cf 16be de6a 083e 537a 3e3d
00000200: dd24 b23d 761f af3d c161 133e 7730 253e
00000210: 63b5 323e a6ea 083e 05b8 f73d 329a f63d
00000220: 4b67 373e 9e82 ecbd 773c 0c3e cbfa 4a3e
00000230: f90b ad3d 0744 143d 84ec 67bc 083d 663d
00000240: 42e7 18bd 5d35 003e 8c9c 933c 90ea b13c
00000250: a230 11be 3d5c 2bbe 1da1 26be dcd5 b83c
00000260: 4db6 cf3d 7a79 1f3e 3a71 c4bd 52fd dc3d
00000270: d6b7 973d 1ecd ff3d 4912 debd ca0f e5bd
00000280: ae93 22be 0aba 01bd 81bb 6cbe 17b8 b53d
00000290: cbe9 c5bd 193e e93c 3f64 1f3d c7e6 203b
000002a0: a41a 00be 62fd 1b3d 884a a73d aeea a4bd
000002b0: 3201 6e3c 7d9b 45be 1aa6 9fbc 7b4b 33bc
000002c0: 2894 1d3e 518d 21bb f115 0ebe a619 eabb
000002d0: 749f e73d 28b9 2b3d b8c0 ab3d a578 813d
000002e0: c063 1fbd 733b 823d 232c 22bd 568a f0bd
000002f0: f3eb 173e a9ef 103e e3aa 473e 553b cbbc
00000300: 3172 de3b 8af4 d5bd e005 80bd ecb8 093e
00000310: 3fa5 d3bc 9ec4 803d 7911 ff3d 6031 b5bd
00000320: 32af 8e3d 99e2 22bd f003 c93d 4afe af3a
00000330: 3ec3 1abe 87a5 c03c 0433 353e 0ebf f33d
00000340: f559 f23c 8e17 b53d d2a4 1b3d a635 07be
00000350: 27d4 06be 74f6 0dbe d8c7 953d 1722 02be
00000360: 5e39 0dbe 9132 9d3c 82dc 93bd 1850 8c3d
00000370: 0923 013e fc0e 4f3d e8b4 523b 0a03 c7bd
00000380: 90f8 9bbd b3e4 64bc 3ad4 0a3e faa7 463d
00000390: 18a6 9fbb 912c e0bc 5f6d 25bd cbe9 3e3e
000003a0: 042c da3d 9080 f43d 9cb7 383e 6246 413e
000003b0: 9604 753e 5cc1 aabd f319 67bd 327d 2e3d
000003c0: 0ba1 0e3e 7efa 6e3e 7823 0dbd 770c ea3d
000003d0: 0f82 4f3e 39e6 223e 7cb2 413e 8845 503b
000003e0: ba4c 48be 13e4 693c 5c35 fbbd 92b0 92b9
000003f0: 7d58 82be 72d6 44be aeb8 16bd d012 15bd

backbone.blocks.0.temporal1.conv.bias f4 [128]
0.014208075 0.10426804 -0.11105537 -0.12536749 -0.08297014 0.17370337 0.050210036 -0.037923325
0.11091728 -0.09966501 0.03739893 -0.19127177 -6.0049468e-05 -0.12840432 -0.028431544 -0.05999979
0.1552928 0.06595793 -0.0007487216 0.12294953 -0.15492722 -0.01705577 -0.052310314 0.0005858429
-0.030451242 0.008213119 0.044692785 0.21026994 0.032162756 -0.12487041 0.08853768 0.030403212
0.0031020958 -0.09645629 -0.08600817 0.03333087 -0.08087501 0.05881025 -0.14035867 -0.04469985
0.04080152 -0.18794063 0.16981988 0.09717505 0.18924113 -0.08931884 0.1538089 0.07265967
-0.016624562 0.09187303 -0.16534412 0.13448565 -0.01666052 0.16572891 -0.08311307 0.1183633
-0.06166784 0.10145418 -0.10021908 0.060936186 0.00088717235 -0.019877737 -0.0586803 -0.15396486
0.08826742 0.028784717 0.013476089 0.05760025 0.05792365 -0.029862355 0.011822484 -0.040891983
0.047395047 0.019765636 0.016426926 -0.0039823614 0.021414137 0.09262914 0.013627886 0.02905065
-0.006124758 0.1998605 0.008876628 0.06118012 0.044494055 -0.036873266 0.19793892 0.03570169
0.024483016 0.009654186 -0.01338216 0.06746111 0.035661355 0.01399728 0.014240738 -0.0101907
-0.029825823 0.046259087 0.024164742 0.015881812 -0.013945055 -0.01546838 0.022557093 0.022176893
0.008406665 0.2731489 0.13493067 0.040838677 0.008595718 0.055767734 0.06643634 0.08896222
0.11173194 0.038036194 0.039527364 -0.03999933 0.021129178 -0.034507163 0.04538272 0.047349058
0.04455817 -0.05910811 0.002447382 0.036367174 0.0034893623 0.059233155 0.030126425 0.008151659
00000000: fcc8 683c 7b8a d53d ff70 e3bd 5660 00be
00000010: 40ec a9bd 4cdf 313e 0aa9 4d3d 7d55 1bbd
00000020: 9928 e33d 2b1d ccbd 9f2f 193d bfdc 43be
00000030: a0dd 7bb8 6c7c 03be 45e9 e8bc 57c2 75bd
00000040: 1305 1f3e f414 873d db45 44ba f7cc fb3d
00000050: 3ea5 1ebe 8bb8 8bbc 5743 56bd 4093 193a
00000060: e274 f9bc 5190 063c c80f 373d 0151 573e
00000070: 18bd 033d 0fbc ffbd 3e53 b53d 2810 f93c
00000080: 884c 4b3b e08a c5bd 0d25 b0bd f385 083d
00000090: cca1 a5bd 04e3 703d 2fba 0fbe 3117 37bd
000000a0: 7f1f 273d 8273 40be 43e5 2d3e b603 c73d
000000b0: 6dc8 413e ccec b6bd 1580 1d3e 98ce 943d
000000c0: 3c30 88bc ed27 bc3d f84f 29be 9bb6 093e
000000d0: a57b 88bc d7b4 293e 2f37 aabd 7568 f23d
000000e0: 6b97 7cbd 36c7 cf3d a93f cdbd 3998 793d
000000f0: 2191 683a a3d6 a2bc c15a 70bd f7a8 1dbe
00000100: 8dc5 b43d edcd eb3c d0ca 5c3c 3dee 6b3d
00000110: 5941 6d3d e6a1 f4bc 18b3 413c 5a7e 27bd
00000120: 4f21 423d 8beb a13c c391 863c 787e 82bb
00000130: b36c af3c 59b4 bd3d 7f47 5f3c a1fb ed3c
00000140: 32b2 c8bb 3ba8 4c3e 476f 113c 0198 7a3d
00000150: 663f 363d 6c08 17bd 80b0 4a3e ef3b 123d
00000160: 9b90 c83c 972c 1e3c d940 5bbc 0d29 8a3d
00000170: a411 123d d954 653c fc51 693c e5f6 26bc
00000180: 4955 f4bc 2b7a 3d3d 23f5 c53c 931a 823c
00000190: cd79 64bc 176f 7dbc a7c9 b83c 51ac b53c
000001a0: 1cbc 093c 2cda 8b3e 442b 0a3e 7546 273d
000001b0: 0ed5 0c3c b56c 643d c70f 883d d331 b63d
000001c0: b7d3 e43d d7cb 1b3d 72e7 213d 56d6 23bd
000001d0: 1917 ad3c 6257 0dbd 3be3 393d 16f1 413d
000001e0: a182 363d 581b 72bd 4264 203b bff5 143d
000001f0: c9ad 643b 779e 723d b1cb f63c 898e 053c

backbone.blocks.0.graphconv.mlp.weight f4 [16, 192, 1, 1]
0.14834774 -0.06457846 0.0955259 0.048410993 -0.023035733 0.11459068 -0.1644582 -0.048315458
-0.0016289204 0.020914486 -0.0420056 -0.07930062 0.0018509275 -0.17738588 0.17902786 -0.0060229655
0.08856798 0.0967233 -0.031879313 0.03993329 -0.021264747 0.14312421 -0.14275596 -0.07517944
0.1192697 0.01519871 0.0238224 0.090993114 -0.11094618 -0.070748374 0.04580886 -0.009573777
-0.018902859 0.07609415 0.01598108 0.022059135 0.069112025 -0.05522675 -0.11658164 -0.0046922336
0.11833836 -0.1157253 -0.12556396 -0.060686454 0.12547036 -0.04384752 0.052086025 -0.16310468
0.18720952 0.043298207 -0.047932163 -0.052409817 0.08052385 0.14060292 -0.018968353 0.06833007
0.0174554 -0.109670945 -0.053464618 0.07474299 0.026563296 -0.12596716 -0.0010022909 0.03471813
-0.05681489 0.026608925 -0.04514894 -0.04102698 -0.030967798 -0.059940025 0.10512856 -0.005747397
0.012191586 0.027405687 0.03528922 0.071663685 -0.06252783 0.103953555 -0.112754904 -0.05712311
-0.064871885 -0.011252729 0.04165985 -0.054272216 0.040536404 -0.04263248 0.09552156 0.005682086
-0.11059774 -0.06500121 -0.052095693 0.015900262 0.05788927 -0.004187118 0.005263279 0.0004540382
0.071038604 -0.008878425 -0.03681914 -0.07516726 -0.013535855 0.08231955 -0.009868899 0.024627034
-0.07157091 0.07967239 0.07598328 0.027293768 -0.050116695 0.004521636 -0.050872922 0.049112197
-0.07454177 0.02743156 0.10315157 -0.0064294813 -0.037508775 -0.056855936 -0.027424123 -0.043817066
-0.061064433 0.09414555 0.058203813 0.024559129 -0.010562661 0.07759002 0.023474319 -0.0066031097
0.018912137 0.021264443 0.010708583 0.0106697995 0.042067964 0.08335189 -0.01696392 0.008271667
0.044112522 -0.050826337 0.011698178 -0.03094311 0.047030482 0.051199544 0.013501173 0.06087257
0.0361617 -0.0203318 0.022400679 -0.0461108 -0.0069838096 -0.075631164 0.025588218 0.036228906
-0.03856902 0.074358456 0.011531731 -0.024374342 0.05556524 -0.031579472 -0.0030483573 0.019376175
0.05126485 -0.12215877 0.0066827177 0.06188785 -0.061244246 0.022574255 0.025742238 -0.08206861
0.017058406 0.035993945 -0.013605235 0.032082587 0.029293545 -0.07373611 -0.014120044 0.007255081
-0.0006951062 -0.010410095 -0.057984035 -0.034591693 0.0278593 0.031257045 0.010181608 0.040446743
-0.02833721 -0.04990122 -0.03129722 -0.02130164 0.032243997 -0.04641007 -0.07257 -0.04439065
-0.05839452 -0.014814677 -0.029696656 0.013899388 0.13567242 0.022399854 -0.05460168 0.037379593
-0.04801637 -0.018191032 0.0048905485 0.005077264 0.05758359 0.04709993 -0.014382644 -0.06278337
0.037117455 -0.11063266 -0.046399377 -0.06365904 0.042713728 -0.028720696 0.22761971 0.08366427
-0.052085873 -0.027903622 -0.0013028926 0.055676397 2.3378476e-05 0.018428955 -0.088044405 0.02734411
-0.0824198 -0.08933724 0.076356 -0.0014038769 -0.047188655 -0.06777388 -0.036621854 0.078983136
0.03640481 0.108896546 -0.13705862 -0.02747563 0.003380032 0.08129665 -0.051442362 0.16632849
-0.09641336 -0.044150487 0.037049703 -0.016968122 -0.15823135 0.011028093 -0.043313667 -0.02073968
-0.020037772 -0.06762774 0.0052859276 0.119040616 0.033940133 0.063853376 0.0009704692 -0.023155512
00000000: 78e8 173e b641 84bd 15a3 c33d 9b4a 463d
00000010: 6fb5 bcbc 85ae ea3d bb67 28be 6ee6 45bd
00000020: 8081 d5ba db54 ab3c 100e 2cbd 5d68 a2bd
00000030: d29a f23a a5a4 35be 1453 373e 4c5c c5bb
00000040: 2163 b53d de16 c63d e293 02bd 1791 233d
00000050: 6833 aebc 278f 123e 9e2e 12be aef7 99bd
00000060: ac43 f43d 0304 793c 3227 c33c 995a ba3d
00000070: c037 e3bd 86e4 90bd 12a2 3b3d 55db 1cbc
00000080: 2bda 9abc 40d7 9b3d c1ea 823c 5cb5 b43c
00000090: 9b8a 8d3d 7235 62bd 5bc2 eebd 4fc1 99bb
000000a0: 625b f23d 6301 edbd d793 00be 5c92 78bd
000000b0: 4d7b 003e 7599 33bd 2858 553d ea04 27be
000000c0: dab3 3f3e 7659 313d 8454 44bd adab 56bd
000000d0: b0e9 a43d 36fa 0f3e 8563 9bbc a3f0 8b3d
000000e0: a1fe 8e3c 299b e0bd b7fd 5abd da12 993d
000000f0: 459b d93c 89fd 00be 4d5f 83ba 9934 0e3d
00000100: bbb6 68bd f6fa d93c 18ee 38bd e80b 28bd
00000110: 2eb0 fdbc ac83 75bd a44d d73d a954 bcbb
00000120: 38bf 473c e481 e03c 6e8b 103d 69c4 923d
00000130: 970e 80bd 9ae5 d43d 0bec e6bd ecf9 69bd
00000140: 8ddb 84bd 5e5d 38bc 85a3 2a3d 8b4c 5ebd
00000150: 8009 263d 659f 2ebd cfa0 c33d cb30 ba3b
00000160: 1181 e2bd 5b1f 85bd 4b62 55bd 4441 823c
00000170: 4d1d 6d3d 1734 89bb 9677 ac3b fa0b ee39
00000180: b07c 913d d076 11bc abcf 16bd 4bf1 99bd
00000190: 7ec5 5dbc 2797 a83d 2ab1 21bc a2be c93c
000001a0: c593 92bd 472b a33d 1f9d 9b3d 2e97 df3c
000001b0: 2a47 4dbd 3b2a 943b 2060 50bd df29 493d
000001c0: 5ba9 98bd 27b8 e03c 2141 d33d 66ae d2bb
000001d0: cda2 19bd c5e1 68bd 8ea8 e0bc 8679 33bd
000001e0: b31e 7abd 62cf c03d 1f67 6e3d 3a30 c93c
000001f0: 030f 2dbc 84e7 9e3d 374d c03c e65e d8bb
00000200: a0ed 9a3c c532 ae3c 0d73 2f3c 62d0 2e3c
00000210: 754f 2c3d 65b4 aa3d ebf7 8abc e385 073c
00000220: 55af 343d 472f 50bd b7a9 3f3c 687c fdbc
00000230: 09a3 403d 9db6 513d 0634 5d3c 8455 793d
00000240: 4a1e 143d e08e a6bc a181 b73c aede 3cbd
00000250: 71d8 e4bb 83e4 9abd 629e d13c c364 143d
00000260: 8cfa 1dbd 3f49 983d 96ef 3c3c b3ac c7bc
00000270: 6198 633d 7a59 01bd f3c6 47bb c9ba 9e3c
00000280: 17fb 513d 612e fabd b3fa da3b 1d7e 7d3d
00000290: 3fdb 7abd a5ed b83c 63e1 d23c 9613 a8bd
000002a0: 12be 8b3c 636e 133d 7ee8 5ebc 0869 033d
000002b0: 04f9 ef3c f502 97bd c257 67bc 08bc ed3b
000002c0: ca37 36ba 1a8f 2abc ab80 6dbd 05b0 0dbd
000002d0: 3039 e43c 6307 003d c2d0 263c 7cab 253d
000002e0: 7023 e8bc 3965 4cbd 8431 00bd c780 aebc
000002f0: 4812 043d 7c18 3ebd 959f 94bd f8d2 35bd
00000300: 182f 6fbd 42b9 72bc 6746 f3bc 42ba 633c
00000310: b6ed 0a3e e67f b73c 03a6 5fbd 581b 193d
00000320: d0ac 44bd 5c05 95bc e540 a03b 2d5f a63b
00000330: c5dc 6b3d dbeb 403d 2ea5 6bbc 9194 80bd
00000340: 7908 183d 6093 e2bd 460d 3ebd ac5f 82bd
00000350: 97f4 2e3d aa47 ebbc 2415 693e 2c58 ab3d
00000360: ff57 55bd 2396 e4bc d2c5 aaba ef0c 643d
00000370: e51c c437 52f8 963c a050 b4bd c100 e03c
00000380: b6cb a8bd 71f6 b6bd 8960 9c3d 4b02 b8ba
00000390: e448 41bd 08cd 8abd cc00 16bd e9c1 a13d
000003a0: 361d 153d 2705 df3d 1859 0cbe 9314 e1bc
000003b0: 8783 5d3b dc7e a63d 3ab5 52bd 0452 2a3e
000003c0: 5e74 c5bd 24d7 34bd 6ec1 173d bb00 8bbc
000003d0: 6607 22be 2daf 343c ac69 31bd 43e6 a9bc
000003e0: 4126 a4bc 6a80 8abd 9335 ad3b 91cb f33d
000003f0: cf04 0b3d 8fc5 823d 1667 7e3a a1b0 bdbc

backbone.blocks.0.graphconv.mlp.bias f4 [16]
0.058820717 0.031024724 -0.051554322 0.11402842 0.022553734 0.00013279401 -0.031517945 0.0032753898
0.0892595 0.024898611 -0.029654263 -0.0076491763 0.012391339 0.07653757 0.06436651 -0.043230746
00000000: feed 703d 9027 fe3c a02a 53bd bb87 e93d
00000010: 9cc2 b83c 9f3e 0b39 f618 01bd eca7 563b
00000020: afcd b63d 2cf8 cb3c 7fed f2bc f1a5 fabb
00000030: 0b05 4b3c bbbf 9c3d 97d2 833d b912 31bd

backbone.blocks.0.temporal2.conv.weight f4 [128, 16, 1, 3]
0.05801779 0.051736735 0.110591836 0.14893529 0.12042324 -0.06643508 0.058794267 -0.051500548
-0.12151705 -0.12137105 -0.08972151 -0.063175924 -0.11459562 0.056216463 0.07277572 0.030413784
0.0703165 0.0077490117 -0.027470283 -0.09179624 0.08312873 -0.03120017 0.0019775252 -0.08304716
0.07625228 -0.062662564 0.058108367 0.028892111 -0.11271687 -0.007944849 -0.07800239 -0.05498871
-0.12955076 0.13801086 -0.06357194 0.048460227 0.043858178 0.07912342 0.11241337 0.072789475
-0.04071554 0.1585774 0.07924033 0.13376538 -0.0719275 0.08299812 0.0909387 -0.036121897
0.13609204 0.120215744 -0.054121554 0.074887775 0.05963758 0.08132062 -0.01372 -0.0022283546
0.007403309 -0.022780055 -0.019739518 0.08843964 0.052389957 -0.034125242 0.04476427 0.009110988
0.024700863 -0.04869546 -0.082116626 -0.07646096 -0.018347694 0.05529335 0.061588243 0.027551465
0.025543923 0.057016186 0.09706781 0.07505813 0.05149147 0.078713916 0.0063399374 0.054519877
-0.015519515 -0.022104826 -0.0018799512 -0.0022136841 0.028535848 -0.08387201 0.027684325 0.09901669
0.001723508 0.013545434 -0.027874758 0.09311877 0.10745816 0.06423768 0.0124793695 -0.04188383
0.007472932 -0.0050713024 -0.061975323 -0.06744664 -0.049690932 -0.03774216 -0.06643378 -0.057108365
-0.087156996 -0.09861557 -0.08641649 0.09751609 0.003508597 -0.046133626 0.044570398 -0.114770725
-0.019499946 0.020266386 0.028745059 -0.060431894 -0.13718256 -0.10201541 -0.02265637 -0.09995933
0.016013777 -0.044928722 0.09956134 -0.16341163 -0.011689976 0.011439559 -0.10443133 -0.12329059
-0.117678665 0.09106191 0.1547825 -0.031313207 0.07111309 0.03587629 0.12254836 0.037140142
0.038135905 -0.06557421 -0.011837356 -0.051721796 -0.05712053 -0.05794074 -0.0022223943 -0.06453136
-0.08821312 0.12641339 0.13278764 -0.065014035 -0.004231495 -0.034021433 0.082246594 0.17018415
0.00052557763 0.1550769 0.21731688 0.13766389 0.11616628 -0.089969024 0.034133427 -0.015039778
0.12630592 0.09449215 -0.16148531 -0.13462979 -0.09352215 0.067861244 0.060469426 0.09991472
0.0511243 0.16394964 0.06805689 0.1391464 0.052953634 -0.03214719 -0.05818138 0.0206342
-0.00935277 -0.11000745 0.051053476 0.045390926 -0.06480484 0.029134562 -0.049938474 -0.0060810735
0.051883034 0.060988348 -0.032213114 0.068066426 -0.037238292 0.0029700415 0.12750843 0.09032004
-0.105856106 0.059843022 0.055806853 0.09896177 0.113386944 0.0067713824 -0.05807655 0.065239035
0.020918634 -0.14277774 -0.07727206 0.14810055 -0.07277107 -0.028833304 0.15263602 -0.089505464
0.014066358 -0.04575145 0.022323024 0.1036326 -0.06139221 0.021035265 -0.023601279 -0.022869792
0.034994867 -0.0332584 0.08163296 -0.16889673 -0.09620573 -0.00052120915 -0.06393708 -0.04217007
-0.050768405 0.16721044 -0.017962422 -0.048411213 -0.012717662 0.066065334 0.1074395 -0.018701637
0.058018368 -0.033651136 0.1993561 0.0073903804 -0.05441353 0.009441798 0.10537902 -0.02592455
-0.10678308 0.0025493116 0.032070577 0.18274449 0.009402069 -0.00509439 0.0855209 0.07120928
-0.01872505 0.0023698865 -0.061277624 0.06283053 -0.09191375 0.007980268 -0.06438671 -0.014636022
00000000: 10a4 6d3d e6e9 533d f97d e23d 7e82 183e
00000010: 76a0 f63d 1d0f 88bd 42d2 703d 3df2 52bd
00000020: eedd f8bd 6391 f8bd e9bf b7bd 6162 81bd
00000030: 1cb1 eabd 3c43 663d 700b 953d 5426 f93c
00000040: 1902 903d 6ceb fd3b 5c09 e1bc abff bbbd
00000050: 653f aa3d 8097 ffbc 5e99 013b a114 aabd
00000060: 282a 9c3d 3b55 80bd 0a03 6e3d 26af ec3c
00000070: 1ad8 e6bd 1d2b 02bc b8bf 9fbd d73b 61bd
00000080: f4a8 04be b852 0d3e 0132 82bd 3b7e 463d
00000090: a2a4 333d 760b a23d fb38 e63d a612 953d
000000a0: 57c5 26bd 1d62 223e c148 a23d cbf9 083e
000000b0: ba4e 93bd ebfa a93d 123e ba3d 8ef4 13bd
000000c0: b65b 0b3e ac33 f63d 90ae 5dbd c35e 993d
000000d0: 8946 743d 6d8b a63d dac9 60bc 9609 12bb
000000e0: 7597 f23b 3d9d babc c5b4 a1bc d81f b53d
000000f0: da96 563d e9c6 0bbd bd5a 373d 4146 153c
00000100: 7759 ca3c e474 47bd c32c a8bd 9097 9cbd
00000110: e74d 96bc 487b 623d f443 7c3d 9cb3 e13c
00000120: 7d41 d13c ce89 693d 7dcb c63d 14b8 993d
00000130: b8e8 523d c334 a13d 40bf cf3b 3c50 5f3d
00000140: 9045 7ebc 2e15 b5bc b268 f6ba 7513 11bb
00000150: 03c4 e93c 17c5 abbd 3dca e23c 43c9 ca3d
00000160: 55e7 e13a abed 5d3c 9b59 e4bc 0eb5 be3d
00000170: 0613 dc3d 0b8f 833d 4576 4c3c 618e 2bbd
00000180: 7fdf f43b 2b2d a6bb d6d9 7dbd 7721 8abd
00000190: b888 4bbd 8697 1abd 6f0e 88bd 76ea 69bd
000001a0: 5e7f b2bd f6f6 c9bd 21fb b0bd 84b6 c73d
000001b0: 7df0 653b 9df6 3cbd 738f 363d ea0c ebbd
000001c0: 5abe 9fbc b105 a63c c27a eb3c 6f87 77bd
000001d0: 9679 0cbe 75ed d0bd da99 b9bc 7ab7 ccbd
000001e0: 532f 833c 2e07 38bd d1e6 cb3d 6155 27be
000001f0: 5087 3fbc fd6c 3b3c 18e0 d5bd c77f fcbd
00000200: 8301 f1bd ab7e ba3d 4e7f 1e3e 4742 00bd
00000210: bda3 913d 04f3 123d a2fa fa3d 4320 183d
00000220: 6534 1c3d c54b 86bd 78f1 41bc 3cda 53bd
00000230: 38f7 69bd 4553 6dbd 97a5 11bb 0529 84bd
00000240: 15a9 b4bd 8372 013e 7cf9 073e 1426 85bd
00000250: 5aa8 8abb 0f5a 0bbd e770 a83d c144 2e3e
00000260: ebc6 093a 7bcc 1e3e 5188 5e3e c3f7 0c3e
00000270: 96e8 ed3d ae41 b8bd 7ecf 0b3d 6769 76bc
00000280: 5756 013e 1a85 c13d 685c 25be 64dc 09be
00000290: 8a88 bfbd d6fa 8a3d caae 773d 17a0 cc3d
000002a0: b767 513d 6ae2 273e 6961 8b3d 657c 0e3e
000002b0: e9e5 583d c6ac 03bd 994f 6ebd 0e09 a93c
000002c0: 5c3c 19bc 964b e1bd 731d 513d d6eb 393d
000002d0: 66b8 84bd 9bab ee3c 498c 4cbd be43 c7bb
000002e0: 4e83 543d ebce 793d e6f1 03bd 6966 8b3d
000002f0: 2e87 18bd 07a5 423b 9291 023e b7f9 b83d
00000300: 16cb d8bd f51d 753d ba95 643d 78ac ca3d
00000310: 6a37 e83d 79e2 dd3b ade1 6dbd 0b9c 853d
00000320: 8e5d ab3c 5434 12be d040 9ebd aca7 173e
00000330: 0009 95bd d233 ecbc 9e4c 1c3e a44e b7bd
00000340: 9576 663c df65 3bbd c6de b63c 543d d43d
00000350: 6676 7bbd 2652 ac3c 7857 c1bc 6e59 bbbc
00000360: c756 0f3d f639 08bd 2e2f a73d 44f3 2cbe
00000370: 8307 c5bd c1a1 08ba 72f1 82bd 86ba 2cbd
00000380: 88f2 4fbd 3739 2b3e ee25 93bc d64a 46bd
00000390: be5d 50bc 434d 873d 3e09 dc3d 2d34 99bc
000003a0: aba4 6d3d c6d5 09bd 0124 4c3e 012b f23b
000003b0: b9e0 5ebd c5b1 1a3c f5d0 d73d b95f d4bc
000003c0: 16b1 dabd 5a12 273b 705c 033d 5f21 3b3e
000003d0: 230b 1a3c d7ee a6bb 9525 af3d 2cd6 913d
000003e0: 4765 99bc 1950 1b3b 3ffe 7abd 4bad 803d
000003f0: 473d bcbd acbf 023c 2edd 83bd edcb 6fbc

backbone.blocks.0.temporal2.conv.bias f4 [128]
-0.11141164 0.07600406 0.14972235 -0.027127545 0.0575827 0.06918623 0.051781345 0.015185479
-0.04456309 -0.085261725 0.12088858 0.013381731 -0.13748105 0.06137595 0.037435938 0.096634485
-0.016166614 -0.010892205 0.058673915 0.006661934 -0.028913964 0.007731467 0.06440512 -0.08776767
-0.026552774 -0.023396526 -0.0038228212 0.034005 0.12335515 -0.052102353 -0.106736094 0.032440823
0.0383561 0.10569269 -0.10410999 -0.11424471 -0.110618725 0.037106924 0.13668379 0.073504314
-0.09295198 -0.035094116 0.11372709 0.07823708 0.12960733 -0.086912006 0.102352515 0.03793027
0.078090034 0.11005383 -0.10490742 -0.016386928 -0.09952178 -0.060898993 0.13468912 0.048309386
-0.08085186 0.07577097 -0.018320747 -0.09021232 -0.050691586 0.05287121 0.06467122 -0.06260887
0.100838505 0.061797865 0.04103944 0.10256865 0.04815203 -0.039895725 0.014681843 0.0652799
0.011825708 0.042161196 0.031477187 -0.01650398 -0.0029627734 0.004436381 0.046254057 -0.005507565
0.043191478 0.056725793 0.10284405 0.057611972 -0.00012952022 0.017244155 0.098489955 0.102222756
0.012672337 -0.0015432904 0.082300976 0.023966905 -0.008969753 0.05365339 0.08476354 0.07181874
0.009581874 0.11393926 -0.0017805403 -0.014866164 0.02969988 -0.012670978 0.034451276 -0.017199364
0.014712307 -0.021019245 0.014286246 -0.01967552 -0.031002974 0.0694575 -0.022611896 0.10971387
0.011622165 -0.051977344 0.05823393 -0.013393854 0.0075269802 0.042995226 0.050685667 0.022077227
0.08608894 0.046750925 0.08301519 0.018281884 0.011080583 -0.010031886 0.007499797 0.08882859
00000000: c92b e4bd 04a8 9b3d d150 193e 963a debc
00000010: d6db 6b3d 83b1 8d3d ad18 543d 84cc 783c
00000020: c987 36bd b39d aebd 6f94 f73d 0c3f 5b3c
00000030: d5c7 0cbe 5965 7b3d 6d56 193d 4de8 c53d
00000040: d96f 84bc 3875 32bc 0f54 703d 5a4c da3b
00000050: fadc ecbc 3f58 fd3b d5e6 833d 89bf b3bd
00000060: 3485 d9bc 12aa bfbc 4c88 7abb d448 0b3d
00000070: a0a1 fc3d 4769 55bd 7498 dabd abe0 043d
00000080: 491b 1d3d 6975 d83d 9e37 d5bd 21f9 e9bd
00000090: 128c e2bd 6efd 173d d6f6 0b3e 6e89 963d
000000a0: 9c5d bebd d9be 0fbd c0e9 e83d c33a a03d
000000b0: c9b7 043e ecfe b1bd 329e d13d c55c 1b3d
000000c0: abed 9f3d e763 e13d b4d9 d6bd e13d 86bc
000000d0: 13d2 cbbd 3971 79bd f2eb 093e 10e0 453d
000000e0: a995 a5bd cf2d 9b3d 6415 96bc 3dc1 b8bd
000000f0: fba1 4fbd 7b8f 583d 5872 843d 1439 80bd
00000100: 6b84 ce3d c21f 7d3d f918 283d 830f d23d
00000110: 103b 453d b369 23bd 1d8c 703c 78b1 853d
00000120: 9dc0 413c 38b1 2c3d 39ee 003d 5b33 87bc
00000130: 172b 42bb 105f 913b e574 3d3d ce78 b4bb
00000140: 8ce9 303d 4e59 683d e79f d23d 88fa 6b3d
00000150: d2cf 07b9 9d43 8d3c 1ab5 c93d 2a5a d13d
00000160: a29f 4f3c 3c48 caba 6a8d a83d 3e56 c43c
00000170: dff5 12bc a8c3 5b3d 8298 ad3d b415 933d
00000180: 4bfd 1c3c fd58 e93d 0561 e9ba 3691 73bc
00000190: 2a4d f33c ef99 4fbc c81c 0d3d aee5 8cbc
000001a0: e30b 713c 8d30 acbc dc10 6a3c 8e2e a1bc
000001b0: f3f9 fdbc bc3f 8e3d 953c b9bc aab1 e03d
000001c0: e56a 3e3c 32e6 54bd b486 6e3d e571 5bbc
000001d0: e3a4 f63b c31b 303d c69b 4f3d 4ddb b43c
000001e0: 664f b03d e67d 3f3d de03 aa3d e4c3 953c
000001f0: 558b 353c c85c 24bc dbc0 f53b c4eb b53d

backbone.blocks.0.res_conv.weight f4 [64, 6, 1, 1]
0.3060004 -0.121444665 -0.23777802 -0.11118103 0.072416276 -0.070151664 0.098102205 -0.09803731
-0.29174078 -0.078196265 -0.35676447 -0.14444625 0.32813874 0.008041171 0.094537295 0.14832109
0.09677445 0.3004265 -0.3867663 -0.2753623 0.12166792 -0.071172714 0.32067233 0.13558353
0.22878088 0.12187908 -0.10813483 0.26319814 0.17444937 0.12134182 -0.13347635 0.040182754
-0.24946311 -0.29881805 0.119200476 -0.0675803 0.2647485 -0.004261693 -0.016205544 0.3503753
-0.30749208 0.1866028 0.3662058 0.018569307 -0.2693698 0.038513757 -0.15316187 -0.09539874
-0.08191333 -0.2585189 0.28436974 -0.26562113 0.05916867 0.27204964 0.24201961 0.04866956
0.29999673 0.2109225 0.28831688 -0.05273391 -0.13064303 -0.06528495 -0.1402572 -0.029863033
0.13634998 -0.007320006 -0.21879123 0.023399128 0.083975315 -0.05762324 -0.28300124 0.1698736
0.094875686 0.021258496 0.30854356 0.012847301 -0.009244904 -0.23532756 -0.15122491 -0.2324524
0.075424634 0.22898076 -0.30957982 -0.05608467 -0.39997375 -0.13070057 -0.3180738 -0.3508264
-0.17919837 0.10490492 0.015975095 0.0602268 -0.07049327 0.29479542 0.020941043 0.12468869
-0.0774774 -0.22321445 -0.17313828 0.38473713 0.23375766 -0.36730158 -0.09477311 -0.21977156
0.075828604 0.26737115 -0.12577234 -0.2218685 0.23226778 -0.13128752 -0.19172238 0.23320557
-0.36834234 0.113948874 -0.24035487 -0.17903236 -0.08122077 -0.3907436 -0.26125965 -0.11644156
0.2605614 0.031324577 -0.05339826 -0.22309285 -0.043853242 -0.088505946 0.027157092 -0.14165534
0.13102908 0.09332215 -0.21393052 0.0431091 0.0975473 0.15547107 0.14113335 0.16191815
-0.110772 -0.31338197 -0.16690794 -0.065917976 0.27878484 0.06245063 0.23209177 0.046880335
-0.3140796 -0.2245515 0.28135666 0.17054991 -0.013397134 0.14661098 0.11364588 0.078059115
-0.12937592 -0.38839397 -0.19442067 -0.26646456 0.4075214 0.004167066 0.25367388 0.11090725
0.3151147 0.1352522 0.23707736 -0.14984751 0.2191191 -0.043125175 -0.16145322 -0.11694367
-0.052738138 -0.207416 0.32037637 -0.25727436 0.17118196 -0.0958527 0.14516291 -0.19233544
0.20421734 -0.2145894 0.33395708 -0.25061896 -0.013497874 0.22038536 0.10934016 -0.01351924
-0.20570946 -0.029797202 -0.046797343 0.14593096 -0.28936142 -0.08145458 0.3819969 0.13791043
0.046158254 0.18300751 -0.17194794 -0.18867709 -0.26519328 -0.09865085 -0.39987212 0.15269896
-0.15559874 -0.28857616 -0.012384179 0.15948649 -0.12130454 -0.04129345 0.1988634 0.17511745
0.00058159995 0.024707718 -0.21248406 -0.12670876 0.27181044 0.18652135 0.07248093 -0.33786872
0.32850555 -0.13464682 0.22920844 -0.06682408 -0.2032018 -0.31778634 0.351441 -0.16377364
-0.109247856 0.077078395 0.057951096 -0.14662792 0.064761154 0.0170774 -0.073086 0.04057316
0.14576715 0.015103449 -0.0083763655 -0.11441698 -0.019190587 0.15272938 -0.10624638 0.008675717
0.2898755 0.017197268 -0.12920788 -0.21610768 -0.3053097 0.10947479 -0.2393644 -0.04484481
0.27579156 0.33433443 0.06627627 0.2682183 0.17578351 0.01035339 0.26960167 0.0073418943
00000000: 16ac 9c3e fbb7 f8bd 157c 73be e1b2 e3bd
00000010: fc4e 943d adab 8fbd cfe9 c83d c9c7 c8bd
00000020: 0c5f 95be 5d25 a0bd d5a9 b6be b8e9 13be
00000030: cd01 a83e 1ebf 033c c59c c13d 7ce1 173e
00000040: af31 c63d 81d1 993e 3c06 c6be 4afc 8cbe
00000050: 082d f93d 00c3 91bd 2a2f a43e 69d6 0a3e
00000060: 8945 6a3e bd9b f93d cb75 ddbd e8c1 863e
00000070: dba2 323e 0f82 f83d 06ae 08be ac96 243d
00000080: 4273 7fbe aefe 98be 611f f43d 8a67 8abd
00000090: 1e8d 873e aca5 8bbb 7dc1 84bc 6464 b33e
000000a0: 9a6f 9dbe ce14 3f3e 547f bb3e a91e 983c
000000b0: d7ea 89be 9ac0 1d3d 77d6 1cbe 6a60 c3bd
000000c0: 2dc2 a7bd 975c 84be e998 913e 7eff 87be
000000d0: d95a 723d 174a 8b3e fdd3 773e bc59 473d
000000e0: 2c99 993e 11fc 573e 459e 933e 83ff 57bd
000000f0: 49c7 05be 1eb4 85bd 959f 0fbe 52a3 f4bc
00000100: 549f 0b3e a9dc efbb cf0a 60be 87af bf3c
00000110: 40fb ab3d 5906 6cbd 8ae5 90be 58f3 2d3e
00000120: 2f4e c23d 4c26 ae3c 6cf9 9d3e 7c7d 523c
00000130: f077 17bc b5f9 70be b4da 1abe 0008 6ebe
00000140: 3b78 9a3d ef79 6a3e 3f81 9ebe 0ab9 65bd
00000150: 5cc9 ccbe 5fd6 05be 92da a2be 859f b3be
00000160: c77f 37be 64d8 d63d 34de 823c 61b0 763d
00000170: c75e 90bd 6def 963e 8d8c ab3c c95c ff3d
00000180: 79ac 9ebd 5492 64be 294b 31be 44fc c43e
00000190: 2b5e 6f3e f40e bcbe 6718 c2bd cc0b 61be
000001a0: 074c 9b3d dfe4 883e 77ca 00be 7f31 63be
000001b0: 9bd7 6d3e 3c70 06be df52 44be 71cd 6e3e
000001c0: 5e97 bcbe 075e e93d 961f 76be 4254 37be
000001d0: 1357 a6bd 8c0f c8be d3c3 85be ea78 eebd
000001e0: 4e68 853e 334e 003d 22b8 5abd 7472 64be
000001f0: 759f 33bd 9b42 b5bd 8d78 de3c 190e 11be
00000200: 7d2c 063e af1f bf3d 9a10 5bbe 2b93 303d
00000210: e1c6 c73d cf33 1f3e 4385 103e dfcd 253e
00000220: 6edc e2bd 9a73 a0be eae9 2abe 0100 87bd
00000230: e3bc 8e3e 3bcc 7f3d 77a9 6d3e 9805 403d
00000240: 0bcf a0be d4f0 65be fb0d 903e a3a4 2e3e
00000250: a77f 5bbc 3021 163e 2cbf e83d 75dd 9f3d
00000260: 1f7b 04be 93db c6be 3616 47be 0b6e 88be
00000270: a5a6 d03e e28b 883b 8be1 813e 5723 e33d
00000280: b756 a13e 8d7f 0a3e 68c4 723e a071 19be
00000290: c260 603e 06a4 30bd fe53 25be 2a80 efbd
000002a0: f203 58bd dc64 54be 5f08 a43e 77b9 83be
000002b0: 534a 2f3e 6c4e c4bd 96a5 143e 95f3 44be
000002c0: 5a1e 513e 53bd 5bbe 6cfc aa3e 2151 80be
000002d0: 3026 5dbc b3ac 613e bced df3d cd7f 5dbc
000002e0: 80a5 52be 4319 f4bc 92ae 3fbd ed6e 153e
000002f0: 2e27 94be a9d1 a6bd 1995 c33e 6438 0d3e
00000300: 7010 3d3d 5266 3b3e 1f13 30be 9134 41be
00000310: 6ac7 87be 7509 cabd 0abc ccbe 1e5d 1c3e
00000320: 4755 1fbe 41c0 93be 03e7 4abc 6d50 233e
00000330: 846e f8bd 5223 29bd d9a2 4b3e fd51 333e
00000340: 8376 183a d767 ca3c 6c95 59be f1bf 01be
00000350: bd2a 8b3e 74ff 3e3e e270 943d 21fd acbe
00000360: e131 a83e dbe0 09be 9eb5 6a3e 10db 88bd
00000370: 2214 50be e4b4 a2be 13f0 b33e 47b4 27be
00000380: 57bd dfbd 47db 9d3d 215e 6d3d a125 16be
00000390: 7fa1 843d e7e5 8b3c 1dae 95bd 0b30 263d
000003a0: fc43 153e 7574 773c 063d 09bc 7353 eabd
000003b0: 9435 9dbc 1765 1c3e b497 d9bd 9824 0e3c
000003c0: 906a 943e 49e1 8c3c 124f 04be 554b 5dbe
000003d0: 8e51 9cbe 5234 e03d f11b 75be 31af 37bd
000003e0: 8d34 8d3e e22d ab3e dabb 873d e953 893e
000003f0: 9800 343e 44a1 293c 3b09 8a3e 4694 f03b

backbone.blocks.0.res_conv.bias f4 [64]
-0.03265039 -0.32467377 0.13499969 -0.25882253 -0.121309206 -0.31599715 -0.2303663 -0.07442008
0.30029795 -0.3533355 0.08456761 -0.26101875 0.31800663 -0.18795104 0.08954456 -0.13994615
-0.18098156 -0.14340408 -0.23878913 -0.18209806 0.0691176 -0.06667228 0.0915485 -0.23323792
0.28543675 0.26045293 -0.14732417 0.19185886 -0.35951382 0.32948446 0.19974439 0.26199922
-0.15116522 0.1185353 0.33186904 -0.12342725 -0.25023517 0.1624511 -0.06735138 0.30142403
-0.34699982 0.105210446 -0.24907584 -0.19322966 -0.07627539 0.013768547 0.11481209 -0.046898637
-0.08951425 -0.008047152 -0.16935343 -0.28051534 0.3550186 -0.35656095 0.1539911 0.32194468
-0.21706037 -0.3490289 -0.32205415 0.32113832 0.19945128 0.11663742 0.38196984 -0.23969233
00000000: 6abc 05bd a43b a6be 5c3d 0a3e 6384 84be
00000010: f670 f8bd 61ca a1be 25e5 6bbe 8e69 98bd
00000020: a7c0 993e 64e8 b4be c831 ad3d 40a4 85be
00000030: c4d1 a23e 3d76 40be 2363 b73d 0b4e 0fbe
00000040: 3b53 39be 85d8 12be 2385 74be ea77 3abe
00000050: 878d 8d3d 7a8b 88bd c87d bb3d ecd5 6ebe
00000060: c424 923e 165a 853e 26dc 16be a676 443e
00000070: 3212 b8be 30b2 a83e cb89 4c3e c324 863e
00000080: 0ecb 1abe a3c2 f23d bdea a93e 6dc7 fcbd
00000090: d31e 80be 9559 263e 85ef 89bd 4054 9a3e
000000a0: f6a9 b1be 9378 d73d bd0d 7fbe ffdd 45be
000000b0: 4636 9cbd 7995 613c 9a22 eb3d c918 40bd
000000c0: 3f53 b7bd 34d8 03bc fc6a 2dbe b59f 8fbe
000000d0: ffc4 b53e 288f b6be d8af 1d3e efd5 a43e
000000e0: 1345 5ebe eab3 b2be 48e4 a4be 3e6c a43e
000000f0: f53c 4c3e 9adf ee3d 8d91 c33e e871 75be

backbone.blocks.0.ln.weight f4 [64]
0.8058378 0.843308 0.93127185 1.0014212 0.9208046 0.8569782 0.971408 0.89960974
0.8866621 0.90335697 0.72348255 0.8948945 0.8761109 0.876409 1.0321568 0.8130038
1.0049778 0.8123649 0.91926634 0.9479317 0.8839748 0.65309125 0.9120194 0.8711572
0.9365795 0.98008317 0.9672569 0.7934877 0.81073004 0.8932971 0.9480367 0.9876624
0.8523287 1.0583323 0.81712204 0.8809283 0.9043465 0.9090911 0.84716636 0.8550059
0.9703118 0.9052044 0.88089484 0.8937789 0.8826634 0.8784529 0.84922206 0.9294325
0.9415053 0.84170735 0.88007176 0.879858 1.0207298 0.96729743 0.907415 0.78146154
0.88387084 0.85763973 0.9051561 0.98583543 1.1039597 0.962057 0.92563 0.93905294
00000000: 634b 4e3f 08e3 573f d567 6e3f 922e 803f
00000010: dab9 6b3f ec62 5b3f 32ae 783f d34c 663f
00000020: 4afc 623f 6742 673f 2736 393f ce17 653f
00000030: ce48 603f 575c 603f b71d 843f 0421 503f
00000040: 1da3 803f 25f7 4f3f 0a55 6b3f a7ab 723f
00000050: 2c4c 623f fd30 273f 1a7a 693f 2904 5f3f
00000060: adc3 6f3f bbe6 7a3f 269e 773f 0322 4b3f
00000070: 018c 4f3f 1eaf 643f 88b2 723f 71d7 7c3f
00000080: 3732 5a3f 6f77 873f e92e 513f 8484 613f
00000090: 4183 673f 32ba 683f e5df 583f abe1 5a3f
000000a0: 5b66 783f 7abb 673f 5382 613f b2ce 643f
000000b0: 3bf6 613f 4ae2 603f 9e66 593f 4aef 6d3f
000000c0: 7e06 713f 227a 573f 624c 613f 603e 613f
000000d0: 46a7 823f cea0 773f 594c 683f dd0d 483f
000000e0: 5c45 623f 478e 5b3f 4fb8 673f b65f 7c3f
000000f0: 8d4e 8d3f 5e49 763f 16f6 6c3f c665 703f

backbone.blocks.0.ln.bias f4 [64]
0.0012600429 0.005344029 0.00017067288 -0.037730824 0.008159007 -0.03485538 -0.036530957 -0.010910569
0.0047016214 -0.037213046 0.008957033 -0.014549596 0.02164793 -0.018504158 -0.008701993 -0.02777956
-0.020431852 -0.004940325 -0.029972691 0.018889185 0.016019512 -0.0046359305 0.026077565 -0.062364552
0.02001633 0.045453623 0.0012565139 0.041518893 -0.0299347 0.033539288 0.042425487 0.0277892
-0.04222805 -0.008734074 0.022931607 -0.0052975663 0.000758667 0.061382726 0.0015608635 0.020698594
-0.040153265 -0.012345511 -0.024051646 -0.010236423 0.018339232 0.032090705 0.039577037 -0.015572442
-0.029286357 0.010742685 -0.03840718 -0.04362379 0.025869481 -0.03724514 0.006548101 0.017801255
-0.031778786 -0.015132396 -0.029209904 0.0032937122 0.0020941377 0.027456775 0.01727101 -0.0015945331
00000000: 0628 a53a f71c af3b a7f6 3239 a38b 1abd
00000010: 5bad 053c 84c4 0ebd 7ca1 15bd 3ec2 32bc
00000020: 0f10 9a3b b56c 18bd 85c0 123c 6e61 6ebc
00000030: 0057 b13c 0896 97bc ce92 0ebc f691 e3bc
00000040: b360 a7bc 73e2 a1bb 4a89 f5bc 7ebd 9a3c
00000050: 5a3b 833c 01e9 97bb 9ea0 d53c f971 7fbd
00000060: 49f9 a33c 942d 3a3d 9cb1 a43a b70f 2a3d
00000070: 9e39 f5bc 7e60 093d 59c6 2d3d 2da6 e33c
00000080: 52f7 2cbd 5d19 0fbc 11db bb3c 3597 adbb
00000090: 48e1 463a 746c 7b3d e395 cc3a 1990 a93c
000000a0: c077 24bd d344 4abc f507 c5bc acb6 27bc
000000b0: 283c 963c 8b71 033d 881b 223d 8e23 7fbc
000000c0: f1e9 efbc 1602 303c d950 1dbd dcae 32bd
000000d0: 3cec d33c 5c8e 18bd 7491 d63b f0d3 913c
000000e0: 792a 02bd deed 77bc 9c49 efbc 52db 573b
000000f0: cd3d 093b 08ed e03c ef7b 8d3c a7ff d0ba

backbone.blocks.1.temporal1.conv.weight f4 [128, 64, 1, 3]
0.1123929 0.060026284 0.053525094 0.11828023 0.103876926 0.060396954 0.10891576 0.06933986
0.040691394 -0.09437362 -0.03358394 0.017639045 0.18150072 0.14011937 0.15184388 -0.025867345
-0.060866702 -0.03991138 0.23286982 0.21079092 0.17231023 0.16473137 0.103346035 0.051151577
-0.05426389 -0.022602769 -0.023913346 0.030132316 0.02328847 0.029175065 -0.023001648 -0.007126273
0.019160567 -0.05432657 -0.015231154 -0.004112955 -0.05967827 -0.045610808 -0.0368226 0.08489454
0.123853326 0.15691262 -0.027357953 0.029599316 0.06179864 0.073916346 0.053521536 0.06365786
-0.08778229 -0.045916207 -0.015654352 0.020790396 0.046305064 0.091661185 0.13750216 0.13251905
0.082580164 -0.07015111 -0.0721392 -0.0512096 0.033884984 -0.007207051 -0.059635937 -0.0150845125
-0.018723348 -0.026093066 -0.08446012 -0.09641157 -0.12260977 -0.013886802 0.008939419 0.06831531
-0.0860859 -0.022906575 0.020864645 -0.029736815 -0.070434675 -0.119107366 0.06734934 0.013974438
-0.038597494 0.010745358 0.007141814 0.00622184 -0.076529235 -0.06000609 -0.04214933 -0.091436446
-0.11209943 -0.09339704 0.005946402 0.008420016 0.04327376 -0.14399411 -0.15604475 -0.14039515
0.11474761 0.09826643 0.07610514 -0.18689911 -0.15012011 -0.16330507 -0.10303893 -0.044627942
-0.02165376 -0.1398527 -0.096725136 -0.05670445 0.034399454 -0.0023918191 -0.046325997 0.023426311
-0.024980666 -0.08237559 0.08796256 0.100818366 0.124803714 -0.043341715 -0.012105929 0.019586673
0.12728506 0.06806833 0.060525276 -0.015906984 0.008194067 0.08751169 -0.017612305 -0.019450555
-0.07956484 -0.0169441 0.023279091 0.032300655 -0.14756939 -0.13589607 -0.1360624 0.03851754
0.05753747 0.019853458 -0.077217676 -0.063186266 -0.089079775 -0.056596912 -0.031931624 -0.022230214
-0.08359692 -0.04632958 -0.008695298 0.111801974 0.0676854 0.05431391 0.1074303 0.06345191
0.030231282 0.08119763 0.05393638 0.07406998 -0.075905055 -0.09646069 -0.018608935 0.09686888
0.050502326 0.004426672 0.027997557 0.019702297 -0.012173734 -0.052866343 -0.056009714 -0.066348016
0.024887824 -0.01528239 -0.03046866 0.050146226 0.039853834 0.031829245 0.13524607 0.12501067
0.09736966 0.11724038 0.086987816 0.0351552 -0.14687991 -0.117733255 -0.068058185 -0.16876842
-0.11214052 -0.06474749 -0.0023837804 0.024943575 0.016331377 -0.104303256 -0.10121442 -0.12689441
-0.02074955 -0.005990789 -0.017716879 -0.042437736 -0.011271684 -0.0048816935 0.0013247137 0.020969614
0.0011226247 0.0024249426 -0.05054049 -0.028840793 0.021768333 0.023991078 0.00832981 -0.019010035
-0.04755326 -0.0495306 0.0037849494 0.024105093 0.016522927 -0.03363843 -0.0067808926 -0.006441767
-0.0038978003 -0.0137789855 0.0020587838 -0.010862751 0.028867926 0.020268967 0.0043165903 -0.019648043
-0.02191484 0.00091023336 -0.0072336 0.0023046988 0.005925088 0.013936996 0.028489474 0.023079095
0.0008569994 0.019420851 -0.0018711394 -0.047812935 -0.054235995 0.051742103 0.036004074 -0.001402526
0.03183972 0.025779841 0.016310593 0.03409789 0.015798418 0.02332007 -0.00037956782 0.029011417
0.016825143 -0.005937187 -0.02905775 -0.02305331 -0.04503171 -0.027399497 -0.018658793 0.013087134
00000000: 402e e63d 1fde 753d 213d 5b3d e83c f23d
00000010: 6dbd d43d cc62 773d 3a0f df3d 0e02 8e3d
00000020: 05ac 263d f546 c1bd 508f 09bd c27f 903c
00000030: 53db 393e 747b 0f3e f67c 1b3e c1e7 d3bc
00000040: 5d4f 79bd 1d7a 23bd 6d75 6e3e 93d9 573e
00000050: 1872 303e 57af 283e 16a7 d33d 5184 513d
00000060: d043 5ebd 7129 b9bc ece5 c3bc 0cd8 f63c
00000070: 76c7 be3c 8c00 ef3c f46d bcbc 8383 e9bb
00000080: 9ff6 9c3c 8a85 5ebd 178c 79bc f8c5 86bb
00000090: 3471 74bd 66d2 3abd 4bd3 16bd 30dd ad3d
000000a0: d0a6 fd3d b4ad 203e c91d e0bc 447a f23c
000000b0: 9220 7d3d 7461 973d 6639 5b3d 0d5f 823d
000000c0: 34c7 b3bd a212 3cbd 8e3d 80bc 9f50 aa3c
000000d0: 61aa 3d3d dcb8 bb3d 5ecd 0c3e 13b3 073e
000000e0: ca1f a93d 63ab 8fbd b8bd 93bd 28c1 51bd
000000f0: fbca 0a3d 2029 ecbb d044 74bd 0825 77bc
00000100: b561 99bc 20c1 d5bc 6df9 acbd 6e73 c5bd
00000110: d51a fbbd 7885 63bc a476 123c e6e8 8b3d
00000120: ce4d b0bd 92a6 bbbc 55ec aa3c 9f9a f3bc
00000130: 0e40 90bd 90ee f3bd 73ee 893d 0bf5 643c
00000140: 6818 1ebd 4c0d 303c e105 ea3b 94e0 cb3b
00000150: 5cbb 9cbd f2c8 75bd c7a4 2cbd 0843 bbbd
00000160: 6394 e5bd f346 bfbd 09da c23b 1bf4 093c
00000170: d33f 313d 3173 13be 32ca 1fbe bfc3 0fbe
00000180: cc00 eb3d e93f c93d 03dd 9b3d 7b62 3fbe
00000190: 16b9 19be 7239 27be 1306 d3bd cacb 36bd
000001a0: 3a63 b1bc 8c35 0fbe d417 c6bd ed42 68bd
000001b0: 71e6 0c3d 11c0 1cbb 54c0 3dbd 89e8 bf3c
000001c0: 41a4 ccbc 89b4 a8bd b725 b43d dc79 ce3d
000001d0: 1799 ff3d 1587 31bd f257 46bc 3b74 a03c
000001e0: 0457 023e 6967 8b3d 5ae9 773d 5d4f 82bc
000001f0: 6840 063c 5439 b33d ae47 90bc c556 9fbc
00000200: e4f2 a2bd 5ace 8abc cbb3 be3c b14d 043d
00000210: 6e1c 17be 5728 0bbe f153 0bbe 91c4 1d3d
00000220: 69ac 6b3d b8a3 a23c 4d24 9ebd cd67 81bd
00000230: 756f b6bd 2ad2 67bd bcca 02bd 231c b6bc
00000240: dd34 abbd 16c4 3dbd b976 0ebc 6ff8 e43d
00000250: a59e 8a3d 4378 5e3d 6b04 dc3d 13f3 813d
00000260: 98a7 f73c f14a a63d 65ec 5c3d 00b2 973d
00000270: 1c74 9bbd 2f8d c5bd c471 98bc 3163 c63d
00000280: 87db 4e3d 9e0d 913b 225b e53c b666 a13c
00000290: 5774 47bc 618a 58bd 716a 65bd 78e1 87bd
000002a0: 8de1 cb3c fd62 7abc 6999 f9bc 2166 4d3d
000002b0: c63d 233d 625f 023d f27d 0a3e cc02 003e
000002c0: bf69 c73d b91b f03d ab26 b23d e6fe 0f3d
000002d0: b067 16be 221e f1bd 1762 8bbd a1d1 2cbe
000002e0: eea9 e5bd 559a 84bd 3339 1cbb 7856 cc3c
000002f0: 61c9 853c f29c d5bd 8149 cfbd 9cf0 01be
00000300: f6fa a9bc 614e c4bb fd22 91bc 31d3 2dbd
00000310: dfac 38bc 9df6 9fbb 04a2 ad3a 78c8 ab3c
00000320: 0925 933a c9eb 1e3b 8b03 4fbd 8743 ecbc
00000330: 8153 b23c f088 c43c c179 083c efba 9bbc
00000340: 35c7 42bd 99e0 4abd ea0c 783b 0b78 c53c
00000350: 175b 873c 73c8 09bd 4032 debb 7515 d3bb
00000360: 3d72 7fbb 41c1 61bc a9ec 063b aef9 31bc
00000370: 6e7c ec3c 1b0b a63c 2f72 8d3b eff4 a0bc
00000380: c086 b3bc ba9c 6e3a d607 edbb 6e0a 173b
00000390: 3e27 c23b 0058 643c c262 e93c 5f10 bd3c
000003a0: 42a8 603a 7a18 9f3c 0541 f5ba 7fd7 43bd
000003b0: 9026 5ebd 87ef 533d 0279 133d f7d4 b7ba
000003c0: 5e6a 023d 3f30 d33c cb9d 853c 3baa 0b3d
000003d0: af6b 813c bb09 bf3c bb00 c7b9 5aa9 ed3c
000003e0: e2d4 893c bc8c c2bb 850a eebc 4cda bcbc
000003f0: 2c73 38bd e974 e0bc 53da 98bc 6b6b 563c

backbone.blocks.1.temporal1.conv.bias f4 [128]
-0.025271578 -0.012424258 0.00083179626 0.03758444 0.013627103 0.07128094 0.0056167217 0.02888194
-0.0011208926 -0.048918568 -0.01866141 -0.05310624 0.06275455 -0.030016147 -0.013817684 -0.010773039
0.006687368 0.008158943 -0.036220517 0.013703933 -0.03153081 -0.033713095 -0.016698567 0.015890276
0.071318746 -0.031796284 0.023554038 -0.017613728 -0.047614865 0.040582314 -0.038728256 -0.01383404
0.017151836 -0.046035174 -0.0109727355 -0.029479636 -0.007297037 0.010544799 0.009168855 -0.023306215
0.0087690875 -0.009625261 -0.0069775037 0.030613774 0.08571148 0.0082848035 0.011172904 -0.02644081
0.03233899 -0.059401 0.0445992 0.047154024 0.029658725 -0.022500811 -0.05798042 0.017034777
-0.009804734 0.011945761 0.022533813 -0.07793852 -0.032946914 -0.020326022 0.047429208 0.04956545
0.038807396 0.004230699 0.02980961 0.011135799 0.069024764 0.04129331 0.05743556 0.0705781
0.04713858 0.023549484 -0.013194331 -0.0069904784 0.0053255702 0.044326738 -0.006690663 -0.004966261
0.015695823 0.037729952 0.07541499 0.040846888 0.024007952 0.01455533 0.022094091 0.028782167
0.03147586 -0.020158052 0.0043853256 0.0052569173 0.024279514 0.023386333 0.02524315 0.068286985
0.058027595 0.011732945 0.0077746706 0.0036502143 0.011803245 0.07017718 0.014518322 -0.030619262
0.012719016 0.022986203 0.08946424 0.010352917 -0.01286934 0.0024116687 0.033522762 0.022298852
0.012241672 0.03762189 0.07635751 0.031100187 -0.002342536 0.006183393 0.037022002 0.026342172
0.033571288 0.031384744 0.024801914 -0.0072709215 0.002849842 -0.00039160458 0.037735287 0.012367322
00000000: 5706 cfbc 1d8f 4bbc e70c 5a3a 24f2 193d
00000010: 3644 5f3c befb 913d 7a0c b83b d199 ec3c
00000020: eaea 92ba d65e 48bd d0df 98bc ee85 59bd
00000030: 7585 803d 6ce4 f5bc 9163 62bc 6781 30bc
00000040: b521 db3b 16ad 053c f75b 14bd 7686 603c
00000050: 7326 01bd be16 0abd 6fcb 88bc 532c 823c
00000060: 900f 923d d23c 02bd 66f4 c03c aa4a 90bc
00000070: ce07 43bd a439 263d 85a1 1ebd 2ba8 62bc
00000080: 0282 8c3c 618f 3cbd fdc6 33bc 477f f1bc
00000090: fc1b efbb 18c4 2c3c f738 163c adec bebc
000000a0: 38ac 0f3c 45b3 1dbc 8ba3 e4bb bdc9 fa3c
000000b0: 8089 af3d fcbc 073c 8e0e 373c 669a d8bc
000000c0: e475 043d 774e 73bd a7ad 363d 9424 413d
000000d0: dbf6 f23c 9f53 b8bc e07c 6dbd 848c 8b3c
000000e0: 09a4 20bc 27b8 433c d598 b83c 3b9e 9fbd
000000f0: 58f3 06bd c282 a6bc 2145 423d 2405 4b3d
00000100: 81f4 1e3d ada1 8a3b 4933 f43c ed72 363c
00000110: db5c 8d3d 2c23 293d 8d41 6b3d 408b 903d
00000120: 6214 413d d9ea c03c 092d 58bc 6210 e5bb
00000130: 1f82 ae3b f48f 353d 593d dbbb 04bc a2bb
00000140: 8794 803c b98a 1a3d 2d73 9a3d 114f 273d
00000150: 53ac c43c 7b79 6e3c abfe b43c 94c8 eb3c
00000160: d5ec 003d 8022 a5bc c7b2 8f3b 3842 ac3b
00000170: d5e5 c63c b294 bf3c b9ca ce3c 0cda 8b3d
00000180: 58ae 6d3d 8a3b 403c aac2 fe3b 6f38 6f3b
00000190: 6662 413c 0eb9 8f3d 42de 6d3c 3fd5 fabc
000001a0: 6b63 503c 904d bc3c 0739 b73d 489f 293c
000001b0: edd9 52bc 160d 1e3b 2a4f 093d 15ac b63c
000001c0: 4b91 483c 6919 1a3d 5461 9c3d d2c5 fe3c
000001d0: 3c85 19bb 0f9e ca3b 62a4 173d 8acb d73c
000001e0: 0c82 093d 4a8d 003d 622d cb3c e940 eebb
000001f0: 6ac4 3a3b 4750 cdb9 5190 1a3d 4fa0 4a3c
