artifacts/runs/20260208_200244_GraphWaveNet_LSTM/best.pt (torch, 897698 bytes, 107 tensors)

encoder.start_conv.weight f4 [32, 6, 1, 1]
0	0x3e739103	0.23785786
1	0xbe0091ea	-0.12555662
2	0x3e45df69	0.19323505
3	0x3e2a111c	0.16608089
4	0xbe2e98e4	-0.1705051
5	0xbd5c21bc	-0.05374311
6	0xbcfa3e0e	-0.030547168
7	0xbe4d49de	-0.2004771
8	0xbda42cc4	-0.08016351
9	0x3e4c59a5	0.19956072
10	0x3dd322d7	0.103093795
11	0xbe1b073f	-0.15139483
12	0x3d9f50e3	0.077791
13	0xbe1ff8e0	-0.15622282
14	0x3e79d18b	0.2439634
15	0x3df43706	0.119245574
16	0x3e19f28f	0.15033935
17	0x3b123843	0.0022311367
18	0x3e968039	0.293947
19	0xbc786061	-0.015159697
20	0x3daa7cce	0.08324586
21	0x3e6714cc	0.22566527
22	0xbe08c231	-0.13355328
23	0x3d8170a5	0.06320313
24	0xbe3aaab4	-0.1822918
25	0x3d93a08d	0.07208357
26	0xbe1e12fb	-0.15436928
27	0x3de1becb	0.11022719
28	0xbe78a976	-0.24283394
29	0xbdd79112	-0.10525717
30	0x3e2ef07f	0.1708393
31	0xbd271e4b	-0.040800374
32	0xbd3490c4	-0.04408337
33	0xbe136fc6	-0.14398107
34	0xbdfaa646	-0.122387454
35	0xbd23cafe	-0.03998851
36	0xbe57a570	-0.21059203
37	0x3d712392	0.058871813
38	0xbd9a3fc8	-0.075316966
39	0xbe26d1cf	-0.16290973
40	0xbd752ce3	-0.05985726
41	0x3d471928	0.048607975
42	0x3e091719	0.13387717
43	0x3d1ae783	0.037818443
44	0x3dcc8f91	0.099883206
45	0x3dc086c4	0.094007045
46	0xbc50601e	-0.012718229
47	0x3c146cd5	0.009059151
48	0xbe08f54c	-0.13374823
49	0xbe0d9e6c	-0.13829964
50	0xbe56f6e9	-0.20992626
51	0xbe195f2f	-0.14977716
52	0xbe1473a7	-0.14497243
53	0xbcf1fe55	-0.02954022
54	0xbe09d209	-0.13459028
55	0x3cbee6b1	0.023303362
56	0x3db2589e	0.08708309
57	0xbe8a8c77	-0.2706029
58	0x3c486225	0.012230431
59	0x3b736635	0.0037139778
60	0xbe456fbc	-0.19280905
61	0xbdbdaaab	-0.09261068
62	0x3e5cad8b	0.21550576
63	0xbe291f81	-0.16515924
64	0x3dc2faf6	0.09520523
65	0xbe52580f	-0.20541404
66	0xbc5109d6	-0.012758693
67	0x3e280a66	0.16410217
68	0xbc07e2c6	-0.008293813
69	0x3b231519	0.0024884401
70	0xbea1fe5e	-0.3163938
71	0xbdf71ab9	-0.12065644
72	0xbe3bcec1	-0.18340589
73	0xbd0a0c3d	-0.033703078
74	0xbe80b51d	-0.25138178
75	0xbeafedc3	-0.34361085
76	0xbc861964	-0.016369529
77	0xbdcca702	-0.09992792
78	0x3e5b5713	0.21419935
79	0xbd4d3313	-0.050097536
80	0x3e414eac	0.18877667
81	0x3dd7c4f4	0.10535613
82	0xbe2ba4e1	-0.16762115
83	0x3dc12c56	0.094322845
84	0x3dfe1dc4	0.12408021
85	0xbcdeea6c	-0.02721139
86	0xbe301a70	-0.17197585
87	0x3caf9ff3	0.021438574
88	0xbd93a9ac	-0.07210097
89	0xbd4952ca	-0.04915122
90	0x3d90a0cb	0.07061919
91	0x3de4a14d	0.11163578
92	0xbe193e16	-0.1496509
93	0xb9688a09	-0.00022176666
94	0x3ec021d8	0.3752582
95	0xbe5909b4	-0.21195108
96	0x3e0c0e53	0.1367734
97	0x3dfdb59f	0.12388157
98	0xbe034edf	-0.12823056
99	0x3e10df2b	0.14147632
100	0x3dc180b6	0.09448378
101	0xbe070a6d	-0.13187571
102	0xbe6de4dc	-0.23231834
103	0xbe024c37	-0.12724386
104	0xbb5931d9	-0.0033141284
105	0xbe514c65	-0.20439298
106	0xbe9dc8bd	-0.30817214
107	0xbd6ce90b	-0.057839435
108	0xbe486e22	-0.19573262
109	0x3d86e544	0.06586698
110	0x3e18f74c	0.14938086
111	0xbdaa5ce7	-0.08318501
112	0xbd08e298	-0.03341922
113	0xbcb43955	-0.021999994
114	0xbea3b024	-0.31970322
115	0x3ce6c48a	0.028169889
116	0x3d6ea788	0.05826524
117	0xbe7af5fb	-0.24507897
118	0xbd648b6e	-0.055797033
119	0xbda11984	-0.07866195
120	0xbe122e59	-0.14275493
121	0xbdca07e2	-0.09864785
122	0x3e515335	0.20441897
123	0x3e48fe6a	0.19628301
124	0x3d5f89e1	0.05457485
125	0x3d8fb789	0.070174284
126	0x3ea13ecb	0.3149322
127	0x3e02f7d3	0.1278985
128	0x3e31783a	0.17331019
129	0x3e1f2eb5	0.15545161
130	0xbddc41be	-0.10754727
131	0xbaf28162	-0.0018501694
132	0x3da76122	0.081728235
133	0x3e015bd8	0.12632692
134	0xbc9baa69	-0.019002156
135	0x3e9b526a	0.30336314
136	0x3e6bdd84	0.2303372
137	0xbe021113	-0.12701826
138	0x3e37a824	0.17935234
139	0x3d92934c	0.07157001
140	0xbe23ee50	-0.16008878
141	0x3e068f9c	0.1314072
142	0xbe67ea6a	-0.22648016
143	0xbe4ac19e	-0.19800422
144	0x3e246931	0.16055752
145	0xbd828b32	-0.06374206
146	0xbe42cc61	-0.19023277
147	0x3d5231c1	0.05131698
148	0x3e76cba0	0.24101114
149	0x3c038fc0	0.008029878
150	0x3e640b48	0.22269928
151	0x39ef15a9	0.0004560177
152	0x3e6dd89e	0.23227164
153	0xbc89f29d	-0.01683932
154	0x3e0d3dbd	0.13793083
155	0xbc862490	-0.016374856
156	0xbdf5e1db	-0.12005969
157	0xba325161	-0.00068022875
158	0x3e2646c4	0.16237932
159	0x3e750e33	0.23931198
160	0x3da8d74e	0.08244191
161	0x3ac9bb1b	0.0015390845
162	0x3e7f72be	0.24946114
163	0x3e3bf651	0.18355681
164	0x3e104a85	0.14090927
165	0x3d4e17f1	0.0503158
166	0xbdeb3e3e	-0.11486481
167	0x3de88df3	0.113552
168	0xbea4444e	-0.32083362
169	0x3e0059ab	0.12534206
170	0x3d5a3215	0.05327042
171	0xbd8313ba	-0.06400247
172	0xbe89cc60	-0.26913738
173	0x3db4966d	0.08817754
174	0x3e2e15d8	0.1700052
175	0xbd5d3029	-0.054001007
176	0xbd719952	-0.05898411
177	0xbdfa83a9	-0.122321434
178	0xbd93198f	-0.07182609
179	0xbcb2f707	-0.021846307
180	0x3ea48179	0.3213003
181	0x3d62c16e	0.05536025
182	0x3e74e12c	0.23914021
183	0x3e6ef7b1	0.23336674
184	0x3e29120d	0.16510792
185	0xbe0c775d	-0.13717408
186	0xbe0d6f68	-0.1381203
187	0x3df964c8	0.121774256
188	0xbde74d91	-0.112940915
189	0xbe8f5b74	-0.2799946
190	0x3e0c6c37	0.13713156
191	0xbbfd6a36	-0.0077336086

encoder.start_conv.bias f4 [32]
0	0xbd67385b	-0.05645023
1	0x3c83e809	0.016101854
2	0x3d80c96d	0.06288419
3	0xbd292e68	-0.041304022
4	0xbd3e739f	-0.046496984
5	0xbd03a07d	-0.032135475
6	0xbd8af81d	-0.06785605
7	0xbc1c6906	-0.009546524
8	0x3d9c97eb	0.076461636
9	0xbc996abb	-0.01872765
10	0x3c9ab9ef	0.018887488
11	0x3c9cd5e4	0.01914496
12	0xbd0bf0e0	-0.034165263
13	0xbd171c35	-0.036892135
14	0xbc34a203	-0.011024955
15	0xbca27c6a	-0.019834716
16	0x3cacbaff	0.02108526
17	0x3d0cd173	0.034379434
18	0xbd43e722	-0.047827847
19	0xbd612804	-0.054969802
20	0x3d49dc97	0.049282636
21	0xbd6b1afa	-0.057398774
22	0xbb796330	-0.0038053505
23	0xbde0e0c3	-0.1098037
24	0xbc99bcee	-0.018766847
25	0x3dc7b099	0.0975048
26	0x3d05aa0d	0.032632876
27	0xbc96a832	-0.018390749
28	0xbe0c1913	-0.1368144
29	0xbcc179da	-0.023617674
30	0x3d415e2e	0.047208957
31	0x3d67fad7	0.056635704

encoder.filter_convs.0.conv.weight f4 [32, 32, 1, 2]
0	0x3b61bfa6	0.0034446507
1	0x3bab3b8b	0.005225604
2	0x3bd7fab8	0.0065911673
3	0x3be47fe9	0.006973256
4	0x3b8eff97	0.004363965
5	0x3bb0e6de	0.0053986153
6	0x3a8059c1	0.0009792374
7	0x3b0025ab	0.0019553702
8	0xbac1ae80	-0.0014776736
9	0xbb07402f	-0.0020637622
10	0x39b91a92	0.00035305746
11	0x3a13a890	0.0005632723
12	0xbae636d1	-0.0017563944
13	0xbb20ce09	-0.002453687
14	0xbac322df	-0.0014887712
15	0xba8fb25d	-0.001096319
16	0x3ba44b9a	0.005013895
17	0x3b98fc6a	0.004668762
18	0xbb0d9435	-0.002160323
19	0xbb1a04f5	-0.002350149
20	0x3874a1a9	5.832469e-05
21	0x3a14fd92	0.0005683537
22	0xbbb61ac0	-0.005557388
23	0xbbac1f5e	-0.0052527627
24	0x39da0ce0	0.00041589793
25	0xba1a9fa6	-0.0005898423
26	0x3accfdee	0.0015639642
27	0x3b343484	0.0027497122
28	0x3aa5c210	0.0012646336
29	0x3a761404	0.0009387138
30	0xbb8adc94	-0.0042377207
31	0xbbabf1fd	-0.005247353
32	0xbb5e8747	-0.0033955143
33	0xbb74d266	-0.0037356853
34	0x3b42b92b	0.002971242
35	0x3b6ccc0a	0.003613236
36	0xbb50e535	-0.00318749
37	0xbb3be37e	-0.0028669531
38	0xbb242f36	-0.0025052554
39	0xbb27112a	-0.0025492408
40	0x3b695383	0.0035602755
41	0x3b90d847	0.0044203135
42	0xbb9c4de0	-0.0047700256
43	0xbb87035f	-0.004120275
44	0xbb510442	-0.0031893407
45	0xbb58f2d0	-0.0033103712
46	0xbb1f6e73	-0.0024327307
47	0xbb193198	-0.0023375507
48	0x3b3ccb08	0.002880754
49	0x3b095eff	0.0020961163
50	0xbaad665d	-0.0013229359
51	0xba2c58c0	-0.0006574504
52	0x39de57c3	0.00042408527
53	0x3a8b8fa3	0.0010647665
54	0xbbbf0c4f	-0.0058303247
55	0xbbb9a9e8	-0.0056660064
56	0xbb8226ee	-0.003971926
57	0xbb86494c	-0.004098093
58	0x3a850cad	0.0010150872
59	0x3a8a974f	0.0010573658
60	0xbb475031	-0.0030412788
61	0xbb052c41	-0.0020320567
62	0xbb8e0405	-0.0043339753
63	0xbbb5abc6	-0.0055441586
64	0x3cb69b13	0.022290742
65	0x3d39c4ae	0.045353584
66	0x3c64a374	0.013954986
67	0x3ca90669	0.02063294
68	0x3c2948ca	0.010332296
69	0x3c7d0342	0.015442671
70	0x3cb4629e	0.02201968
71	0x3d177bea	0.036983408
72	0x3cb318ca	0.021862406
73	0x3c31f2a9	0.010861077
74	0x3addb2ef	0.0016914288
75	0x3bcb6674	0.0062072817
76	0xbcbc045b	-0.022951296
77	0xbd36ddb2	-0.04464502
78	0x3c6fae87	0.014629013
79	0x3cbb0a21	0.022831978
80	0xbd04ca86	-0.032419704
81	0xbd27b4fe	-0.040944092
82	0xbc9c9d81	-0.019118072
83	0xbcd365c5	-0.025805363
84	0xbcba4a6e	-0.022740569
85	0xbc868ef9	-0.016425597
86	0x3ab042e6	0.0013447672
87	0x3c624e8e	0.013812674
88	0xbc55e466	-0.013054943
89	0xbd59d4ed	-0.053181577
90	0x3c2a1e28	0.010383166
91	0x3c8e1552	0.01734415
92	0x3b286f3f	0.0025701073
93	0x3c46130d	0.012089503
94	0x3d18d66d	0.037313867
95	0x3d134b42	0.035960443
96	0x3d182126	0.037140988
97	0x3d31b8c7	0.043389108
98	0xbcf5d6b9	-0.030009614
99	0xbd62cbaf	-0.05537003
100	0x39070c51	0.00012879191
101	0xbccfa9fb	-0.025349608
102	0xbd0291d7	-0.031877365
103	0xbd06df67	-0.032927897
104	0xbc6b636b	-0.014366965
105	0x3b6d324c	0.003619331
106	0x3d23df1e	0.040007703
107	0x3d752cf6	0.05985733
108	0x3d4079fe	0.04699134
109	0x3d782e7a	0.0605912
110	0x3d0de51a	0.034642316
111	0x3d392e72	0.04521031
112	0x3c811f4c	0.015761994
113	0x3c941f76	0.018081408
114	0x3c34947b	0.011021729
115	0x3d0165c5	0.031591196
116	0x3cd5e426	0.026109766
117	0x3c233e32	0.009963559
118	0x3cb81f22	0.022475783
119	0x3d1a09b9	0.03760693
120	0xbd35fbc7	-0.044429567
121	0xbd30da52	-0.043176956
122	0x394e264d	0.00019659959
123	0xbae0936d	-0.001713378
124	0x3d83e030	0.06439245
125	0x3d92b5b2	0.07163562
126	0xbc56d051	-0.01311119
127	0xbcc69998	-0.024243161
128	0xbbb7c907	-0.005608681
129	0xbb97d795	-0.0046338537
130	0xbc41af6e	-0.011821611
131	0xbc3782ca	-0.011200616
132	0xbbf4b237	-0.007467534
133	0xbbe14fac	-0.0068759527
134	0xba6b30d8	-0.0008971817
135	0x39e421a5	0.00043512616
136	0x3b7242ff	0.0036966202
137	0x3a9a9170	0.0011792611
138	0xbb2d91ad	-0.0026484535
139	0xb97c3304	-0.00024051598
140	0x3b553b5a	0.0032536597
141	0x3b000768	0.0019535664
142	0x3b63818a	0.0034714662
143	0x3b5a125d	0.0033275106
144	0xbc1c0f0e	-0.009525074
145	0xbc0f17f0	-0.0087337345
146	0x3b314ace	0.0027052644
147	0x3b04a83a	0.0020241872
148	0xbb1c8d2b	-0.0023887854
149	0xbb82aa5f	-0.003987595
150	0x3c1f8ecd	0.009738636
151	0x3bffd54c	0.0078074094
152	0xbb35d4f9	-0.002774535
153	0xbb426e46	-0.002966778
154	0xbafe5914	-0.001940521
155	0xba944899	-0.001131314
156	0xbb37da30	-0.0028053634
157	0xba905b8f	-0.0011013615
158	0x3bd2f036	0.006437327
159	0x3be2db69	0.0069231284
160	0x3bce63e8	0.006298531
161	0x3bd4687a	0.006482181
162	0xbbdca38a	-0.0067333626
163	0xbbfe6b30	-0.0077642426
164	0x3bb46f5b	0.0055064387
165	0x3b3593b8	0.0027706455
166	0x3b5a8b9e	0.0033347378
167	0x3a2e2270	0.0006642705
168	0xbb9e3562	-0.004828141
169	0xbbdfc4fa	-0.0068289014
170	0x3c0f7292	0.008755343
171	0x3c14c25a	0.00907954
172	0x3be8d6a4	0.0071056653
173	0x3bc7da45	0.006099018
174	0x3b74ca9d	0.0037352212
175	0x3b8ad246	0.0042364923
176	0xbba4d8cd	-0.0050307275
177	0xbb0c75e4	-0.0021432573
178	0x3a9c26e7	0.0011913449
179	0x3b24ed48	0.0025165845
180	0x3a512f43	0.000797976
181	0xbaf3e0ce	-0.0018606426
182	0x3c342d7f	0.010997175
183	0x3c393b1d	0.011305598
184	0x3c1081db	0.008820022
185	0x3b8f0615	0.0043647387
186	0xbb6585ee	-0.0035022455
187	0xba7bf4f8	-0.00096113933
188	0x3b9eebf5	0.0048499056
189	0x3bb1f451	0.005430736
190	0x3bda317d	0.0066587315
191	0x3bcb3ff0	0.0062026903
192	0x3ab9e0e8	0.0014181407
193	0x3af4617c	0.0018644775
194	0x3be13cb3	0.006873691
195	0x3b4a90bc	0.0030909022
196	0x3abd6694	0.0014450126
197	0x3b4d753c	0.0031350395
198	0xbbdfe0c2	-0.006832213
199	0xbb7e369c	-0.0038789874
200	0xba8d3ed4	-0.001077617
201	0xbc0f7d15	-0.008757849
202	0x3b3c08e9	0.0028691834
203	0x3bbb8f83	0.005723895
204	0xbc7b599f	-0.015341192
205	0xbca87ca6	-0.02056725
206	0x3c0d246a	0.008614639
207	0x3c39b7fa	0.011335367
208	0xbcc58ab0	-0.024113983
209	0xbcfcbfcf	-0.03085318
210	0xba87f75a	-0.0010373399
211	0xbb4480f1	-0.0029984082
212	0x3ce6aae2	0.028157655
213	0x3ccdd3c6	0.025125396
214	0x3c09807f	0.008392452
215	0x3bfb4c28	0.0076689906
216	0x3b314f9c	0.0027055508
217	0x39851360	0.00025382172
218	0xbc94a184	-0.018143423
219	0xbc92bf1d	-0.017913396
220	0x3b929bac	0.004474124
221	0x3bd68fc6	0.006547901
222	0x3d7789c7	0.06043413
223	0x3d936c3a	0.07198377
224	0x3d202c60	0.03910482
225	0x3d3fe09b	0.04684506
226	0xbcea2e7c	-0.028586619
227	0xbd273a74	-0.04082723
228	0x3b52672d	0.0032104955
229	0xbaccbb57	-0.0015619796
230	0x3b15056b	0.0022738825
231	0xbbab0d0d	-0.0052200616
232	0xbcafa392	-0.021440301
233	0xbce07359	-0.027398752
234	0x3cb5a975	0.02217553
235	0x3cf0b973	0.029385304
236	0x3d363248	0.044481546
237	0x3d52f475	0.051502664
238	0x3cea8e2a	0.028632242
239	0x3d034830	0.032051265
240	0x3c24e4fb	0.010064359
241	0x3c907e30	0.017638296
242	0x3cc1bb41	0.02364886
243	0x3d019939	0.031640265
244	0x3aac6174	0.0013151602
245	0xbb129fd4	-0.0022373097
246	0x3b6f28f2	0.0036492911
247	0x3c34ad7c	0.01102769
248	0xbcf52526	-0.02992494
249	0xbd2b0826	-0.041755818
250	0x3aa9d8f6	0.0012958336
251	0x3b963f21	0.0045851623
252	0x3d5d9e6a	0.054106154
253	0x3d865a4c	0.065601915
254	0x3c505f9d	0.0127181085
255	0x3c75b043	0.014995637

encoder.filter_convs.0.conv.bias f4 [32]
0	0x3b78dc25	0.0037973013
1	0x3c3b1e57	0.011420808
2	0xbb9cd6d6	-0.0047863526
3	0xbc248fac	-0.01004402
4	0x3b39df55	0.0028361876
5	0x3b2bb4aa	0.0026200213
6	0xbaa6c6e3	-0.0012724068
7	0xbdd9bbf7	-0.106315546
8	0x3b0ba59a	0.0021308423
9	0x3c8ae4b1	0.016954752
10	0xb8f65c76	-0.00011747416
11	0xbc97c1d1	-0.018525036
12	0x3924ad3e	0.00015704797
13	0x3953dfed	0.00020205947
14	0xbbcf1340	-0.0063194335
15	0xbc36790e	-0.01113726
16	0x3ae1a508	0.0017215321
17	0xbd1020c3	-0.035187494
18	0xbbf7849a	-0.007553649
19	0x3d02fe85	0.03198101
20	0xb87cab65	-6.0241106e-05
21	0x3b43081b	0.002975947
22	0xbb922b2f	-0.0044607143
23	0x3b6efcef	0.0036466678
24	0x3ab3506a	0.0013680581
25	0x3c90cbce	0.017675307
26	0x3b26821a	0.0025407136
27	0xb68fa526	-4.280958e-06
28	0x3b19480d	0.0023388893
29	0x3a64628f	0.0008712196
30	0x3bbcf23a	0.0057661803
31	0xb926af60	-0.00015896326

encoder.filter_convs.1.conv.weight f4 [32, 32, 1, 2]
0	0xbca7189d	-0.020397479
1	0xbd04ba51	-0.032404248
2	0xbcc7c2bd	-0.02438485
3	0xbd54cb63	-0.051951777
4	0x3cb8f77b	0.022578945
5	0x3c57b147	0.013164825
6	0xbd809079	-0.06277556
7	0xbd879128	-0.06619483
8	0x3af405a5	0.0018617405
9	0x3b7dfcfc	0.0038755527
10	0xbd4bf96c	-0.049798414
11	0xbbd73a0c	-0.006568199
12	0x3d4635db	0.048391204
13	0x3d3d488c	0.046211764
14	0xbc1e7467	-0.009671307
15	0xbcf662b2	-0.030076358
16	0xbac72b2e	-0.0015195364
17	0xbbf84fa5	-0.0075778537
18	0x3dc123e0	0.09430671
19	0x3df594f8	0.11991304
20	0x3d739147	0.05946472
21	0x3d521e41	0.051298384
22	0x3b581602	0.0032972102
23	0xbb8e60f5	-0.0043450543
24	0x3be0f3a9	0.006864984
25	0x3d48aec7	0.048994806
26	0xbc724eba	-0.014789278
27	0xbcbd171b	-0.023082307
28	0xbd74e8b6	-0.059792243
29	0xbd230e37	-0.03980848
30	0xbc92fba4	-0.017942257
31	0xbc6cc733	-0.01445179
32	0xbd226be3	-0.03965367
33	0xbd5f6edf	-0.054549094
34	0x3d1d2b0b	0.038371127
35	0x3d095907	0.03353217
36	0x3d6e7771	0.058219377
37	0x3d4c093c	0.049813494
38	0x3dc3deb6	0.09563963
39	0x3db7b00d	0.08969126
40	0x3cec3d75	0.028837899
41	0x3b78b846	0.0037951632
42	0xbcafbfc4	-0.021453746
43	0xbcf95d8a	-0.03044011
44	0xbcefe530	-0.02928409
45	0xbd85014a	-0.064943865
46	0xbd9352b6	-0.0719351
47	0xbd7034db	-0.058644157
48	0xbd29c429	-0.04144684
49	0xbcec2ef5	-0.028830985
50	0xbc11fcdd	-0.008910385
51	0xbc897ea7	-0.016784025
52	0x3d48f42b	0.04906098
53	0xbb119e51	-0.0022219608
54	0xbc8a7481	-0.016901257
55	0xbb4cff92	-0.0031280261
56	0x3d861247	0.06546455
57	0x3d42af9f	0.047530767
58	0xbd3fdfbc	-0.04684423
59	0xbcafb79c	-0.021449856
60	0xbce5239f	-0.027971087
61	0xbd624c7f	-0.055248734
62	0x3ca18859	0.019718336
63	0x3d8635b9	0.065532155
64	0xbd20ba19	-0.039239977
65	0xbd205954	-0.03914769
66	0xbb3679ee	-0.0027843672
67	0x3a93bbab	0.0011271139
68	0x3b6e06d5	0.003631999
69	0xbc2d81cb	-0.010590027
70	0xbdbe0003	-0.09277346
71	0xbd9ec9af	-0.07753312
72	0x3c1a5d97	0.009421728
73	0xbcad1cd6	-0.021131914
74	0xbcc77545	-0.02434791
75	0xba3f39c3	-0.0007294679
76	0x3d425225	0.04744162
77	0x3cb5d176	0.022194605
78	0xbd048ec5	-0.032362718
79	0xbd22ddd1	-0.03976232
80	0xbc00b85c	-0.007856455
81	0x3d0d88d8	0.034554332
82	0x3da0a181	0.078433044
83	0x3d6453a3	0.055743825
84	0x3d338c5b	0.043835025
85	0x3d2308f2	0.039803453
86	0xbb822891	-0.003972121
87	0xbcbf3da4	-0.023344822
88	0x3d597411	0.053089205
89	0x3d8083b0	0.062751174
90	0xbd89bf96	-0.06725995
91	0xbd83fa89	-0.0644427
92	0xbc8e7308	-0.017388836
93	0xbbece90a	-0.007229929
94	0x3bc4154f	0.0059839855
95	0x3c7fcf6a	0.015613416
96	0xbcac0cda	-0.021002222
97	0xbc6ba1bb	-0.014381821
98	0x3c95adf2	0.01827142
99	0x3b0e5b64	0.0021721954
100	0x3d4fd743	0.0507424
101	0x3c743de6	0.014907336
102	0x3dace773	0.08442583
103	0x3d1ea77f	0.038733955
104	0x3c8372cc	0.01604595
105	0xbb8e7970	-0.0043479726
106	0xbd44de94	-0.04806383
107	0xbd016f10	-0.031600058
108	0x3a6417b6	0.0008701043
109	0xbce97bfe	-0.028501507
110	0xbd65b550	-0.056081116
111	0xbd13602b	-0.035980385
112	0xbbfc3a50	-0.007697381
113	0x3bacbc09	0.005271439
114	0xbca0ab28	-0.019612864
115	0xbca8b344	-0.020593293
116	0x3c866ee2	0.016410295
117	0xbbdbe5b1	-0.006710731
118	0xbd5acfcc	-0.053420827
119	0xbd3d1615	-0.046163637
120	0x3d157827	0.03649154
121	0x3c139c5e	0.009009449
122	0xbcd52296	-0.026017468
123	0xbb7efd86	-0.0038908436
124	0xbccbfd52	-0.024901066
125	0xbbc2f7eb	-0.0059499643
126	0x3d65b4d5	0.056080658
127	0x3d82d66c	0.06388554
128	0x3d278b3c	0.04090427
129	0x3c3a73f1	0.011380182
130	0x3d110fa0	0.03541529
131	0x3d6c3427	0.057666924
132	0x3d4b0f18	0.04957494
133	0x3cf4cb6f	0.029882161
134	0x3d550be6	0.0520133
135	0x3c4e9597	0.012608907
136	0xbd0b47a7	-0.03400388
137	0xbc62dc50	-0.013846472
138	0x3d1f66ad	0.03891628
139	0x3c771897	0.015081546
140	0xbd59b2e1	-0.053149108
141	0xbcb956db	-0.022624424
142	0xbc592ee6	-0.01325581
143	0xbd541016	-0.051773153
144	0x3d7c9e88	0.061674625
145	0x3db76735	0.08955232
146	0xbd688bb9	-0.056773875
147	0xbd7b1b74	-0.06130548
148	0xbd208802	-0.039192207
149	0xbd15d985	-0.036584396
150	0xbd3e6abf	-0.04648852
151	0xbd3483b6	-0.04407092
152	0x3cf74c79	0.030187832
153	0x3d3d9e66	0.04629364
154	0x3d16071d	0.036627878
155	0x3b3f0533	0.0029147386
156	0x3d108fb8	0.03529331
157	0x3ce25f14	0.027633227
158	0x3bb6196a	0.005557229
159	0x3b22e86f	0.002485778
160	0xbc7f6c95	-0.015589853
161	0xbc93014d	-0.017944956
162	0xbc2cecbd	-0.01055449
163	0x3bdff3d7	0.006834488
164	0xbda92739	-0.08259434
165	0xbd82f9fe	-0.063953385
166	0xbdcc607c	-0.099793404
167	0xbd8586aa	-0.06519826
168	0xbc94110f	-0.01807454
169	0x38cc6f33	9.7481905e-05
170	0xbca2d381	-0.019876244
171	0xbd6ad7f8	-0.05733487
172	0xbd5d84b3	-0.05408163
173	0xbd231116	-0.039811216
174	0xbc0fceb7	-0.008777312
175	0xbc8c0b3c	-0.0170952
176	0x3d1edee3	0.03878678
177	0x3d0318c9	0.03200606
178	0x3c9d270d	0.01918366
179	0xbc83add3	-0.016074097
180	0xbd380caa	-0.044933952
181	0xbcb09906	-0.021557342
182	0xbcd33d6f	-0.02578613
183	0xbd8b1bee	-0.067924365
184	0xbd87e3a2	-0.066352144
185	0xbd239315	-0.03993519
186	0x3d517d63	0.05114497
187	0x3cc7a427	0.024370266
188	0xbc08dd0f	-0.008353486
189	0xbd42ae80	-0.047529697
190	0xbd269e1b	-0.040678125
191	0xbd155ed4	-0.03646739
192	0x3cd8374b	0.026393553
193	0x3d871fed	0.06597886
194	0xbc20cdae	-0.009814663
195	0xbcc2f4d5	-0.023798386
196	0x3d24fdfc	0.04028128
197	0x3d167f35	0.036742408
198	0xbb6e49e5	-0.0036359963
199	0x3d800d4d	0.06252537
200	0xbbfe16e3	-0.007754193
201	0xbcde8680	-0.027163744
202	0xbb26adac	-0.0025433106
203	0x3d22ba22	0.03972829
204	0xbb96d00a	-0.004602437
205	0xbd52b02d	-0.051437546
206	0x3c5f5abb	0.013632472
207	0x3d58491d	0.0528041
208	0xbcd25973	-0.025677418
209	0xbce126bd	-0.027484292
210	0x3d616968	0.055032164
211	0x3cb26855	0.021778265
212	0x3d5ead21	0.054364327
213	0x3c884bc4	0.01663769
214	0x3c29505b	0.0103341
215	0x3c1b2b33	0.009470749
216	0xbcc1f274	-0.023675181
217	0xbc5e3625	-0.013562714
218	0x3cb9f8ef	0.022701709
219	0x3d6d182a	0.057884373
220	0xbca6b611	-0.020350488
221	0x3c62e59e	0.01384869
222	0xbc312675	-0.0108123915
223	0xbb4eb00d	-0.003153804
224	0xbca7977d	-0.020457977
225	0x3b98ca34	0.0046627764
226	0x3cb9ffab	0.02270492
227	0xbb970a39	-0.004609373
228	0x3d083523	0.0332538
229	0xbcafd981	-0.021466019
230	0x3d317b43	0.043330442
231	0xbd0db23a	-0.0345938
232	0x3c453f5e	0.012039034
233	0xbce7b9aa	-0.028286774
234	0x3c86f4ae	0.016474094
235	0x3d7a3701	0.061087612
236	0xbc885d1f	-0.016645966
237	0xbcce8953	-0.025211966
238	0xbc2de0c2	-0.0106126685
239	0x3cfa2bac	0.030538402
240	0xbc91c005	-0.017791757
241	0x3b06d9c0	0.0020576566
242	0x3ce24f12	0.027625594
243	0x3d6a447f	0.05719423
244	0x3c4a0a6c	0.012331586
245	0xbcf0b086	-0.029381048
246	0x3c42e985	0.011896496
247	0x3d62eaf6	0.055399857
248	0x3c0788b7	0.008272341
249	0xbd18e34a	-0.037326135
250	0xbbf42f27	-0.00745191
251	0x3d26239e	0.04056131
252	0x3cc57ca9	0.024107294
253	0x3d877215	0.06613556
254	0xbc44d5f2	-0.012013899
255	0xbca8c036	-0.020599466

encoder.filter_convs.1.conv.bias f4 [32]
0	0xbca3fe0c	-0.0200186
1	0xbc1beed6	-0.009517392
2	0x3ca25d89	0.019819992
3	0xbc091326	-0.008366382
4	0xbc05e3a4	-0.00817195
5	0x3d34ad90	0.044110835
6	0xbc06d407	-0.008229262
7	0xbb989650	-0.0046565905
8	0xbd2131b4	-0.03935404
9	0xbb348cc6	-0.0027549728
10	0xbd253c01	-0.040340427
11	0x3c772002	0.015083315
12	0xbcc8d779	-0.024516808
13	0x3c735ca2	0.014853628
14	0xbccea69a	-0.025225926
15	0x3aa8496a	0.0012839262
16	0xbcfc9ed5	-0.030837456
17	0xba8ae357	-0.0010596317
18	0x3cae5d9d	0.021284873
19	0x3d8b4f46	0.068022296
20	0x3d904137	0.07043689
21	0xbb85c2ce	-0.0040820604
22	0x3b6fab49	0.00365706
23	0x3d5afcec	0.05346386
24	0x3a8a7d70	0.0010565948
25	0xbabf8215	-0.0014610911
26	0xbc8591ef	-0.016304938
27	0x3d09a7a3	0.033607136
28	0xbbf0fb2e	-0.0073541617
29	0x3b084bde	0.0020797173
30	0xbcb075c2	-0.021540526
31	0x3bce65c0	0.0062987506

encoder.filter_convs.2.conv.weight f4 [32, 32, 1, 2]
0	0x3c6c5e40	0.014426768
1	0x3d10716e	0.035264425
2	0xbc2e13bc	-0.010624822
3	0xbc453456	-0.012036404
4	0x3c2cecca	0.010554502
5	0x3b8bd7e8	0.0042676814
6	0x3cb8a564	0.022539802
7	0x3d13ac02	0.03605271
8	0xbcbdde33	-0.023177242
9	0xbd965f1a	-0.07342358
10	0xbaecc21d	-0.0018063221
11	0x3d6e64d2	0.05820162
12	0xbb9cc594	-0.0047842953
13	0xbd1b23f9	-0.037876103
14	0x3d2caa75	0.042154748
15	0x3d1be42e	0.038059406
16	0xbd150339	-0.036380026
17	0xbb811c08	-0.003940109
18	0x3d1d19f9	0.038354848
19	0x3d15022e	0.03637903
20	0x3c3c7d35	0.011504461
21	0x3b47e417	0.0030500942
22	0x3c358ea6	0.011081373
23	0xbb9482c7	-0.0045321914
24	0xbd1e7e22	-0.03869451
25	0x3cfac314	0.030610599
26	0x3d1be9ad	0.038064647
27	0x3d2b534d	0.04182749
28	0xbcd8e550	-0.026476532
29	0x3d34dc27	0.044155266
30	0xbc4842ad	-0.012222928
31	0x3c6989d5	0.014254053
32	0xbc0aa33a	-0.008461768
33	0x3c6f2d1a	0.014598155
34	0xbc55f981	-0.013059975
35	0xbc18f80a	-0.009336481
36	0x3c3690d9	0.011142933
37	0xbd061906	-0.032738708
38	0x3b4b7a68	0.0031048302
39	0xbd06ae70	-0.0328812
40	0x39b7e802	0.0003507734
41	0xbdac5e58	-0.08416432
42	0x3d358606	0.044317268
43	0x3d60d9e8	0.05489531
44	0xbb6f3423	-0.0036499582
45	0xbcf8255d	-0.030291254
46	0xbc8746c3	-0.016513234
47	0x3d062955	0.03275426
48	0xbc095582	-0.008382203
49	0x3c4a2c12	0.012339609
50	0x3d1e98ff	0.038720127
51	0x3d87374e	0.066023454
52	0x369f195b	4.741521e-06
53	0xbdba9941	-0.09111262
54	0x3d26f6d0	0.040762722
55	0x3d3609b8	0.044442862
56	0x3b54d52c	0.0032475693
57	0xbd955493	-0.07291522
58	0xbb1d7a48	-0.0024029184
59	0x3d98e8c0	0.074662685
60	0x3d0d4e3f	0.03449845
61	0x3d6bde8f	0.057585295
62	0x3b8cda8c	0.0042985138
63	0x3cc99c42	0.024610642
64	0xbcae4d1e	-0.021277007
65	0x3ad43b34	0.001619196
66	0xbb913f05	-0.0044325613
67	0xbc6e6c95	-0.014552255
68	0x3c9e089a	0.01929121
69	0x3cef11e5	0.029183337
70	0xbd66736b	-0.056262415
71	0xbca3428b	-0.019929191
72	0x3bd881dc	0.0066072773
73	0xbd9ad06d	-0.07559285
74	0xbcff7b34	-0.031186678
75	0x3d059e71	0.032621805
76	0x3d31faa5	0.043451924
77	0x38185a96	3.632399e-05
78	0xbcea45c3	-0.028597718
79	0x3b110ad8	0.0022131708
80	0xba6f1c0e	-0.0009121307
81	0x3b1e59ba	0.0024162368
82	0x3db52c6c	0.088463634
83	0x3dcd0c02	0.10012056
84	0x3d9854d9	0.074380584
85	0x3d683f28	0.056700855
86	0xbb6d6a75	-0.0036226783
87	0xbd145b0f	-0.036219653
88	0x3c77ff1e	0.015136508
89	0x3d30c749	0.043158803
90	0xbc4a83a9	-0.012360492
91	0x3c8cd94d	0.01719346
92	0xbd87df90	-0.06634438
93	0xbca5b0e4	-0.02022595
94	0xbd12ed58	-0.03587088
95	0xbc09907f	-0.008396267
96	0xbd8aee2d	-0.0678371
97	0xbd5dd46e	-0.054157667
98	0x3d55a2d1	0.052157227
99	0x3c81b7d8	0.015834734
100	0x3d404e2e	0.046949558
101	0x3ba62573	0.0050703823
102	0x3dac01a1	0.08398748
103	0x3cb063c1	0.021531941
104	0x3d5ab63f	0.05339646
105	0xbd05035a	-0.0324739
106	0xbd4ac5b1	-0.04950494
107	0xbc4e5614	-0.012593765
108	0xbd0d6bb7	-0.034526553
109	0xbd7ab508	-0.0612078
110	0xbda4caec	-0.08046517
111	0xbd81ebf0	-0.0634383
112	0xbceb49ab	-0.028721651
113	0x3a1c8893	0.0005971279
114	0xbc79f88b	-0.015257011
115	0x3d445e52	0.047941513
116	0x3d1fbac6	0.03899648
117	0xbd6b366e	-0.057424955
118	0xbcb8b5ab	-0.022547564
119	0x3c60c0fa	0.013717884
120	0x3d78cf39	0.060744498
121	0xbcc1fc05	-0.023679743
122	0xbd48e0fa	-0.04904268
123	0x3d576b16	0.05259236
124	0xbd61986c	-0.055077
125	0xbcac7dfd	-0.02105617
126	0x3c9ae344	0.018907197
127	0x3d3b1481	0.04567385
128	0xbcb10be9	-0.021612125
129	0xbcba8ad8	-0.022771284
130	0x3b59182b	0.0033125977
131	0x3b53e915	0.0032334973
132	0xbc13c909	-0.0090200985
133	0xbad413fc	-0.0016180272
134	0xbd11a7a0	-0.03556025
135	0xbd02c1fa	-0.03192327
136	0x3cc1b041	0.023643615
137	0x3cfae9d5	0.030629078
138	0xbb63727c	-0.003470569
139	0xbcb58886	-0.022159826
140	0x3c8ec2f0	0.017426938
141	0x3ca0d6bb	0.019633641
142	0xbcc36c7b	-0.023855438
143	0xbc48ba30	-0.012251422
144	0x3c71269d	0.014718679
145	0xbb636de1	-0.0034702944
146	0x3c404993	0.011736291
147	0x3b86a7ab	0.004109343
148	0x3c97ddcc	0.018538378
149	0x3c826053	0.015915072
150	0x3b8c0f01	0.0042742495
151	0x3bd56176	0.0065118624
152	0x3d0c14f4	0.03419967
153	0xbba43378	-0.0050110184
154	0xbd10a107	-0.035309818
155	0xbd028bde	-0.03187167
156	0xbb130d4a	-0.002243834
157	0xbcc4960e	-0.023997333
158	0x3c10591c	0.008810308
159	0x3a569aa4	0.00081864954
160	0x39227f86	0.0001549703
161	0xbb94067c	-0.0045173746
162	0x3c889c82	0.016676191
163	0x3b96c39a	0.0046009542
164	0x3c208e32	0.009799527
165	0x3cb3416a	0.021881778
166	0x3cec0a43	0.028813487
167	0x3cffbd8c	0.031218313
168	0xbafba28d	-0.0019198224
169	0x3cfd6444	0.0309316
170	0xbcdee148	-0.027207032
171	0xbca47fd9	-0.020080494
172	0x3a95a0d1	0.0011415725
173	0x3c7b8fbf	0.015354096
174	0xb94c7666	-0.00019499063
175	0xbc520806	-0.012819296
176	0xbb86cb0d	-0.004113561
177	0xbc343357	-0.0109985685
178	0xbcbc72a9	-0.023003893
179	0xbcd5dca1	-0.02610618
180	0x3b83caa3	0.004021959
181	0x3d0f23d3	0.034946274
182	0xbcc3b7d4	-0.023891367
183	0xbc958fc1	-0.018257024
184	0x3c7c567d	0.01540148
185	0x3d06b140	0.032883883
186	0xbc113e1b	-0.008864905
187	0xbd11400f	-0.03546148
188	0xbca4c97d	-0.020115608
189	0xbc46c171	-0.012131081
190	0x3c81bcc7	0.015837086
191	0x3b3e9202	0.0029078727
192	0xbb263d60	-0.0025366172
193	0xbd1515e5	-0.036397833
194	0xbbb9ac65	-0.005666303
195	0xbcace32f	-0.021104423
196	0x3cb120d7	0.021622105
197	0x3c3ba6e2	0.011453362
198	0xbd26cf74	-0.040725186
199	0xbd5e1e78	-0.054228276
200	0x3c98762b	0.018611034
201	0xbcb5791a	-0.022152472
202	0xbd17ae3c	-0.037031397
203	0x3b68bdaa	0.003551344
204	0x3d200caa	0.039074577
205	0x3d248a7f	0.040171143
206	0xbc90a963	-0.017658895
207	0xbcebc973	-0.028782582
208	0xbc78d180	-0.015186667
209	0x3c9b7b46	0.01897968
210	0x3dbe966e	0.09306036
211	0x3e0dfc57	0.13865791
212	0x3daebe58	0.08532399
213	0x3d941336	0.07230227
214	0x3c13f6dc	0.009031024
215	0xbcb37f0f	-0.021911172
216	0xbc9652c7	-0.018350018
217	0x3db2a60a	0.08723076
218	0x3ad78da6	0.0016445413
219	0x3c451fcd	0.012031508
220	0xbda4a75d	-0.080397345
221	0xbd262fd6	-0.040572964
222	0xbd293dcb	-0.041318696
223	0xbccfaf84	-0.025352247
224	0xbd63eddc	-0.055646762
225	0xbda49f69	-0.080382176
226	0x3d877b30	0.06615293
227	0x3d53905d	0.051651347
228	0x3d33db8b	0.043910544
229	0x3ca7729b	0.02044039
230	0x3db8818f	0.09009086
231	0x3d7f8aac	0.062388107
232	0x3d982ee3	0.07430818
233	0xbcb2ceaf	-0.02182707
234	0xbd0699c0	-0.03286147
235	0xbd1e0a8c	-0.038584277
236	0xbd0d9f2c	-0.034575626
237	0xbda45990	-0.08024895
238	0xbdbece35	-0.093166746
239	0xbda9036b	-0.08252605
240	0xbd3becc8	-0.04588011
241	0xbc46a347	-0.012123889
242	0xbc422e1e	-0.0118518155
243	0x3d19cf7a	0.03755138
244	0x3d947ea1	0.07250715
245	0xbd236899	-0.039894674
246	0xbc852cab	-0.01625665
247	0xbc1d18b0	-0.0095884055
248	0x3d76a4d9	0.060215805
249	0x3c4f4a6a	0.012652019
250	0xbd67d520	-0.056599736
251	0x3d1441fd	0.036195744
252	0xbd3407a0	-0.043952584
253	0xbd719d2c	-0.05898778
254	0xba9b7be1	-0.001186248
255	0x3d96adb5	0.07357351

encoder.filter_convs.2.conv.bias f4 [32]
0	0x3ba75ba4	0.00510736
1	0xbcd94b24	-0.026525088
2	0xb8d7a4d5	-0.00010282701
3	0xbcf25cad	-0.029585207
4	0xbc49c50f	-0.012315049
5	0xbc33ab93	-0.010966199
6	0x3c8a67e5	0.016895244
7	0x3c5802d7	0.013184271
8	0xbc0f48b5	-0.008745362
9	0xbbd67209	-0.006544356
10	0x3bcef901	0.0063163047
11	0x3aff63ff	0.0019484757
12	0x3ab62bdc	0.0013898569
13	0xbca22acb	-0.019795796
14	0xbcad861d	-0.021182114
15	0x3c978ae7	0.018498851
16	0xbc2c65a2	-0.010522278
17	0xbc1486f1	-0.009065376
18	0x3c124c01	0.008929254
19	0x3ccf8643	0.025332576
20	0xbc0f587a	-0.008749122
21	0x3cd4fae6	0.025998544
22	0xbb9250e2	-0.0044652084
23	0x3b009de9	0.0019625372
24	0x3cb40d3e	0.02197897
25	0xbc9dae4e	-0.019248154
26	0x3b888a6e	0.0041668927
27	0x3c23dc22	0.010001214
28	0x3af50200	0.0018692613
29	0xbacd2c76	-0.0015653509
30	0x3d150674	0.036383107
31	0x3ae97376	0.0017810899

encoder.filter_convs.3.conv.weight f4 [32, 32, 1, 2]
0	0x3d0edc3a	0.034877993
1	0x3cd571cc	0.02605524
2	0x3bb05a2c	0.005381843
3	0x3bbfa5b8	0.0058486126
4	0x3b8ba899	0.0042620418
5	0x3b9bb75b	0.0047520823
6	0x3d79f509	0.0610247
7	0x3d3e90bc	0.04652475
8	0xbcad2c3c	-0.021139257
9	0xbcbb0150	-0.022827774
10	0x3c747049	0.014919349
11	0x3cd5aa38	0.026082143
12	0xbd450c66	-0.048107527
13	0xbd2f33ab	-0.042773884
14	0x3cb421b0	0.02198872
15	0x3ba03716	0.0048893793
16	0xbac4b91f	-0.0015008784
17	0x3b6c6740	0.0036072284
18	0xbd54875c	-0.0518869
19	0xbd54c77c	-0.051948056
20	0xbc81a6a5	-0.015826533
21	0xbc742d85	-0.014903431
22	0xbbde63c7	-0.0067867967
23	0xbc5a1c01	-0.013312341
24	0xbd2f7e6a	-0.042845167
25	0xbc9e521a	-0.019326258
26	0x3d082f5e	0.033248298
27	0x3cc906f3	0.024539446
28	0x3c8000b5	0.015625337
29	0x3cab3803	0.020900732
30	0xbb24aa49	-0.0025125912
31	0xbabe7e5e	-0.001453351
32	0x3b009f1c	0.0019626087
33	0x3b06d564	0.0020573968
34	0xbcaa518e	-0.020790841
35	0xbc83b4e7	-0.016077472
36	0xbd1e89df	-0.038705703
37	0xbd4d1170	-0.050065458
38	0xbd983609	-0.074321814
39	0xbd94e65d	-0.07270501
40	0x3b184771	0.0023235942
41	0xbb2f3e8a	-0.0026740157
42	0x3d3c589f	0.045982953
43	0x3c0a95ee	0.008458598
44	0x3b960466	0.004578161
45	0x3a916c53	0.0011094905
46	0x3bd30481	0.006439746
47	0x3bbd7a46	0.0057823984
48	0x3cb7976b	0.022411069
49	0x3d0831df	0.033250686
50	0x3cc6fe99	0.024291323
51	0x3c8f488f	0.017490653
52	0xbbb85782	-0.005625666
53	0xbc8960c3	-0.016769772
54	0x3cb09ec6	0.021560084
55	0x3baad256	0.0052130623
56	0xbd1cb17a	-0.038255192
57	0xbd316779	-0.04331157
58	0x3d046558	0.03232321
59	0x3d15a136	0.036530696
60	0x3cf3bcd5	0.029753128
61	0x3c806a21	0.015675606
62	0xbcf82d13	-0.03029493
63	0xbccd9c01	-0.025098803
64	0x3a0c36f5	0.00053487654
65	0x3d041c8f	0.032253798
66	0xbbba3805	-0.0056829476
67	0x3b706314	0.003668015
68	0xba2f29a7	-0.0006681927
69	0x3af7417a	0.0018864118
70	0x3cf84459	0.030306028
71	0x3d856959	0.06514234
72	0xbca88c85	-0.020574817
73	0xbc69b6d5	-0.014264782
74	0x3c3863a0	0.011254221
75	0x3d41046a	0.04712335
76	0xbb9ac46f	-0.0047231237
77	0xbd51e84d	-0.05124693
78	0x3c88f4e5	0.016718337
79	0x3ce4b51a	0.027918387
80	0xbbd61238	-0.0065329336
81	0xbba80ba5	-0.0051283413
82	0xbc01c315	-0.007920046
83	0xbd94ed8e	-0.072718725
84	0xbc7bc342	-0.015366377
85	0xbca8f6e0	-0.020625532
86	0xbb6abd5c	-0.0035818433
87	0xbbce3dce	-0.006293989
88	0xbcf3f1d0	-0.029778391
89	0xbd3459cf	-0.04403096
90	0x3cac842a	0.021059114
91	0x3cf7041f	0.030153332
92	0x3a7e2f54	0.00096963835
93	0x3cd19752	0.02558485
94	0xbb87a439	-0.00413945
95	0xba0b0100	-0.0005302578
96	0xbae703d0	-0.0017625038
97	0x3bd606a5	0.006531554
98	0xbc8ea34c	-0.01741185
99	0xbcfa7432	-0.030572984
100	0xbca56009	-0.020187395
101	0xbd3fadd9	-0.046796653
102	0xbd0e9de4	-0.034818545
103	0xbdadaf9e	-0.08480762
104	0xbbbd3a00	-0.0057747364
105	0xbc3543b7	-0.011063508
106	0x3d03debd	0.03219484
107	0x3d88e316	0.06683938
108	0xbc54f804	-0.012998585
109	0x3c93bebb	0.018035283
110	0xbb679a3c	-0.0035339734
111	0x3c6cb329	0.014447012
112	0x3c77b0e4	0.015117858
113	0x3d0360b2	0.032074638
114	0x3c2d4a63	0.010576817
115	0x3d259540	0.04042554
116	0xbcb0d308	-0.021585003
117	0xbcc55b87	-0.024091495
118	0x3d094079	0.03350875
119	0x3d19f82d	0.037590194
120	0xba9d5131	-0.0012002346
121	0xbd40b3e7	-0.04704657
122	0x3c1388f5	0.009004821
123	0x3d5336c6	0.051565908
124	0xbb097f78	-0.0020980518
125	0x3d28bdc8	0.041196615
126	0xba8a2a7b	-0.0010541225
127	0xbcc750b8	-0.024330482
128	0x3c248132	0.010040568
129	0x3cbdcea3	0.023169821
130	0x3963e99c	0.00021735433
131	0x3b99c41e	0.0046925684
132	0xba3b1d7c	-0.00071378774
133	0x3b9fc32b	0.0048755608
134	0x3d571e08	0.052518874
135	0x3d6506a2	0.05591453
136	0xbcd181b3	-0.02557454
137	0xbc4a1cd0	-0.012335971
138	0x3b2a6770	0.0026001595
139	0x3beed8fe	0.007289051
140	0xbcd65ac2	-0.026166324
141	0xbd2882e5	-0.041140456
142	0x3cc2e653	0.023791468
143	0x3ce5e49b	0.02806311
144	0xbbdde405	-0.006771567
145	0xbc2d1299	-0.010563516
146	0xbd2d72a2	-0.04234565
147	0xbd82e2d1	-0.06390918
148	0xbccae5ba	-0.024767745
149	0xbc9ad68d	-0.018901134
150	0xbc2638fb	-0.010145421
151	0xbb9acdf2	-0.0047242576
152	0xbd313b59	-0.04326949
153	0xbd7a65d2	-0.06113226
154	0x3cd1d89e	0.025615986
155	0x3c96b5ed	0.018397296
156	0x3c4d4746	0.0125292
157	0x3c7d79b4	0.015470911
158	0xbaba7634	-0.0014225901
159	0xba452cfa	-0.00075216556
160	0x3b0a70a2	0.0021124263
161	0x3b9da552	0.0048109675
162	0xbd0e681b	-0.03476725
163	0xbd0cea2f	-0.034403022
164	0xbd13726f	-0.035997804
165	0xbd10196b	-0.03518049
166	0xbd9e62cc	-0.07733688
167	0xbda13a77	-0.078724794
168	0xbbaa4c60	-0.005197093
169	0x3b6cfc59	0.0036161153
170	0x3d289a88	0.041162997
171	0x3d6eab14	0.05826862
172	0x3bb0be9b	0.0053938157
173	0x3d0281f4	0.031862214
174	0x3a9bf1cc	0.0011897623
175	0x3c075803	0.00826073
176	0x3cc6b1f2	0.024254773
177	0x3cb9fafe	0.02270269
178	0x3c76282d	0.015024227
179	0x3c06f845	0.008237903
180	0xbc86e7cd	-0.016467953
181	0x3c61efde	0.013790099
182	0x3d06fc50	0.032955468
183	0x3cdc2738	0.02687417
184	0xbcd94613	-0.026522672
185	0xbcebc2b3	-0.028779363
186	0x3cc89ec7	0.024489773
187	0x3cb562d7	0.022141857
188	0x3c668626	0.014070069
189	0x3cfe9c38	0.03108035
190	0xbc462206	-0.012093073
191	0xbcd1d6c1	-0.025615098
192	0xbd610345	-0.05493476
193	0x3c1e84ad	0.009675187
194	0xbb5433d6	-0.003237953
195	0xbacce733	-0.0015632868
196	0xbc403a37	-0.0117326295
197	0xbb191496	-0.0023358217
198	0xbd85c548	-0.06531769
199	0x3d27cb18	0.04096517
200	0x3cbec4e2	0.02328724
201	0x3d071e51	0.032987896
202	0xbcb4c6f6	-0.022067528
203	0xbcbdf870	-0.023189753
204	0x3d9daa9c	0.07698557
205	0x3b6ef1a5	0.003645995
206	0xbd4d63b8	-0.050143927
207	0x3ce33516	0.027735274
208	0x3c9473f1	0.018121691
209	0xbc83a203	-0.016068464
210	0x3d6df31d	0.05809318
211	0xbd4a8ba1	-0.049449567
212	0x3a9a7566	0.0011784255
213	0xbc802d5e	-0.015646633
214	0x3a76a4bb	0.0009408702
215	0x3cc9f58c	0.024653219
216	0x3d87b663	0.066265844
217	0xbd9d6328	-0.07684928
218	0xbd0b486d	-0.034004617
219	0x3cd1bb8c	0.025602125
220	0xbc4e1c7b	-0.012580032
221	0xba8861a3	-0.0010405075
222	0xbb880119	-0.0041505215
223	0xbbe25491	-0.0069070538
224	0xbc09d5ca	-0.008412788
225	0x3b2cb2e3	0.0026351742
226	0x3d17818d	0.036988784
227	0xbba34ee0	-0.004983768
228	0x3c15c93e	0.009142218
229	0x3accf734	0.0015637637
230	0x3d82af7d	0.06381128
231	0xbc34838e	-0.011017693
232	0xbb42d39e	-0.0029728184
233	0x3c87516e	0.01651832
234	0xbdd7ae1a	-0.10531254
235	0x3d997cbe	0.07494496
236	0xbd2af413	-0.041736674
237	0x3cec3588	0.02883412
238	0xbc86da28	-0.016461447
239	0x3c288b0a	0.010287056
240	0xb9a4b426	-0.0003141474
241	0xba910d6c	-0.0011066622
242	0xbd77f05f	-0.06053197
243	0x3bc8db70	0.0061296746
244	0x392595d3	0.0001579144
245	0x3d3c852b	0.046025436
246	0xbd117e92	-0.035521097
247	0x3d2ad8a6	0.04171052
248	0x3d594941	0.053048376
249	0x3d17b661	0.037039164
250	0xbd00c4ae	-0.03143757
251	0xbd181ba1	-0.037135724
252	0xbde50a16	-0.11183564
253	0x3c7319f9	0.014837735
254	0x3d252e94	0.040327623
255	0xbccbf8de	-0.024898943

encoder.filter_convs.3.conv.bias f4 [32]
0	0xbc08653d	-0.008324918
1	0xbba6e8a3	-0.0050936504
2	0xbc734aab	-0.014849345
3	0x3bdc5e12	0.0067250812
4	0x3be1d9f6	0.006892438
5	0x3bd29373	0.0064262687
6	0x3be2a68c	0.0069168266
7	0x3c0ea936	0.008707335
8	0xbc70f980	-0.014707923
9	0x3cbea897	0.02327375
10	0xbc18d2f3	-0.009327638
11	0xbca76930	-0.0204359
12	0xbc3849a5	-0.011248027
13	0xbb6b51df	-0.0035906953
14	0x3c0d4ddf	0.008624523
15	0x3d9a1254	0.07523027
16	0xbd6019e6	-0.0547122
17	0x3abc8cf3	0.0014385268
18	0xbd614fe1	-0.05500782
19	0xbbeb0d70	-0.0071732327
20	0x3938a519	0.00017609111
21	0x3ac5b596	0.0015084024
22	0x3c865065	0.016395757
23	0xbc4a6802	-0.012353899
24	0xbc5d8a3e	-0.013521729
25	0xbb8fa721	-0.004383937
26	0x3bc8addf	0.0061242427
27	0xbc9e92a5	-0.019357035
28	0x3c00052d	0.007813734
29	0xbb1a75a3	-0.0023568652
30	0x3b88845d	0.0041661696
31	0xba874688	-0.0010320703

encoder.filter_convs.4.conv.weight f4 [32, 32, 1, 2]
0	0xbb45eec4	-0.003020213
1	0xbc22bd4f	-0.00993283
2	0xbb96e96a	-0.004605462
3	0xbc071c99	-0.008246564
4	0xbaaecd32	-0.00133363
5	0xbb835582	-0.004007996
6	0xbb743375	-0.0037262116
7	0xbbfda857	-0.007741015
8	0x3a656ef3	0.00087521895
9	0x3b095e83	0.0020960874
10	0xbac1d073	-0.0014786854
11	0xbb4b3e32	-0.0031012413
12	0x3ae1eafb	0.0017236167
13	0x3b81d41d	0.0039620535
14	0xba8ae9c7	-0.0010598236
15	0xbb6fec06	-0.0036609187
16	0x3a0f429a	0.00054649415
17	0x3a8cf687	0.0010754623
18	0x3cb33946	0.021877896
19	0x3cf31b19	0.029676007
20	0x3acbd81c	0.0015552077
21	0x3ad050fe	0.0015893278
22	0x392fb9a9	0.00016758464
23	0x395ca30a	0.00021041572
24	0x3bb93bdf	0.005652889
25	0x3c16f87e	0.009214519
26	0xbb4d9532	-0.0031369445
27	0xbbe7fcab	-0.007079681
28	0xbacfbe63	-0.0015849586
29	0xbb043cc7	-0.0020177828
30	0x3ae38de5	0.0017361013
31	0x3af8557d	0.0018946376
32	0xb95eab75	-0.00021235443
33	0xb902c0f1	-0.00012469642
34	0x3a9fe862	0.0012199993
35	0x3ab3908e	0.0013699697
36	0x3b87e86f	0.0041475813
37	0x3bd99be7	0.0066408995
38	0x3b185738	0.0023245346
39	0x3b704a50	0.0036665387
40	0xba8818ff	-0.0010383426
41	0xbb01b700	-0.0019792914
42	0xbac660bc	-0.001513503
43	0xbb794926	-0.0038037985
44	0xbaf382f5	-0.0018578457
45	0xbaeb3b4a	-0.0017946747
46	0xb91ac5ed	-0.00014760318
47	0xb931dc60	-0.00016962131
48	0xbb51a818	-0.003199106
49	0xbba1a957	-0.004933517
50	0xbac93d87	-0.001535342
51	0xbbab90f7	-0.005235787
52	0xba841bfc	-0.0010079141
53	0xba9a6c25	-0.0011781497
54	0xb9c1123c	-0.00036825414
55	0xba780b8a	-0.00094621687
56	0x3b096c56	0.0020969114
57	0x3b7a553d	0.0038197779
58	0xba148c83	-0.000566669
59	0xbae8ebd6	-0.001777048
60	0xbb61f04b	-0.00344755
61	0xbc1073a3	-0.008816632
62	0x3bb2ee7d	0.005460559
63	0x3c312817	0.010812781
64	0xbd0a73e6	-0.033801936
65	0xbd5abfb3	-0.053405475
66	0xbca024de	-0.01954883
67	0xbd054993	-0.03254087
68	0xbcacae55	-0.021079222
69	0xbcccf40c	-0.025018714
70	0xbcb8cf8b	-0.022559902
71	0xbd084f69	-0.033278856
72	0x3c8cf5be	0.017207023
73	0x3c574e96	0.013141295
74	0xbcd73dec	-0.026274644
75	0xbce41629	-0.027842598
76	0x3c6e5c90	0.014548436
77	0x3cc3e602	0.023913387
78	0xbc24999c	-0.010046389
79	0xbc9b20ca	-0.018936533
80	0x3bd7d4bc	0.006586639
81	0x3c13a54d	0.009011579
82	0x3d90a080	0.07061863
83	0x3d9c9233	0.07645073
84	0x3c015c27	0.007895506
85	0x3bd7538b	0.0065712384
86	0x3a8d09a1	0.0010760316
87	0x3a97f31c	0.0011592838
88	0x3d1a789a	0.03771267
89	0x3d353a88	0.044245273
90	0xbcad21c6	-0.021134268
91	0xbd0ffd58	-0.035153717
92	0xbbf892b1	-0.0075858464
93	0xbc32c830	-0.010911986
94	0x3c93eefb	0.01805829
95	0x3c8e5c75	0.017378071
96	0xba0806ba	-0.00051889906
97	0xba6df1ca	-0.0009076862
98	0x3be190ff	0.00688374
99	0x3c052410	0.008126274
100	0x3c532c41	0.012888969
101	0x3cb42526	0.02199037
102	0x3c522b71	0.01282774
103	0x3c7f2e9a	0.0155750755
104	0xbc293ebd	-0.010329899
105	0xbc3ec61a	-0.011643911
106	0xbc821128	-0.015877321
107	0xbcce5629	-0.025187569
108	0xbc14682c	-0.00905804
109	0xbc05ef79	-0.0081747705
110	0xbaabdd8b	-0.001311229
111	0xbaf2d9ca	-0.0018528041
112	0xbc03a1ed	-0.008034212
113	0xbc6ba07e	-0.014381526
114	0xbcc1a792	-0.023639474
115	0xbd1ba4a8	-0.037998825
116	0xbb0cc28a	-0.002147826
117	0xbc821d52	-0.015883122
118	0xbb8ab79f	-0.004233315
119	0xbbeda9c7	-0.007252905
120	0x3c2bc0f4	0.010483015
121	0x3cbcd08c	0.023048662
122	0xbbe8ca45	-0.0071041905
123	0xbc68fa03	-0.014219764
124	0xbd01bb05	-0.031672496
125	0xbd6b2c15	-0.057415087
126	0x3d0ff39c	0.035144433
127	0x3d3c7f28	0.046019703
128	0x3cabdc21	0.02097899
129	0x3ca60f54	0.02027098
130	0x3cabe78d	0.020984435
131	0x3c531a14	0.0128846355
132	0x3c967e35	0.018370727
133	0x3cb5b9e8	0.022183374
134	0x3c29e2ca	0.010369012
135	0x3bb328ed	0.005467525
136	0x3c0e34a9	0.008679547
137	0x3c018d0c	0.007907163
138	0xbcf43051	-0.029808195
139	0xbd126cac	-0.03574817
140	0xbbe694ae	-0.007036767
141	0xbb87be73	-0.0041425764
142	0x3c2d11a1	0.010563285
143	0x3c24ea92	0.010065692
144	0xbc0bd173	-0.008533823
145	0xbc0d4d8d	-0.008624447
146	0xbd1dae21	-0.03849614
147	0xbb8067ce	-0.0039186245
148	0x3a4315f8	0.0007441933
149	0x3bd18102	0.0063935528
150	0x3955f0d5	0.0002040298
151	0x3a0c1ac9	0.00053445675
152	0xbd13b0a9	-0.036057148
153	0xbd08bbc0	-0.033382177
154	0x3bfa4030	0.0076370463
155	0x3c086539	0.008324915
156	0xbbd0d848	-0.006373439
157	0xbc72c2d3	-0.0148169575
158	0xbc320ae9	-0.010866859
159	0xbc3b005a	-0.011413658
160	0xb910ef4a	-0.00013822052
161	0xbb04303f	-0.0020170358
162	0xbbb5e540	-0.0055510104
163	0xbab758de	-0.0013988276
164	0x3c0b6153	0.008507091
165	0x3c810f0a	0.015754241
166	0xbb5b566c	-0.003346826
167	0x3b33012f	0.0027313938
168	0x3cfd6482	0.030931715
169	0x3d0c07a3	0.03418697
170	0x3c1bfa09	0.009520062
171	0x3bfc4326	0.0076984344
172	0x3c9a90c6	0.018867861
173	0x3c5182ca	0.01278753
174	0xb96e40b9	-0.0002272156
175	0xbaad0268	-0.001319957
176	0xbc2e4e38	-0.010638766
177	0xbc8c8527	-0.017153336
178	0x3c0869a0	0.008325964
179	0x3c45ba75	0.012068381
180	0x3d27e257	0.04098734
181	0x3d2932aa	0.041308083
182	0x3a8d86aa	0.0010797579
183	0x3a459e15	0.00075385097
184	0x3bd05e36	0.006358887
185	0x3c28ed03	0.010310414
186	0xbc3ff75f	-0.011716693
187	0xbc8343e8	-0.016023591
188	0x3d04d8b8	0.03243324
189	0x3cff3231	0.031151863
190	0xbce04a2b	-0.027379116
191	0xbcb15607	-0.021647466
192	0x3ced2c95	0.028951922
193	0x3c99de83	0.01878286
194	0xbd14dff6	-0.0363464
195	0xbd4c0874	-0.04981275
196	0x3ca8bac0	0.020596862
197	0x3c0dae1a	0.008647466
198	0x3bc49393	0.0059990375
199	0x3b3d2cab	0.0028865736
200	0xbccd6d4d	-0.025076533
201	0xbd05423b	-0.032533865
202	0x3d1cce96	0.038282953
203	0x3d737286	0.05943539
204	0xbbd5e2e7	-0.006527293
205	0xbbb9cbaf	-0.005670033
206	0x3c412e39	0.0117908055
207	0x3c315af3	0.010824907
208	0xbc035176	-0.008015027
209	0xbbf07cff	-0.0073391194
210	0x3d7bfed3	0.061522316
211	0x3d958c3b	0.073021375
212	0x3c101272	0.00879346
213	0x3ba54b64	0.0050443877
214	0x39e5ed9f	0.00043855325
215	0x3a03e213	0.0005030941
216	0xbbc2cdb5	-0.0059449323
217	0x3bbbcdd6	0.0057313247
218	0x3cc214ee	0.02369162
219	0x3ca1f6d5	0.019771019
220	0xbbf323ba	-0.0074200304
221	0xbab253d2	-0.0013605303
222	0xbc6f974b	-0.014623473
223	0xbbe2d683	-0.0069225444
224	0xbaff7ad9	-0.0019491568
225	0xb970198b	-0.00022897699
226	0x3b6eef36	0.0036458499
227	0x3aa8a0e4	0.0012865332
228	0x3c243b8b	0.010023962
229	0x3c07d27d	0.00828993
230	0x3b2a67cd	0.0026001811
231	0x3b04d436	0.002026809
232	0xbc114d28	-0.008868493
233	0xbcf5900b	-0.029975912
234	0x3c811aa3	0.015759772
235	0x3c96ce85	0.018409023
236	0xbc806e9d	-0.015677745
237	0xbc95c9f6	-0.018284779
238	0xb9997f5d	-0.00029277327
239	0x3a29b46c	0.00064737233
240	0xbc4378e5	-0.011930679
241	0xbc04fd42	-0.008117022
242	0x3d2aca5f	0.041696902
243	0x3d3aa84f	0.045570668
244	0xbc78d393	-0.015187162
245	0xbd1ad30b	-0.037798923
246	0x3bcdf4e2	0.006285296
247	0x3c071d98	0.008246802
248	0xbbfe1eeb	-0.0077551506
249	0xbc7b54c9	-0.015340039
250	0x3c4d0ed9	0.012515747
251	0x3cb2af8d	0.021812225
252	0x3d006817	0.031349268
253	0x3d079dc4	0.03310944
254	0x3a0919be	0.0005229971
255	0x3c8f0674	0.017459132

encoder.filter_convs.4.conv.bias f4 [32]
0	0xbb98376a	-0.0046452777
1	0xbc9c5fee	-0.019088712
2	0x3af20fc9	0.0018467839
3	0x3845b4ce	4.7136848e-05
4	0xbab9bbfe	-0.0014170406
5	0x3c6db15f	0.014507621
6	0xb78aeb59	-1.6560474e-05
7	0xbbc83a39	-0.0061104563
8	0xbc46c0b3	-0.012130904
9	0x3be047fd	0.006844519
10	0x38af738c	8.3661726e-05
11	0x3b3f5209	0.0029193184
12	0x3cc4ed45	0.02403892
13	0x3b31886a	0.0027089366
14	0x3ad77232	0.0016437231
15	0xbb56fa03	-0.0032802827
16	0xbc04bc34	-0.008101512
17	0x3ab90c98	0.0014118133
18	0x3c96b25b	0.018395593
19	0xbcb52a0c	-0.022114776
20	0xbbc36126	-0.0059625087
21	0x3b960815	0.0045786
22	0x3b582cf3	0.0032985776
23	0x3aa91f9d	0.0012903098
24	0x3aab63be	0.001307599
25	0x3c672dd5	0.014110048
26	0xbc5aecad	-0.013362092
27	0x39108a77	0.00013784492
28	0xba918f10	-0.0011105258
29	0x3b0f809e	0.002189673
30	0xbc5bd9d3	-0.013418633
31	0x37aef8c6	2.085826e-05
