artifacts/runs/20260210_223029_CNN_GRU_LSTM/best.pt (torch, 247262 bytes, 17 tensors)

cnn.0.weight f4 [32, 6, 3]
0	0x3e77e639	0.24208917
1	0x3e490e2d	0.19634314
2	0x3d765a8b	0.060144942
3	0xbd3407eb	-0.043952864
4	0xbbb83be5	-0.0056223744
5	0x3e297434	0.16548234
6	0xbdd85351	-0.10562766
7	0xbcebbfc4	-0.028777964
8	0xbe0532ac	-0.13007611
9	0x3ea63093	0.32458934
10	0x3eaef63d	0.3417224
11	0x3e74d489	0.239092
12	0xbea7fd63	-0.32810506
13	0xbeb7a5e9	-0.35868767
14	0xbea4b90e	-0.32172436
15	0x3e17043e	0.14747712
16	0x3ddb8b66	0.107199475
17	0x3e07d988	0.13266575
18	0x3deb253c	0.11481711
19	0x3e82c910	0.25544024
20	0x3d85d760	0.0653522
21	0xbc8fac46	-0.017538201
22	0xbd4ef78b	-0.050529044
23	0xbd92bb8d	-0.07164679
24	0x3dbb4e48	0.0914579
25	0xbd9a0bf5	-0.07521812
26	0xbd5b58cb	-0.053551476
27	0xbe1a6b3f	-0.15079974
28	0xbe0472ef	-0.12934469
29	0xbe4049e4	-0.18778187
30	0x3d3a1e62	0.04543913
31	0x3e320f7a	0.17388716
32	0x3d5b1609	0.05348781
33	0x3dc00554	0.09376016
34	0xbd3a53a7	-0.045489933
35	0xbd80994e	-0.062792405
36	0xbe00108c	-0.12506312
37	0xbeaa9af5	-0.33321348
38	0xbd77feba	-0.06054566
39	0xbdfd1c0d	-0.12358866
40	0x3da36df0	0.07979953
41	0xbe2e4c03	-0.17021184
42	0x3dd20ef6	0.1025676
43	0x3d94ed35	0.07271806
44	0x3d98feb9	0.074704595
45	0xbe838f60	-0.25695324
46	0x3ca8212e	0.020523634
47	0xbe2bfa34	-0.16794664
48	0x3afb82c4	0.0019188751
49	0x3de6f1b2	0.112765685
50	0xbd19dded	-0.03756516
51	0xbc093736	-0.00837498
52	0xbc91ecdf	-0.017813144
53	0xbe0db729	-0.13839401
54	0xbdca327b	-0.0987291
55	0xbe6d487b	-0.2317218
56	0x3d8878f1	0.06663693
57	0x3d22c9e6	0.039743327
58	0x3ca9f7de	0.020748075
59	0xbd9b2c51	-0.07576812
60	0xbdcb7774	-0.09934893
61	0x3d84adef	0.06478488
62	0x3dd111fb	0.102085076
63	0xbea96583	-0.3308526
64	0xbe672c24	-0.22575432
65	0xbe6fed7f	-0.23430441
66	0xbe5dce2a	-0.21660677
67	0xbe91d927	-0.28485987
68	0xbe8fd9c4	-0.2809583
69	0x3b84d454	0.004053632
70	0xbdf5e970	-0.12007415
71	0x3e354948	0.17703736
72	0x3c270ce4	0.010195944
73	0x3cc02762	0.02345628
74	0xbc19fdc8	-0.009398885
75	0xbd6e8112	-0.05822856
76	0xbe439fa3	-0.19103865
77	0xbe92a31b	-0.28640065
78	0x3cba5213	0.022744214
79	0xbe1f0f40	-0.15533161
80	0xbe3e1500	-0.18562698
81	0xbdb3210a	-0.08746536
82	0xbdebd212	-0.11514677
83	0xbdab6f7b	-0.083708726
84	0x3e23f566	0.16011581
85	0x3e0f1a4d	0.13974877
86	0x3ddbddd2	0.10735668
87	0xbe311c7f	-0.17296027
88	0xbe6bbafb	-0.23020546
89	0xbd32578f	-0.043540534
90	0xbd159e64	-0.036528006
91	0x3e01f612	0.12691525
92	0x3de6e219	0.112735935
93	0x3e26f943	0.16306023
94	0x3e955699	0.2916763
95	0x3e5f3598	0.21797788
96	0xbe10766a	-0.14107671
97	0x3e075b86	0.13218507
98	0x3e722e2c	0.23650426
99	0x3e58abbc	0.21159261
100	0x3e8ed135	0.27893987
101	0x3e7cdc6f	0.24693464
102	0x3d0eef69	0.034896288
103	0x3d9f2c75	0.077721514
104	0xbca9fb1f	-0.020749627
105	0x3cd6b234	0.02620802
106	0x3e01b15f	0.12665318
107	0x3d93a83a	0.07209821
108	0xbe0da42d	-0.1383216
109	0xbeb232d7	-0.34804413
110	0xbe90d161	-0.28284743
111	0xbda36a92	-0.07979311
112	0xbcca8b6b	-0.024724683
113	0x3cb370f2	0.021904442
114	0x3dfef9df	0.12450003
115	0x3d12eb07	0.03586867
116	0xbe4b8f83	-0.19878964
117	0xbe3f1b43	-0.18662743
118	0x3da1f6a1	0.07908369
119	0xbe1de9dc	-0.15421242
120	0xbc978929	-0.01849802
121	0x3dc4765d	0.095928885
122	0xbc4ddf32	-0.012565421
123	0x3d9f4c6e	0.0777825
124	0x3da1cadf	0.07900023
125	0x3d7c5348	0.06160286
126	0xbdf886c0	-0.121350765
127	0xbe9aea4c	-0.3025688
128	0xbdf732b7	-0.1207022
129	0xbdf276e4	-0.11839083
130	0x3e0dabe6	0.13835105
131	0xbd61ac10	-0.055095732
132	0xbe18cfa2	-0.14922956
133	0x3d89d416	0.06729905
134	0x3da85ad9	0.08220453
135	0x3dbf69d5	0.09346358
136	0x3de67f75	0.11254779
137	0x3dd6da93	0.104909085
138	0xbd4624be	-0.048374884
139	0x3de8e6c1	0.11372138
140	0x3e3cb2b1	0.1842754
141	0x3e08af65	0.13348158
142	0x3d37e105	0.04489233
143	0x3e859b5e	0.26095098
144	0xbdb03836	-0.086044714
145	0xbe9eff5c	-0.310542
146	0xbea010d6	-0.31262845
147	0x3d26b148	0.040696412
148	0x3da34616	0.07972352
149	0xbca18e1d	-0.019721085
150	0x3da2691c	0.07930204
151	0xbe21f3da	-0.15815678
152	0xbe7a2463	-0.24427943
153	0xbe3331bf	-0.17499445
154	0xbd434d03	-0.047680866
155	0xbde61cd6	-0.11235969
156	0xbd887b60	-0.06664157
157	0x3d0cc385	0.03436615
158	0xbc8a8b18	-0.016912028
159	0xbe14c296	-0.14527354
160	0xbd3bb7d7	-0.04582962
161	0xbc5251cf	-0.0128368875
162	0x3e056efd	0.1303062
163	0x3e52727d	0.20551486
164	0x3eb56f57	0.35436508
165	0xbabd6766	-0.0014450371
166	0x3d9daea4	0.07699326
167	0x3e08d2fa	0.13361731
168	0xbc83abd6	-0.016073149
169	0x3e3138de	0.1730685
170	0xbe2c19a8	-0.16806662
171	0x3dc54037	0.09631389
172	0x3e90bd0d	0.28269234
173	0x3daea765	0.08528022
174	0x3c508db5	0.012729098
175	0x3b3484d8	0.0027545001
176	0x3e45bbea	0.19309965
177	0x3d012119	0.031525705
178	0x3cce590d	0.025188947
179	0xbdc42150	-0.09576666
180	0xbec0311a	-0.37537462
181	0xbd855b1d	-0.06511519
182	0x3dc83fe8	0.09777814
183	0xbd1e6d48	-0.038678437
184	0xbcdc0c6a	-0.026861388
185	0x3cdbb4ab	0.026819548
186	0x3c0c5706	0.00856567
187	0xbc92f24f	-0.017937807
188	0xbda9bfe2	-0.08288552
189	0xbe7f4326	-0.24927959
190	0xbe82cd1a	-0.25547105
191	0xbdf97c78	-0.12181944
192	0xbe89c47b	-0.26907715
193	0xbe01a1ae	-0.12659332
194	0xbe80c070	-0.25146818
195	0xbdc5bd10	-0.096552014
196	0x3db55629	0.08854324
197	0x3d250347	0.04028633
198	0x3ea9239e	0.33034986
199	0xbd03987c	-0.032127842
200	0xbe67b50d	-0.22627659
201	0x3abac82e	0.0014250332
202	0xbe14110a	-0.14459625
203	0xbe051c05	-0.1299897
204	0x3d75c734	0.060004428
205	0xbc77370c	-0.015088808
206	0xbdac5930	-0.08415449
207	0x3e0be7af	0.13662599
208	0x3dfe0622	0.124035135
209	0xbcc15f5d	-0.023605043
210	0xbe2652e6	-0.1624256
211	0xbe85fede	-0.2617101
212	0xbe2e12c1	-0.16999342
213	0x3d1bc472	0.03802914
214	0x3d90ddd2	0.07073559
215	0x3aa1636c	0.0012312955
216	0xbd8f43ef	-0.06995379
217	0x3c9b41e6	0.018952321
218	0xbea8b29b	-0.32948765
219	0x3d815a42	0.063160434
220	0xbddf159b	-0.10892793
221	0xbca3761a	-0.019953776
222	0xbd4243ae	-0.047427826
223	0x3cc3b919	0.023891972
224	0xbd8246f5	-0.0636119
225	0x3dcb630d	0.09931002
226	0xbd614e71	-0.05500645
227	0x3dcffa68	0.10155183
228	0x3dc61a58	0.096729934
229	0xbdbb5ad7	-0.09148186
230	0xbddf8df3	-0.109157465
231	0x3d6ecf5f	0.058303233
232	0x3d80b6ed	0.0628489
233	0xbe184197	-0.1486877
234	0x3ddcd123	0.10782077
235	0xbea590ca	-0.32337028
236	0xbeae2436	-0.34012002
237	0x3e11f2e5	0.14252813
238	0x3e420b52	0.18949631
239	0x3e25fe86	0.16210374
240	0xbde9d29a	-0.11417122
241	0x3df92c37	0.121666364
242	0xbd5ba394	-0.053622797
243	0xbe80a908	-0.2512896
244	0xbe1fe406	-0.15614328
245	0xbd0c6ef1	-0.03428549
246	0x3d25f8a1	0.040520314
247	0xbdd9b176	-0.10629551
248	0x3df6a97c	0.12044045
249	0xbe1dbb92	-0.15403584
250	0xbe44b3e1	-0.19209243
251	0xbdd3f077	-0.103485994
252	0x3e5e8d71	0.21733643
253	0x3ed03f1f	0.40673158
254	0x3e71b4d6	0.2360414
255	0xbc2853b9	-0.010273867

cnn.0.bias f4 [32]
0	0xbc5dc500	-0.013535738
1	0xbe916248	-0.28395295
2	0x3da4f65a	0.080548
3	0xbea42902	-0.32062536
4	0xbe23f073	-0.16009693
5	0xbe20953f	-0.15681933
6	0xbe6ce716	-0.23135027
7	0x3e2774f2	0.16353205
8	0xbe5971fb	-0.21234886
9	0x3dd4277f	0.10359096
10	0xbe89817d	-0.26856604
11	0x3d2ac9da	0.041696407
12	0xbe5c3a3d	-0.21506591
13	0xbe5d04be	-0.2158384
14	0xbe2d4b99	-0.1692337
15	0x3e031b0c	0.12803286
16	0x3e5ac0e2	0.21362641
17	0xbe890318	-0.26760173
18	0xbe311132	-0.17291716
19	0xbd9391f7	-0.07205575
20	0x3db3fb74	0.08788195
21	0x3e086d0e	0.13322851
22	0x3dc9dcf6	0.09856598
23	0x3cd85197	0.026406093
24	0x3d4d6368	0.05014363
25	0x3e2bf188	0.16791356
26	0xbdd4ca7a	-0.10390182
27	0x3e337de4	0.17528492
28	0x3dffc6be	0.12489079
29	0x3e5a317e	0.21307942
30	0x3a3b2530	0.0007139025
31	0xbd86c644	-0.06580785

cnn.3.weight f4 [32, 32, 3]
0	0x3dd11076	0.10208218
1	0x3dccde06	0.10003285
2	0x3dafa01b	0.085754596
3	0x3d841fac	0.064513534
4	0x3e02c8f3	0.12771969
5	0x3cedca89	0.02902724
6	0xbce802ff	-0.028321741
7	0xbd982bf8	-0.074302614
8	0xbdb18b97	-0.08669203
9	0xbd9e0471	-0.07715691
10	0xbdb6ffef	-0.08935534
11	0xbcb2abb8	-0.021810398
12	0xbc51b097	-0.01279845
13	0x3c768f9d	0.0150488885
14	0x3c159cd6	0.009131631
15	0xbe2aca3a	-0.16678706
16	0xbd87ee88	-0.06637293
17	0xbdf3ba8a	-0.11900814
18	0xbcbdabbf	-0.023153184
19	0xbd147562	-0.036244757
20	0xbd2e4e46	-0.042555116
21	0x3d7ea0c5	0.06216504
22	0x3d263bd8	0.040584415
23	0x3c9d441e	0.01919752
24	0xbd057bef	-0.032588895
25	0xbd0d8ebe	-0.034559958
26	0xbb2393c5	-0.0024959904
27	0x3d69768b	0.056997817
28	0x3d2059db	0.039148193
29	0x3d7ded76	0.06199404
30	0xbd85f9fe	-0.06541823
31	0xbd482d64	-0.048871413
32	0xbd1525fe	-0.036413185
33	0x3d5bf358	0.053698868
34	0x3d9a3dc8	0.07531315
35	0x3d9b3cf0	0.07579982
36	0xbd291dad	-0.041288067
37	0xbd212ffa	-0.039352395
38	0xbc52c749	-0.012864896
39	0xbdb75ef8	-0.08953661
40	0xbd6a42d2	-0.05719263
41	0x3d433e37	0.047666755
42	0x3de109d7	0.10988205
43	0x3db9beba	0.09069581
44	0x3c4beb04	0.012446169
45	0x3d272eec	0.040816233
46	0x3daca1bf	0.08429288
47	0x3db6fddd	0.08935139
48	0x3cab745c	0.020929508
49	0x3d21b05e	0.039474837
50	0x39ef36ad	0.0004562637
51	0x3e168f6c	0.14703149
52	0x3e52c51c	0.20583004
53	0x3d9a25e9	0.07526762
54	0x3cb4cc50	0.02207008
55	0x3bcca0dd	0.0062447623
56	0xbd11f5a2	-0.035634644
57	0x3dde6bb6	0.10860388
58	0x3d9de17b	0.077090226
59	0x3d7b6e69	0.061384592
60	0x3d0325a8	0.032018334
61	0x3d5143b7	0.05108997
62	0x3c722f8d	0.014781845
63	0xbc6fff4b	-0.014648269
64	0xbd7091b5	-0.058732707
65	0x3aeffa16	0.0018308784
66	0xbbc0e24e	-0.0058863526
67	0xbc0413f9	-0.0080614025
68	0xbd851e03	-0.06499865
69	0xbd927590	-0.071513295
70	0xbdbef11f	-0.09323334
71	0xbd47d08e	-0.048782878
72	0x3ccfc80f	0.02536395
73	0x3b97bf55	0.004630963
74	0xbd267b4b	-0.040644925
75	0x3d9d6200	0.07684708
76	0x3e3fe0da	0.18738118
77	0x3dc60c29	0.09670288
78	0xbe0a672c	-0.1351592
79	0xbdbfb83b	-0.09361311
80	0xbdbfb78f	-0.09361183
81	0x3c2ac345	0.010422532
82	0xbdcb240b	-0.09918984
83	0xbdf5fba4	-0.12010887
84	0x3c3a86ce	0.011384679
85	0x3c80defb	0.015731325
86	0xbb6a35c2	-0.0035737609
87	0x3e1ba625	0.15200098
88	0x3e38528f	0.18000244
89	0x3d80a6cd	0.06281815
90	0xbc15d30f	-0.009144559
91	0x3bacc7ee	0.005272857
92	0x3d02960c	0.031881377
93	0xbe491048	-0.19635117
94	0xbe28e61f	-0.16494034
95	0xbe0a61d1	-0.13513876
96	0x3d0200ef	0.03173917
97	0x3de2a749	0.11067063
98	0x3d1594d3	0.036518883
99	0xbc390f29	-0.011295118
100	0x3d61026a	0.054933943
101	0xbc67da49	-0.014151164
102	0x3c8f8155	0.017517725
103	0x3c1aa129	0.009437838
104	0x3b9a1c06	0.0047030477
105	0x3e20ce53	0.15703706
106	0x3dd265f0	0.10273349
107	0x3d7f550c	0.062336966
108	0xbd9ff879	-0.07811064
109	0xbddcade0	-0.107753515
110	0xbdbcd81a	-0.092209056
111	0xbd538cd8	-0.05164799
112	0xbc9ce7d5	-0.019153515
113	0x3c8004bf	0.015627263
114	0x3daeee43	0.085415386
115	0xbceec9d6	-0.029148977
116	0xbda9e83b	-0.082962476
117	0x3d7266cd	0.05918007
118	0x3c8f1ff0	0.017471284
119	0x3bf3d8ce	0.0074416166
120	0xbd9b895c	-0.075945586
121	0xbe0280b8	-0.12744415
122	0xbe347b85	-0.17625244
123	0xbd4f4548	-0.05060318
124	0xbc2a28ea	-0.010385731
125	0xbc0b630a	-0.0085074995
126	0x3e147c24	0.14500481
127	0x3d4b82dc	0.049685344
128	0x3d80ef5c	0.06295654
129	0x3d828c94	0.063744694
130	0x3d91e786	0.07124238
131	0x3c74b40a	0.014935503
132	0xbb9572e7	-0.0045608166
133	0xbc48ead0	-0.012263015
134	0x3c2d120a	0.010563383
135	0xbe299889	-0.16562094
136	0xbe8675c8	-0.26261735
137	0xbe76ac8f	-0.24089263
138	0xbd84fc1b	-0.06493398
139	0xbbf15c97	-0.007365774
140	0xbd38c698	-0.04511127
141	0x3e13629c	0.14393085
142	0x3e2b091c	0.16702694
143	0x3dc48afe	0.09596823
144	0x3ce48d58	0.02789943
145	0x3d0a3510	0.03374201
146	0x3db9ace8	0.090661824
147	0x3c94a2dc	0.018144064
148	0x3d51cb41	0.05121923
149	0xbd22981b	-0.03969584
150	0x3d940e7f	0.072293274
151	0xbce1f2ea	-0.02758165
152	0xbd080c06	-0.03321459
153	0x3da88a89	0.082295485
154	0x3dd4eaf4	0.10396376
155	0x3dbe99bf	0.093066685
156	0x3c261d4e	0.010138823
157	0xbbaf3d17	-0.0053478586
158	0x3d250dd1	0.04029638
159	0x3dcad2f4	0.09903517
160	0xbd70875d	-0.058722842
161	0x3ce3f312	0.027825866
162	0x3c61471f	0.013749867
163	0x3d92fab4	0.07176724
164	0x3d37e232	0.04489345
165	0x3c5c0d13	0.0134308515
166	0xbda40a18	-0.08009738
167	0xbd9508f9	-0.07277102
168	0x3e0f56f9	0.13998021
169	0x3d69883c	0.05701469
170	0x3de01ce0	0.109430075
171	0xbdf99bd8	-0.12187928
172	0xbcf80be9	-0.030279117
173	0xbd1d5611	-0.038412157
174	0x3d70dae9	0.05880252
175	0x39b8bc42	0.00035235478
176	0x3d54a871	0.05191845
177	0x3d126535	0.03574105
178	0xbd473a82	-0.04863978
179	0xbd3d0d3d	-0.046155203
180	0xbcbea550	-0.023272187
181	0x3c2059c6	0.009787029
182	0xbcd0dddb	-0.025496414
183	0x3c5b4005	0.013381963
184	0x3dabd97e	0.08391093
185	0x3ce51c35	0.027967552
186	0x3db34590	0.08753502
187	0x3d8112c3	0.06302407
188	0x3d3897dd	0.045066703
189	0x3cb34280	0.021882296
190	0xba53da1f	-0.0008081514
191	0x3d59bbdc	0.053157672
192	0xbe58c7be	-0.21169946
193	0xbe0a7c87	-0.13524066
194	0xbd97cc4f	-0.07412016
195	0x3d07227f	0.032991882
196	0x3d452b9d	0.048137296
197	0x3d93144c	0.07181606
198	0xbc0b64d7	-0.008507929
199	0x3c3c29a6	0.011484539
200	0xbd56d3b8	-0.052448004
201	0xbe1aceb6	-0.15117916
202	0xbdff1d40	-0.12456751
203	0xbe286694	-0.1644538
204	0xbcb5fd7a	-0.022215594
205	0xbd7d0454	-0.061771706
206	0xbc83989c	-0.01606398
207	0x3d92142e	0.07132755
208	0x3d144a7c	0.036203846
209	0x3cff6978	0.031178221
210	0xbc10a477	-0.008828274
211	0xbd81ef71	-0.06344498
212	0xbe734d68	-0.23759997
213	0x3c878716	0.016543906
214	0x3b8db47d	0.0043244944
215	0xbd8de333	-0.069281004
216	0x3d45e5b9	0.048314784
217	0xbb728280	-0.0037004054
218	0xbdeb0e81	-0.11477376
219	0xbdbadafb	-0.091237985
220	0xbd19f7d4	-0.037589863
221	0x3db36bed	0.087608196
222	0xbe00402d	-0.12524481
223	0xbddc7526	-0.10764532
224	0xbdf7ba33	-0.120960616
225	0xbe88a489	-0.2668803
226	0xbe031c2e	-0.12803718
227	0xbdcaafab	-0.09896787
228	0x3de0bc6f	0.10973441
229	0x3b86edb8	0.0041176938
230	0x3c29eae3	0.010370943
231	0x3de5817e	0.11206339
232	0x3ce53e1c	0.027983718
233	0xbdc231a7	-0.09482127
234	0xbe2dc110	-0.16968179
235	0xbe0c752c	-0.13716573
236	0xbc905bfc	-0.017621987
237	0xbcc34095	-0.023834506
238	0x3d295739	0.041342948
239	0x3e358ed5	0.17730267
240	0x3db82a11	0.089923985
241	0x3e2206e8	0.15822947
242	0x3e13a7e4	0.14419514
243	0xbd2226a5	-0.039587636
244	0xbce57c41	-0.02801335
245	0x3dab0b9e	0.08351825
246	0x3d5b0dbd	0.0534799
247	0x3d41361d	0.047170747
248	0xbd587697	-0.05284747
249	0xbcf2a302	-0.029618744
250	0x3cf1b1fb	0.029503813
251	0x3de4db57	0.11174648
252	0x3b9ecd67	0.004846263
253	0xbc80bfad	-0.015716398
254	0xbda13ed8	-0.078733146
255	0x3e12df1f	0.14342926

cnn.3.bias f4 [32]
0	0xbde972f5	-0.113988794
1	0xbcf49d7e	-0.029860254
2	0x3d2cdba1	0.042201642
3	0xbbec5eb6	-0.007213439
4	0x3d7366fc	0.059424385
5	0xbe033175	-0.12811835
6	0x3d6069ac	0.054788277
7	0xbd85729b	-0.06516
8	0xbc9c9bdb	-0.019117286
9	0xbd3ea6aa	-0.046545662
10	0x3c92d71e	0.017924841
11	0xbcf017b8	-0.029308185
12	0x3c71e556	0.014764151
13	0x3de80a33	0.1133007
14	0x3dcf1a46	0.10112433
15	0x3d2edc2c	0.04269044
16	0x3d999907	0.07499891
17	0xbc3b4442	-0.011429848
18	0x3df9606f	0.121765964
19	0x3bf8c868	0.0075922497
20	0x3d8e66f9	0.06953234
21	0xbd09e56b	-0.033666056
22	0xbde7fea2	-0.11327864
23	0xbcbcab91	-0.023031028
24	0xbd89369e	-0.066998705
25	0x3daf175c	0.08549377
26	0x3db6697e	0.0890684
27	0x3d81ff65	0.06347541
28	0x3d94a0d1	0.07257236
29	0xbd44fd91	-0.048093382
30	0xbd2e020d	-0.042482425
31	0xbd409444	-0.047016397

gru.weight_ih_l0 f4 [192, 32]
0	0x3bb66951	0.005566754
1	0x3d4cfeef	0.05004781
2	0x3cd96c39	0.026540862
3	0x3c8f52ba	0.017495502
4	0x3c1f6402	0.009728434
5	0x3cd693a5	0.02619345
6	0xbbb83b4f	-0.0056223045
7	0x3d28da5d	0.041223872
8	0xbb8ba6a3	-0.004261808
9	0xbb979b45	-0.004626664
10	0x3c825c6e	0.015913215
11	0x3ae7db40	0.0017689243
12	0xbc631dc5	-0.013862078
13	0x3d2141f1	0.039369527
14	0x3d046fd4	0.03233321
15	0x3c78ac50	0.015177801
16	0x3c97e0af	0.018539755
17	0x3c683afc	0.014174219
18	0x3d0f1e0e	0.03494077
19	0x3cdfb7d0	0.027309328
20	0x3c2f7e4f	0.010711267
21	0xbb43b8c1	-0.002986476
22	0x3ce9ee8d	0.028556133
23	0x3cdb8a77	0.026799424
24	0x3b3ed78b	0.0029120173
25	0xbd57a53c	-0.052647814
26	0x3d195c4d	0.03744154
27	0x3d23c019	0.03997812
28	0x3cd0508c	0.025429033
29	0x3c917c5b	0.017759493
30	0x3c6db8e8	0.014509417
31	0xbca9a0f9	-0.02070664
32	0x3d5e62d3	0.054293465
33	0xbd8349f6	-0.06410591
34	0xbcc79023	-0.024360722
35	0x3cb5c32c	0.022187792
36	0xbb9272b1	-0.0044692387
37	0xbc9de328	-0.019273356
38	0x3c2f0989	0.010683426
39	0xbc36e787	-0.011163599
40	0x3bed8dd2	0.0072495723
41	0x3cc29374	0.023751952
42	0xbab784e9	-0.0014001402
43	0x3d26621e	0.040620916
44	0x3d20edff	0.03928947
45	0x3c3ee93b	0.011652286
46	0xbd7ceb04	-0.061747566
47	0x3c59d784	0.013296012
48	0x3d1f5e29	0.038908157
49	0x3c1b1506	0.009465462
50	0xbc9fcd89	-0.019507186
51	0xbccb4dfa	-0.024817456
52	0x3d091041	0.033462767
53	0x3c126100	0.008934259
54	0x3cc38384	0.023866422
55	0x3b1205df	0.0022281331
56	0x3b7b2270	0.0038320087
57	0x3c663c00	0.014052391
58	0xbce3e916	-0.027821105
59	0xbcc247b3	-0.02371583
60	0x39d79cab	0.00041124722
61	0x3d11dfc6	0.035613798
62	0x3c3680ad	0.011139077
63	0xbc6e266c	-0.014535528
64	0x3a2f7476	0.0006693074
65	0x3d397568	0.045277983
66	0x3cf45598	0.02982597
67	0xbcaf3f11	-0.021392377
68	0xbbb09cea	-0.0053897994
69	0x3c05d2ca	0.008167932
70	0x3d311998	0.0432373
71	0x3c91461b	0.017733624
72	0xbbbd1f2b	-0.005771538
73	0xba5839a8	-0.00082483375
74	0x3d3d1ce9	0.04617015
75	0x3d026d7f	0.031842705
76	0x3b17705c	0.0023107743
77	0x3d42ccb6	0.04755851
78	0x3bc2b06e	0.005941442
79	0x3bd0b4d2	0.0063692117
80	0x3ce707e1	0.028202
81	0x3d1098d1	0.035301987
82	0xbc155794	-0.0091151185
83	0x3d20dd1c	0.039273366
84	0x3c0176b6	0.007901838
85	0x3d340e63	0.043959033
86	0xbc150f98	-0.009097956
87	0xbc270a92	-0.010195391
88	0x3d0e6a13	0.03476913
89	0x3d9259b5	0.071460165
90	0x3d239fc4	0.039947286
91	0x3c898fa9	0.016792135
92	0xbc5e5615	-0.013570328
93	0xbc6be128	-0.014396943
94	0x3cca9788	0.024730459
95	0x3d6b2917	0.057412233
96	0x3d07ee6d	0.033186365
97	0x3d58394d	0.05278902
98	0x3d00f440	0.031482935
99	0x3cef51b6	0.029213767
100	0xbb9deb95	-0.0048193433
101	0x3d3948d7	0.04523548
102	0xbcb8b4dc	-0.022547178
103	0x3d8047bb	0.062636815
104	0x3a4dcea1	0.00078509195
105	0x3bab148b	0.005220955
106	0x3c20974d	0.009801698
107	0x3cdc6a71	0.026906224
108	0xba9b3bf6	-0.0011843431
109	0x3d197151	0.037461583
110	0x3d84be48	0.06481606
111	0x3d274319	0.040835474
112	0x3c8e6030	0.01737985
113	0x3c41fbef	0.011839851
114	0x3ca11303	0.019662386
115	0xba96abb1	-0.001149526
116	0xb9b061a8	-0.00033642096
117	0x3c24b81f	0.0100536635
118	0x3d0fbbb0	0.035091102
119	0x3d05c057	0.032654133
120	0xbd1209f6	-0.03565403
121	0xbcb6df4e	-0.022323277
122	0x3d3464a8	0.044041306
123	0x3cbed8c6	0.023296725
124	0x3c0ce6eb	0.008599977
125	0x3c4d37d2	0.012525516
126	0x3cd6d613	0.026225125
127	0xbca11c42	-0.019666795
128	0x3cdfd24a	0.027321953
129	0x3d2272f8	0.039660424
130	0x3c876c3e	0.016531106
131	0xbca2f64f	-0.01989284
132	0x3c981cbd	0.018568391
133	0x3c17ca13	0.009264487
134	0x3d60f6bd	0.054922808
135	0x3d2e58b4	0.042565063
136	0x3b3bd0bf	0.0028658358
137	0x3bb66a70	0.0055668876
138	0x3cad5b87	0.021161808
139	0x3d02675c	0.031836852
140	0x3c5f2cf3	0.013621557
141	0x3d37b7d3	0.044853043
142	0xbbb7044d	-0.0055852295
143	0x3c9b72e8	0.01897569
144	0x3d2ff5dd	0.042959083
145	0x3c9d704f	0.019218592
146	0x3d12a8cc	0.03580551
147	0x3d3ebf45	0.046569128
148	0xbbee01b9	-0.007263389
149	0x3d033683	0.03203441
150	0x3c90a8e1	0.017658653
151	0x3c0cf7b3	0.008603978
152	0x3cef76d9	0.029231476
153	0x3c64f2ee	0.013973935
154	0x3d13b685	0.036062736
155	0x3d40ba35	0.04705258
156	0x3c8642e0	0.01638931
157	0x3b107c63	0.0022046797
158	0x3cd91e73	0.026503777
159	0x3c051dc5	0.008124773
160	0xbb2c38ef	-0.0026279052
161	0xba9b376c	-0.0011842079
162	0x3c7df829	0.0155010605
163	0x3b6342e6	0.0034677326
164	0x3c852aa9	0.016255694
165	0x3c923594	0.017847814
166	0x3c6815ec	0.014165383
167	0xbaee2189	-0.0018167953
168	0x3b9a9931	0.004717969
169	0x3ce64b44	0.028112061
170	0x3c5a129b	0.0133101
171	0x3b854c2d	0.0040679188
172	0x3c2a6750	0.010400608
173	0x3c6d00ce	0.014465524
174	0xbbd3a2e9	-0.0064586294
175	0x3bf35c83	0.0074267997
176	0xbbe99d20	-0.0071293265
177	0x3c474449	0.012162277
178	0x3cb0d954	0.021588005
179	0x3bc9a7b5	0.0061540254
180	0x3bee8d3d	0.0072800205
181	0x3ccc6fb3	0.024955606
182	0x39bd4237	0.00036098223
183	0x3ca49961	0.020092668
184	0x3b93174d	0.0044888617
185	0x3cce47aa	0.025180656
186	0x3c1b7134	0.009487439
187	0x3b80634f	0.0039180885
188	0x3ccfc81b	0.025363972
189	0x3cfd86dc	0.030948095
190	0x3cf8cf2a	0.030372221
191	0x3c220e9e	0.00989118
192	0xbb3c93e9	-0.0028774685
193	0x3d847b8a	0.06468876
194	0x3cc09dd4	0.023512758
195	0x3a39ec2e	0.00070923835
196	0x3bcce21b	0.00625254
197	0x3d867d6b	0.0656689
198	0x3d2c20f9	0.042023633
199	0x3c44d772	0.012014257
200	0xbca8f177	-0.020622952
201	0xbc8ceced	-0.017202819
202	0x3d652f07	0.055953052
203	0x3ce5dec4	0.028060324
204	0xbc57b45b	-0.013165559
205	0x3cb72e79	0.022361027
206	0x3d35dc20	0.04439938
207	0xbc88cf6d	-0.01670047
208	0xbb8d07af	-0.0043038945
209	0x3d1b3675	0.03789373
210	0xbc9168be	-0.01775014
211	0x3c8c2f49	0.017112391
212	0x3ae6262e	0.0017558986
213	0x3d83e74e	0.06440602
214	0x3c7def57	0.015498958
215	0x3c9193b9	0.017770635
216	0x3c1f0f64	0.009708259
217	0x3d4a8d8f	0.049451407
218	0x3d71cb99	0.059032056
219	0x3cd43f2b	0.025909027
220	0xbb8d0ef0	-0.004304759
221	0x3c586b32	0.013209151
222	0x3cbb2cc8	0.022848502
223	0xbc16d0f3	-0.009205091
224	0xbc0a36f4	-0.008435953
225	0x3cb4f4cc	0.022089384
226	0x3ac986e5	0.0015375285
227	0xbb495c66	-0.003072524
228	0x3d7d0c11	0.061779086
229	0x3d3a40ea	0.045472063
230	0xbd09ce27	-0.033643868
231	0x3cbd4950	0.023106247
232	0xbc8a0354	-0.01684729
233	0x3c37e511	0.011224047
234	0x3c8796d8	0.01655142
235	0x3b15e28c	0.0022870628
236	0x3c753478	0.014966123
237	0x3c2d3248	0.01057107
238	0x3d8695ec	0.06571564
239	0x3c4165ab	0.011804025
240	0xbc5a6273	-0.013329136
241	0x3cc93b3e	0.024564382
242	0x3b1c124f	0.0023814624
243	0xbc5ae792	-0.013360875
244	0xbcaecc82	-0.021337751
245	0x3d1f47ab	0.038886707
246	0xbc722b18	-0.014780782
247	0x3d3d279a	0.046180345
248	0xbd076698	-0.033056825
249	0x3c0fa6c8	0.008767791
250	0xbc6b1977	-0.014349333
251	0x3cac4d08	0.021032825
252	0x3d6f737a	0.058459736
253	0x3d1eb03e	0.038742296
254	0x3bc5ad0a	0.0060325908
255	0xbcb006e2	-0.021487657

gru.weight_hh_l0 f4 [192, 64]
0	0xbc1698c1	-0.009191693
1	0x3c8c3fac	0.017120205
2	0xbd78c5ca	-0.0607355
3	0x3c3b5fb7	0.011436394
4	0x3ce0c2e2	0.027436677
5	0x3b9de2a7	0.004818279
6	0xbbe5adf3	-0.0070092618
7	0x3ca4395c	0.020046882
8	0x3cb65fa3	0.0222624
9	0x3b9bf586	0.0047594933
10	0x3ba6c572	0.0050894553
11	0xbc519457	-0.012791715
12	0x3c6a2bcd	0.0142926695
13	0xbb627335	-0.0034553532
14	0xbb026faf	-0.0019902994
15	0xbc28cd99	-0.010302925
16	0x3b51ce3c	0.0032013794
17	0xbb41f3fa	-0.0029594884
18	0x3c538f8f	0.012912645
19	0xbb065e3b	-0.0020502943
20	0xbcc4f292	-0.024041448
21	0x3c4560ac	0.012046974
22	0xbbcd15e0	-0.006258711
23	0xbc8a740f	-0.016901044
24	0x3b656305	0.0035001647
25	0x3bd56860	0.0065126866
26	0x3cc1fa2e	0.023678865
27	0xbbaf189a	-0.005343509
28	0xbc5ac695	-0.01335301
29	0x3b98c452	0.004662075
30	0xbcc67026	-0.024223398
31	0x3d05e6e4	0.032690898
32	0x3c940e47	0.018073214
33	0xbbe0ef21	-0.006864444
34	0xbc0ea7c2	-0.008706989
35	0xbc521aea	-0.0128238
36	0x3cc95fe7	0.024581863
37	0xbae63fa4	-0.0017566574
38	0x3c09dc35	0.008414318
39	0xbba7b4a2	-0.0051179687
40	0x3c9b5041	0.018959166
41	0x3c404801	0.011735917
42	0x3ba2b8da	0.0049658837
43	0xbc075b56	-0.008261522
44	0xbaaab21d	-0.0013023053
45	0xbc190164	-0.00933871
46	0x3b3efd62	0.0029142727
47	0x3c8bbbc4	0.017057307
48	0x3c2ded4a	0.010615656
49	0x3c1a0e94	0.00940289
50	0xb8c312d9	-9.301835e-05
51	0x3911e2fc	0.00013912836
52	0x3d14d3a5	0.036334652
53	0x3c284910	0.010271326
54	0x3c4b1802	0.012395861
55	0x3a4df23e	0.00078562263
56	0x3c82e199	0.015976714
57	0xbc9d2d43	-0.019186622
58	0xbce47f43	-0.027892714
59	0xba63d0b5	-0.00086904626
60	0xbd1a54f7	-0.037678685
61	0xbc5b2e22	-0.013377698
62	0xbbff75d8	-0.0077960305
63	0xbaa9839a	-0.0012932897
64	0xbd410622	-0.04712499
65	0x3c386010	0.011253372
66	0xbced5041	-0.028968932
67	0xbd1c2fc2	-0.038131483
68	0x3c737de1	0.014861555
69	0x3a263a4b	0.0006341084
70	0x3d41002c	0.047119305
71	0x3bcc6eb1	0.0062387814
72	0xbc28bc28	-0.010298766
73	0xbd1aadd6	-0.03776344
74	0xbc9d531c	-0.019204669
75	0x3cb6ab12	0.02229837
76	0x3aef63e8	0.0018264027
77	0x3b04b8e8	0.0020251814
78	0xbc5600c0	-0.013061702
79	0x3c099a93	0.00839867
80	0xbc757ea8	-0.0149838105
81	0x3c802bbc	0.015645854
82	0x3ceab861	0.028652372
83	0xbbd1a2d7	-0.006397586
84	0xbbe2e00e	-0.006923682
85	0x3a863979	0.0010240517
86	0x3c7eb0af	0.015545054
87	0xbd2254c8	-0.039631635
88	0x3d7e7494	0.062122896
89	0x3d35e33e	0.04440617
90	0x3ccb99c4	0.024853595
91	0x3d0309b1	0.031991664
92	0xbc86adef	-0.01644036
93	0x3cdfc5c1	0.027315976
94	0xbd267335	-0.040637214
95	0x3c3e6bc7	0.011622376
96	0xbb87c6be	-0.004143565
97	0xbc0c0b4d	-0.008547616
98	0xbc220fd5	-0.00989147
99	0xbcb2dbc9	-0.021833317
100	0xbc39e60c	-0.011346351
101	0x3c23e726	0.010003841
102	0x3c5c11f6	0.013432017
103	0xbc73ee9a	-0.01488843
104	0x3cb82c6e	0.022482123
105	0xbcadf7dc	-0.021236353
106	0x3c3cfb9d	0.011534599
107	0xbbf1d41f	-0.007380023
108	0xbc1cd180	-0.009571433
109	0xbb61ee20	-0.003447421
110	0x3c82f75f	0.015987096
111	0xb86bae6e	-5.6190816e-05
112	0xbcd69caf	-0.02619776
113	0xbb6d63cb	-0.0036222811
114	0x3cd779d0	0.026303202
115	0xbce00c4e	-0.027349617
116	0x3c053e6a	0.008132556
117	0x3cbc5e16	0.022994082
118	0xbce0866c	-0.027407847
119	0x3b40be7b	0.002941041
120	0x3b1667dc	0.0022950089
121	0xbc5cedf3	-0.013484466
122	0xbc84c5fa	-0.016207684
123	0xbbf90204	-0.0075991172
124	0xbce1596b	-0.027508458
125	0xbc8090b5	-0.015694002
126	0xbd0b451f	-0.034001466
127	0x3b7313fb	0.0037090767
128	0x3bedee02	0.0072610388
129	0xbc6d7226	-0.014492547
130	0x3d015ed3	0.031584572
131	0x3c58f50f	0.01324202
132	0xbcb5748e	-0.022150304
133	0xbd12506b	-0.035721224
134	0xbc926252	-0.017869148
135	0xbcd726df	-0.026263652
136	0x3bcc7ce1	0.0062404727
137	0x3cada6b9	0.021197664
138	0x3c894944	0.016758569
139	0x3c1f7a59	0.00973376
140	0x3c7655f5	0.015035142
141	0xbd0c9466	-0.03432121
142	0xbc33655f	-0.010949462
143	0x3bfbc250	0.007683076
144	0x3b037dc3	0.0020063973
145	0x3c883df5	0.016631106
146	0xbcd5f482	-0.026117567
147	0x3c12b1bc	0.008953508
148	0x3c77bab8	0.015120201
149	0x3d024f3d	0.03181385
150	0xbac6a0ca	-0.001515412
151	0x3cad8ea3	0.021186179
152	0xbd01532f	-0.03157347
153	0xbcb478c9	-0.022030251
154	0x3c3abe6e	0.011397941
155	0xbcf9db55	-0.030500093
156	0x3b04f20b	0.002028587
157	0x3c9c98ab	0.019115767
158	0x3aed0516	0.0018083181
159	0x3abf5784	0.0014598225
160	0x3cad153e	0.021128293
161	0xbcd420c9	-0.02589454
162	0xbc8371a0	-0.016045392
163	0x3d1b295a	0.037881233
164	0x3cb68723	0.022281235
165	0x3c19ce85	0.009387617
166	0x3bf9c155	0.007621924
167	0xbd1d5cb7	-0.038418498
168	0xbc00b8e8	-0.007856585
169	0x3b46e657	0.0030349696
170	0x3d5590e7	0.052140143
171	0x3c15d76f	0.009145602
172	0xbd2b3824	-0.041801587
173	0x3ca6f438	0.020380124
174	0x3d08da68	0.033411413
175	0x3d0610c8	0.032730848
176	0x3ab9f473	0.0014187231
177	0xbc828fc7	-0.015937699
178	0x3d0ecdf7	0.034864392
179	0x3c983f5b	0.018584898
180	0xbcf84309	-0.030305402
181	0xbb6de224	-0.003629812
182	0x3bbe08e2	0.0057993988
183	0xbc078c04	-0.008273128
184	0x3c9f86c0	0.019473433
185	0xbd125101	-0.035721783
186	0x3cc647a5	0.024204085
187	0xba8e48a5	-0.001085539
188	0x3c25ab4c	0.010111641
189	0x3cd9b0f1	0.02657363
190	0x3d505efc	0.050871834
191	0x3b787431	0.0037911052
192	0x3c987725	0.0186115
193	0x3ccc57e2	0.02494425
194	0xbcec4b29	-0.028844433
195	0xbbcbcab0	-0.0062192306
196	0x3c95d9f7	0.01829241
197	0xbcb008bd	-0.021488542
198	0xb978d763	-0.00023731361
199	0xbc407b54	-0.011748154
200	0x3d18ddf9	0.037321065
201	0x3c898d48	0.016791001
202	0xbc6d0473	-0.014466393
203	0xbc69c9c1	-0.014269293
204	0x3d45f712	0.048331328
205	0xbcc68246	-0.024232041
206	0xbb0cd9d2	-0.0021492136
207	0xbcbbf09c	-0.02294188
208	0x3d082cc3	0.033245813
209	0x3c8a2696	0.016864102
210	0xbc707c7d	-0.014678118
211	0xbcab1ab9	-0.020886766
212	0xbd3e4b55	-0.04645856
213	0x3d052182	0.03250266
214	0xbb905037	-0.0044040936
215	0x3a3f854d	0.0007305935
216	0x3c2afcbe	0.010436235
217	0x3c052211	0.008125798
218	0x3d131c31	0.035915557
219	0xbcd0bc74	-0.025480486
220	0xbc0f6ccd	-0.0087539675
221	0x3c26917d	0.010166523
222	0x3c670738	0.014100842
223	0x3ce639c1	0.028103711
224	0x3d292cab	0.041302364
225	0xbd2fc68c	-0.04291396
226	0x3c726e3a	0.014796788
227	0x3c4194c2	0.011815252
228	0x3c9bbf54	0.01901213
229	0x3cd096ab	0.02546247
230	0xbc5edfde	-0.013603179
231	0xbbbfb8c0	-0.0058508813
232	0x3d3d7140	0.04625058
233	0xbd2a6ccc	-0.041607663
234	0x3ca25bcc	0.019819163
235	0xbcfb4eff	-0.030677317
236	0xbd0c09c9	-0.03418902
237	0x39c3f78c	0.00037377735
238	0xbb22e3b1	-0.0024854953
239	0x3d0492b6	0.032366477
240	0x3ca76a7a	0.020436514
241	0x3cd14b33	0.025548553
242	0x3c5b2426	0.013375318
243	0xbb8a0670	-0.004212193
244	0x3c9bdc48	0.019025937
245	0xbcaca7b7	-0.021076066
246	0x3ba15dac	0.0049244966
247	0x3d35ade5	0.044355292
248	0xbc0646c6	-0.008195585
249	0xbce949da	-0.028477598
250	0xbcf71f1a	-0.030166198
251	0x3cd6703f	0.02617657
252	0xbd36376e	-0.044486456
253	0x3c32643b	0.010888155
254	0x3cdade63	0.02671737
255	0xbca0bf62	-0.019622508

gru.bias_ih_l0 f4 [192]
0	0xbbea841b	-0.0071568615
1	0x3c116697	0.008874557
2	0x3d597820	0.053093076
3	0x3c861108	0.016365543
4	0x3d0160ed	0.031586576
5	0x3d11ebba	0.035625197
6	0x3d24ae8d	0.040205527
7	0x3d2ef562	0.042714484
8	0x3d6740cc	0.05645828
9	0x3cb41e0e	0.021986987
10	0xbcd9a229	-0.026566582
11	0x3d39c143	0.045350324
12	0x3d401faf	0.046905216
13	0x3b9e282f	0.0048265676
14	0x3cac617b	0.021042576
15	0x3c7e28cb	0.0155126555
16	0x3c869765	0.016429612
17	0x3d4ab204	0.049486175
18	0x3d4af67e	0.04955148
19	0x3cc13021	0.02358252
20	0x3c1dcb76	0.009631028
21	0x3cfb829b	0.030701926
22	0xba0bf562	-0.0005338994
23	0x3c70050f	0.014649644
24	0x3c3bd561	0.011464448
25	0x3c64280b	0.013925563
26	0x3c782dc0	0.015147626
27	0x3c012216	0.007881662
28	0x3dc6c0e9	0.097047634
29	0xbc543f40	-0.012954533
30	0x3db630ea	0.08896048
31	0x3c7d4fcb	0.015460919
32	0x3bd48907	0.0064860615
33	0x3d124c37	0.035717215
34	0x3d03ca9e	0.032175653
35	0x3cc43957	0.023953123
36	0x3dca9c59	0.09893102
37	0x3d07af08	0.033125907
38	0x3d1f5e2c	0.03890817
39	0xb8fa520d	-0.00011936212
40	0x3cd91035	0.026496986
41	0x3d6cd379	0.057818864
42	0x3d878ee6	0.066190526
43	0xbb6e0870	-0.0036320947
44	0x3d15b5d7	0.03655037
45	0x3d4db09d	0.05021726
46	0x3d228353	0.03967602
47	0x3cdc1a66	0.026868057
48	0x3cb98d4f	0.022650389
49	0x3d28aef5	0.041182477
50	0x3d3919c8	0.045190603
51	0x3d38ed30	0.045148075
52	0x3ca1cb83	0.019750362
53	0x3c94b805	0.018154154
54	0x3d1da4ef	0.03848737
55	0x3dca3eb6	0.098752424
56	0x3cda44b2	0.026644085
57	0x3be85894	0.0070906375
58	0x3ca2943d	0.019846076
59	0x3cd3fb02	0.025876526
60	0x3d25686d	0.04038279
61	0x3d37584d	0.044761945
62	0x3d8b1987	0.06791978
63	0x3c5484fb	0.012971158
64	0xbcf35314	-0.0297027
65	0xbc897eed	-0.016784156
66	0xbc3216ee	-0.010869725
67	0xbcb2d9d1	-0.021832379
68	0xbcb19f54	-0.021682419
69	0x3bfa81fc	0.00764489
70	0x3d0f0ba0	0.034923196
71	0x3cb5fc29	0.022214966
72	0x3d22cbdb	0.039745193
73	0x3bdb31d2	0.0066892887
74	0x3d044bbe	0.032298796
75	0xbca3a047	-0.019973887
76	0x3ce287b2	0.027652595
77	0x3c56b154	0.013103802
78	0x3c227f29	0.009918013
79	0xbc22bcdd	-0.009932724
80	0x3d07407a	0.033020474
81	0xbd66eb52	-0.056376763
82	0x3c887d37	0.01666127
83	0xbdc5f907	-0.09666639
84	0xbd604242	-0.05475069
85	0x3dc55b9b	0.09636613
86	0xbcb7e146	-0.022446286
87	0x3c3abc39	0.011397415
88	0xbc837d05	-0.016050825
89	0xbd1739c4	-0.036920324
90	0xbd072470	-0.032993734
91	0x3d0c36cb	0.034231942
92	0x3ce15336	0.027505498
93	0xbc7bad22	-0.015361102
94	0xbd8acfa2	-0.06777884
95	0x3d94edc8	0.07271916
96	0xbce6015f	-0.028076826
97	0x3bf2ae72	0.0074060494
98	0xbc6c11ef	-0.014408573
99	0xbd1f2a31	-0.038858596
100	0xbdfe956f	-0.12430846
101	0xbdb4fe07	-0.08837514
102	0xbd34e13d	-0.044160116
103	0xbb9add84	-0.0047261138
104	0xbd3b88bd	-0.0457847
105	0xbccbef4e	-0.024894383
106	0x3d974542	0.07386257
107	0xbd4ef53b	-0.05052684
108	0xbad60117	-0.0016327229
109	0x3d5dcbab	0.05414931
110	0xbcad7ae0	-0.021176755
111	0xbcea089c	-0.028568558
112	0xbcf78ce0	-0.030218542
113	0xbcf628a3	-0.030048674
114	0xbcc1c3a8	-0.023652866
115	0xbd9e3114	-0.07724205
116	0xbca02bb3	-0.019552087
117	0x3d21e660	0.039526343
118	0x3937808a	0.00017500125
119	0x3d45ae70	0.04826206
120	0xbca5615e	-0.02018803
121	0xbbc83512	-0.006109842
122	0x391376bd	0.00014063246
123	0x3d32abae	0.043620758
124	0xbd570109	-0.05249122
125	0x3bb95cad	0.0056567998
126	0xbc14df56	-0.009086451
127	0xbcf0bec7	-0.029387845
128	0x3d833bdb	0.06407901
129	0xbca7c35b	-0.020478895
130	0x3e602ec6	0.21892843
131	0xbd8fdcd4	-0.070245415
132	0xbd1323e7	-0.03592291
133	0xbcf7aaf7	-0.03023289
134	0x3dad6f74	0.084685236
135	0xbdac4507	-0.084116034
136	0x3d04aa9c	0.03238927
137	0xbc6e787b	-0.014555092
138	0xbda062f3	-0.07831373
139	0x3d3ec8d0	0.04657823
140	0x3d9e7cd4	0.07738653
141	0xbc495970	-0.01228939
142	0x3c88751c	0.016657405
143	0x3d14cc66	0.036327742
144	0x3d1f3174	0.03886552
145	0xbc5c2cbc	-0.0134384
146	0x3db81287	0.08987909
147	0xbd46fbc6	-0.048579954
148	0xbdf2ff1d	-0.11865065
149	0x3cc85930	0.02445659
150	0x3dd874df	0.105691664
151	0x3dd8464c	0.10560283
152	0xbc834b84	-0.01602722
153	0x3d43e45a	0.047825195
154	0xbda09af2	-0.078420535
155	0xbd598dcd	-0.053113747
156	0x3d00121b	0.031267267
157	0xbc9a1a51	-0.018811377
158	0x3cb329a1	0.021870436
159	0x3d099f82	0.033599384
160	0x3deaf09a	0.11471672
161	0xbdf5fa64	-0.12010649
162	0xbcbc09d6	-0.022953909
163	0x3dc73e52	0.097286835
164	0xbd04b3eb	-0.032398146
165	0x3d845b88	0.06462771
166	0xbcc669af	-0.024220316
167	0xbdc6ae05	-0.0970116
168	0xbdd67b03	-0.104726814
169	0xbe027dea	-0.12743345
170	0x3ce9b7fe	0.028530117
171	0xbd97036e	-0.07373701
172	0xbd9b60c1	-0.07586814
173	0x3d9fb9c2	0.07799102
174	0xbc9aa9d8	-0.018879816
175	0x3da6fb9c	0.081534594
176	0x3d128a8a	0.035776652
177	0x3d0289ff	0.031869885
178	0x3dfe1590	0.124064565
179	0xbd10be20	-0.035337567
180	0xbd84c4af	-0.06482827
181	0xbcfa622e	-0.030564394
182	0xbe0d158e	-0.13777754
183	0x3adb527c	0.0016732956
184	0xbde8e129	-0.11371071
185	0xbe14eb04	-0.14542776
186	0xbd3e508e	-0.04646354
187	0x3dc4b313	0.09604468
188	0x3dcd98a5	0.1003888
189	0x3dec37ff	0.11534118
190	0x3de2dee0	0.11077666
191	0x3d197f8b	0.03747515

gru.bias_hh_l0 f4 [192]
0	0xbc775548	-0.015096016
1	0x3c7b0e4f	0.015323236
2	0x3d56b592	0.052419253
3	0x3d09e8fe	0.033669464
4	0x3ce4a224	0.027909346
5	0x3d291c77	0.04128691
6	0x3d56ed65	0.05247249
7	0x3ce4fb70	0.027951926
8	0x3d2ca59b	0.04215012
9	0x3d56265b	0.052282672
10	0xbca6a7b2	-0.020343635
11	0x3d295723	0.041342866
12	0x3d415b74	0.047206357
13	0x3c8a9ed4	0.016921438
14	0xbc37e534	-0.01122408
15	0x3c7e28b9	0.015512639
16	0xbcd1b8ad	-0.025600756
17	0x3d7c788e	0.061638407
18	0xbad4d97b	-0.0016239131
19	0x3cf2bff3	0.029632544
20	0x3c177ea8	0.009246506
21	0x3ccafe59	0.024779486
22	0x3be37418	0.0069413297
23	0x3c78ddfb	0.015189643
24	0x3c36823b	0.011139448
25	0x3d1a39f2	0.037652917
26	0x3c4cfaa5	0.01251093
27	0x3cd5ff5c	0.026122741
28	0x3dae3dd1	0.08507884
29	0xbc2648b3	-0.010149169
30	0x3d9bdecc	0.076108545
31	0x3c7662dc	0.015038218
32	0x3bd0e14a	0.006374513
33	0x3d150349	0.036380086
34	0xbd117d20	-0.03551972
35	0x3b14bd26	0.002269575
36	0x3dbbef4f	0.09176504
37	0x3cf27758	0.029597923
38	0x3d198c05	0.03748705
39	0x3ba00eca	0.0048845755
40	0x3ce81994	0.02833251
41	0x3d35b093	0.044357847
42	0x3d880cad	0.06643043
43	0xbb715f11	-0.0036830346
44	0x3d0972e6	0.03355684
45	0xbd0de874	-0.034645513
46	0x3d3688ed	0.044564176
47	0x3bbba842	0.005726845
48	0x3cb63ac4	0.022244819
49	0x3d6177c7	0.05504587
50	0x3d3a2f3d	0.045455206
51	0x3d35c9c3	0.044381868
52	0x3bf5682d	0.0074892254
53	0x3c611df5	0.0137400525
54	0x3d2cc0ba	0.042175986
55	0x3db388cf	0.087663285
56	0x3d9e9211	0.07742704
57	0x3b93dffd	0.0045127855
58	0x3c814c0f	0.015783338
59	0x3d086f54	0.033309296
60	0x3d26a8f8	0.040688485
61	0x3d60e75f	0.054908153
62	0x3cf4ecfc	0.02989816
63	0x3c57ba97	0.013167045
64	0xbc88086e	-0.016605582
65	0xbcbba017	-0.022903485
66	0xbc153bed	-0.009108526
67	0xbd3bec05	-0.045879383
68	0xbc5fbb8b	-0.013655554
69	0x3c9138b4	0.017727233
70	0xbba7cf2a	-0.0051211314
71	0xbcea853a	-0.02862798
72	0x3ca57e31	0.020201774
73	0x3d83ddaa	0.064387634
74	0xbb829e3c	-0.003986148
75	0xbc57bda9	-0.013167777
76	0x3cdb004a	0.026733536
77	0x3c8ccb39	0.017186748
78	0xbc8fd312	-0.0175567
79	0xbc22bf94	-0.009933371
80	0xbcadde66	-0.021224212
81	0xbd8e7c98	-0.06957358
82	0xbb9c8259	-0.004776281
83	0xbda2a42c	-0.079414696
84	0xbd609c41	-0.054836515
85	0x3df28a0b	0.11842736
86	0xbc2f1cb3	-0.010687995
87	0x3ca48a4c	0.020085476
88	0xbd09a03d	-0.03360008
89	0xbd24345c	-0.040088996
90	0xbd0db83d	-0.03459953
91	0xbc86aef2	-0.016440842
92	0xbd20b761	-0.039237384
93	0xbd2e18b7	-0.04250404
94	0xbd80f6dc	-0.06297085
95	0x3da8d2c8	0.08243328
96	0xbcca6dc4	-0.024710543
97	0x3c047344	0.008084122
98	0xbd20e1c8	-0.03927782
99	0xbd3790b4	-0.044815734
100	0xbdfee5ff	-0.12446212
101	0xbdae9410	-0.085243344
102	0xbc842201	-0.016129496
103	0xbbb9b396	-0.0056671603
104	0xbd3d378d	-0.046195555
105	0xbd17d9dc	-0.037073
106	0x3c539005	0.012912755
107	0xbd4f1b4b	-0.050563138
108	0xbbcee99c	-0.0063144695
109	0xbd135353	-0.035968136
110	0xbb9dd405	-0.0048165345
111	0xbccce05c	-0.025009327
112	0x3c7e1381	0.01550758
113	0xbcf6e38e	-0.030137803
114	0xbc6295b7	-0.01382964
115	0xbd660ecf	-0.056166466
116	0xbd0d12a9	-0.034441624
117	0x3d127c64	0.03576316
118	0x3c8110b8	0.015755042
119	0x3c83c128	0.016083315
120	0xbccaa864	-0.024738498
121	0xbc014227	-0.007889307
122	0xbc398b80	-0.011324763
123	0xbcf241d0	-0.029572397
124	0xbd4e2702	-0.05033017
125	0xbd35fff1	-0.044433538
126	0x3b084f74	0.002079931
127	0x3b841ed7	0.0040319967
128	0xbdbc6f0a	-0.092008665
129	0x3d5a77de	0.05333697
130	0x3dd4acd7	0.10384529
131	0xbb060b5d	-0.002045355
132	0xbdb65517	-0.08902948
133	0xbddf889b	-0.10914727
134	0xbdacb455	-0.08432833
135	0xbdbcb56b	-0.0921429
136	0x3dde9db0	0.1086992
137	0xbda6a482	-0.08136846
138	0x3be6e610	0.0070464686
139	0x3d137528	0.0360004
140	0xbcb6d34a	-0.022317547
141	0xbdd0365d	-0.10166619
142	0xbdd6df1f	-0.10491776
143	0x3d0409c2	0.03223587
144	0xbc84749e	-0.016168889
145	0x3d558048	0.05212429
146	0x3da1033f	0.07861947
147	0xbbf9438f	-0.0076069306
148	0xbca79fac	-0.02046188
149	0xbbaf5e05	-0.005351784
150	0xbd3ace2f	-0.04560679
151	0x3d8d9efe	0.06915091
152	0xbd722d5e	-0.059125297
153	0xbae84519	-0.0017720788
154	0x3c927d1e	0.017881926
155	0xbd138a84	-0.03602077
156	0x3da63cd6	0.08117072
157	0x3da83df6	0.08214943
158	0x3b347bb3	0.002753955
159	0x3c7c542f	0.01540093
160	0xbc3a471b	-0.011369492
161	0xbdd1236a	-0.10211833
162	0xbdd05c47	-0.101738505
163	0x3dcbb9ee	0.09947573
164	0xbe0e6d2d	-0.13908835
165	0x3deeda87	0.116627745
166	0x3dee8443	0.11646321
167	0xbcddfa79	-0.027096974
168	0x3d824146	0.06360106
169	0xbd337841	-0.043815855
170	0x3e1b8bf9	0.15190114
171	0xbcd9185c	-0.026500873
172	0xbe051ccc	-0.12999266
173	0xbd586c64	-0.052837744
174	0xbd28be96	-0.041197382
175	0x3c6ef54b	0.01458485
176	0xbc83045f	-0.015993295
177	0x3d9c40f2	0.07629575
178	0x3dc5bd35	0.09655229
179	0xbd1c8bc5	-0.038219232
180	0xbd31b9d5	-0.043390114
181	0x3d7a33b7	0.061084475
182	0xbda1dab7	-0.07903045
183	0x3e01f925	0.12692697
184	0xbd651425	-0.055927414
185	0xbce9948e	-0.02851322
186	0x3dd5050e	0.10401355
187	0xbdca21cf	-0.0986973
188	0x3e137415	0.1439975
189	0x3ddd88f4	0.10817137
190	0x3de892fd	0.11356161
191	0x3cc1f605	0.023676882

lstm.weight_ih_l0 f4 [256, 64]
0	0xbcea4f15	-0.028602162
1	0xb9951a95	-0.000284393
2	0x3d9f193c	0.07768485
3	0xba033e05	-0.0005006495
4	0xbcbf8b80	-0.023381948
5	0x3c3bb467	0.0114565855
6	0x3b4fee47	0.0031727718
7	0xbd5bec25	-0.053692
8	0xbd27051a	-0.04077635
9	0x3c70edfa	0.0147051755
10	0x3c65bd6b	0.014022212
11	0x3d1d2d32	0.03837318
12	0x3cf3cc94	0.029760636
13	0xbd978f3a	-0.07400365
14	0xbd1e2f5a	-0.038619377
15	0x3d363fca	0.044494428
16	0xbb9559f2	-0.0045578415
17	0x3d90aa6d	0.07063756
18	0x3cbabc73	0.022794938
19	0xbd1e8c3a	-0.03870795
20	0x3c712ba1	0.014719875
21	0x3c6a907f	0.014316677
22	0x3ab2da7a	0.0013645433
23	0x3a86e5da	0.001029189
24	0xbd5adb7d	-0.053431977
25	0x3ca6802e	0.020324793
26	0xbc3d5c1b	-0.011557604
27	0xbcd38fb7	-0.025825365
28	0x3c22bd41	0.009932817
29	0x3cb07db6	0.021544319
30	0xbc2974db	-0.010342802
31	0x3c2760d9	0.010215961
32	0xbbeb6c8b	-0.00718457
33	0xbd462544	-0.048375383
34	0xbd8203bf	-0.06348371
35	0x3cf47056	0.029838722
36	0x3d9b9269	0.07596285
37	0x3d0ae47b	0.033909302
38	0x3c27ffc1	0.010253848
39	0xbd9d5f79	-0.076842256
40	0xbd487cc8	-0.048947126
41	0xbc8d9a74	-0.017285563
42	0x3d81e31e	0.06342147
43	0x3d0267d0	0.031837285
44	0xbd93eb4a	-0.07222612
45	0x3cce703c	0.025200002
46	0x3d966bf2	0.07344808
47	0x3cd462a2	0.025925938
48	0xbd491040	-0.049087763
49	0xbd5da283	-0.05411006
50	0x3d4ee6f4	0.050513223
51	0x3d65a6e9	0.05606738
52	0xbd705f7d	-0.058684815
53	0x3d054234	0.03253384
54	0xbc1485f4	-0.00906514
55	0x3cabc1c1	0.020966412
56	0xbd263fe8	-0.04058829
57	0xbd8f3745	-0.06992964
58	0x3d1cab80	0.038249493
59	0x3c816870	0.01579687
60	0x3dc4b87a	0.096054986
61	0x3c8b1855	0.016979376
62	0xbb4f9847	-0.0031676458
63	0xbc895470	-0.016763896
64	0xbc9a666a	-0.018847663
65	0x3b562d2d	0.0032680735
66	0xbcb97134	-0.022636987
67	0xbcf81d43	-0.03028739
68	0xbc8754df	-0.016519962
69	0xbcff6068	-0.0311739
70	0x3daaf9f3	0.08348455
71	0xba2dda50	-0.00066319574
72	0x3cb5af11	0.022178205
73	0xbc17aeac	-0.009257954
74	0xbb328d61	-0.0027244913
75	0x3ccdbd06	0.025114547
76	0x3d973fd5	0.07385222
77	0xbd4643c4	-0.04840447
78	0xbcbd9e23	-0.023146695
79	0xbcd9caff	-0.026586054
80	0x3be8d4d1	0.007105448
81	0x3d6a2f4f	0.057174023
82	0x3c0547c6	0.008134788
83	0xbcb3f7f9	-0.021968829
84	0xbd4c9dcc	-0.049955174
85	0x3d7bf175	0.06150957
86	0x39bda74f	0.00036173544
87	0x3b0c0dfd	0.0021370642
88	0x3c5b785d	0.013395396
89	0x3d9b74b5	0.075906195
90	0x3d6b6c94	0.057476595
91	0xbcb3e498	-0.021959588
92	0xbc7640a8	-0.015030064
93	0x3d2f0427	0.04272857
94	0xbd497f1c	-0.049193487
95	0x3c873e21	0.016509118
96	0x3d4ed60d	0.050497103
97	0xbd9553cd	-0.07291374
98	0x3ab4c902	0.0013792815
99	0x3c6adc0b	0.014334689
100	0x3cd8413e	0.026398297
101	0x3d32b861	0.04363287
102	0x3d1c6d6e	0.038190298
103	0xbd49e160	-0.0492872
104	0x3ce514c4	0.027964003
105	0xbd4f6e4c	-0.050642297
106	0x3d968cdb	0.07351085
107	0xbcbbbcf3	-0.022917246
108	0xbd91c179	-0.0711698
109	0xbb95ffa4	-0.004577594
110	0x3d067245	0.03282382
111	0x3d77806e	0.060425214
112	0x3ab523a6	0.0013819828
113	0x3cd42389	0.02589585
114	0x3d9f6760	0.07783389
115	0x3d012e74	0.03153844
116	0xbc70fa6c	-0.014708143
117	0x3c2c8749	0.010530301
118	0xbc026400	-0.007958412
119	0x3d0d1ffa	0.034454323
120	0xbb9348d8	-0.0044947676
121	0xbda2d187	-0.079501204
122	0xbb842f8e	-0.0040339893
123	0x3c5b651a	0.013390804
124	0x3c6366c4	0.013879482
125	0x3d0f585e	0.034996383
126	0x3ce4d5c8	0.02793397
127	0xbcc40633	-0.023928737
128	0xbc1fa31d	-0.009743479
129	0x3c74217c	0.014900561
130	0x3a531205	0.00080516963
131	0x3ce5d9df	0.02805799
132	0xbcca59c7	-0.024701012
133	0xbd396537	-0.04526254
134	0xbb9c11c8	-0.004762862
135	0xbc3e0992	-0.011598961
136	0x3d028bd4	0.03187163
137	0x3b0931e4	0.0020934278
138	0xba38b7a2	-0.00070464064
139	0x3d3ae399	0.04562721
140	0x3d8731a6	0.066012666
141	0xbd2f3c26	-0.04278197
142	0xbd2e9591	-0.042623106
143	0xbc8ff5b4	-0.017573215
144	0x3c1e6db6	0.009669712
145	0x3c594bb0	0.013262674
146	0x3cb1ebd6	0.0217189
147	0xbc00665e	-0.007836906
148	0xbd0836ca	-0.033255376
149	0x3d62a030	0.055328548
150	0x3c7efc8a	0.01556314
151	0x3c4a9d44	0.012366597
152	0xbcb96ae2	-0.022633974
153	0x3c992cf9	0.018698202
154	0x3bda114f	0.0066548954
155	0xbc81bfe4	-0.01583857
156	0x3d53981f	0.051658746
157	0x3cbf65f1	0.02336404
158	0xbbd2919a	-0.0064260485
159	0x3b289b4f	0.0025727337
160	0x3d5791b4	0.052629188
161	0xbd12ac52	-0.03580887
162	0xbbceae3b	-0.006307391
163	0x3d20389a	0.03911648
164	0x3c88711a	0.016655494
165	0x3d29b724	0.041434422
166	0x3d19b4d8	0.03752598
167	0xbd80afdf	-0.06283545
168	0xbc643513	-0.0139286695
169	0x3b3ef888	0.0029139835
170	0x3d70f38d	0.058826018
171	0xbc4d2c6e	-0.0125228
172	0xbd6933c9	-0.05693415
173	0xbcb31afd	-0.021863455
174	0x3d269b7c	0.040675625
175	0x3d5dc35f	0.0541414
176	0xbcc27b34	-0.023740388
177	0xbc83f28c	-0.016106866
178	0x3db2574f	0.08708059
179	0xbbdf3a9a	-0.006812406
180	0x3b9a87c5	0.004715892
181	0x3cbd7609	0.023127573
182	0xbd3ed831	-0.046592895
183	0x3be30414	0.0069279764
184	0xbc37fc8d	-0.011229646
185	0xbd8407f0	-0.064468265
186	0x3c91f7d6	0.017818373
187	0x3bb1c8cc	0.005425548
188	0x3c70b6fa	0.0146920625
189	0xbb419d65	-0.0029543277
190	0x3d449f74	0.04800363
191	0xbcd7675d	-0.026294405
192	0xbced9fea	-0.029006917
193	0x3cb6b317	0.022302194
194	0x3b540d7d	0.0032356672
195	0xba3d8fa3	-0.00072311814
196	0xbbdc892c	-0.0067302193
197	0xbd1c67c5	-0.0381849
198	0x3c0ce806	0.008600241
199	0xbc59514d	-0.0132640125
200	0x3c7e6f58	0.015529476
201	0xbcb22dd5	-0.02175037
202	0xbabf4627	-0.0014593051
203	0x3cc6b6a4	0.024257012
204	0x3da12520	0.07868409
205	0xbd4c07fd	-0.049812306
206	0xbc2cfa94	-0.010557789
207	0x3c0ac1f1	0.008469091
208	0xbc0c8262	-0.008576008
209	0x3d18c9c1	0.037301783
210	0x3c737986	0.014860516
211	0xbc567f60	-0.013091892
212	0xbd1e22c7	-0.038607385
213	0x3d2bb69b	0.041922193
214	0x3c1aec28	0.009455718
215	0xbb713708	-0.0036806483
216	0x3c9f1ff7	0.019424422
217	0x3d8c12e0	0.068395376
218	0x3c800545	0.015627513
219	0xbc9461d7	-0.01811306
220	0x3b9ec584	0.004845323
221	0x3ab77d75	0.0013999181
222	0xbd1d8dab	-0.038465183
223	0x3ce0c379	0.027436959
224	0x3d3782b9	0.0448024
225	0xbd1e0f1d	-0.038588632
226	0xbce11ad0	-0.027478606
227	0x3d368de3	0.044568907
228	0x3d69ec5a	0.057110168
229	0x3d75f5d2	0.060048886
230	0x3c9a64df	0.018846927
231	0xbcbe328c	-0.023217462
232	0x3c7c3549	0.015393564
233	0xbd01dd0b	-0.031704944
234	0x3cc42c36	0.023946863
235	0xbcfe1309	-0.031014936
236	0xbcfbca85	-0.030736217
237	0xbbb33f2b	-0.0054701767
238	0x3bff517d	0.0077916966
239	0x3d2f2d11	0.042767588
240	0xbc757c94	-0.014983315
241	0x3c39f54e	0.011349989
242	0x3d418d46	0.04725387
243	0x3bee1e15	0.0072667697
244	0x3c10d25d	0.008839217
245	0x3cbb2f52	0.022849713
246	0xbd308ace	-0.043101124
247	0x3d171fd4	0.036895588
248	0xbc00e5fd	-0.0078673335
249	0xbd73c579	-0.059514496
250	0xbc33644b	-0.010949205
251	0xbbc420ee	-0.005985371
252	0x3b7d13af	0.0038616469
253	0x3cc5fcbe	0.024168368
254	0x3d07929a	0.033098795
255	0xbb92c23e	-0.004478722
