artifacts/runs/20260210_172238_STGCN_LSTM/best.pt (torch, 556846 bytes, 25 tensors)

backbone.blocks.0.temporal1.conv.weight f4 [128, 6, 1, 3]
-0.18214013 -0.16742729 -0.20367718 0.116678 -0.021022733 -0.012038335 0.046794824 -0.084378235
0.020690637 -0.11864401 -0.045634504 0.13819961 0.08951129 0.17788866 0.24318813 0.1586831
-0.077516295 -0.18449558 -0.09587967 0.0061233323 0.2544462 0.085382424 0.029628646 0.18563193
0.100596294 0.19115192 0.04897781 -0.003599529 0.10304581 -0.012948536 -0.14874847 -0.08523768
-0.12071021 -0.02649303 0.11832393 0.018273683 -0.16051964 -0.10050294 -0.1560525 -0.037295606
-0.11788114 0.05827766 -0.042879816 -0.12735862 0.09248388 0.040657215 0.0562716 0.13739288
0.1302823 -0.11992149 0.14981619 -0.1292406 -0.14646643 0.22859035 -0.13813126 -0.024285471
0.10981104 -0.10846239 -0.073854424 0.054618336 -0.039733667 0.11441729 0.038907707 0.056224324
0.09987722 0.2730534 -0.18448205 0.14932674 0.004642269 0.21342705 0.11106068 -0.06138673
0.21333942 0.10478903 -0.16365369 0.2260492 0.208169 0.21627122 0.06991779 0.09436541
-0.013581238 0.203108 -0.089621924 0.10019788 0.19277643 0.004593353 0.19255517 0.15918814
0.068155624 0.060351294 -0.11826689 -0.021400442 -0.20491207 0.11032126 0.09538191 0.039503567
-0.14288054 -0.21201286 -0.13937367 0.09566752 -0.12560876 0.20568223 0.24355023 0.17839447
-0.011107063 0.052998755 0.009382593 0.064804494 0.054649685 0.22292802 0.22374904 0.12649585
0.08059342 0.10670544 0.1656007 0.17889972 0.08821269 -0.17571156 0.15278463 -0.0011686077
-0.1008999 -0.0058696414 0.08267354 -0.25206143 -0.23497234 -0.14784288 0.14456417 0.06137256
0.12789984 0.08750062 0.18869114 0.20256442 0.21347329 0.15436079 0.13105127 0.11967937
0.20564608 -0.18218976 0.14281002 0.2449756 0.09785617 0.017049436 -0.05749539 0.06704805
-0.05809863 0.13072072 0.0035263326 0.03835395 -0.16759402 -0.17339924 -0.19184937 0.029611165
0.11875364 0.15057632 -0.15262845 0.09331534 0.08799982 0.1612688 -0.11858977 -0.11486559
-0.17972167 -0.0076665804 -0.20998383 0.15084724 -0.17787424 0.033321403 0.032522842 -0.028938264
-0.15053356 0.08415882 0.16129689 -0.02829434 0.10409891 -0.22397444 -0.023167547 -0.023016512
0.20258303 0.029849362 -0.19315645 0.022088349 0.06277906 0.04050659 0.13549982 0.10141802
-0.036075983 0.104165904 -0.04774935 -0.15264963 0.16963401 0.14467266 0.22471839 -0.08290691
0.0010357697 -0.14697656 -0.06367037 0.17885664 -0.0472346 0.086998984 0.106134735 -0.1585711
0.11041818 -0.1265178 0.19233447 -0.014060226 -0.20427391 0.017864529 0.21620068 0.1049995
-0.024998868 0.07265081 0.042941283 -0.21683241 -0.2000797 -0.16805935 0.18373747 -0.12967728
-0.14695142 0.06917874 -0.12637395 0.079105765 0.16443588 0.07522826 -0.00044746167 -0.14009401
-0.107061885 -0.005205802 0.2472917 0.10214144 0.03234826 -0.0076778224 -0.018741762 0.25853086
0.114673994 0.13302422 0.12073927 0.16970539 0.25592393 -0.08023527 -0.036675513 0.079048276
0.14652316 0.23780367 -0.06274889 0.07281625 0.17454642 0.1348852 0.18140805 -0.012318494
-0.21327122 0.026973853 -0.12826526 0.023157578 -0.17209163 -0.112300165 -0.027125252 -0.059400532
00000000: f182 3abe 0f72 2bbe c090 50be e0f4 ee3d
00000010: de37 acbc 703c 45bc eeab 3f3d 7fce acbd
00000020: 697f a93c a1fb f2bd 3feb 3abd 3384 0d3e
00000030: b251 b73d 7228 363e 4f06 793e d37d 223e
00000040: ddc0 9ebd 69ec 3cbe 8f5c c4bd 3ca6 c83b
00000050: c646 823e fbdc ae3d c6b7 f23c 4c16 3e3e
00000060: 6e05 ce3d 54bd 433e f59c 483d 13e6 6bbb
00000070: ae09 d33d 1926 54bc 8551 18be 1891 aebd
00000080: ea36 f7bd e907 d9bc d153 f23d b1b2 953c
00000090: 435f 24be 7cd4 cdbd 3acc 1fbe 47c3 18bd
000000a0: ab6b f1bd 8eb4 6e3d bfa2 2fbd 4c6a 02be
000000b0: 3068 bd3d 2e88 263d 0d7d 663d b8b0 0c3e
000000c0: b968 053e 6699 f5bd 6a69 193e a657 04be
000000d0: 4cfb 15be 9713 6a3e 4872 0dbe 53f2 c6bc
000000e0: 9ce4 e03d 8821 debd fd40 97bd 7ab7 5f3d
000000f0: c5bf 22bd 9d53 ea3d b05d 1f3d 7a4b 663d
00000100: 6e8c cc3d a8cd 8b3e dde8 3cbe 1ce9 183e
00000110: 2d1e 983b 9f8c 5a3e c873 e33d a770 7bbd
00000120: a675 5a3e a29b d63d d594 27be 7179 673e
00000130: 412a 553e 3476 5d3e 0f31 8f3d a742 c13d
00000140: d783 5ebc 8bfb 4f3e b38b b7bd 8c34 cd3d
00000150: 2f67 453e d683 963b 2f2d 453e 3702 233e
00000160: 2d95 8b3d eb32 773d e935 f2bd fb4f afbc
00000170: 78d4 51be 1df0 e13d 9757 c33d 7ece 213d
00000180: 474f 12be e619 59be f9b7 0ebe 55ed c33d
00000190: 959f 00be 5d9e 523e 3b65 793e 0aad 363e
000001a0: 66fa 35bc 3915 593d 73b9 193c 38b8 843d
000001b0: 59d8 5f3d 3e47 643e 781e 653e 2188 013e
000001c0: 2a0e a53d 6288 da3d 3b93 293e 7d31 373e
000001d0: dba8 b43d bbed 33be 9373 1c3e f82b 99ba
000001e0: 9ba4 cebd 1f56 c0bb bf50 a93d 320e 81be
000001f0: 979c 70be 2064 17be a108 143e cb61 7b3d
00000200: 2df8 023e 8633 b33d 4038 413e 0c6d 4f3e
00000210: be98 5a3e c110 1e3e 4e32 063e 751a f53d
00000220: e394 523e f48f 3abe ca3c 123e e2da 7a3e
00000230: d168 c83d 42ab 8b3c 4980 6bbd 7d50 893d
00000240: d4f8 6dbd a7db 053e 0b1a 673b 0819 1d3d
00000250: c49d 2bbe 928f 31be 2974 44be 1d93 f23c
00000260: 1c35 f33d ae30 1a3e a24a 1cbe 1d1c bf3d
00000270: 4039 b43d a623 253e 31df f2bd a73e ebbd
00000280: f508 38be f037 fbbb 0006 57be b377 1a3e
00000290: aa24 36be 067c 083d ac36 053d f00f edbc
000002a0: 7825 1abe 765b ac3d 032b 253e 88c9 e7bc
000002b0: cf31 d53d 8e59 65be dec9 bdbc 208d bcbc
000002c0: ed71 4f3e a686 f43c ceca 45be a0f2 b43c
000002d0: 4f92 803d 3dea 253d 77c0 0a3e 40b4 cf3d
000002e0: 69c4 13bd ef54 d53d d394 43bd 2f50 1cbe
000002f0: 8ab4 2d3e 1225 143e 941c 663e 19cb a9bd
00000300: aac2 873a 0681 16be 9c65 82bd 3226 373e
00000310: 1179 41bd 862c b23d 2b5d d93d 7660 22be
00000320: ed22 e23d e28d 01be 54f3 443e dd5c 66bc
00000330: 2e2d 51be a258 923c b663 5d3e fa09 d73d
00000340: 6dca ccbc f3c9 943d 33e3 2f3d 5109 5ebe
00000350: b1e1 4cbe c017 2cbe ad25 3c3e 1fca 04be
00000360: 6f7a 16be 95ad 8d3d 2c68 01be 3402 a23d
00000370: e161 283e 4611 9a3d 4a99 eab9 ce74 0fbe
00000380: 4343 dbbd 6f95 aabb 093a 7d3e 882f d13d
00000390: 9c7f 043d 3e96 fbbb 5388 99bc 285e 843e
000003a0: 33da ea3d 8037 083e 2646 f73d 40c7 2d3e
000003b0: 7608 833e 6452 a4bd 1039 16bd 10e4 a13d
000003c0: 2b0a 163e ce82 733e 7d82 80bd b020 953d
000003d0: 4cbc 323e 591f 0a3e 08c3 393e 82d3 49bc
000003e0: c563 5abe 45f8 dc3c f857 03be f6b4 bd3c
000003f0: ca38 30be a1fd e5bd c735 debc f94d 73bd

backbone.blocks.0.temporal1.conv.bias f4 [128]
0.0072514834 0.09593589 -0.14248131 -0.16176113 -0.15675347 0.19485475 0.05500177 -0.066743106
0.10594044 -0.14061144 0.04415316 -0.19896881 -0.0012844836 -0.13880965 -0.039968822 -0.1270037
0.13924573 0.061812207 -0.018191157 0.21035078 -0.15199898 0.0017279615 -0.034492385 0.013003563
-0.0049894853 -0.033666827 0.048042834 0.24191348 0.08868646 -0.10580263 0.060285766 0.083704256
-0.034915954 -0.10870307 -0.13113289 0.0642793 -0.124098435 0.0675221 -0.18523102 -0.0048070676
0.08551864 -0.1834094 0.18825223 0.12952264 0.22308466 -0.066523336 0.16234794 0.10603517
-0.031118518 0.12670285 -0.19575936 0.17637458 -0.05898018 0.21731454 -0.07981307 0.124952644
-0.08706451 0.13207921 -0.12069217 0.09995517 0.054166336 0.031547893 -0.06362191 -0.20536466
0.13949399 0.07449983 0.08106213 0.17828363 0.013161233 -0.11820564 -0.002151564 -0.14730854
0.11895885 -0.008672613 -0.017271811 -0.0778846 0.068214476 0.08166935 -0.008406105 0.083255656
-0.09624904 0.24752776 0.033828255 0.19493423 0.105462976 -0.14145245 0.09284595 0.036126245
-0.08782033 0.071085945 -0.111642726 0.1616499 0.038488746 -0.031224014 -0.07857175 -0.11207826
-0.11034713 0.065382764 0.06841808 0.06705695 -0.1549051 -0.034520205 0.00051700877 -0.10016823
-0.03694519 0.26591146 0.21913068 0.1412667 -0.05378723 0.06795593 0.06302832 -0.102124535
0.058446214 0.0678026 -0.027160693 -0.12462221 -0.09792987 -0.031616047 0.0375297 -0.054796945
0.11410459 -0.073241785 -0.004770293 0.1080008 0.028273614 0.17128704 0.053882968 0.0012069951
00000000: da9d ed3b 097a c43d 9fe6 11be b6a4 25be
00000010: fb83 20be 0188 473e 8949 613d 9cb0 88bd
00000020: 4df7 d83d 72fc 0fbe f2d9 343d 7bbe 4bbe
00000030: 1e5c a8ba 1e24 0ebe 59b6 23bd 420d 02be
00000040: 6f96 0e3e cc2e 7d3d 9f05 95bc 3266 573e
00000050: 9fa5 1bbe c47c e23a e347 0dbd e50c 553c
00000060: d67e a3bb 3ae6 09bd 90c8 443d 2bb8 773e
00000070: 3fa1 b53d 0daf d8bd 35ee 763d 236d ab3d
00000080: 0804 0fbd b79f debd b347 06be dea4 833d
00000090: 5227 febd 0749 8a3d 33ad 3dbe 9b84 9dbb
000000a0: 6624 af3d accf 3bbe 31c5 403e 95a1 043e
000000b0: 4e70 643e 633d 88bd 8a3e 263e f828 d93d
000000c0: 43ec febc 64be 013e 2475 48be 8a9b 343e
000000d0: 3495 71bd b487 5e3e 0975 a3bd 2ce7 ff3d
000000e0: e14e b2bd c63f 073e 752d f7bd 4cb5 cc3d
000000f0: 85dd 5d3d 5d38 013d 344c 82bd 1d4b 52be
00000100: 83d7 0e3e 5e93 983d e703 a63d fc8f 363e
00000110: 36a2 573c cc15 f2bd 4101 0dbb 0dd8 16be
00000120: b3a0 f33d 9317 0ebc 9d7d 8dbc f681 9fbd
00000130: 08b4 8b3d 4342 a73d c3b9 09bc f181 aa3d
00000140: 371e c5bd eb77 7d3e 7f8f 0a3d d79c 473e
00000150: f9fc d73d e9d8 10be 0426 be3d 1df9 133d
00000160: 25db b3bd 8295 913d f1a4 e4bd 8d87 253e
00000170: 60a6 1d3d 81c9 ffbc 3aea a0bd 4989 e5bd
00000180: adfd e1bd 66e7 853d c71e 8c3d 2755 893d
00000190: 719f 1ebe 0f65 0dbd df87 073a 0025 cdbd
000001a0: d753 17bd 8c25 883e cb63 603e 38a8 103e
000001b0: 0050 5cbd 7b2c 8b3d fe14 813d ab26 d1bd
000001c0: 4c65 6f3d 17dc 8a3d 1a80 debc ee39 ffbd
000001d0: 758f c8bd d47f 01bd beb8 193d c372 60bd
000001e0: abaf e93d caff 95bd 1e50 9cbb 862f dd3d
000001f0: 119e e73c df65 2f3e 63b4 5c3d 0934 9e3a

backbone.blocks.0.graphconv.mlp.weight f4 [16, 192, 1, 1]
0.12204356 -0.07398278 0.06564964 0.048625372 0.05669354 0.069110185 -0.11324441 0.03765197
0.027368829 0.02475428 -0.02060783 -0.03325648 -0.020026945 -0.074571595 0.10355299 0.0070427875
0.07781291 0.07006714 -0.010680699 0.0033933765 -0.0480279 0.12777305 -0.043836948 0.005977286
0.014847208 0.007017632 0.023391917 0.05711064 -0.09990239 -0.06770565 0.01470497 -0.006539631
0.00421707 0.08622864 0.030298248 -0.021162368 0.09210262 -0.029600194 -0.07676784 -0.03457847
0.053545006 -0.055641104 -0.10853209 -0.033805586 0.077429764 -0.008420434 -0.027950902 -0.10923364
0.14009456 0.05720463 0.027047094 -0.08459116 0.05877657 0.10497986 -0.0463855 0.020106567
0.001508697 -0.06981402 -0.011828366 0.08203852 -0.0028771595 -0.051941026 -0.012214162 0.05594918
-0.05793034 0.043835875 -0.046807386 -0.06700567 -0.073224396 -0.02449129 0.1064767 -0.062303256
0.02805071 0.013634021 0.05711242 0.044231437 -0.06901273 0.047700275 -0.05876621 -0.09851661
-0.06760944 -0.014703299 0.037994035 -0.05336902 0.062226776 -0.07962482 0.04787282 -0.014873072
-0.074014395 -0.06728162 -0.05633995 0.04386174 0.10291783 -0.038724963 0.03320186 -0.0039211838
0.072377406 -0.044492923 -0.040520895 -0.06381692 -0.045830343 0.07483169 -0.050619856 0.028969351
-0.043386802 0.046268493 0.06398519 0.017635621 0.002399168 -0.04001625 -0.029301697 0.008705096
-0.043228865 0.059668202 0.06351127 0.0003668649 -0.019842746 -0.038331326 -0.028436773 -0.01049318
-0.06653508 0.08409299 0.016279675 0.035260823 0.0005081636 0.06769824 0.025436604 -0.016417215
0.06858532 0.002760023 0.05465888 0.04651138 0.04600362 0.07751925 -0.065168455 0.024374584
-0.00018985991 -0.0025399684 -0.022475116 0.0027853833 0.06607511 0.070849605 -0.021060525 0.105688184
0.05352283 0.026633998 0.04971157 -0.06434718 0.018629095 0.009726103 0.05640977 -0.0081148455
-0.048069682 0.074607976 -0.025705615 -0.032472502 0.013175445 -0.03616166 -0.008017177 0.02543539
0.0676954 -0.08074735 0.0009881067 0.0847776 -0.03604175 0.03296316 0.012483198 -0.058610708
0.026227865 0.06530086 -0.014891041 0.028781977 -0.0051205303 -0.06418385 -0.031785972 0.012217433
0.010358326 -0.04541375 -0.02499253 -0.04667904 0.036287487 0.03917533 -0.010057008 0.038596995
-0.032968983 -0.07330661 0.017315883 -0.024570016 0.06251732 -0.11165849 -0.077641636 -0.059734646
-0.08611291 -2.3785084e-05 -0.0577854 0.04320021 0.03434004 0.013324014 -0.046455417 0.011503604
-0.037000865 -0.05289387 0.015181802 0.0008668646 0.0633809 0.084180556 -0.013661853 -0.0683835
0.054106317 -0.10972536 -0.078950666 -0.04880897 0.0014540319 -0.06528621 0.16286582 0.09903652
-0.06811139 -0.0114952745 0.03546415 0.04601927 -0.024082214 -0.012324093 -0.07993717 0.050180465
-0.10682913 -0.07670345 0.10760825 -0.030287677 -0.04714457 -0.087549135 0.000106766274 0.03226355
-0.040192224 0.054508504 -0.121100165 -0.038845334 0.043791223 0.06053825 -0.025533037 0.1279178
-0.07738604 -0.064263165 0.014403599 -0.014398256 -0.0979161 -0.015139608 -0.007912257 0.031742662
-0.052342746 -0.039510787 -0.008988989 0.11050785 0.0048052906 0.032515533 0.031521745 -0.04720275
00000000: f9f1 f93d 4984 97bd 5273 863d 662b 473d
00000010: 7c37 683d a489 8d3d afec e7bd f438 1a3d
00000020: 9834 e03c 7dc9 ca3c c0d1 a8bc f237 08bd
00000030: 8c0f a4bc feb8 98bd 9713 d43d 2fc7 e63b
00000040: 605c 9f3d 5c7f 8f3d 19fe 2ebc 6963 5e3b
00000050: e7b8 44bd f0d6 023e 5f8e 33bd 1cdd c33b
00000060: b441 733c 2af4 e53b 68a0 bf3c d9ec 693d
00000070: a099 ccbd 43a9 8abd 1ded 703c 674a d6bb
00000080: 592f 8a3b a498 b03d 0834 f83c b45c adbc
00000090: 4ca0 bc3d 1b7c f2bc 7538 9dbd 27a2 0dbd
000000a0: 0252 5b3d ede7 63bd 1346 debd ba77 0abd
000000b0: 7f93 9e3d dcf5 09bc 4af9 e4bc e3b5 dfbd
000000c0: f374 0f3e 674f 6a3d de91 dd3c 213e adbd
000000d0: b3bf 703d aeff d63d b9fe 3dbd 87b6 a43c
000000e0: 79bf c53a a7fa 8ebd c3cb 41bc d003 a83d
000000f0: ba8e 3cbb 1dc0 54bd e91d 48bc f82a 653d
00000100: 5d48 6dbd 3f8d 333d 1ab9 3fbd 453a 89bd
00000110: acf6 95bd f5a1 c8bc 7510 da3d b331 7fbd
00000120: 9aca e53c 3b61 5f3c b7ee 693d 062c 353d
00000130: 8c56 8dbd 5d61 433d d6b4 70bd 14c3 c9bd
00000140: d176 8abd 1be6 70bc a29f 1b3d 7999 5abd
00000150: 81e1 7e3d 5612 a3bd 4a16 443d 2fae 73bc
00000160: dc94 97bd f2ca 89bd b8c4 66bd 5ea8 333d
00000170: 95c6 d23d 119e 1ebd acfe 073d 467d 80bb
00000180: 9b3a 943d 363e 36bd 3df9 25bd 72b2 82bd
00000190: 99b8 3bbd 5b41 993d c456 4fbd 2251 ed3c
000001a0: 5cb6 31bd 0884 3d3d ab0a 833d 9478 903c
000001b0: 5c3b 1d3b 14e8 23bd 1d0a f0bc d29f 0e3c
000001c0: c010 31bd a566 743d 3212 823d c657 c039
000001d0: 418d a2bc 4f01 1dbd 3cf4 e8bc 96eb 2bbc
000001e0: 8b43 88bd f238 ac3d f45c 853c a76d 103d
000001f0: 4836 053a 60a5 8a3d 6d60 d03c 657d 86bc
00000200: 7676 8c3d 81e1 343b fde1 5f3d b782 3e3d
00000210: 4b6e 3c3d 6ac2 9e3d 0a77 85bd 35ad c73c
00000220: 2215 47b9 9975 26bb bc1d b8bc fa8a 363b
00000230: 6352 873d 9919 913d 1f87 acbc 0c73 d83d
00000240: c13a 5b3d 8b2f da3c 5c9e 4b3d 74c8 83bd
00000250: 0b9c 983c 3c5a 1f3c ee0d 673d 21f4 04bc
00000260: b7e4 44bd 11cc 983d 9594 d2bc e301 05bd
00000270: d2dd 573c 401e 14bd 7a5a 03bc e15d d03c
00000280: e3a3 8a3d de5e a5bd 5c83 813a e19f ad3d
00000290: 84a0 13bd 6104 073d 5486 4c3c c811 70bd
000002a0: d2db d63c 75bc 853d 8ef9 73bc 2ec8 eb3c
000002b0: 1fca a7bb d372 83bd 0232 02bd a12b 483c
000002c0: f8b5 293c c503 3abd 22bd ccbc 8532 3fbd
000002d0: 30a2 143d 5076 203d 26c6 24bc e217 1e3d
000002e0: 7c0a 07bd c721 96bd 0ada 8d3c 0f47 c9bc
000002f0: 1509 803d 35ad e4bd 9402 9fbd 51ac 74bd
00000300: f75b b0bd 1486 c7b7 62b0 6cbd b4f2 303d
00000310: 24a8 0c3d f74c 5a3c 0948 3ebd 9d79 3c3c
00000320: 388e 17bd 3ea7 58bd 18bd 783c 4c3e 633a
00000330: d8cd 813d db66 ac3d f7d5 5fbc a60c 8cbd
00000340: 969e 5d3d b1b7 e0bd e3b0 a1bd eaeb 47bd
00000350: 3795 be3a c7b4 85bd 4cc6 263e a9d3 ca3d
00000360: fc7d 8bbd ad56 3cbc db42 113d b47e 3c3d
00000370: 1048 c5bc feea 49bc 19b6 a3bd 088a 4d3d
00000380: 3bc9 dabd b316 9dbd b761 dc3d dd1d f8bc
00000390: aa1a 41bd f64c b3bd b5e7 df38 c926 043d
000003a0: 9aa0 24bd 4f44 5f3d 5d03 f8bd 491c 1fbd
000003b0: 6d5e 333d f5f6 773d a92a d1bc e2fc 023e
000003c0: 927c 9ebd 689c 83bd 13fd 6b3c aae6 6bbc
000003d0: 3c88 c8bd 1e0c 78bc 69a2 01bc 9804 023d
000003e0: 5965 56bd 10d6 21bd 8d46 13bc f151 e23d
000003f0: b375 9d3b 022f 053d f21c 013d ac57 41bd

backbone.blocks.0.graphconv.mlp.bias f4 [16]
0.01266751 0.046555165 -0.056630433 0.068080775 0.0034010864 -0.03058223 -0.039575934 -0.019846145
0.052680712 -0.027345218 -0.016906379 -0.014079839 -0.00834562 0.08374442 0.064907014 -0.054752845
00000000: 638b 4f3c a1b0 3e3d 50f5 67bd ef6d 8b3d
00000010: c3e4 5e3b 9687 fabc 601a 22bd 6294 a2bc
00000020: bbc7 573d 1403 e0bc 3f7f 8abc 20af 66bc
00000030: 11bc 08bc 3282 ab3d f8ed 843d 8544 60bd

backbone.blocks.0.temporal2.conv.weight f4 [128, 16, 1, 3]
0.0763011 0.03878153 0.105440125 0.14983281 0.1324007 -0.07676508 0.064288974 -0.05499194
-0.09749436 -0.11877213 -0.07833663 -0.09445416 -0.10889748 0.055906992 0.04376474 0.038548164
0.07866198 0.0029548295 -0.04521544 -0.120557286 0.119083785 -0.05380582 0.028766679 -0.032715663
0.09106615 -0.06558116 0.07598322 0.0813912 -0.13136514 -0.05805143 -0.044794653 -0.010585378
-0.12828006 0.1410633 -0.08264089 0.07401377 0.031561013 0.110398926 0.15462993 0.09475261
-0.05466322 0.16828997 0.028746951 0.15162031 -0.06511341 0.0798496 0.10866999 -0.033558886
0.110710315 0.10362697 -0.10430368 0.12333447 0.1056502 0.14625259 0.0061353594 0.04261746
0.07398192 -0.046915606 -0.03303566 0.112054385 0.047425 -0.05759187 0.060780313 0.006617235
0.019122012 -0.08994562 -0.14066081 -0.11740396 -0.007359579 -0.030744774 -0.00027641983 -0.031361524
0.04210884 0.08582033 0.1178837 0.016523553 0.014213106 0.080112815 -0.07606317 0.08997005
-0.07511491 -0.06549611 -0.044355765 -0.0413953 0.09615537 -0.10742387 0.10550004 0.13595037
-0.0070683244 0.00959174 -0.032480728 0.11526341 0.13588122 0.11562858 0.049951203 -0.03177004
0.007230725 -0.023740321 -0.09108453 -0.0780775 -0.06607295 -0.053085346 -0.092198305 -0.08784737
-0.09099018 -0.112861045 -0.08482884 0.1191105 0.019114347 -0.055844128 0.040328782 -0.081641905
0.030061644 0.089327194 -0.0053931475 -0.09551128 -0.16734691 -0.10198128 -0.0023464581 -0.093834095
0.013492805 -0.052202318 0.11257563 -0.14838172 0.016113734 0.027854232 -0.039257992 -0.042501878
0.016501494 0.06850624 0.17322801 -0.047661703 0.09201747 0.033126436 0.12657665 0.042425875
0.031223396 -0.11466301 0.04503936 0.0062857624 0.02931261 -0.0974659 -0.032706093 -0.1046309
-0.10306487 0.15698187 0.1518839 -0.052037463 0.0046667284 -0.043814722 0.094936155 0.19094653
-0.039027143 0.14548364 0.1809829 0.08820839 0.12455014 -0.10684964 0.060807798 -0.06227404
0.15103619 0.10215577 -0.13791838 -0.12339081 -0.083979115 0.0929049 0.06869297 0.12972862
-0.015485587 0.13196898 -0.0011991697 0.14965783 0.038291335 -0.03756111 -0.040944368 0.10545118
-0.009954117 -0.11917901 0.073798135 0.039653305 -0.089077316 0.029101348 -0.082606435 -0.0016712943
0.06654939 0.08611612 0.021779783 0.108385995 -0.084231414 -0.020240074 0.13550884 0.09254704
-0.13397436 0.0369718 0.033159696 0.08170186 0.10970656 -0.015070853 -0.12601945 0.10004721
0.10208539 -0.116953015 -0.083456576 0.11337822 -0.040054206 -0.07396062 0.1013402 -0.067461684
0.061684303 -0.021863021 -0.060172025 0.09699572 -0.097569026 -0.002527575 -0.004799333 0.018245308
-0.021504259 -0.07904817 0.1017615 -0.12905066 -0.1010006 -0.072398305 -0.10904171 -0.011836911
0.026342178 0.07025028 -0.060350828 -0.01465203 -0.08630552 0.065516405 0.13010323 -0.034025457
0.05950817 -0.087384574 0.10575048 0.00010311778 0.056925703 -0.031969 0.12444701 -0.0697193
-0.15436637 -0.053733736 -0.03572978 0.17518385 -0.026524628 -0.030804913 0.07568966 0.07751084
-0.016434103 0.03123916 -0.08194647 0.056505106 -0.109756894 -0.018011274 -0.13149057 -0.03876118
00000000: c043 9c3d 62d9 1e3d fef0 d73d c66d 193e
00000010: 0d94 073e 0337 9dbd f0a9 833d 3a3f 61bd
00000020: 1fab c7bd cd3e f3bd f46e a0bd 2f71 c1bd
00000030: a405 dfbd bbfe 643d a842 333d aee4 1d3d
00000040: 8819 a13d d0a5 413b d333 39bd bde6 f6bd
00000050: 33e2 f33d 7e63 5cbd 19a8 eb3c dc00 06bd
00000060: e480 ba3d 6a4f 86bd 179d 9b3d 6eb0 a63d
00000070: 9584 06be 56c7 6dbd 997a 37bd 4b6e 2dbc
00000080: d95b 03be e672 103e a03f a9bd 8894 973d
00000090: 1f46 013d d518 e23d 4f57 1e3e a80d c23d
000000a0: 8ae6 5fbd 3554 2c3e ba7e eb3c 5b42 1b3e
000000b0: 2e5a 85bd 3088 a33d 5f8e de3d 0b75 09bd
000000c0: 17bc e23d 603a d43d 2b9d d5bd c896 fc3d
000000d0: 225f d83d 3dc3 153e 200b c93b a58f 2e3d
000000e0: d583 973d 942a 40bd 6650 07bd c57c e53d
000000f0: b840 423d 74e5 6bbd c7f4 783d 64d5 d83b
00000100: c4a5 9c3c 6935 b8bd 6309 10be 7d71 f0bd
00000110: a028 f1bb 77dc fbbc 71ec 90b9 f174 00bd
00000120: 527a 2c3d 92c2 af3d 026d f13d 675c 873c
00000130: 16de 683c 3012 a43d 02c7 9bbd 3842 b83d
00000140: d9d5 99bd d322 86bd 64ae 35bd 1e8e 29bd
00000150: 1bed c43d 0c01 dcbd 6810 d83d 9336 0b3e
00000160: 679d e7bb ac26 1d3c 830a 05bd 390f ec3d
00000170: 7224 0b3e adce ec3d a299 4c3d 4d21 02bd
00000180: b8ef ec3b 107b c2bc 878a babd 19e7 9fbd
00000190: 4151 87bd 0570 59bd 77d2 bcbd 52e9 b3bd
000001a0: 0f59 babd b123 e7bd beba adbd 35f0 f33d
000001b0: b195 9c3c d0bc 64bd cb2f 253d df33 a7bd
000001c0: d643 f63c 2df1 b63d 00b9 b0bb 6b9b c3bd
000001d0: fd5c 2bbe 90db d0bd 09c7 19bb 172c c0bd
000001e0: ed10 5d3c 19d2 55bd 0d8e e63d 61f1 17be
000001f0: f300 843c 8f2e e43c fdcc 20bd 7316 2ebd
00000200: 242e 873c 004d 8c3d af62 313e eb38 43bd
00000210: a873 bc3d 96af 073d 4f9d 013e c1c6 2d3d
00000220: 35c8 ff3c 71d4 eabd 317b 383d ccf8 cd3b
00000230: 0021 f03c 349c c7bd d3f6 05bd ba48 d6bd
00000240: ad13 d3bd dbbf 203e 7487 1b3e 3c25 55bd
00000250: 5beb 983b 1177 33bd e36d c23d 7d87 433e
00000260: edda 1fbd aaf9 143e 9553 393e 9aa6 b43d
00000270: 2514 ff3d fcd3 dabd 9911 793d 1013 7fbd
00000280: 3ba9 1a3e 0b37 d13d 7a3a 0dbe 52b4 fcbd
00000290: 3efd abbd ed44 be3d e6ae 8c3d 94d7 043e
000002a0: 42b7 7dbc e022 073e 752d 9dba e73f 193e
000002b0: 60d7 1c3d aed9 19bd 48b5 27bd caf6 d73d
000002c0: 9816 23bc 2014 f4bd 7a23 973d 816b 223d
000002d0: 2b6e b6bd f365 ee3c 902d a9bd 550f dbba
000002e0: 0c4b 883d a65d b03d 846b b23c 7af9 dd3d
000002f0: 8581 acbd 83ce a5bc d4c2 0a3e 4d89 bd3d
00000300: 9330 09be be6f 173d 76d2 073d 4e53 a73d
00000310: d5ad e03d bdeb 76bc 3e0b 01be 8de5 cc3d
00000320: 2512 d13d 1085 efbd 48eb aabd d732 e83d
00000330: e10f 24bd aa78 97bd 738b cf3d 5a29 8abd
00000340: aea8 7c3d 141a b3bc f176 76bd b1a5 c63d
00000350: 45d2 c7bd aca5 25bb b943 9dbb 2f77 953c
00000360: b329 b0bc 02e4 a1bd 5568 d03d db25 04be
00000370: 67d9 cebd 9045 94bd 4351 dfbd 9aef 41bc
00000380: 8dcb d73c 61df 8f3d 6e32 77bd 110f 70bc
00000390: f3c0 b0bd 772d 863d c839 053e 475e 0bbd
000003a0: d7be 733d aff6 b2bd b593 d83d f040 d838
000003b0: ed2a 693d edf1 02bd 13de fe3d fec8 8ebd
000003c0: 3812 1ebe e817 5cbd 6459 12bd 6563 333e
000003d0: 2d4a d9bc 965a fcbc 2e03 9b3d 01be 9e3d
000003e0: d0a0 86bc 44e9 ff3c 8dd3 a7bd e671 673d
000003f0: 39c8 e0bd 618c 93bc 77a5 06be 0bc4 1ebd

backbone.blocks.0.temporal2.conv.bias f4 [128]
-0.12301032 0.0828876 0.14679249 -0.048024688 0.047432814 0.07821859 0.056222018 0.032284204
-0.06532144 -0.111570194 0.136319 0.012181482 -0.14231825 0.069143206 0.035983752 0.10409326
-0.029627465 -0.021131888 0.05123886 0.02069348 -0.02775183 -0.0039659864 0.098663755 -0.11904486
-0.04087599 -0.009712869 -0.016405338 0.053947516 0.12439494 -0.049907815 -0.11156108 0.03078311
0.056120392 0.11215757 -0.12036728 -0.12659599 -0.11329047 0.06252213 0.13403839 0.078564435
-0.11223275 -0.056105494 0.13008592 0.07126312 0.12953685 -0.08442999 0.11482081 0.04282803
0.089610755 0.12697783 -0.12396457 -0.03328385 -0.08993611 -0.06382688 0.13443406 0.06291045
-0.081515044 0.07120566 -0.062929176 -0.11026295 -0.03272617 0.063501015 0.06952059 -0.059703924
0.1441718 0.11687443 0.073902726 0.15507141 -0.0074766725 -0.07260476 -0.022527484 0.0053709215
0.06322942 0.008149307 0.019278457 -0.033899855 -0.09592047 -0.034586612 0.12632258 0.043739293
0.041025616 0.076244645 0.10067812 0.105096385 0.012834709 0.017840797 0.13709764 0.100289784
0.053081203 -0.04728956 0.090987094 0.07975662 -0.07735481 0.06171507 0.07003401 0.13890955
-0.08571521 0.115283474 -0.02959076 -0.04933658 0.034097046 -0.11303289 -0.060720384 -0.057149086
0.07327195 -0.09830295 -0.059175443 -0.02177127 -0.09153151 0.0025870884 -0.11039127 0.21583678
-0.014866932 -0.08507576 0.11503818 -0.06616535 -0.08998241 0.08973804 0.116853796 0.023035787
0.14671603 0.0640158 0.12754989 0.0061838143 -0.0063297036 -0.043070037 -0.025589852 0.13909619
00000000: d6ec fbbd f9c0 a93d c550 163e 89b5 44bd
00000010: e948 423d 1131 a03d 0f49 663d 713c 043d
00000020: 3fc7 85bd ea7e e4bd 3597 0b3e d794 473c
00000030: e0bb 11be f49a 8d3d b363 133d d92e d53d
00000040: 4cb5 f2bc c81c adbc d7df 513d 5f85 a93c
00000050: ce57 e3bc 1bf5 81bb 3910 ca3d cbcd f3bd
00000060: 956d 27bd ba22 1fbc 7d64 86bc 12f8 5c3d
00000070: c6c2 fe3d 236c 4cbd 237a e4bd dc2c fc3c
00000080: 7fde 653d deb2 e53d 1f83 f6bd 61a2 01be
00000090: d504 e8bd 9a0b 803d 5c41 093e 64e6 a03d
000000a0: 49da e5bd e0ce 65bd 3e35 053e 66f2 913d
000000b0: 4fa5 043e a1e9 acbd 2c27 eb3d 726c 2f3d
000000c0: d885 b73d 7a06 023e 23e1 fdbd a554 08bd
000000d0: 6c30 b8bd abb7 82bd 15a9 093e 32d7 803d
000000e0: 5cf1 a6bd 46d4 913d 03e1 80bd 8bd1 e1bd
000000f0: e00b 06bd d20c 823d d060 8e3d 1a8c 74bd
00000100: c6a1 133e dc5b ef3d 505a 973d 0acb 1e3e
00000110: e0fe f4bb ceb1 94bd 8f8b b8bc 8efe af3b
00000120: 6d7e 813d ac84 053c dbed 9d3c 93da 0abd
00000130: f471 c4bd b1aa 0dbd b55a 013e f927 333d
00000140: 7a0a 283d 2726 9c3d 5530 ce3d c63c d73d
00000150: ac48 523c dd26 923c 5363 0c3e bb64 cd3d
00000160: ad6b 593d b3b2 41bd 7157 ba3d 7057 a33d
00000170: 336c 9ebd f1c8 7c3d fe6d 8f3d 4e3e 0e3e
00000180: 758b afbd be19 ec3d 5268 f2bc 2715 4abd
00000190: 58a9 0b3d ca7d e7bd f0b5 78bd 2915 6abd
000001a0: 9b0f 963d 0f53 c9bd f361 72bd aa59 b2bc
000001b0: df74 bbbd 248c 293b d114 e2bd 5104 5d3e
000001c0: 6f94 73bc 333c aebd 2399 eb3d b381 87bd
000001d0: b348 b8bd 94c8 b73d 0b51 ef3d 8cb5 bc3c
000001e0: ba3c 163e b71a 833d 709c 023e 98a1 ca3b
000001f0: 6769 cfbb 356a 30bd cfa1 d1bc 3b6f 0e3e

backbone.blocks.0.res_conv.weight f4 [64, 6, 1, 1]
0.36440262 -0.19080535 -0.29977354 -0.13208388 0.10377431 -0.07462719 0.116770566 -0.1544312
-0.33733544 -0.070481755 -0.38996294 -0.12275373 0.33659187 0.024817752 0.10634407 0.09624551
0.1067099 0.36481512 -0.4126789 -0.29966506 0.1407506 -0.05924265 0.35140842 0.17485605
0.20159663 0.18421215 -0.19742548 0.24941276 0.2097195 0.13253775 -0.041580908 0.052888628
-0.30632645 -0.31725046 0.1249696 -0.051303692 0.2167353 -0.032816477 -0.01822438 0.3427566
-0.35653582 0.20329705 0.3799868 0.071064495 -0.34932357 0.018701732 -0.16909587 -0.12500034
-0.07090477 -0.3316445 0.34611294 -0.26765913 0.06003642 0.29518443 0.26147908 0.016653005
0.35471112 0.18893957 0.34177953 -0.051183593 -0.07813359 -0.10110866 -0.17868522 -0.015908495
0.1965283 0.036606148 -0.2243165 0.03799811 0.12304667 -0.05492922 -0.33175674 0.21663871
0.10860377 0.040254716 0.35713705 0.01867912 -0.04622637 -0.28517047 -0.16488793 -0.3077183
0.08970049 0.2457763 -0.34409758 -0.08054893 -0.363963 -0.15581575 -0.35426167 -0.32219908
-0.2185042 0.16793537 -0.055050228 0.068279654 -0.0847291 0.32823166 0.064789556 0.09856711
-0.07098453 -0.2795757 -0.18821351 0.3970923 0.25660053 -0.40442264 -0.11485126 -0.31220135
0.07692887 0.32008964 -0.13708441 -0.27119187 0.20344204 -0.25886056 -0.21901266 0.20425805
-0.38479212 0.11330039 -0.20893058 -0.23860432 -0.09537574 -0.38503852 -0.30498722 -0.07919492
0.2873994 -0.007187185 -0.051170904 -0.25940615 -0.02026378 -0.097554706 0.03507247 -0.22137406
0.1480333 0.09827398 -0.26428226 0.04716277 0.078122765 0.25617978 0.16397572 0.15666817
-0.13795637 -0.3937324 -0.17027126 -0.09794822 0.3274317 0.081943914 0.240496 0.082846604
-0.37790963 -0.30502546 0.3362073 0.21189417 -0.0287847 0.15897426 0.12915576 0.0835664
-0.13969377 -0.36659437 -0.22025023 -0.2881533 0.36829332 -0.050747007 0.28434676 0.0657628
0.3910748 0.09513306 0.32050368 -0.28953514 0.27700344 -0.07441657 -0.25661027 -0.1577543
-0.033319406 -0.31576684 0.3801524 -0.28536955 0.22106436 -0.096467964 0.1993206 -0.25258097
0.20486784 -0.23377126 0.371827 -0.29629642 0.0049855933 0.3064113 0.11447675 -0.020986388
-0.25455707 -0.02812281 -0.0680968 0.19157098 -0.31018707 -0.095978476 0.38391292 0.1448563
0.066000715 0.27080667 -0.19226371 -0.21023469 -0.28631794 -0.09067928 -0.37572274 0.3298188
-0.16074322 -0.24849907 0.009667362 0.22121072 -0.123537645 -0.06292943 0.23398998 0.19358003
-0.013359106 -0.005061504 -0.23972999 -0.22053106 0.30907917 0.2088816 0.07743656 -0.3850962
0.34381023 -0.23177426 0.29343176 -0.090227716 -0.23519553 -0.36998245 0.35096854 -0.23363046
-0.14648648 0.052723475 0.06284466 -0.18466567 0.09182731 0.027224164 -0.10099166 0.02641124
0.18451194 0.031986073 0.017484268 -0.140298 -0.03448891 0.17905153 -0.103906386 -0.018325461
0.36307353 -0.039484758 -0.15293388 -0.2289419 -0.3120776 0.14825454 -0.30765575 -0.027753148
0.33696494 0.3710239 0.042546574 0.29649106 0.17812146 -0.03927612 0.32784876 -0.029331204
00000000: fb92 ba3e 7a62 43be eb7b 99be ff40 07be
00000010: a087 d43d 24d6 98bd 6825 ef3d 3623 1ebe
00000020: 3bb7 acbe bd58 90bd 39a9 c7be 4f66 fbbd
00000030: c555 ac3e 994e cb3c ebca d93d 5e1c c53d
00000040: b88a da3d 0cc9 ba3e a64a d3be b36d 99be
00000050: ed20 103e 6ca8 72bd ceeb b33e 770d 333e
00000060: 596f 4e3e 1ca2 3c3e e829 4abe 0f66 7f3e
00000070: b5c0 563e fab7 073e be50 2abd bfa1 583d
00000080: d2d6 9cbe a76e a2be 10f0 ff3d d223 52bd
00000090: dcef 5d3e 926a 06bd 4c4b 95bc cb7d af3e
000000a0: dd8b b6be 1a2d 503e a18d c23e 438a 913d
000000b0: 8ada b2be 6034 993c 7827 2dbe 1700 00be
000000c0: 8536 91bd 4fcd a9be b735 b13e 9e0a 89be
000000d0: c0e8 753d 6a22 973e 96e0 853e e26b 883c
000000e0: b29c b53e 6079 413e bafd ae3e e3a5 51bd
000000f0: 8104 a0bd 0f12 cfbd 42f9 36be 8852 82bc
00000100: b73e 493e 54f0 153d 39b3 65be e8a3 1b3d
00000110: e4ff fb3d 76fd 60bd 05dc a9be 8ad6 5d3e
00000120: a76b de3d 21e2 243d abda b63e f404 993c
00000130: dd57 3dbd dd01 92be 62d8 28be 418d 9dbe
00000140: e4b4 b73d c8ac 7b3e 8f2d b0be d6f6 a4bd
00000150: 5c59 babe 2a8e 1fbe c961 b5be 47f7 a4be
00000160: 91bf 5fbe 40f7 2b3e 597c 61bd 34d6 8b3d
00000170: 7386 adbd fb0d a83e 63b0 843d 8edd c93d
00000180: 5660 91bd 8c24 8fbe 0bbb 40be af4f cb3e
00000190: 2561 833e 7c10 cfbe 2337 ebbd dbd8 9fbe
000001a0: e28c 9d3d cae2 a33e db5f 0cbe a9d9 8abe
000001b0: 1c53 503e 5f89 84be db44 60be 0629 513e
000001c0: 7903 c5be 090a e83d e6f1 55be b154 74be
000001d0: 5b54 c3bd c523 c5be 4927 9cbe f230 a2bd
000001e0: 0426 933e 7a82 ebbb 9598 51bd e2d0 84be
000001f0: 3a00 a6bc c3ca c7bd 26a8 0f3d e2af 62be
00000200: 0b96 173e de43 c93d 0150 87be c02d 413d
00000210: d4fe 9f3d ff29 833e 40e9 273e 9f6d 203e
00000220: 6f44 0dbe 4b97 c9be 975b 2ebe 1499 c8bd
00000230: 21a5 a73e 36d2 a73d 9544 763e 7bab a93d
00000240: 5f7d c1be 4c2c 9cbe 5d23 ac3e c9fa 583e
00000250: e4cd ebbc 26ca 223e 6841 043e dc24 ab3d
00000260: e20b 0fbe 42b2 bbbe 4789 61be d488 93be
00000270: f190 bc3e 18dc 4fbd e695 913e a6ae 863d
00000280: f53a c83e 1fd5 c23d 0f19 a43e f33d 94be
00000290: 65d3 8d3e b767 98bd 6c62 83be 588a 21be
000002a0: ee79 08bd 31ac a1be 56a3 c23e f51b 92be
000002b0: b25e 623e ff90 c5bd b31a 4c3e 4b52 81be
000002c0: e0c8 513e bc61 6fbe 1c60 be3e 2ab4 97be
000002d0: 305e a33b f1e1 9c3e c972 ea3d a5eb abbc
000002e0: 4e55 82be cf61 e6bc 5676 8bbd 2f2b 443e
000002f0: d7d0 9ebe 5d90 c4bd 3c90 c43e 3655 143e
00000300: 622b 873d 2ca7 8a3e c7e0 44be c347 57be
00000310: 4498 92be 0fb6 b9bd bb5e c0be 02de a83e
00000320: df99 24be 8a76 7ebe db63 1e3c 1085 623e
00000330: 4e01 fdbd 25e1 80bd 129b 6f3e d839 463e
00000340: 27e0 5abc f9da a5bb c77b 75be e5d2 61be
00000350: a03f 9e3e 0fe5 553e 0f97 9e3d 542b c5be
00000360: e507 b03e 3b56 6dbe b03c 963e 4fc9 b8bd
00000370: 19d7 70be 576e bdbe 26b2 b33e d33c 6fbe
00000380: 8d00 16be 92f4 573d b3b4 803d ff18 3dbe
00000390: f50f bc3d 3605 df3c b7d4 cebd 635c d83c
000003a0: b3f0 3c3e d403 033d 2b3b 8f3c 47aa 0fbe
000003b0: 3e44 0dbd 4959 373e dfcc d4bd 471f 96bc
000003c0: c6e4 b93e c5ba 21bd b39a 1cbe bf6f 6abe
000003d0: a3c8 9fbe 0ad0 173e 0e85 9dbe 925a e3bc
000003e0: ab86 ac3e d8f6 bd3e 5145 2e3d adcd 973e
000003f0: 7965 363e ffdf 20bd cbdb a73e fe47 f0bc

backbone.blocks.0.res_conv.bias f4 [64]
-0.036416262 -0.36210418 0.12780234 -0.29743788 -0.15157169 -0.33205006 -0.2431405 -0.06377304
0.3157481 -0.39435935 0.08767358 -0.2820556 0.35564944 -0.20094638 0.08782075 -0.15397128
-0.20098242 -0.15673904 -0.27175036 -0.17864543 0.07942987 -0.08751946 0.12561965 -0.27032608
0.29410583 0.29469922 -0.16852841 0.23111044 -0.40682694 0.35855803 0.21790111 0.26939335
-0.15603186 0.11965214 0.3671957 -0.13113016 -0.25570872 0.19267897 -0.08003211 0.31731364
-0.3782911 0.09563821 -0.2731042 -0.2281769 -0.09725861 0.026035588 0.113541774 -0.045189694
-0.09085076 -0.010502217 -0.18871023 -0.31688765 0.39988235 -0.37617537 0.14846125 0.3534563
-0.22362931 -0.39216027 -0.3795585 0.33260098 0.22922449 0.12544557 0.4077464 -0.24358475
00000000: 3829 15bd b865 b9be 9ede 023e c749 98be
00000010: 9c35 1bbe 7702 aabe d3f9 78be 719b 82bd
00000020: bca9 a13e 78e9 c9be 358e b33d 9769 90be
00000030: af17 b63e e3c4 4dbe 5edb b33d a6aa 1dbe
00000040: 56ce 4dbe 3380 20be dd22 8bbe d4ee 36be
00000050: 21ac a23d 673d b3bd 70a2 003e 2e68 8abe
00000060: 0a95 963e d1e2 963e b692 2cbe 37a8 6c3e
00000070: 9f4b d0be eb94 b73e 7821 5f3e eded 893e
00000080: d1c6 1fbe 2e0c f53d 1301 bc3e fc46 06be
00000090: 41ec 82be a34d 453e e0e7 a3bd ef76 a23e
000000a0: 5faf c1be f7dd c33d 50d4 8bbe 35a7 69be
000000b0: 862f c7bd 9648 d53c 9788 e83d d418 39bd
000000c0: f70f babd 7e11 2cbc 413d 41be 193f a2be
000000d0: 61bd cc3e 0f9a c0be 3a06 183e 39f8 b43e
000000e0: 15ff 64be 3bc9 c8be 7e55 c2be ad4a aa3e
000000f0: d3b9 6a3e ce74 003e 23c4 d03e 486e 79be

backbone.blocks.0.ln.weight f4 [64]
0.98389876 0.9765955 1.0171295 1.0081637 0.9668795 0.9837989 0.9990981 1.0084559
0.9792056 0.9854792 0.9677419 0.9842945 0.9799873 0.9823846 1.0389535 0.97017145
1.0078022 0.9756416 1.006682 0.9929314 0.9916808 0.9620307 0.9966634 0.9845631
1.0052564 0.9996515 1.011247 0.98750544 0.97802186 0.9661172 0.9859445 0.99712694
0.96985614 1.0058901 0.98374444 0.9829247 0.98658854 0.99456185 0.974009 0.98926336
1.0093133 0.9939244 0.9830994 0.9789202 0.999698 1.0091543 0.9853275 0.9945336
1.0022185 0.9727527 0.99423873 0.9831829 1.01498 0.9918148 0.9840929 0.9785652
0.9938856 0.9866282 0.9953728 0.9981156 1.0544416 1.0030082 0.9941463 0.9937635
00000000: cae0 7b3f 2a02 7a3f 4d31 823f 820b 813f
00000010: 6a85 773f 3fda 7b3f e5c4 7f3f 1515 813f
00000020: 38ad 7a3f 5d48 7c3f efbd 773f b9fa 7b3f
00000030: 73e0 7a3f 8f7d 7b3f 6efc 843f 285d 783f
00000040: aaff 803f a6c3 793f f5da 803f c130 7e3f
00000050: cbde 7d3f a547 763f 5525 7f3f 540c 7c3f
00000060: 3eac 803f 29e9 7f3f 8b70 813f 28cd 7c3f
00000070: a45f 7a3f 7553 773f dc66 7c3f b643 7f3f
00000080: 7e48 783f 02c1 803f add6 7b3f f4a0 7b3f
00000090: 1191 7c3f 9b9b 7e3f a758 793f 5d40 7d3f
000000a0: 2e31 813f d471 7e3f 67ac 7b3f 849a 7a3f
000000b0: 35ec 7f3f f82b 813f 6c3e 7c3f c199 7e3f
000000c0: b248 803f 5206 793f 6e86 7e3f e0b1 7b3f
000000d0: ddea 813f 93e7 7d3f 83ed 7b3f 4083 7a3f
000000e0: 496f 7e3f aa93 7c3f c0d0 7e3f 8184 7f3f
000000f0: f1f7 863f 9362 803f 5f80 7e3f 4967 7e3f

backbone.blocks.0.ln.bias f4 [64]
-0.005700373 -0.0063311374 0.005673129 -0.021357559 0.00497796 -0.008224714 -0.00051437895 0.00146675
0.0036284286 -0.010380665 0.0010384381 -0.0032570506 0.009228916 -0.01762002 -0.0059067085 -0.0052556135
-0.02442128 -0.0055621127 -0.011334495 0.0004359903 0.0056850147 0.0010639234 0.011027039 -0.013575033
0.0028702384 0.018075857 -0.0040677395 0.012990898 -0.026424026 0.018860443 0.010815037 0.019205438
0.0032082335 0.007683659 0.012951023 -0.011380841 -0.01334523 0.017796978 0.002944968 0.0026503482
-0.021445686 0.0026612831 -0.00556125 -0.008198091 -0.00558736 0.010679867 0.010161191 -0.00076613174
-0.0013365137 0.0030424502 -0.015569106 -0.021322707 0.01974154 -0.015115605 0.00737033 0.00536445
-0.008412984 -0.0063343677 -0.011218889 0.010229731 -0.010705055 0.0076461285 0.020669324 0.0056180856
00000000: 32ca babb 6e75 cfbb a8e5 b93b 0cf6 aebc
00000010: 281e a33b f3c0 06bc 63d7 06ba f73f c03a
00000020: eeca 6d3b aa13 2abc 331c 883a 3e74 55bb
00000030: e134 173c dc57 90bc 108d c1bb 4837 acbb
00000040: 230f c8bc 6242 b6bb 51b4 39bc a195 e439
00000050: 5c49 ba3b 5873 8b3a c1aa 343c d169 5ebc
00000060: 9c1a 3c3b d213 943c ac4a 85bb c7d7 543c
00000070: 3377 d8bc 3781 9a3c 8e31 313c b954 9d3c
00000080: 3a41 523b 34c7 fb3b 8730 543c b576 3abc
00000090: f4a5 5abc f8ca 913c 5d00 413b 77b1 2d3b
000000a0: ddae afbc ec68 2e3b 253b b6bb 4951 06bc
000000b0: 2c16 b7bb 9cfa 2e3c 207b 263c 3bd6 48ba
000000c0: f52d afba d863 473b 9015 7fbc f5ac aebc
000000d0: 03b9 a13c 71a7 77bc cf82 f13b 45c8 af3b
000000e0: 9dd6 09bc 8790 cfbb 6ecf 37bc 9a9a 273c
000000f0: 4164 2fbc 608c fa3b b752 a93c eb17 b83b

backbone.blocks.1.temporal1.conv.weight f4 [128, 64, 1, 3]
-0.011647728 -0.020053297 0.045765765 0.0833158 0.08756528 -0.01553018 0.06599187 0.04314299
0.017254904 0.016623044 0.01950631 0.031381756 0.10905424 0.055440363 0.08462487 -0.0117790615
-0.051841315 -0.059508678 0.10693336 0.1108411 0.037089948 0.08392101 0.03738771 0.033332705
-0.03893976 0.016553568 0.009763612 -0.027560819 -0.011707199 0.005468574 0.015729783 -0.063560635
-0.030008554 -0.011382772 0.030592948 0.0051132003 -0.07694973 -0.058855183 -0.047044117 -0.01769116
0.012255094 0.037787862 -0.0024386751 0.00130205 0.0029245438 0.07667428 0.004458286 -0.008788261
-0.057213705 -0.02234619 0.012739293 -0.049705695 -0.06603678 -0.04517154 0.048423 0.096093155
0.020450098 -0.05742871 -0.037379373 0.030744698 -0.019219924 0.017127305 -0.02637233 0.055794872
0.040962305 -0.021251965 0.023118181 -0.042654864 0.008748247 -0.054076746 -0.029090418 0.0036738738
-0.0255523 -0.0026365316 -0.037687287 0.007578152 -0.0040446967 -0.018902183 0.0056122583 -0.04647212
-0.042237397 -0.028712371 -0.027152179 0.0009986445 -0.02535736 -0.039606445 -0.053119864 -0.042375986
-0.082341135 -0.019605033 0.061268713 -0.03005969 0.027033526 -0.05218354 -0.02980679 0.053073816
0.03560498 0.053451642 0.034473307 -0.029503603 0.035434622 -0.04847042 -0.044666126 0.030155592
-0.009533468 -0.034504756 -0.043096486 -0.023224005 0.035385583 -0.0012443055 -0.011515723 -0.0061248257
0.007326657 -0.044347085 0.0054768273 0.03939654 -0.011280409 -0.024173774 -0.046793085 0.016276618
0.03792988 -0.01934465 -0.010853391 0.068551324 -0.04280149 0.015383287 -0.038011502 0.020109365
-0.013672807 -0.009154862 0.053066473 -0.020274134 -0.06666997 -0.01131384 -0.052182563 0.057875056
0.024547692 0.04166746 -0.032943122 0.022522425 -0.038245004 0.044714224 0.03436439 0.027559802
-0.051203176 -0.0049511986 0.031941295 0.0037099426 -0.011644289 0.016317865 -0.05155992 -0.03292588
-0.029731961 0.02986559 -0.040532537 -0.0037462916 0.04506072 -0.04428662 0.052708164 0.010396745
0.04497535 0.001300181 -0.017301496 0.030527545 -0.035973568 -0.04085007 -0.00179837 -0.053694237
0.04575877 -0.019623756 0.031010382 0.05509778 0.06558299 0.08750884 0.073497966 0.047659144
0.009633897 0.057154264 0.06890036 -0.011075607 -0.099166736 -0.12334145 -0.038104713 -0.04963831
-0.05086574 -0.017759096 -0.033987325 0.04449641 -0.04324878 -0.01763876 0.0069592125 0.007821266
-0.05222609 -0.038039524 0.00491972 -0.023104059 0.02658849 -0.014594115 -0.055153545 -0.012855604
-0.0066117267 0.00048925437 -0.032237798 0.044448063 0.057074014 0.050752297 0.064236104 -0.045536466
-0.08081743 -0.053234324 0.059233073 0.027230494 -0.0043954835 -0.0041247667 -0.066565834 -0.008503536
-0.055311657 -0.033842977 0.00084466074 0.011172837 0.07655013 0.017376032 -0.050406687 -0.03136181
-0.047700595 -0.007712073 -0.013017527 -0.021262124 -0.030236294 -0.045418818 -0.0081688445 0.0588077
-0.009561844 0.0061720945 -0.038193427 -0.043211345 -0.038807496 0.078310445 0.06493413 -0.006534404
0.10608966 0.076215036 0.034373812 0.08483227 0.046818458 0.023983218 -0.019225314 0.023890555
0.030730434 -0.046672884 -0.03728378 -0.016292686 -0.08660156 -0.086640105 -0.02748529 -0.0032646495
00000000: 1dd6 3ebc d046 a4bc e274 3b3d 79a1 aa3d
00000010: 6d55 b33d 4c72 7ebc bf26 873d b4b6 303d
00000020: 285a 8d3c 0d2d 883c b2cb 9f3c 288a 003d
00000030: d457 df3d 6f15 633d ce4f ad3d f7fc 40bc
00000040: 8f57 54bd 5fbf 73bd e1ff da3d a900 e33d
00000050: a1eb 173d c7de ab3d db23 193d e087 083d
00000060: 4c7f 1fbd 599b 873c 8ff7 1f3c 3ac7 e1bc
00000070: 8dcf 3fbc b931 b33b bfdb 803c 142c 82bd
00000080: 80d4 f5bc ce7e 3abc 109e fa3c a28c a73b
00000090: d297 9dbd 2212 71bd 55b1 40bd 0ded 90bc
000000a0: 97c9 483c 72c7 1a3d 2ed2 1fbb 8ca9 aa3a
000000b0: b4a9 3f3b 6807 9d3d d016 923b a3fc 0fbc
000000c0: eb58 6abd 5b0f b7bc 78b8 503c 3398 4bbd
000000d0: 4b3e 87bd cb05 39bd 3257 463d 7dcc c43d
000000e0: f786 a73c 5e3a 6bbd 1d1b 19bd 4edc fb3c
000000f0: 1a73 9dbc 904e 8c3c c90a d8bc 2a89 643d
00000100: 17c8 273d 9a18 aebc 5762 bd3c deb6 2ebd
00000110: cf54 0f3c 947f 5dbd 074f eebc 60c5 703b
00000120: 0f53 d1bc a9c9 2cbb fc5d 1abd 2652 f83b
00000130: 6089 84bb c0d8 9abc 09e7 b73b 8d59 3ebd
00000140: 1f01 2dbd 3536 ebbc 3f6e debc f3e4 823a
00000150: 3dba cfbc 5e3a 22bd 3794 59bd 7192 2dbd
00000160: 78a2 a8bd bc9a a0bc e7f4 7a3d bd3f f6bc
00000170: 6a75 dd3c 68be 55bd 5f2d f4bc ee63 593d
00000180: 87d6 113d 1cf0 5a3d e233 0d3d 8ab1 f1bc
00000190: e523 113d eb88 46bd d4f3 36bd dc08 f73c
000001a0: 4332 1cbc dc54 0dbd f185 30bd 4540 bebc
000001b0: 79f0 103d f717 a3ba 71ac 3cbc c3b2 c8bb
000001c0: 7414 f03b 4aa5 35bd f576 b33b 445e 213d
000001d0: 77d1 38bc 1408 c6bc 1baa 3fbd 8b56 853c
000001e0: 5d5c 1b3d ac78 9ebc 6cd2 31bc a364 8c3d
000001f0: 9d50 2fbd 2f0a 7c3c f3b1 1bbd 65bc a43c
00000200: e903 60bc 46fe 15bc 3b5c 593d f115 a6bc
00000210: 448a 88bd af5d 39bc 62bd 55bd 650e 6d3d
00000220: 3e18 c93c 80ab 2a3d 5eef 06bd f380 b83c
00000230: cba6 1cbd 4326 373d adc1 0c3d 18c5 e13c
00000240: 6cba 51bd aa3d a2bb e0d4 023d 8222 733b
00000250: b0c7 3ebc 0bad 853c 7f30 53bd 4add 06bd
00000260: 7190 f3bc afa8 f43c 7205 26bd 5884 75bb
00000270: 9791 383d e365 35bd 84e4 573d 1c57 2a3c
00000280: 1338 383d d66a aa3a debb 8dbc e714 fa3c
00000290: 0559 13bd 6752 27bd 49b7 ebba 7dee 5bbd
000002a0: 8c6d 3b3d 00c2 a0bc 7c09 fe3c 36ae 613d
000002b0: 6050 863d d637 b33d 1a86 963d 3c36 433d
000002c0: 7ed7 1d3c 971a 6a3d a21b 8d3d 7676 35bc
000002d0: ee17 cbbd 719a fcbd b013 1cbd 8a51 4bbd
000002e0: 9858 50bd 867b 91bc 4b36 0bbd de41 363d
000002f0: a225 31bd 297f 90bc 1b0a e43b c424 003c
00000300: 06eb 55bd 55cf 1bbd 9a35 a13b b944 bdbc
00000310: 1bd0 d93c 281c 6fbc afe8 61bd 50a0 52bc
00000320: 2fa7 d8bb 4e41 003a c80b 04bd 2c0f 363d
00000330: 71c6 693d a4e1 4f3d 388e 833d 7284 3abd
00000340: 9c83 a5bd 3c0c 5abd 619e 723d 7c12 df3c
00000350: fd07 90bb 0d29 87bb ab53 88bd 6a52 0bbc
00000360: 7a8e 62bd ef9e 0abd 396c 5d3a 460e 373c
00000370: 51c6 9c3d 2e58 8e3c 3e77 4ebd 3e75 00bd
00000380: b361 43bd 8fb5 fcbb 7747 55bc e82d aebc
00000390: 1bb2 f7bc 1509 3abd 9ed6 05bc 58e0 703d
000003a0: 48a9 1cbc 483f ca3b b670 1cbd 61fe 30bd
000003b0: 9cf4 1ebd 3a61 a03d 2ffc 843d 8e1e d6bb
000003c0: 8945 d93d a116 9c3d 8ecb 0c3d 8bbc ad3d
000003d0: b6c4 3f3d 7478 c43c 687e 9dbc 20b6 c33c
000003e0: 64be fb3c 112c 3fbd e0b6 18bd 3d78 85bc
000003f0: 295c b1bd 5e70 b1bd d528 e1bc bbf3 55bb

backbone.blocks.1.temporal1.conv.bias f4 [128]
0.048961062 0.018370038 -0.005838098 0.0018261578 0.036132373 0.02065597 0.05184215 0.028006487
0.0022745482 0.031540032 -0.046756286 -0.06508824 0.044023395 -0.043923642 -0.025521623 0.041563503
-0.02510126 0.034365598 -0.02218851 -0.029699069 -0.028879121 -0.034893103 -0.049083363 0.039108764
0.04372512 -0.05817743 0.014668463 -0.0022170555 -0.02900976 0.03588063 -0.040476203 -0.019911366
0.026910499 -0.024286559 -0.016388983 -0.018792944 0.052722752 0.0018804813 -0.009991517 0.03646398
-0.0079363575 -0.033592656 -0.012445688 0.046514165 0.06717937 -0.0057464056 0.014008798 -0.06488858
0.065901875 -0.07916347 0.04753868 0.020504681 0.034546662 -0.035974685 -0.057511546 0.01912896
-0.033007544 -0.013880766 0.023129404 -0.08172464 -0.047804132 0.0041554417 0.05496902 0.03530602
0.0154933315 -9.01117e-05 0.045242 -0.017326621 0.059708178 0.03231747 0.06873045 0.04613512
0.02304742 0.023142364 0.02989156 0.0067404085 -0.0032811465 0.02714134 -0.022290828 -0.05058397
0.052226797 0.016134577 0.0074235504 0.044118572 0.0035675757 0.025858106 0.070823066 -0.020692552
0.05800209 -0.032584265 -0.0031370819 0.008607036 0.0026219925 -0.028195549 0.05995177 0.056108866
0.07322142 0.0051513263 0.04109435 -0.010073726 0.029483635 0.023034379 0.018608367 -0.031118596
-0.0026412439 0.02095982 0.026132902 0.0026185424 0.01702941 0.027892407 0.037879113 0.031207511
0.010815794 0.0028544222 0.035943035 -0.0029804767 -0.03911068 -0.029538365 0.04938318 0.009375694
0.025793666 0.009352208 0.030572802 0.02409474 0.040304817 0.06530134 0.0037723074 0.03547006
00000000: 658b 483d c37c 963c 844d bfbb b05b ef3a
00000010: 8aff 133d b536 a93c 6f58 543d dc6d e53c
00000020: 9610 153b 1f30 013d 8583 3fbd fc4c 85bd
00000030: e051 343d 47e9 33bd b912 d1bc 7e3e 2a3d
00000040: 28a1 cdbc f1c2 0c3d aec4 b5bc 764b f3bc
00000050: e893 ecbc 12ec 0ebd a30b 49bd 8330 203d
00000060: 1d19 333d 754b 6ebd fe53 703c 054c 11bb
00000070: e0a5 edbc 91f7 123d 60ca 25bd 291d a3bc
00000080: 6873 dc3c 9bf4 c6bc 3042 86bc a9f3 99bc
00000090: d0f3 573d 7b7a f63a 76b3 23bc 415b 153d
000000a0: 7f07 02bc 7498 09bd 00e9 4bbc a385 3e3d
000000b0: 5695 893d 584c bcbb 2885 653c 4ee4 84bd
000000c0: 90f7 863d 7520 a2bd ebb7 423d 6ff9 a73c
000000d0: cd80 0d3d 315a 13bd 3a91 6bbd 56b4 9c3c
000000e0: eb32 07bd 276c 63bc e079 bd3c 405f a7bd
000000f0: 44ce 43bd 5f2a 883b 3227 613d 0c9d 103d
00000100: bed7 7d3c 5afa bcb8 ad4f 393d 8ff0 8dbc
00000110: 9090 743d 535f 043d 8dc2 8c3d 2ef8 3c3d
00000120: f1cd bc3c 0e95 bd3c 25df f43c a5de dc3b
00000130: 8108 57bb 8457 de3c 419b b6bc 2331 4fbd
00000140: c4eb 553d a92c 843c 4141 f33b adb5 343d
00000150: fdcd 693b 61d4 d33c af0b 913d 6d83 a9bc
00000160: 9993 6d3d 1477 05bd 8097 4dbb 8704 0d3c
00000170: bcd5 2b3b 5afa e6bc fd8f 753d 69d2 653d
00000180: 1df5 953d 75cc a83b 8d52 283d 450c 25bc
00000190: aa87 f13c 98b2 bc3c 9370 983c 6dec febc
000001a0: b818 2dbb eeb3 ab3c ab14 d63c da9b 2b3b
000001b0: 4381 8b3c 9e7e e43c 2127 1b3d e5a6 ff3c
000001c0: ba34 313c 4211 3b3b 0139 133d 1a54 43bb
000001d0: 8532 20bd 71fa f1bc 0446 4a3d 839c 193c
000001e0: 3d4d d33c 013a 193c d073 fa3c 5562 c53c
000001f0: aa16 253d b5bc 853d d138 773b 0e49 113d
