artifacts/runs/20260210_172238_STGCN_LSTM/best.pt (torch, 556846 bytes, 25 tensors)

backbone.blocks.0.temporal1.conv.weight f4 [128, 6, 1, 3]
0	0xbe5cc0b4	-0.21557885
1	0xbe395f75	-0.1810282
2	0xbe3706b0	-0.17873645
3	0x3dbee609	0.093212195
4	0xbbe6a953	-0.007039228
5	0x3bcc15c1	0.006228179
6	0x3d0b468f	0.034002837
7	0xbdbb321c	-0.09140417
8	0xbbbcaf72	-0.0057582194
9	0xbe109ebd	-0.14123054
10	0xbd960cfb	-0.073266946
11	0x3dc3bbb3	0.09557285
12	0x3d6229cf	0.055215653
13	0x3e12169e	0.1426644
14	0x3e5ce6af	0.21572374
15	0x3decaab9	0.11556
16	0xbd99f5e1	-0.07517601
17	0xbe20183b	-0.15634243
18	0xbd59739d	-0.053088773
19	0x3c45ccda	0.012072766
20	0x3e4a0f12	0.19732311
21	0xbc555c1e	-0.013022451
22	0x3bb6c68b	0.0055778674
23	0x3e101a80	0.14072609
24	0x3d68c681	0.056829933
25	0x3dcf235b	0.101141654
26	0x3c5819d9	0.013189756
27	0xbd0cedda	-0.03440652
28	0x3c9638cc	0.01833763
29	0xbd09a1be	-0.033601515
30	0xbdd2a41e	-0.10285209
31	0xbd925fe5	-0.07147197
32	0xbdc092f3	-0.09403028
33	0xbba90cdf	-0.005159005
34	0x3d993b61	0.07482029
35	0x3ca54243	0.020173198
36	0xbe241e03	-0.16027074
37	0xbdbab2c2	-0.091161266
38	0xbda79bab	-0.08183988
39	0xbc13d495	-0.0090228515
40	0xbd6dbe8b	-0.058043044
41	0x3cd77482	0.026300672
42	0xbd4caf1c	-0.049971685
43	0xbde374a5	-0.111062326
44	0x3cf38b5c	0.029729538
45	0x39e05d69	0.00042794205
46	0x3c8b4b28	0.01700361
47	0x3d9f3791	0.0777427
48	0x3d8aeba6	0.067832276
49	0xbd8697e0	-0.065719366
50	0x3dc46e45	0.09591345
51	0xbd9975c9	-0.07493169
52	0xbda2e9a2	-0.07954718
53	0x3dffa477	0.12482541
54	0xbe117f20	-0.1420865
55	0xbd68a2a4	-0.05679573
56	0x3dca859c	0.09888765
57	0xbdb63153	-0.088961266
58	0xbd82a242	-0.063786045
59	0x3c452a3b	0.012033994
60	0xbd25ea37	-0.040506568
61	0x3dbc6619	0.09199161
62	0x3d13b8e9	0.036065016
63	0x3d9f3e3f	0.077755444
64	0x3ddecfd6	0.10879485
65	0x3e770e18	0.2412647
66	0xbe0adc02	-0.13560489
67	0x3dd20b69	0.102560826
68	0xbc6ba840	-0.014383376
69	0x3e1db27c	0.15400118
70	0x3db5c169	0.08874781
71	0xbd1a08b9	-0.037605975
72	0x3ea46fd3	0.32116565
73	0x3dbdd2e1	0.092687376
74	0xbe5859b6	-0.21127972
75	0x3e2a333d	0.16621108
76	0x3e013392	0.12617329
77	0x3e2c6e46	0.16838941
78	0x3db6a098	0.089173496
79	0x3de67865	0.11253432
80	0x3d1e57ca	0.03865794
81	0x3e1fe3e3	0.15614276
82	0xbce44171	-0.027863236
83	0x3d8b9ea8	0.06817371
84	0x3e371b82	0.17881587
85	0x3d7f4ebf	0.062330958
86	0x3e2881ff	0.1645584
87	0x3e3e7a81	0.18601419
88	0x3e037fcf	0.12841724
89	0x3dec4213	0.1153604
90	0xbe0dbd1f	-0.13841675
91	0xbd2d5c9b	-0.042324644
92	0xbe0ff30f	-0.14057563
93	0x3d40cbd0	0.04706937
94	0x3d8b08e3	0.067888044
95	0x3b3e1959	0.0029006808
96	0xbdf4e90d	-0.119585134
97	0xbe306984	-0.17227751
98	0xbe09b759	-0.13448848
99	0x3cf4fb84	0.029905088
100	0xbde37d6d	-0.111079074
101	0x3ded19f6	0.11577217
102	0x3de82db9	0.11336846
103	0x3dc3df01	0.09564019
104	0x3992b00c	0.00027978455
105	0x3c2d8f69	0.010593274
106	0x3b40dfea	0.0029430338
107	0x3d44d346	0.04805305
108	0x3da93024	0.08261135
109	0x3e800904	0.25006878
110	0x3e7cba1d	0.24680372
111	0x3dd3df59	0.103453346
112	0x3d80a711	0.062818654
113	0x3da1e469	0.07904894
114	0x3e13b576	0.1442469
115	0x3e1e5718	0.15462911
116	0x3da953b9	0.08267922
117	0xbe162473	-0.14662342
118	0x3e07b6d3	0.13253336
119	0xbb0bcf05	-0.002133311
120	0xbd6cbc37	-0.057796683
121	0x3ab0bb85	0.001348362
122	0x3d76b32d	0.06022947
123	0xbe5b99b2	-0.21445349
124	0xbe52a095	-0.2056907
125	0xbe16db3d	-0.1473207
126	0x3e0841f7	0.13306414
127	0x3d3ed5bf	0.046590563
128	0x3db2b5fc	0.08726117
129	0x3daf050d	0.08545885
130	0x3e1356fa	0.14388648
131	0x3e2502c1	0.16114332
132	0x3e32a3b8	0.17445266
133	0x3e08d91a	0.13364068
134	0x3df79993	0.12089839
135	0x3df6aa50	0.12044203
136	0x3e3778d6	0.17917189
137	0xbdec7f0b	-0.11547669
138	0x3e0c5336	0.13703617
139	0x3e4afe18	0.19823492
140	0x3dacf8a4	0.08445862
141	0x3d146b34	0.03623505
142	0xbc686b02	-0.014185669
143	0x3d6573ab	0.056018513
144	0xbd1893d5	-0.03725036
145	0x3e0037be	0.12521264
146	0x3c92b1a9	0.01790698
147	0x3cb17da7	0.021666361
148	0xbe11492a	-0.14188066
149	0xbe2b6b8b	-0.16740243
150	0xbe268f96	-0.16265711
151	0x3cb97803	0.022640234
152	0x3dcfe6cd	0.10151444
153	0x3e1f864e	0.15578577
154	0xbdc45efa	-0.09588428
155	0x3ddd04a8	0.10791904
156	0x3d9794a6	0.07401399
157	0x3dff8197	0.12475889
158	0xbdde6a15	-0.10860077
159	0xbde52686	-0.111889884
160	0xbe229432	-0.15876845
161	0xbd01bf39	-0.031676505
162	0xbe6c7573	-0.23091678
163	0x3db5cd9c	0.088771075
164	0xbdc5cd45	-0.09658293
165	0x3ce9b371	0.028527947
166	0x3d1f8122	0.03894151
167	0x3b209d96	0.002450799
168	0xbe000f3e	-0.12505814
169	0x3d1c24e8	0.038121134
170	0x3da7621c	0.0817301
171	0xbda4d86f	-0.08049094
172	0x3c6dfdd6	0.014525851
173	0xbe4594ca	-0.1929504
174	0xbc9fd22d	-0.0195094
175	0xbc338ce7	-0.010958887
176	0x3e1d99c7	0.15390693
177	0xbb1fba30	-0.002437245
178	0xbe0e0124	-0.13867623
179	0xbbe793cf	-0.0070671807
180	0x3de7af95	0.113127865
181	0x3d2c5e82	0.042082317
182	0x3dabe751	0.083937295
183	0x3d81547f	0.063149445
184	0xbd1f9f87	-0.038970497
185	0x3d823304	0.06357387
186	0xbd226486	-0.039646648
187	0xbdf0a81e	-0.11750816
188	0x3e17da4c	0.14829367
189	0x3e10e557	0.14149986
190	0x3e47a132	0.19495085
191	0xbccad3e6	-0.024759244
192	0x3bdfcafb	0.006829617
193	0xbdd5ed5c	-0.10445663
194	0xbd801b4f	-0.06255209
195	0x3e09dae0	0.134624
196	0xbcd35b6f	-0.025800435
197	0x3d80ea46	0.06294684
198	0x3dff0466	0.12452011
199	0xbdb54603	-0.08851244
200	0x3d8e96d5	0.06962363
201	0xbd22d423	-0.03975309
202	0x3dc8e34e	0.0980898
203	0x3aab3170	0.0013060998
204	0xbe1ad766	-0.1512123
205	0x3cbfdba4	0.023420162
206	0x3e351521	0.17683841
207	0x3df3c604	0.11903003
208	0x3cf2a6b7	0.029620511
209	0x3db53a37	0.08848994
210	0x3d1babb5	0.03800555
211	0xbe071f95	-0.13195641
212	0xbe06c4fa	-0.13161078
213	0xbe0de78a	-0.13857856
214	0x3d95d495	0.073159374
215	0xbe0200d9	-0.12695636
216	0xbe0d2383	-0.13783078
217	0x3c9dcdef	0.019263236
218	0xbd93d1a3	-0.072177194
219	0x3d8c8f32	0.0686325
220	0x3e012f5d	0.12615724
221	0x3d4f80bb	0.050659876
222	0x3b4efff7	0.0031585672
223	0xbdc723db	-0.09723636
224	0xbd9c115d	-0.07620499
225	0xbc645a6d	-0.013937575
226	0x3e0aed57	0.135671
227	0x3d4704ed	0.048588682
228	0xbb9ed420	-0.0048470646
229	0xbcdfecc5	-0.02733458
230	0xbd255cc3	-0.040371668
231	0x3e3f17a3	0.1866136
232	0x3dda56ad	0.10661063
233	0x3df49efb	0.119443856
234	0x3e38b2b3	0.18036918
235	0x3e415057	0.18878303
236	0x3e750bcf	0.23930286
237	0xbdaaeab5	-0.08345548
238	0xbd674659	-0.056463573
239	0x3d2e7772	0.04259438
240	0x3e0e935a	0.13923398
241	0x3e6ee98a	0.23331276
242	0xbd0d7a02	-0.034540184
243	0x3de9ec73	0.11422052
244	0x3e4f797a	0.20261183
245	0x3e22e2cb	0.15906827
246	0x3e41c04a	0.18921009
247	0x3b4eebd6	0.0031573675
248	0xbe4866c9	-0.1957046
249	0x3c6a52bb	0.014301951
250	0xbdfb315f	-0.12265276
251	0xb990719e	-0.00027550472
252	0xbe825a4b	-0.25459513
253	0xbe44e175	-0.1922663
254	0xbd16da38	-0.036829203
255	0xbd158c58	-0.036510795

backbone.blocks.0.temporal1.conv.bias f4 [128]
0	0x3c67e30d	0.014153254
1	0x3dd5cb7a	0.10439201
2	0xbde3f4b8	-0.11130661
3	0xbe00865f	-0.12551259
4	0xbdaa3363	-0.083105825
5	0x3e31abc0	0.17350674
6	0x3d4e002b	0.05029313
7	0xbd1b5555	-0.037923176
8	0x3de33fa7	0.11096125
9	0xbdcc3c4c	-0.09972438
10	0x3d194d3c	0.037427172
11	0xbe43d1f1	-0.19123055
12	0xb962c109	-0.00021624951
13	0xbe037458	-0.1283735
14	0xbce959e2	-0.028485242
15	0xbd75d2fb	-0.06001566
16	0x3e1eb665	0.15499265
17	0x3d86f166	0.06589012
18	0xba5b5dd4	-0.00083681685
19	0x3dfbe965	0.12300376
20	0xbe1e7fa1	-0.15478374
21	0xbc8cc8e8	-0.017185643
22	0xbd560d4d	-0.05225878
23	0x3a4077ea	0.00073420873
24	0xbcfac90f	-0.03061345
25	0x3c059bdc	0.008154836
26	0x3d375c3f	0.044765707
27	0x3e572bd6	0.21012816
28	0x3d04f3d5	0.0324591
29	0xbdff9dfc	-0.12481305
30	0x3db519f8	0.08842844
31	0x3cf8b304	0.030358799
32	0x3b508f61	0.0031823742
33	0xbdc59626	-0.09647779
34	0xbdb04391	-0.08606637
35	0x3d081825	0.03322615
36	0xbda5d0a9	-0.080964394
37	0x3d70dee4	0.058806315
38	0xbe0faf8d	-0.14031811
39	0xbd37a8b3	-0.04483862
40	0x3d26d18e	0.04072719
41	0xbe404a59	-0.18778361
42	0x3e2df32d	0.16987295
43	0x3dc7661f	0.09736275
44	0x3e4197d2	0.18905571
45	0xbdb6d99f	-0.08928227
46	0x3e1d71a2	0.15375379
47	0x3d951bc6	0.07280688
48	0xbc898c05	-0.0167904
49	0x3dbc72ef	0.09201609
50	0xbe29201a	-0.16516152
51	0x3e09c444	0.13453776
52	0xbc889ea3	-0.016677206
53	0x3e299d19	0.16563834
54	0xbdaa8752	-0.083265916
55	0x3df206b4	0.11817685
56	0xbd7cf326	-0.061755322
57	0x3dcff86d	0.10154805
58	0xbdcdb27b	-0.10043808
59	0x3d79922c	0.060930416
60	0x3a84cded	0.0010132171
61	0xbca095ea	-0.019602735
62	0xbd704fc6	-0.058669828
63	0xbe1d8433	-0.15382461
64	0x3db4b253	0.08823075
65	0x3cec7028	0.028862074
66	0x3c5d4721	0.013505728
67	0x3d6bd40e	0.057575278
68	0x3d6c859e	0.057744615
69	0xbcf52131	-0.029923053
70	0x3c413d14	0.011794347
71	0xbd2786b2	-0.04089994
72	0x3d424962	0.047433265
73	0x3ca0e0da	0.019638468
74	0x3c86fdd2	0.016478453
75	0xbb812108	-0.003940705
76	0x3cafc088	0.02145411
77	0x3dbd8590	0.09253991
78	0x3c5e0c0b	0.013552676
79	0x3cee7c3e	0.029111978
80	0xbbcc733b	-0.0062393225
81	0x3e4c8bd0	0.19975209
82	0x3c117479	0.008877867
83	0x3d7a5eee	0.06112569
84	0x3d35fdb7	0.044431414
85	0xbd174642	-0.036932237
86	0x3e4a8304	0.19776541
87	0x3d11de03	0.035612117
88	0x3cc7faf2	0.024411652
89	0x3c202852	0.009775238
90	0xbc5a516a	-0.013325075
91	0x3d89b4e1	0.06723953
92	0x3d11fc07	0.035640743
93	0x3c62f5ca	0.013852546
94	0x3c68ee51	0.014216975
95	0xbc26aa9e	-0.010172514
96	0xbcf45ebe	-0.029830333
97	0x3d3d8669	0.04627076
98	0x3cc8c0a8	0.024505928
99	0x3c823d02	0.015898231
100	0xbc6316c2	-0.013860406
101	0xbc7d62bf	-0.015465437
102	0x3cb8f8f5	0.02257965
103	0x3cb62785	0.022235641
104	0x3c0ad925	0.008474623
105	0x3e8bb487	0.2728617
106	0x3e0a1d2c	0.1348769
107	0x3d27081b	0.040779214
108	0x3c0cd2b2	0.008595156
109	0x3d6431d4	0.055711582
110	0x3d878d9c	0.06618807
111	0x3db5e022	0.088806406
112	0x3de4a936	0.11165087
113	0x3d1bfe3d	0.038084257
114	0x3d2153e6	0.039386652
115	0xbd23a6d2	-0.039954014
116	0x3cab9ad7	0.020947857
117	0xbd0db17e	-0.034593098
118	0x3d3a156a	0.04543058
119	0x3d419748	0.047263414
120	0x3d3649fb	0.044504147
121	0xbd71ec6e	-0.059063368
122	0x3b21caa2	0.002468743
123	0x3d1491d6	0.036271892
124	0x3b645b99	0.0034844636
125	0x3d72e515	0.0593005
126	0x3cf6541e	0.030069407
127	0x3c051565	0.008122777

backbone.blocks.0.graphconv.mlp.weight f4 [16, 192, 1, 1]
0	0x3e17ed2b	0.14836566
1	0xbd849536	-0.06473772
2	0x3dc39950	0.095507264
3	0x3d46047d	0.048344124
4	0xbcc0d543	-0.023539191
5	0x3dea7a38	0.114490926
6	0xbe28594e	-0.16440317
7	0xbd46423c	-0.04840301
8	0xbaba6922	-0.0014222006
9	0x3cab9e41	0.020949485
10	0xbd2c8db6	-0.042127334
11	0xbda1dcc3	-0.07903435
12	0x3ae5c481	0.0017529876
13	0xbe3576fe	-0.17721173
14	0x3e376068	0.1790787
15	0xbbc7ba4e	-0.0060952073
16	0x3db4f456	0.08835666
17	0x3dc591a9	0.09646923
18	0xbd0228bf	-0.03177714
19	0x3d244393	0.040103506
20	0xbcae5944	-0.0212828
21	0x3e126dd2	0.14299706
22	0xbe1220a8	-0.1427027
23	0xbd9a4a31	-0.07533682
24	0x3df3f0d2	0.11911167
25	0x3c768347	0.015045947
26	0x3cc3985c	0.023876362
27	0x3dba2f82	0.09091093
28	0xbde2c2cb	-0.1107231
29	0xbd908214	-0.070560604
30	0x3d3ac654	0.045599297
31	0xbc1ca477	-0.009560696
32	0xbc9a12fc	-0.01880788
33	0x3d9bf963	0.07615926
34	0x3c8225a4	0.01588709
35	0x3cb45344	0.02201236
36	0x3d8d8fcb	0.06912192
37	0xbd62743c	-0.05528663
38	0xbdeebdc5	-0.116572894
39	0xbb9eff7e	-0.0048522344
40	0x3df24eb7	0.1183142
41	0xbdecbfa4	-0.1155999
42	0xbe009f51	-0.12560774
43	0xbd7895fc	-0.06068991
44	0x3e004995	0.1252807
45	0xbd338801	-0.043830875
46	0x3d554545	0.052068014
47	0xbe270350	-0.16309857
48	0x3e3f8ffb	0.18707268
49	0x3d31fcc9	0.043453965
50	0xbd43f05e	-0.047836654
51	0xbd563735	-0.052298743
52	0x3da5499f	0.08070683
53	0x3e0ff980	0.1406002
54	0xbc98ed4a	-0.018667836
55	0x3d8bdcf4	0.06829253
56	0x3c8e5d66	0.01737852
57	0xbde07239	-0.10959286
58	0xbd5adea5	-0.053434987
59	0x3d98dfb9	0.07464547
60	0x3cd9fece	0.026610758
61	0xbe00e677	-0.12587915
62	0xba51bb75	-0.00080006506
63	0x3d0e56b7	0.034750666
64	0xbd692875	-0.05692335
65	0x3cdaac2a	0.026693422
66	0xbd392e1c	-0.04520999
67	0xbd27b7c5	-0.04094674
68	0xbcfaa329	-0.030595379
69	0xbd755ab8	-0.05990097
70	0x3dd742a7	0.1051076
71	0xbbbc1f20	-0.005741015
72	0x3c464738	0.012101941
73	0x3cdf344c	0.027246617
74	0x3d10fbd5	0.035396416
75	0x3d92476c	0.07142529
76	0xbd7ff6f1	-0.06249136
77	0x3dd4c56d	0.103892185
78	0xbde709e9	-0.11281187
79	0xbd69ba90	-0.057062685
80	0xbd84be53	-0.06481614
81	0xbc34a5a1	-0.011025817
82	0x3d2adce0	0.04171455
83	0xbd5ece92	-0.05439622
84	0x3d25a303	0.040438663
85	0xbd2e37e1	-0.04253376
86	0x3dc3bee8	0.09557897
87	0x3bbc1b72	0.0057405764
88	0xbde24d3d	-0.11049888
89	0xbd84d2bc	-0.06485507
90	0xbd550551	-0.052007023
91	0x3c825de5	0.015913913
92	0x3d6c70c1	0.057724718
93	0xbb8bb8b0	-0.00426396
94	0x3bb1d955	0.0054275193
95	0x39ba1f58	0.00035500037
96	0x3d916121	0.07098604
97	0xbc11375f	-0.008863299
98	0xbd17428a	-0.03692869
99	0xbd99f254	-0.075169235
100	0xbc5ef6fb	-0.013608689
101	0x3da8c08f	0.08239853
102	0xbc202b58	-0.009775959
103	0x3cc9f84a	0.024654526
104	0xbd928931	-0.071550734
105	0x3da315f4	0.079631716
106	0x3d9baced	0.07601342
107	0x3cdfecac	0.027334534
108	0xbd4ccbef	-0.049999174
109	0x3b959e56	0.0045659943
110	0xbd503637	-0.050832953
111	0x3d4970c5	0.04917981
112	0xbd98afbc	-0.07455394
113	0x3ce0d8ef	0.027447192
114	0x3dd33b37	0.10314029
115	0xbbd562df	-0.0065120305
116	0xbd1a8750	-0.0377267
117	0xbd68f627	-0.056875374
118	0xbce3c3cb	-0.027803322
119	0xbd33d390	-0.043902934
120	0xbd79dd54	-0.06100209
121	0x3dc0b8a5	0.09410218
122	0x3d6d8f72	0.05799813
123	0x3cc98b06	0.024602424
124	0xbc2ede89	-0.010673174
125	0x3d9e8327	0.07739859
126	0x3cbedd57	0.023298902
127	0xbbda95c4	-0.0066706855
128	0x3c9cb8d4	0.019131102
129	0x3cae45df	0.021273552
130	0x3c32190b	0.0108702285
131	0x3c2da2c6	0.01059789
132	0x3d2b6e90	0.041853487
133	0x3daac5f0	0.08338535
134	0xbc8b1817	-0.01697926
135	0x3c097dfc	0.008391853
136	0x3d345c1c	0.044033155
137	0xbd4ef72a	-0.050528683
138	0x3c3e0b9e	0.011599449
139	0xbcfc35ac	-0.030787311
140	0x3d40c5a4	0.047063485
141	0x3d5154dd	0.051106323
142	0x3c5e3767	0.013563014
143	0x3d792fc5	0.060836572
144	0x3d14ced6	0.036330067
145	0xbca82cad	-0.020529116
146	0x3cb54c13	0.022131002
147	0xbd3c72ae	-0.046007805
148	0xbbddade5	-0.0067651146
149	0xbd9b08b2	-0.07570018
150	0x3ccfefa0	0.025382817
151	0x3d14a9c9	0.036294732
152	0xbd1e03bf	-0.03857779
153	0x3d980351	0.074225076
154	0x3c38c40c	0.01127721
155	0xbcc718e3	-0.02430386
156	0x3d63e2f4	0.05563636
157	0xbd0143d7	-0.031558838
158	0xbb4e3f27	-0.0031470747
159	0x3ca06d82	0.019583467
160	0x3d51dacb	0.051234048
161	0xbdfa6fc9	-0.122283526
162	0x3be62a8e	0.007024116
163	0x3d7dc910	0.061959326
164	0xbd7a26a0	-0.061071992
165	0x3cb7f4bf	0.022455571
166	0x3cd16ecd	0.02556553
167	0xbda7c88f	-0.081925504
168	0x3c8b6adf	0.017018734
169	0x3d12f39d	0.03587686
170	0xbc5eea47	-0.013605661
171	0x3d030d93	0.031995367
172	0x3cefc900	0.029270649
173	0xbd9723d3	-0.0737988
174	0xbc670c2e	-0.014102025
175	0x3be8b2b5	0.0071013817
176	0xba06e9ad	-0.0005146515
177	0xbc2f9a29	-0.010717907
178	0xbd6e0349	-0.0581086
179	0xbd0d63c4	-0.034518972
180	0x3ce64a16	0.028111499
181	0x3d003064	0.03129615
182	0x3c2fc465	0.010727976
183	0x3d26aefc	0.04069422
184	0xbce846fa	-0.028354157
185	0xbd4c6a8a	-0.04990629
186	0xbcfcc17e	-0.030853983
187	0xbcae512d	-0.021278942
188	0x3d04ceb7	0.0324237
189	0xbd3cc90a	-0.046090163
190	0xbd945138	-0.07242054
191	0xbd3563ea	-0.04428474
192	0xbd6e485b	-0.058174472
193	0xbc72d509	-0.014821299
194	0xbcf28b9b	-0.029607585
195	0x3c63335a	0.013867224
196	0x3e0b05b8	0.135764
197	0x3cb84394	0.022493161
198	0xbd6019af	-0.054711994
199	0x3d1926c5	0.03739049
200	0xbd45995a	-0.04824195
201	0xbc93aed0	-0.018027693
202	0x3b9d6e40	0.0048044026
203	0x3ba2dd6f	0.0049702446
204	0x3d6c3a65	0.057672877
205	0x3d3fdfbe	0.046844237
206	0xbc69c14b	-0.014267276
207	0xbd80682c	-0.06269869
208	0x3d18224c	0.037142083
209	0xbde25799	-0.11051864
210	0xbd3edd11	-0.046597544
211	0xbd82d598	-0.06388396
212	0x3d2ed786	0.042686008
213	0xbce9e251	-0.028550299
214	0x3e68e267	0.22742616
215	0x3dab7847	0.083725505
216	0xbd54c24a	-0.0519431
217	0xbce49b25	-0.02790601
218	0xbac42fbe	-0.0014967842
219	0x3d645aec	0.055750772
220	0xb5e30e04	-1.6916897e-06
221	0x3c96ce5e	0.01840895
222	0xbdb429fa	-0.08797069
223	0x3cdeb370	0.027185172
224	0xbda8bea7	-0.08239489
225	0xbdb7051b	-0.08936521
226	0x3d9ce6c8	0.076612055
227	0xbaa36b59	-0.0012467905
228	0xbd412bf1	-0.047161046
229	0xbd8ab208	-0.06772238
230	0xbd16988a	-0.036766566
231	0x3da228fc	0.079179734
232	0x3d14d2c3	0.03633381
233	0x3ddec201	0.10876847
234	0xbe0c54f8	-0.13704288
235	0xbce10b1e	-0.027471121
236	0x3b5c7432	0.0033638594
237	0x3da66abf	0.08125829
238	0xbd52a977	-0.051431146
239	0x3e2a3c8c	0.1662466
240	0xbdc5323a	-0.096287206
241	0xbd3571d6	-0.044298016
242	0x3d177e9a	0.03698597
243	0xbc8af506	-0.01696254
244	0xbe21eb2b	-0.15812366
245	0x3c363b0a	0.011122474
246	0xbd31d2bc	-0.043413863
247	0xbca8f2b4	-0.020623542
248	0xbca4597c	-0.0200622
249	0xbd8ab826	-0.06773405
250	0x3bad13f2	0.0052819187
251	0x3df3d34a	0.119055346
252	0x3d0b5b57	0.034022655
253	0x3d82f6a0	0.06394696
254	0x3a55ecb9	0.00081605796
255	0xbcbd70ae	-0.023125019

backbone.blocks.0.graphconv.mlp.bias f4 [16]
0	0x3d70766e	0.058706693
1	0x3cfdc754	0.030978836
2	0xbd534f4a	-0.051589288
3	0x3de96d3e	0.113977894
4	0x3cb8761d	0.022517258
5	0x391b067b	0.00014784366
6	0xbd009b5c	-0.031398162
7	0x3b6d3cf0	0.0036199652
8	0x3db6e480	0.08930302
9	0x3ccd36d5	0.02505056
10	0xbcf3d34d	-0.029763842
11	0xbbf7f0ae	-0.007566533
12	0x3c4a6a6b	0.012354474
13	0x3d9c8494	0.07642475
14	0x3d83e2e6	0.06439762
15	0xbd2ffe92	-0.042967387

backbone.blocks.0.temporal2.conv.weight f4 [128, 16, 1, 3]
0	0x3d6e36db	0.058157783
1	0x3d543ca9	0.051815663
2	0x3de2a517	0.11066645
3	0x3e187242	0.14887336
4	0x3df6a693	0.1204349
5	0xbd87e3d4	-0.06635252
6	0x3d7086d2	0.058722325
7	0xbd533058	-0.051559776
8	0xbdf8fd8e	-0.12157737
9	0xbdf88b74	-0.121359736
10	0xbdb79994	-0.089648396
11	0xbd81504c	-0.063141435
12	0xbdeaa853	-0.114578865
13	0x3d65e413	0.05612571
14	0x3d94b261	0.072605856
15	0x3cfc5340	0.030801415
16	0x3d90dadb	0.07072993
17	0x3c05c6ec	0.008165102
18	0xbce022b2	-0.027360294
19	0xbdbbdebc	-0.091733426
20	0x3daa5ad3	0.083181046
21	0xbcfff26e	-0.03124353
22	0x3b002f3d	0.0019559406
23	0xbdaa05a5	-0.08301858
24	0x3d9c6def	0.07638156
25	0xbd803a83	-0.0626116
26	0x3d6d9e15	0.058012087
27	0x3ced9fc8	0.029006854
28	0xbde6b4d0	-0.11264956
29	0xbc010379	-0.007874363
30	0xbda04796	-0.07826154
31	0xbd61dc9d	-0.055142034
32	0xbe04b24b	-0.12958638
33	0x3e0d2dcc	0.13787001
34	0xbd82579f	-0.06364369
35	0x3d468a37	0.048471656
36	0x3d33392d	0.0437557
37	0x3da1fa85	0.07909111
38	0x3de64408	0.11243445
39	0x3d94fa1d	0.07274268
40	0xbd270f55	-0.040786106
41	0x3e225ad7	0.15854965
42	0x3da1ee53	0.07906785
43	0x3e08e965	0.13370283
44	0xbd9362b3	-0.0719656
45	0x3da9f02f	0.082977645
46	0x3dba4073	0.09094324
47	0xbd141b1c	-0.036158666
48	0x3e0b4d7a	0.13603774
49	0x3df5e823	0.12007167
50	0xbd5de4b6	-0.054173194
51	0x3d99625f	0.07489466
52	0x3d748861	0.059700374
53	0x3da6a05a	0.081360534
54	0xbc6452b8	-0.013935737
55	0xbb1a8d7d	-0.0023582869
56	0x3bec6954	0.0072147045
57	0xbcbd039c	-0.02307301
58	0xbca3eec8	-0.02001132
59	0x3db4f1f1	0.08835209
60	0x3d566b94	0.05234869
61	0xbd0c252d	-0.03421514
62	0x3d3739c3	0.04473282
63	0x3c13398a	0.008985886
64	0x3cc9c07b	0.024627915
65	0xbd47940e	-0.04872518
66	0xbda7e2ea	-0.08197577
67	0xbd9c6596	-0.076365635
68	0xbc956f0d	-0.01824143
69	0x3d63ef84	0.05564834
70	0x3d7d69ed	0.061868597
71	0x3ce17196	0.027519982
72	0x3cd4b8af	0.02596697
73	0x3d6aced2	0.057326145
74	0x3dc704ec	0.09717736
75	0x3d991ca0	0.07476163
76	0x3d51abae	0.051189117
77	0x3da0f0b8	0.078584135
78	0x3be59afd	0.0070070014
79	0x3d5fd563	0.05464686
80	0xbc7cd8ff	-0.015432595
81	0xbcb2411d	-0.021759564
82	0xbad8bf4c	-0.0016536503
83	0xbb16a1f7	-0.0022984722
84	0x3ceaa7ce	0.028644469
85	0xbdab6eaa	-0.08370717
86	0x3ce30998	0.027714536
87	0x3dcabac4	0.09898904
88	0x3ad6229c	0.0016337219
89	0x3c5b4afb	0.013384576
90	0xbce50e2b	-0.027960857
91	0x3dbe76bc	0.092999905
92	0x3ddbcc23	0.10732295
93	0x3d8338b6	0.06407301
94	0x3c4c9c13	0.012488383
95	0xbd2b780e	-0.04186254
96	0x3bf9a9a3	0.007619099
97	0xbba1af97	-0.004934262
98	0xbd7d4099	-0.061829183
99	0xbd8a3ad1	-0.067494996
100	0xbd4bb606	-0.049734138
101	0xbd1a9a6b	-0.03774492
102	0xbd88389f	-0.066514246
103	0xbd6a2918	-0.057168096
104	0xbdb28e90	-0.08718598
105	0xbdc9c5c1	-0.09852172
106	0xbdb0d465	-0.08634261
107	0x3dc7d40d	0.09757242
108	0x3b644aa3	0.0034834526
109	0xbd3d0dd1	-0.046155754
110	0x3d3677ea	0.044547953
111	0xbdeaad84	-0.11458877
112	0xbc9e39f1	-0.019314738
113	0x3ca76966	0.020436
114	0x3ceb1504	0.028696544
115	0xbd77a5f8	-0.060461015
116	0xbe0c7710	-0.13717294
117	0xbdd1626f	-0.10223853
118	0xbcbbab49	-0.022908824
119	0xbdccf8a3	-0.10008361
120	0x3c82fdcd	0.015990162
121	0xbd384ea1	-0.04499686
122	0x3dcb8c59	0.099388786
123	0xbe273c02	-0.16331485
124	0xbc3f4b69	-0.011675694
125	0x3c3b3b1f	0.01142767
126	0xbdd6de7a	-0.10491653
127	0xbdfd9473	-0.1238183
128	0xbdf2c32f	-0.118536346
129	0x3dba7efa	0.0910625
130	0x3e1e860a	0.1548082
131	0xbd000efc	-0.03126429
132	0x3d916db7	0.071010046
133	0x3d12a20f	0.035799082
134	0x3dfaefc2	0.122527614
135	0x3d18082c	0.03711717
136	0x3d1c0df7	0.038099255
137	0xbd865968	-0.06560022
138	0xbc3f91d0	-0.011692479
139	0xbd532170	-0.05154556
140	0xbd68f648	-0.056875497
141	0xbd6d1ee4	-0.057890788
142	0xbb10be99	-0.0022086261
143	0xbd84499a	-0.06459351
144	0xbdb48604	-0.08814624
145	0x3e0181cd	0.12647171
146	0x3e080504	0.13283163
147	0xbd8527d0	-0.06501734
148	0xbb8a7978	-0.004225906
149	0xbd0b458c	-0.034001872
150	0x3da86b32	0.08223571
151	0x3e2e4b26	0.17020854
152	0x3a12e40e	0.0005603441
153	0x3e1ea29f	0.15491723
154	0x3e5e6a24	0.21720177
155	0x3e0cf5c0	0.13765621
156	0x3dedc4a0	0.11609769
157	0xbdb84253	-0.08997025
158	0x3d0c0a3a	0.03418944
159	0xbc70a402	-0.01468754
160	0x3e01cbd4	0.1267541
161	0x3dc28147	0.09497314
162	0xbe259efb	-0.16173927
163	0xbe0a1949	-0.13486208
164	0xbdbfe1f4	-0.09369269
165	0x3d8adc14	0.06780258
166	0x3d76ccff	0.060254093
167	0x3dcb9fa3	0.09942558
168	0x3d506501	0.050877575
169	0x3e27c48c	0.1638357
170	0x3d8bc50a	0.068246916
171	0x3e0e6c6e	0.1390855
172	0x3d58c5ed	0.05292313
173	0xbd03d0b6	-0.032181464
174	0xbd700c9a	-0.058605768
175	0x3ca5c4f6	0.02023552
176	0xbc1a80fc	-0.009430166
177	0xbde12884	-0.10994056
178	0x3d512be3	0.051067244
179	0x3d39a3f0	0.04532236
180	0xbd84a48b	-0.064766966
181	0x3cef0037	0.029174907
182	0xbd4c541f	-0.04988491
183	0xbbc7be8a	-0.006095712
184	0x3d54bea6	0.05193963
185	0x3d7a362d	0.061086822
186	0xbd0376d8	-0.03209576
187	0x3d8b6155	0.06805674
188	0xbd18ce51	-0.037306134
189	0x3b3f28ba	0.0029168562
190	0x3e02826d	0.12745066
191	0x3db8e680	0.090283394
192	0xbdd8f40c	-0.10593423
193	0x3d74908e	0.05970817
194	0x3d640d96	0.05567702
195	0x3dca9307	0.098913245
196	0x3de83f4a	0.113401964
197	0x3be20489	0.0068975133
198	0xbd6e780a	-0.058219947
199	0x3d852e1d	0.06502936
200	0x3ca9da95	0.02073411
201	0xbe11db1c	-0.1424374
202	0xbd9d9e65	-0.07696227
203	0x3e17c06b	0.14819495
204	0xbd94dceb	-0.07268699
205	0xbced5dcb	-0.028975388
206	0x3e1bfe2a	0.15233675
207	0xbdb72e0f	-0.08944332
208	0x3c665717	0.01405885
209	0xbd3b8a24	-0.045786038
210	0x3cb70676	0.022341948
211	0x3dd47288	0.103734076
212	0xbd7b0584	-0.061284557
213	0x3ca6beec	0.02035471
214	0xbcc4962e	-0.023997393
215	0xbcbc29be	-0.022969123
216	0x3d1170e5	0.035508055
217	0xbd07093d	-0.032967795
218	0x3da758a3	0.08171203
219	0xbe2c6ec0	-0.16839123
220	0xbdc438b4	-0.09581128
221	0xb9a7e3cb	-0.0003202244
222	0xbd829d08	-0.063776076
223	0xbd2d31b6	-0.042283736
224	0xbd515512	-0.05110652
225	0x3e2b0f1b	0.16704981
226	0xbc923941	-0.017849566
227	0xbd44d95e	-0.04805886
228	0xbc51cf54	-0.0128057785
229	0x3d87553e	0.066080555
230	0x3ddc5843	0.10759022
231	0xbc98acf1	-0.018637152
232	0x3d6daca6	0.05802598
233	0xbd09e26f	-0.03366321
234	0x3e4be704	0.19912344
235	0x3bfa7d05	0.007644298
236	0xbd5be574	-0.05368562
237	0x3c1dda22	0.009634526
238	0x3dd80369	0.105475254
239	0xbcd49b3d	-0.02595293
240	0xbddaaa8a	-0.10677059
241	0x3b274630	0.0025524013
242	0x3d039fd3	0.032134842
243	0x3e3b1bfa	0.18272391
244	0x3c1a4fcc	0.009418439
245	0xbba5001f	-0.005035415
246	0x3daf1c6f	0.08550345
247	0x3d91db27	0.07121878
248	0xbc995fb0	-0.018722385
249	0x3b1b6935	0.0023713831
250	0xbd7b80c4	-0.061402097
251	0x3d806239	0.062687345
252	0xbdbcc464	-0.09217146
253	0x3bfcae75	0.0077112266
254	0xbd84570a	-0.06461914
255	0xbc6a82e2	-0.014313431

backbone.blocks.0.temporal2.conv.bias f4 [128]
0	0xbde41a51	-0.11137832
1	0x3d9b7149	0.07589967
2	0x3e1959dc	0.14975685
3	0xbcddb104	-0.027061947
4	0x3d6bf4c6	0.05760648
5	0x3d8db3a0	0.069190264
6	0x3d544e30	0.051832378
7	0x3c78361f	0.015149622
8	0xbd3626ca	-0.044470586
9	0xbdae8a9a	-0.0852253
10	0x3df76ba7	0.1208108
11	0x3c5a0e06	0.0133090075
12	0xbe0cc6ae	-0.13747665
13	0x3d7b5267	0.061357882
14	0x3d19388d	0.037407447
15	0x3dc5f663	0.09666135
16	0xbc845063	-0.016151613
17	0xbc331f12	-0.010932701
18	0x3d709bbb	0.058742266
19	0x3bd9f7c4	0.0066518504
20	0xbcee2b23	-0.029073304
21	0x3bf88596	0.007584284
22	0x3d83ece9	0.064416714
23	0xbdb3c550	-0.08777869
24	0xbcd9acef	-0.026571719
25	0xbcbfefad	-0.023429716
26	0xbb78b331	-0.0037948603
27	0x3d0b07d1	0.033943
28	0x3dfcc935	0.12343065
29	0xbd55645d	-0.052097667
30	0xbddad206	-0.1068459
31	0x3d04f114	0.032456473
32	0x3d1ce5f7	0.03830525
33	0x3dd87519	0.105692096
34	0xbdd52b24	-0.10408619
35	0xbde9f1ba	-0.11423059
36	0xbde272dd	-0.11057065
37	0x3d1809ae	0.037118606
38	0x3e0be633	0.13662033
39	0x3d96a42e	0.073555335
40	0xbdbe58da	-0.09294291
41	0xbd0fc8e9	-0.035103712
42	0x3de8dc84	0.11370185
43	0x3da01fa4	0.07818535
44	0x3e04ba8c	0.12961787
45	0xbdb2255d	-0.08698533
46	0x3dd1ea9f	0.102498285
47	0x3d1b43e5	0.037906546
48	0x3d9fda2c	0.07805285
49	0x3de184cb	0.110116564
50	0xbdd6a6b6	-0.10481016
51	0xbc865f79	-0.016402947
52	0xbdcc09ac	-0.09962782
53	0xbd794a7d	-0.060862053
54	0x3e09e302	0.13465503
55	0x3d45c253	0.048281025
56	0xbda590a7	-0.08084231
57	0x3d9b3d34	0.07580033
58	0xbc952048	-0.01820387
59	0xbdb8b6b4	-0.09019223
60	0xbd4fc224	-0.050722256
61	0x3d584e08	0.05280879
62	0x3d847cf9	0.06469149
63	0xbd8027b7	-0.06257575
64	0x3dce6743	0.10078289
65	0x3d7ce4e1	0.061741713
66	0x3d2849a5	0.041085858
67	0x3dd2048b	0.10254773
68	0x3d4456fd	0.04793452
69	0xbd239a0b	-0.03994183
70	0x3c6f18e5	0.014593338
71	0x3d8564b5	0.06513349
72	0x3c408da8	0.0117525235
73	0x3d2d2a2a	0.04227654
74	0x3d00468d	0.031317282
75	0xbc8752fb	-0.01651906
76	0xbb46f30d	-0.0030357272
77	0x3b8f72fa	0.00437772
78	0x3d3d7fb1	0.046264354
79	0xbbb54264	-0.005531596
80	0x3d310abe	0.043223135
81	0x3d6832bd	0.056689013
82	0x3dd26d5a	0.102747634
83	0x3d6c19bc	0.05764173
84	0xb7e7a83b	-2.7615684e-05
85	0x3c8e6f0a	0.017386932
86	0x3dc98d8a	0.098414496
87	0x3dd17b0a	0.10228546
88	0x3c4ec6c0	0.012620628
89	0xbabdc99c	-0.001447964
90	0x3da86653	0.08222642
91	0x3cc4cdbf	0.024023889
92	0xbc119e75	-0.008887877
93	0x3d5bdf7c	0.05367993
94	0x3dadc2f7	0.08484452
95	0x3d92e61c	0.07172796
96	0x3c1d5adf	0.009604185
97	0x3de99093	0.114045285
98	0xbae7ed65	-0.001769465
99	0xbc730cb0	-0.014834568
100	0x3cf33e29	0.029692726
101	0xbc507863	-0.012724015
102	0x3d0ce3bd	0.034396876
103	0xbc8c07a6	-0.01709349
104	0x3c71967d	0.014745352
105	0xbcac20f0	-0.0210118
106	0x3c6b217b	0.014351244
107	0xbca2af42	-0.01985896
108	0xbcfd4c61	-0.03092021
109	0x3d8de6db	0.06928798
110	0xbcb955f7	-0.022623999
111	0x3de09070	0.10965049
112	0x3c3b8791	0.011445896
113	0xbd54db47	-0.05196693
114	0x3d6e08f0	0.058113992
115	0xbc5adcc4	-0.013358299
116	0x3bf6deca	0.0075338827
117	0x3d2fbaad	0.042902637
118	0x3d4f4c13	0.05060966
119	0x3cb4c1ec	0.022065125
120	0x3db048d4	0.08607641
121	0x3d3f29ce	0.046670727
122	0x3daa17f9	0.08305354
123	0x3c96bcb4	0.018400528
124	0x3c345aad	0.011007947
125	0xbc23abdd	-0.009989706
126	0x3bf5d6d2	0.007502415
127	0x3db5d604	0.08878711

backbone.blocks.0.res_conv.weight f4 [64, 6, 1, 1]
0	0x3e9c96c0	0.30583763
1	0xbdf915c4	-0.121623546
2	0xbe738512	-0.23781231
3	0xbde3b5be	-0.11118649
4	0x3d942891	0.072343
5	0xbd8fbc02	-0.070182815
6	0x3dc8411a	0.09778042
7	0xbdc8d8a6	-0.098069474
8	0xbe954f27	-0.2916195
9	0xbd9fea5e	-0.07808374
10	0xbeb69b22	-0.35665232
11	0xbe1404c2	-0.1445494
12	0x3ea7ff19	0.32811812
13	0x3c05dc5d	0.0081702145
14	0x3dc18a94	0.0945026
15	0x3e17f105	0.14838035
16	0x3dc61ef8	0.096738756
17	0x3e99e05c	0.30053985
18	0xbec61902	-0.38690954
19	0xbe8d08be	-0.27545732
20	0x3df90e35	0.12160913
21	0xbd91972e	-0.07108913
22	0x3ea41855	0.32049814
23	0x3e0ae6e4	0.1356464
24	0x3e6a358e	0.22871992
25	0x3df97493	0.12180438
26	0xbddd1641	-0.1079526
27	0x3e86c21e	0.26319975
28	0x3e325691	0.17415835
29	0x3df8ed3b	0.12154623
30	0xbe08dfd2	-0.1336663
31	0x3d243496	0.040089212
32	0xbe7f8802	-0.24954227
33	0xbe98f702	-0.29875952
34	0x3df3f5bb	0.11912104
35	0xbd8a9cb7	-0.06768172
36	0x3e879142	0.2647801
37	0xbb867e8b	-0.0041044406
38	0xbc843286	-0.016137373
39	0x3eb37ae0	0.35054684
40	0xbe9d66d0	-0.30742502
41	0x3e3f3bd0	0.1867516
42	0x3ebb70fa	0.36609632
43	0x3c98e70b	0.018664857
44	0xbe89d6b7	-0.26921627
45	0x3d1e2825	0.038612504
46	0xbe1cdc2f	-0.15318368
47	0xbdc32fa9	-0.09530575
48	0xbda7bfa8	-0.081908524
49	0xbe845d86	-0.25852603
50	0x3e91962b	0.28434882
51	0xbe880963	-0.26569661
52	0x3d72485b	0.059151035
53	0x3e8b3da5	0.2719547
54	0x3e77d94a	0.24203983
55	0x3d47af38	0.048751086
56	0x3e9994f0	0.29996443
57	0x3e580cd5	0.21098645
58	0x3e9379eb	0.28803954
59	0xbd57cf71	-0.052688066
60	0xbe05baad	-0.13059492
61	0xbd8656f2	-0.06559552
62	0xbe0fbe99	-0.14037551
63	0xbcf5498e	-0.0299423
64	0x3e0b85fd	0.13625331
65	0xbbef0818	-0.007294666
66	0xbe601412	-0.21882656
67	0x3cc009e2	0.023442212
68	0x3dac4290	0.08411133
69	0xbd6c1bf5	-0.05764385
70	0xbe90d43d	-0.28286925
71	0x3e2ddcfd	0.16978832
72	0x3dc28397	0.09497755
73	0x3cae7146	0.021294247
74	0x3e9e062d	0.30864087
75	0x3c4fca06	0.0126824435
76	0xbc1acabb	-0.009447749
77	0xbe7100e5	-0.23535497
78	0xbe1abc2d	-0.15110846
79	0xbe6e0e77	-0.23247705
80	0x3d9a9e2d	0.07549701
81	0x3e6a7f69	0.22900166
82	0xbe9e6cca	-0.30942374
83	0xbd655c12	-0.05599601
84	0xbeccc88c	-0.39996755
85	0xbe060557	-0.13087974
86	0xbea2eaa2	-0.31819636
87	0xbeb3a36f	-0.35085627
88	0xbe376534	-0.179097
89	0x3dd6d149	0.10489137
90	0x3c83ef9e	0.01610547
91	0x3d75e0f7	0.060028996
92	0xbd9074cc	-0.07053527
93	0x3e96ef22	0.2947932
94	0x3cac3032	0.021019075
95	0x3dff2b5a	0.124594405
96	0xbd9ec788	-0.07752901
97	0xbe64b2ca	-0.22333828
98	0xbe313e0f	-0.1730883
99	0x3ec4fef9	0.3847578
100	0x3e6f4d98	0.23369443
101	0xbebc14b1	-0.36734536
102	0xbdc1da94	-0.094655186
103	0xbe611ae1	-0.2198291
104	0x3d9b5f08	0.07586485
105	0x3e88d811	0.26727346
106	0xbe00a658	-0.12563455
107	0xbe632fdd	-0.22186227
108	0x3e6dcabc	0.23221868
109	0xbe0671a0	-0.13129282
110	0xbe446497	-0.19178997
111	0x3e6ef299	0.23334731
112	0xbebc9402	-0.3683167
113	0x3de94e7d	0.113919236
114	0xbe7655e4	-0.24056202
115	0xbe375682	-0.17904094
116	0xbda6c2e2	-0.0814264
117	0xbec803b2	-0.3906532
118	0xbe85c2f9	-0.26125315
119	0xbdee7e1a	-0.11645146
120	0x3e856e26	0.260606
121	0x3cfff555	0.031244913
122	0xbd5ac7d8	-0.053413242
123	0xbe647d51	-0.2231343
124	0xbd336b80	-0.043803692
125	0xbdb512cf	-0.08841478
126	0x3cdfbb3a	0.027310956
127	0xbe114aaa	-0.14188638
128	0x3e062bbb	0.1310262
129	0x3dbf1180	0.0932951
130	0xbe5aa190	-0.21350694
131	0x3d314b4e	0.043284707
132	0x3dc80d2a	0.09768136
133	0x3e1f4457	0.15553413
134	0x3e108d45	0.1411639
135	0x3e25b463	0.16182093
136	0xbde2bc49	-0.11071069
137	0xbea06375	-0.3132588
138	0xbe2af523	-0.16695075
139	0xbd872669	-0.06599123
140	0x3e8ebce9	0.27878502
141	0x3d7f5a73	0.06234212
142	0x3e6d6498	0.23182905
143	0x3d3f4193	0.046693396
144	0xbea0d0cf	-0.31409308
145	0xbe65d50c	-0.22444552
146	0x3e901bf7	0.28146335
147	0x3e2e8b93	0.17045431
148	0xbc5a6edc	-0.013332095
149	0x3e160e51	0.14653899
150	0x3de941f5	0.113895334
151	0x3d9fee8c	0.07809171
152	0xbe047fca	-0.12939373
153	0xbec6da6d	-0.3883852
154	0xbe46ea2b	-0.19425265
155	0xbe886f37	-0.2664735
156	0x3ed09e58	0.40745807
157	0x3b89dc64	0.004207181
158	0x3e81ea3f	0.25374028
159	0x3de35587	0.111002974
160	0x3ea1528b	0.31508288
161	0x3e0a6f35	0.13518985
162	0x3e72d6f9	0.23714818
163	0xbe19892b	-0.14993732
164	0x3e60651a	0.21913567
165	0xbd3026dc	-0.04300581
166	0xbe255dc1	-0.16149046
167	0xbdef619f	-0.116885416
168	0xbd57fa5a	-0.05272899
169	0xbe547b18	-0.20750082
170	0x3ea4015b	0.32032284
171	0xbe83c0dd	-0.2573308
172	0x3e2f1b14	0.17100173
173	0xbdc4cb31	-0.09609068
174	0x3e14c701	0.14529039
175	0xbe451727	-0.19247113
176	0x3e5107dd	0.20413156
177	0xbe5bd05d	-0.21466203
178	0x3eaae4a2	0.33377558
179	0xbe8050ee	-0.25061744
180	0xbc5ed4ab	-0.013600509
181	0x3e61d997	0.2205566
182	0x3ddfe783	0.10932829
183	0xbc5e0088	-0.013549931
184	0xbe529642	-0.20565131
185	0xbcf45a72	-0.029828284
186	0xbd3f31b7	-0.04667827
187	0x3e15925f	0.14606617
188	0xbe942e8c	-0.28941762
189	0xbda6847e	-0.0813074
190	0x3ec3a7c1	0.38213924
191	0x3e0d3b0e	0.13792059
192	0x3d3bbfd5	0.045837242
193	0x3e3bbdea	0.18334165
194	0xbe301b57	-0.1719793
195	0xbe413cc6	-0.1887084
196	0xbe87c162	-0.26514727
197	0xbdc9e6d8	-0.09858483
198	0xbeccb203	-0.39979562
199	0x3e1c48f1	0.152622
200	0xbe1f65a0	-0.1556611
201	0xbe93d04c	-0.28869855
202	0xbc4a802e	-0.012359662
203	0x3e233739	0.15939035
204	0xbdf84a2e	-0.12123524
205	0xbd2927ac	-0.0412976
206	0x3e4baaa4	0.19889313
207	0x3e334b85	0.17509277
208	0x3a2e9aab	0.00066606206
209	0x3cca4eb9	0.024695741
210	0xbe5967bf	-0.21230982
211	0xbe01bea5	-0.12670381
212	0x3e8b20d6	0.2717349
213	0x3e3ef92a	0.18649736
214	0x3d94561a	0.07242985
215	0xbead0506	-0.33792895
216	0x3ea82d19	0.32846907
217	0xbe09e7ae	-0.13467285
218	0x3e6aa9c4	0.22916323
219	0xbd88f21c	-0.06686804
220	0xbe5050c4	-0.2034331
221	0xbea2cf84	-0.31798947
222	0x3eb3f746	0.35149592
223	0xbe27aa16	-0.16373476
224	0xbddfab57	-0.10921352
225	0x3d9ddf10	0.077085614
226	0x3d6d3e8d	0.05792098
227	0xbe16264c	-0.14663047
228	0x3d846e2c	0.06466326
229	0x3c8aeb58	0.016957924
230	0xbd95ec9e	-0.07320522
231	0x3d265a5e	0.040613525
232	0x3e151931	0.14560391
233	0x3c77cce5	0.015124534
234	0xbc099e64	-0.00839958
235	0xbdea92d6	-0.11453788
236	0xbc9db808	-0.019252792
237	0x3e1c5956	0.15268454
238	0xbdd9ba6e	-0.10631262
239	0x3c0f6a77	0.008753411
240	0x3e94547c	0.28970706
241	0x3c8e5021	0.017372193
242	0xbe044d40	-0.12920094
243	0xbe5d4f64	-0.21612316
244	0xbe9c4fc1	-0.30529597
245	0x3de03188	0.10946947
246	0xbe751a78	-0.23935878
247	0xbd3745d8	-0.044744343
248	0x3e8d3803	0.27581796
249	0x3eab2e11	0.33433583
250	0x3d87ae3e	0.06625031
251	0x3e894eb2	0.26817852
252	0x3e341570	0.17586303
253	0x3c280717	0.010255597
254	0x3e8a11f0	0.2696681
255	0x3bf1054d	0.007355368

backbone.blocks.0.res_conv.bias f4 [64]
0	0xbd058cea	-0.03260509
1	0xbea64935	-0.32477728
2	0x3e0a484d	0.13504143
3	0xbe8479ec	-0.2587427
4	0xbdf882e0	-0.121343374
5	0xbea1cc33	-0.31601104
6	0xbe6bd66e	-0.23031017
7	0xbd987bc9	-0.07445485
8	0x3e99c6f4	0.30034602
9	0xbeb4e52d	-0.35331097
10	0x3dad0a50	0.084492326
11	0xbe85ae99	-0.2610977
12	0x3ea2d174	0.31800425
13	0xbe407896	-0.18796
14	0x3db75dc5	0.08953432
15	0xbe0f4776	-0.13992104
16	0xbe394f92	-0.1809676
17	0xbe12e222	-0.14344075
18	0xbe746ff2	-0.23870829
19	0xbe3a7c98	-0.18211591
20	0x3d8d2e83	0.06893637
21	0xbd88e9b8	-0.06685203
22	0x3dbb8b62	0.091574445
23	0xbe6ed965	-0.23325117
24	0x3e922266	0.2854187
25	0x3e855707	0.2604296
26	0xbe16d23f	-0.1472864
27	0x3e44631b	0.1917843
28	0xbeb80601	-0.3594208
29	0x3ea8b049	0.32946995
30	0x3e4c6614	0.19960815
31	0x3e862873	0.26202735
32	0xbe1addbb	-0.15123646
33	0x3df2b908	0.11851698
34	0x3ea9eb9b	0.33187565
35	0xbdfcbe22	-0.123409525
36	0xbe8018db	-0.25018963
37	0x3e265ae8	0.16245615
38	0xbd8a0431	-0.06739081
39	0x3e9a5ccc	0.30148923
40	0xbeb1a95f	-0.34699532
41	0x3dd77496	0.10520284
42	0xbe7f100d	-0.24908467
43	0xbe45ec8a	-0.19328514
44	0xbd9c2d23	-0.07625797
45	0x3c604c22	0.0136900265
46	0x3deb702a	0.11496003
47	0xbd40435f	-0.04693925
48	0xbdb763be	-0.08954571
49	0xbc02d291	-0.007984773
50	0xbe2d50cf	-0.16925357
51	0xbe8fa2b6	-0.28053826
52	0x3eb5b852	0.35492188
53	0xbeb68967	-0.35651705
54	0x3e1da33a	0.15394297
55	0x3ea4d44c	0.3219322
56	0xbe5e4321	-0.21705295
57	0xbeb2afb4	-0.34899676
58	0xbea4d65d	-0.32194796
59	0x3ea46f0f	0.3211598
60	0x3e4c34df	0.19942044
61	0x3deec1cd	0.11658058
62	0x3ec39417	0.3819892
63	0xbe756540	-0.23964405

backbone.blocks.0.ln.weight f4 [64]
0	0x3f4e3bf4	0.8056023
1	0x3f57e024	0.84326386
2	0x3f6e6c36	0.93133867
3	0x3f8030c4	1.0014882
4	0x3f6b8823	0.92004603
5	0x3f5b6b5b	0.85710686
6	0x3f78b66e	0.97153366
7	0x3f663595	0.8992551
8	0x3f6307de	0.8868388
9	0x3f67411a	0.9033371
10	0x3f391b29	0.7230707
11	0x3f650dd0	0.894742
12	0x3f603e0d	0.8759468
13	0x3f604350	0.8760271
14	0x3f84218f	1.0322741
15	0x3f501392	0.8127986
16	0x3f80a69a	1.0050843
17	0x3f4ff2e2	0.81229985
18	0x3f6b5925	0.919329
19	0x3f72b6db	0.94810265
20	0x3f6246ab	0.8838908
21	0x3f2719a9	0.6527353
22	0x3f69728e	0.9119042
23	0x3f5f0d21	0.8712941
24	0x3f6fb416	0.93634164
25	0x3f7ae012	0.97998154
26	0x3f778e10	0.96701145
27	0x3f4b27ef	0.7935781
28	0x3f4f9928	0.8109307
29	0x3f64a0fe	0.89308155
30	0x3f72b237	0.94803184
31	0x3f7ce0fc	0.987808
32	0x3f5a46f7	0.85264534
33	0x3f877df7	1.0585316
34	0x3f5131cf	0.81716627
35	0x3f618efc	0.881088
36	0x3f678872	0.90442574
37	0x3f68b607	0.9090275
38	0x3f58b2d2	0.8464786
39	0x3f5af43a	0.8552891
40	0x3f7866a6	0.9703163
41	0x3f67b51b	0.9051072
42	0x3f617faf	0.88085455
43	0x3f64d7d9	0.8939186
44	0x3f61fc27	0.8827538
45	0x3f60e40c	0.8784797
46	0x3f596d4e	0.8493241
47	0x3f6ddc69	0.92914444
48	0x3f710900	0.9415436
49	0x3f577fde	0.84179485
50	0x3f614111	0.8798991
51	0x3f6145b6	0.87996995
52	0x3f82a0c3	1.020531
53	0x3f7799c2	0.9671899
54	0x3f684780	0.907341
55	0x3f480f42	0.7814828
56	0x3f6241e6	0.88381803
57	0x3f5b8945	0.8575633
58	0x3f67be34	0.905246
59	0x3f7c6ced	0.9860371
60	0x3f8d53f4	1.1041245
61	0x3f76416d	0.9619358
62	0x3f6cfe5e	0.92575634
63	0x3f7071ed	0.93923837

backbone.blocks.0.ln.bias f4 [64]
0	0x3aa4bc75	0.0012568372
1	0x3ba7fe28	0.0051267333
2	0x39958b05	0.00028523072
3	0xbd1a35fc	-0.03764914
4	0x3c056642	0.008142056
5	0xbd0e8809	-0.034797702
6	0xbd1582dd	-0.036501754
7	0xbc31f94b	-0.010862659
8	0x3b9d62bf	0.004803031
9	0xbd187c55	-0.037227947
10	0x3c1041f5	0.008804788
11	0xbc70470d	-0.014665377
12	0x3cb1154f	0.021616606
13	0xbc9870d4	-0.018608488
14	0xbc0ddafd	-0.008658168
15	0xbce42713	-0.027850663
16	0xbca7a691	-0.020465167
17	0xbba55e17	-0.005046617
18	0xbcf53414	-0.02993206
19	0x3c9b3f75	0.018951157
20	0x3c7db96c	0.015486103
21	0xbb9f5b06	-0.0048631458
22	0x3cd59be3	0.02607531
23	0xbd7ff9ed	-0.062494207
24	0x3ca320f9	0.019913184
25	0x3d3a2173	0.045442056
26	0x3aa26277	0.0012388964
27	0x3d29fe85	0.041502494
28	0xbcf55236	-0.029946428
29	0x3d09937c	0.033587918
30	0x3d2d9f8f	0.042388495
31	0x3ce44ca4	0.027868576
32	0xbd2cefe2	-0.042220958
33	0xbc10d8b4	-0.008840729
34	0x3cbbd934	0.022930719
35	0xbbb09f7b	-0.0053901053
36	0x3a55b0db	0.00081516587
37	0x3d7b9446	0.0614207
38	0x3ac6d6cc	0.0015170216
39	0x3cac4168	0.021027282
40	0xbd240621	-0.040044907
41	0xbc498d9d	-0.01230183
42	0xbcc51ea7	-0.024062468
43	0xbc2a198f	-0.01038207
44	0x3c95f1d5	0.018303791
45	0x3d02f83b	0.031975012
46	0x3d232ce7	0.039837744
47	0xbc7f91d9	-0.015598738
48	0xbcf1551e	-0.029459532
49	0x3c328c5c	0.010897722
50	0xbd1c844b	-0.038212102
51	0xbd32c01b	-0.043640237
52	0x3cd22883	0.025654083
53	0xbd187e2d	-0.037229706
54	0x3bd7044f	0.006561793
55	0x3c91ea50	0.017811924
56	0xbd023e11	-0.031797472
57	0xbc75c7ff	-0.015001296
58	0xbcef6d2f	-0.029226867
59	0x3b5d974a	0.00338121
60	0x3b0b76ab	0.0021280448
61	0x3cdfff03	0.027343279
62	0x3c8dfc9c	0.017332368
63	0xbad763ee	-0.001643298

backbone.blocks.1.temporal1.conv.weight f4 [128, 64, 1, 3]
0	0x3de5851e	0.11207031
1	0x3d756862	0.059914
2	0x3d5b7442	0.05357767
3	0x3df2d9c4	0.11857942
4	0x3dd573d7	0.10422485
5	0x3d79043b	0.06079505
6	0x3dde8904	0.108659774
7	0x3d8d97ee	0.06913744
8	0x3d26095b	0.040536266
9	0xbdc14f11	-0.09438909
10	0xbd0a0aa3	-0.03370155
11	0x3c905771	0.01761982
12	0x3e38f187	0.18060885
13	0x3e0f0296	0.1396583
14	0x3e1b4106	0.15161523
15	0xbcd4f97c	-0.02599787
16	0xbd7a0898	-0.061043352
17	0xbd235aa3	-0.03988136
18	0x3e6e6c58	0.23283517
19	0x3e57c5d4	0.21071559
20	0x3e307523	0.17232184
21	0x3e28ba14	0.16477233
22	0x3dd372c4	0.10324624
23	0x3d509ed4	0.05093272
24	0xbd5e2e60	-0.054243445
25	0xbcb8c50b	-0.022554895
26	0xbcc4018e	-0.023926523
27	0x3cf447c4	0.029819377
28	0x3cbe1dae	0.023207512
29	0x3cef554f	0.029215483
30	0xbcbb8094	-0.02288846
31	0xbbe4acda	-0.0069786133
32	0x3c9e55ed	0.019328082
33	0xbd5db62a	-0.054128803
34	0xbc76a6b1	-0.015054391
35	0xbb81ee42	-0.00396517
36	0xbd766237	-0.06015226
37	0xbd3bd178	-0.04585406
38	0xbd1832f4	-0.037157968
39	0x3dae3ca6	0.085076615
40	0x3dfe2d66	0.12411003
41	0x3e211287	0.15729724
42	0xbcdf6f57	-0.02727477
43	0x3cf2bc55	0.02963082
44	0x3d7cabac	0.061687157
45	0x3d978e3c	0.07400176
46	0x3d5b9c2e	0.05361574
47	0x3d82d248	0.06387764
48	0xbdb386f6	-0.08765976
49	0xbd3ba67b	-0.045813065
50	0xbc7edad2	-0.0155551005
51	0x3caa391e	0.020779189
52	0x3d3ef877	0.046623673
53	0x3dbc788e	0.092026815
54	0x3e0d5940	0.13803577
55	0x3e0812d3	0.13288431
56	0x3da97a04	0.08275226
57	0xbd8f2788	-0.06989962
58	0xbd936c0c	-0.07198343
59	0xbd50d402	-0.050983436
60	0x3d0af9b2	0.033929534
61	0xbbec31ab	-0.0072080693
62	0xbd74c5e7	-0.059759047
63	0xbc6e5f66	-0.014549112
64	0xbc95366e	-0.01821443
65	0xbcd12ed7	-0.02553503
66	0xbdac5147	-0.0841394
67	0xbdc561f3	-0.09637823
68	0xbdfbf075	-0.12301723
69	0xbc69ec43	-0.014277521
70	0x3c0b81a5	0.008514796
71	0x3d8bbc81	0.06823064
72	0xbdb082b6	-0.08618681
73	0xbcba6a30	-0.022755712
74	0x3cadf265	0.021233747
75	0xbcf31f81	-0.029678108
76	0xbd904c71	-0.0704583
77	0xbdf43dd7	-0.119258575
78	0x3d89ede2	0.06734826
79	0x3c642897	0.013925693
80	0xbd1e500f	-0.03865057
81	0x3c2de36f	0.010613306
82	0x3beda4e6	0.0072523234
83	0x3bd01944	0.006350668
84	0xbd9d3a62	-0.07677151
85	0xbd764776	-0.060126744
86	0xbd2cc43c	-0.04217933
87	0xbdbbe51a	-0.09174557
88	0xbde60172	-0.112307444
89	0xbdbfc75f	-0.09364199
90	0x3bbef49b	0.005827499
91	0x3c0aaa2f	0.0084634265
92	0x3d3263d9	0.043552253
93	0xbe1395d5	-0.14412625
94	0xbe202301	-0.15638353
95	0xbe100482	-0.1406422
96	0x3deb6eed	0.11495767
97	0x3dc95aab	0.09831747
98	0x3d9bde8c	0.07610807
99	0xbe3ecead	-0.18633528
100	0xbe19bcaa	-0.15013376
101	0xbe279ec1	-0.16369154
102	0xbdd32b32	-0.10310973
103	0xbd36adf7	-0.0445995
104	0xbcb18fcd	-0.021675015
105	0xbe0f3563	-0.13985209
106	0xbdc5f8f3	-0.09666624
107	0xbd684153	-0.056702923
108	0x3d0cc378	0.0343661
109	0xbb1df717	-0.0024103576
110	0xbd3e8a87	-0.04651883
111	0x3cbef0e2	0.023308221
112	0xbcce35a3	-0.02517206
113	0xbda93624	-0.0826228
114	0x3db34a96	0.087544605
115	0x3dce607d	0.100769974
116	0x3dffce7a	0.12490554
117	0xbd3082f3	-0.043093633
118	0xbc42293b	-0.01185065
119	0x3ca261d4	0.019822039
120	0x3e022637	0.1270989
121	0x3d8b3cd2	0.0679871
122	0x3d77e08b	0.060516875
123	0xbc810e66	-0.015753936
124	0x3c0c3fef	0.008560165
125	0x3db42670	0.08796394
126	0xbc8eda7f	-0.017438171
127	0xbc9f7d35	-0.019468883
128	0xbda36cc2	-0.07979728
129	0xbc8a3f0e	-0.01687577
130	0x3cbe9a22	0.023266856
131	0x3d0461d3	0.032319855
132	0xbe17215e	-0.14758822
133	0xbe0b6659	-0.13613261
134	0xbe0b9cfe	-0.13634107
135	0x3d1ebf0f	0.038756426
136	0x3d6cec77	0.057842698
137	0x3ca344ed	0.019930327
138	0xbd9e7799	-0.07737655
139	0xbd81fcd2	-0.0634705
140	0xbdb7448c	-0.08948621
141	0xbd670083	-0.056396972
142	0xbd02e4b6	-0.031956397
143	0xbcb76d70	-0.022391051
144	0xbdaacb3b	-0.083395444
145	0xbd3d8a6f	-0.0462746
146	0xbc0f6360	-0.00875172
147	0x3de4941a	0.11161061
148	0x3d8a427b	0.067509614
149	0x3d5dc9fe	0.054147713
150	0x3ddc9843	0.10771229
151	0x3d82828a	0.063725546
152	0x3cf9a398	0.030473515
153	0x3da624b3	0.081124686
154	0x3d5d004c	0.05395536
155	0x3d9843bf	0.074347965
156	0xbd9b1c91	-0.07573808
157	0xbdc51aac	-0.09624228
158	0xbc96c852	-0.018406067
159	0x3dc62259	0.0967452
160	0x3d4e62f9	0.050387356
161	0x3b91beab	0.004447778
162	0x3ce63d2b	0.028105339
163	0x3ca1a4e8	0.019731954
164	0xbc467b44	-0.01211435
165	0xbd582d00	-0.05277729
166	0xbd64ea2e	-0.055887394
167	0xbd877eee	-0.06616007
168	0x3ccacb31	0.024755092
169	0xbc7f38fe	-0.015577553
170	0xbcfcd64d	-0.030863905
171	0x3d4cf5ad	0.050038982
172	0x3d226585	0.039647598
173	0x3d01c589	0.031682525
174	0x3e0a122c	0.13483495
175	0x3dff9a63	0.12480619
176	0x3dc72334	0.09723511
177	0x3df08049	0.117432185
178	0x3db27493	0.08713641
179	0x3d115f7d	0.035491455
180	0xbe16b11a	-0.14715996
181	0xbdf1988e	-0.117966756
182	0xbd8c3b21	-0.068472154
183	0xbe2cd6a5	-0.16878755
184	0xbde56866	-0.11201553
185	0xbd84729e	-0.06467174
186	0xbb09ef05	-0.0021047008
187	0x3cce0946	0.025150906
188	0x3c887d7e	0.016661402
189	0xbdd5723a	-0.104221776
190	0xbdcfa388	-0.10138613
191	0xbe0261b4	-0.12732583
192	0xbca95e38	-0.02067481
193	0xbbc6d475	-0.0060678073
194	0xbc90ec2d	-0.017690742
195	0xbd2d2f2d	-0.04228132
196	0xbc392e8e	-0.011302603
197	0xbba1cdb5	-0.0049378523
198	0x3ab0cf54	0.0013489523
199	0x3cab19fa	0.02088641
200	0x3a8fd703	0.0010974113
201	0x3b235795	0.002492403
202	0xbd4dcc56	-0.050243698
203	0xbcead599	-0.028666304
204	0x3cb0593a	0.021526922
205	0x3cc163bc	0.023607127
206	0x3c03b1c6	0.00803799
207	0xbc9aec6e	-0.018911567
208	0xbd4282c6	-0.047487997
209	0xbd4a853a	-0.04944346
210	0x3b738c05	0.0037162316
211	0x3cc425b1	0.023943754
212	0x3c85281f	0.016254483
213	0xbd084cfc	-0.033276543
214	0xbbd7e9c2	-0.0065891454
215	0xbbcdff76	-0.006286557
216	0xbb7fac9b	-0.0039012793
217	0xbc6007bc	-0.013673719
218	0x3b0f593b	0.0021873254
219	0xbc317b7e	-0.0108326655
220	0x3ceb4900	0.028721333
221	0x3ca54139	0.020172702
222	0x3b835afe	0.00400865
223	0xbca1abd4	-0.019735254
224	0xbcb3ffea	-0.021972615
225	0x3a820096	0.0009918388
226	0xbbe78dae	-0.00706645
227	0x3b1c19eb	0.002381916
228	0x3bc1f54d	0.0059191347
229	0x3c62f387	0.013852007
230	0x3ce96d08	0.028494373
231	0x3cbc18e4	0.022961088
232	0x3a58e959	0.00082745176
233	0x3c9ef8c9	0.01940574
234	0xbb093d93	-0.0020941242
235	0xbd4386ae	-0.047735862
236	0xbd5d7499	-0.054066274
237	0x3d5360e7	0.051606085
238	0x3d12c990	0.035836756
239	0xbac9c6ff	-0.0015394388
240	0x3d037654	0.03209527
241	0x3cd48a2a	0.025944788
242	0x3c861285	0.016366253
243	0x3d0b42b8	0.033999175
244	0x3c804967	0.015660001
245	0x3cbe49a4	0.023228474
246	0xb95d1dba	-0.00021087276
247	0x3cef26d7	0.029193325
248	0x3c8b2f40	0.016990304
249	0xbbbf67df	-0.00584124
250	0xbced1a89	-0.028943317
251	0xbcbc8380	-0.023011923
252	0xbd3808a4	-0.044930115
253	0xbcdfeb86	-0.027333986
254	0xbc980747	-0.018558158
255	0x3c585891	0.01320471

backbone.blocks.1.temporal1.conv.bias f4 [128]
0	0xbccf4b9d	-0.02530461
1	0xbc4f33b3	-0.012646603
2	0x3a5dec2b	0.0008465673
3	0x3d1a6386	0.03769257
4	0x3c61642f	0.013756796
5	0x3d915767	0.07096749
6	0x3bb7b938	0.0056067966
7	0x3ceb2124	0.028702326
8	0xba8e3a95	-0.0010851199
9	0xbd48213f	-0.04885983
10	0xbc994a20	-0.018712103
11	0xbd599175	-0.053117234
12	0x3d80462c	0.06263384
13	0xbcf6fa5a	-0.030148674
14	0xbc684275	-0.014176001
15	0xbc2bd5cb	-0.010487984
16	0x3bdd0f32	0.006746196
17	0x3c029b8c	0.007971656
18	0xbd141279	-0.03615043
19	0x3c623643	0.013806882
20	0xbd01a77e	-0.031653874
21	0xbd09c04e	-0.03363066
22	0xbc8845ac	-0.016634785
23	0x3c82e20a	0.015976924
24	0x3d9176a3	0.07102706
25	0xbd02dd1a	-0.03194914
26	0x3cc189ac	0.023625217
27	0xbc8e3153	-0.017357504
28	0xbd4313dd	-0.047626365
29	0x3d260780	0.040534496
30	0xbd1e7750	-0.038688004
31	0xbc610297	-0.013733528
32	0x3c8c0d00	0.017096043
33	0xbd3e0d89	-0.046399627
34	0xbc347232	-0.011013554
35	0xbcef726b	-0.029229363
36	0xbbec3583	-0.0072085275
37	0x3c2af227	0.01043371
38	0x3c1733d4	0.009228665
39	0xbcc12e85	-0.023581753
40	0x3c11017f	0.008850454
41	0xbc1e438e	-0.009659661
42	0xbbf02fc0	-0.007329911
43	0x3cfc09a7	0.030766321
44	0x3db06d0a	0.086145476
45	0x3c051dc8	0.008124776
46	0x3c3a5c00	0.011374474
47	0xbcd7ceeb	-0.026343783
48	0x3d04e6e2	0.03244675
49	0xbd7343b0	-0.059390724
50	0x3d36abb2	0.044597335
51	0x3d40a83f	0.047035452
52	0x3cf44180	0.02981639
53	0xbcb93448	-0.022607937
54	0xbd6d8180	-0.05798483
55	0x3c8e7504	0.017389782
56	0xbc226ed6	-0.009914121
57	0x3c418395	0.011811157
58	0x3cb6728c	0.022271417
59	0xbd9fae3e	-0.07796906
60	0xbd078bcd	-0.03309231
61	0xbca60b5e	-0.020269092
62	0x3d43f12b	0.047837418
63	0x3d4b1165	0.049577136
64	0x3d1fbdfb	0.03899954
65	0x3b8de4d5	0.0043302574
66	0x3cf5bdc7	0.02999772
67	0x3c3717d3	0.011175114
68	0x3d8d9f8e	0.06915198
69	0x3d28c511	0.041203562
70	0x3d6acc8e	0.057323985
71	0x3d900313	0.07031836
72	0x3d410123	0.047120225
73	0x3cc0b24f	0.023522524
74	0xbc59d0b5	-0.013294389
75	0xbbe9593b	-0.007121233
76	0x3bae94af	0.005327783
77	0x3d361501	0.044453625
78	0xbbe110d4	-0.006868461
79	0xbba9c7f2	-0.005181306
80	0x3c81d1b0	0.015847057
81	0x3d1a9f73	0.03774972
82	0x3d9a96a0	0.07548261
83	0x3d22eaa6	0.03977456
84	0x3cc675c2	0.024226073
85	0x3c703ecf	0.014663412
86	0x3cb9a780	0.022662878
87	0x3ced4e2d	0.028967941
88	0x3d0033d9	0.031299446
89	0xbca84951	-0.020542772
90	0x3b8b9ca7	0.004260618
91	0x3ba29636	0.004961754
92	0x3cc92959	0.024555849
93	0x3cc10d08	0.023565784
94	0x3cd24564	0.025667854
95	0x3d8b8889	0.068131514
96	0x3d6e0406	0.058109306
97	0x3c3cce06	0.011523729
98	0x3bf7c9e2	0.007561908
99	0x3b567295	0.0032722105
100	0x3c44f126	0.012020385
101	0x3d8fb522	0.0701697
102	0x3c6e19c2	0.014532508
103	0xbcf9a7cd	-0.030475521
104	0x3c50f903	0.0127546815
105	0x3cbd9905	0.023144254
106	0x3db86de0	0.09005332
107	0x3c205754	0.009786446
108	0xbc521799	-0.012823009
109	0x3b1f98c0	0.002435252
110	0x3d08b07d	0.033371437
111	0x3cb91c93	0.022596633
112	0x3c4a94b2	0.012364553
113	0x3d19ec56	0.037578903
114	0x3d9c09fa	0.076190904
115	0x3cf8df93	0.030380046
116	0xbb1c9d62	-0.0023897518
117	0x3bcdb4e6	0.0062776683
118	0x3d161b2c	0.036647007
119	0x3cd70ab9	0.02625023
120	0x3d08f78e	0.03343921
121	0x3d0161ff	0.031587597
122	0x3ccc7edc	0.024962835
123	0xbbef93ed	-0.0073113353
124	0x3b3fc6b5	0.0029262726
125	0xb978f44c	-0.0002374213
126	0x3d1a42bb	0.037661295
127	0x3c4d2fd0	0.012523606
