artifacts/runs/20260209_055814_STGCN/best.pt (torch, 486546 bytes, 20 tensors)

blocks.0.temporal1.conv.weight f4 [128, 6, 1, 3]
000000 38 7f c4 bc 17 10 d3 bb 20 05 86 bd ca 72 f7 3c
       -0.023986444 -0.006441127 -0.06543946 0.030206103
000010 b7 5e 12 3d d0 4b cf bc 81 18 7a 3d cd 82 12 3d
       0.03573486 -0.025304705 0.061058525 0.035769273
000020 7c 45 7a 3d 46 55 dd 3c 39 24 e1 3c 2b b9 d3 3b
       0.06110142 0.0270182 0.027483093 0.0064612827
000030 36 7f dd 3d e1 80 a1 3d ca 31 28 3d 4f df 93 bc
       0.10815279 0.0788591 0.041063108 -0.018050818
000040 21 fe b4 bc b6 f3 da 3b e6 94 11 3e 9e 3a be 3d
       -0.022093834 0.0066818846 0.14216956 0.09288524
000050 60 03 a0 be 21 a8 84 be 7c e2 6b be 49 5f a4 be
       -0.31252575 -0.25909522 -0.23035616 -0.32103947
000060 86 66 41 3d c7 52 a0 bd 38 7c 2d 3e 02 68 bd bc
       0.047216915 -0.078282885 0.16941917 -0.023120884
000070 b3 54 02 3e 2b 16 4b 3d 55 29 42 bd 24 74 8d 3d
       0.12727623 0.049581688 -0.0474027 0.06906918
000080 4d 45 c7 bb f0 87 34 3e f0 34 d3 3d cb e7 a6 3d
       -0.0060812593 0.17629981 0.103128314 0.0814968
000090 ae be 95 3d 36 f8 28 bc 3a f7 fc 3c ce e9 b4 3d
       0.0731176 -0.010313084 0.030879606 0.08833657
0000a0 b8 91 10 3d ac be b5 bc da 85 8c 3d 6b 8a be 3c
       0.03529522 -0.022185646 0.06861468 0.023259362
0000b0 e5 2b 1f 3b f2 4d 0d be 41 5b 25 be 64 1a 0c be
       0.0024287638 -0.13799265 -0.16148092 -0.13681942
0000c0 03 3c 44 bc 73 ec 63 3d e4 19 94 3c b4 ef ab 3d
       -0.0119771985 0.055645417 0.018078752 0.08395329
0000d0 55 e4 95 3d 12 d3 85 3d 7d 4d e4 bc ef 38 c9 bd
       0.073189415 0.06534399 -0.02786898 -0.09825312
0000e0 65 1f 7b bc ab 87 a9 bd 54 37 51 bd 84 21 11 be
       -0.015327309 -0.0827783 -0.051078156 -0.14172941
0000f0 dc 3c 2b 3d 43 e9 45 bc 58 54 92 3d 41 15 9f bd
       0.041806087 -0.01207954 0.071449935 -0.07767726
000100 38 53 97 bd 18 5c 8b bd 40 28 2e 3e 06 0b df 3d
       -0.073889196 -0.06804675 0.17007542 0.108907744
000110 6f 39 10 3e ad d4 27 be 56 76 26 be fb 01 03 be
       0.14084409 -0.16389723 -0.16256079 -0.12793724
000120 5c 65 28 be 13 5d 4d bc 46 04 c2 3d 84 78 8f bb
       -0.16444916 -0.012534398 0.09473471 -0.0043783803
000130 86 0c fb bc c9 4c 92 bd 95 60 97 3c 3e 00 b2 bc
       -0.03064562 -0.07143552 0.018478671 -0.021728631
000140 88 86 55 3c fa 94 ff bc 41 1a 4e bc f7 b4 0b bd
       0.013032563 -0.031198967 -0.012579502 -0.03410813
000150 b3 25 9f 3c f7 66 82 3c 06 57 61 3b 15 81 a3 39
       0.019427156 0.015918238 0.0034384145 0.00031185956
000160 7c 66 f5 3c 0b f6 18 3d f0 9d a3 be 79 3c ef bd
       0.029956095 0.03734402 -0.31956434 -0.11681456
000170 e6 39 77 3e 7d 45 09 bd 8c b6 26 bd c2 fa c8 bd
       0.2414318 -0.033513535 -0.040701434 -0.09813453
000180 63 80 bb bd 27 e1 04 bd 2d 28 6c bd 13 d8 6f bd
       -0.09155347 -0.032441285 -0.057655502 -0.058555674
000190 4f d9 52 3c d4 38 db bc 5a 04 da bd 0e f6 c5 bd
       0.012869193 -0.026760496 -0.10645361 -0.09666072
0001a0 e9 29 b6 bd 90 2a 63 bd 75 e4 35 3d 28 29 e4 bc
       -0.088947125 -0.055460513 0.044407327 -0.027851656
0001b0 e6 8c 62 bd a9 19 39 be 26 e6 08 be 9b 13 bc bb
       -0.055310152 -0.18076195 -0.13369045 -0.005739642
0001c0 fd 3a 01 bc 03 36 2d be 8e e4 ea bd 5e 91 1f be
       -0.007887599 -0.16915135 -0.114693746 -0.15582797
0001d0 da 3e b4 bd 06 7b 16 be ee d3 c1 bd d8 49 ff bd
       -0.088010505 -0.14695367 -0.094642505 -0.124652565
0001e0 fd 69 b6 be 74 f3 ae be 3a f3 95 be 1a 43 a2 bd
       -0.35627738 -0.34170115 -0.2928713 -0.07922955
0001f0 b6 d8 40 3d c3 f7 b5 bd 2d d2 7c 3e 0d c5 39 3d
       0.04708167 -0.088851474 0.2468955 0.045353938
000200 e1 bf 67 be 5c 4e 13 3d d5 8d 4b bd 9a 3e e0 bc
       -0.2263179 0.0359634 -0.04969581 -0.0273736
000210 ca 55 13 be f0 23 18 be 1f ff 7d 3b 75 8c f4 3c
       -0.14388195 -0.14857459 0.00387568 0.029852131
000220 d6 68 c2 3d d4 22 31 3b cd 54 1b 3c 09 ad a6 bd
       0.09492652 0.0027028816 0.009480667 -0.081384726
000230 d2 62 c9 bc 68 56 68 3d 4e 36 95 3d e2 ab c2 3d
       -0.024583254 0.05672303 0.072857484 0.0950544
000240 31 8a a9 3d ad 99 80 bd c1 ee 0c 3d 65 f3 ae bc
       0.08278311 -0.06279311 0.03440738 -0.021356294
000250 14 c7 f6 bc ad 4e 0b be 73 87 b9 3d 54 62 e0 3b
       -0.030124225 -0.13604231 0.09059038 0.006847659
000260 83 52 83 3d be 53 0a bc f5 da c6 bc b3 36 82 bd
       0.06412222 -0.008442817 -0.024274329 -0.06358089
000270 16 ba e6 3d ab e2 95 3d cb f0 46 3d 8b 37 28 bd
       0.11265962 0.07318624 0.04856948 -0.041068595
000280 82 ba ca 3c e4 16 7e 3c a8 96 8c bd 1e 1a c3 3c
       0.024747137 0.015508387 -0.06864673 0.023816165
000290 72 5e 95 3d 55 61 00 bc b4 5b 77 3b 94 0d 1b 3c
       0.07293405 -0.007835706 0.0037743868 0.0094636865
0002a0 d6 35 9a 3b 4d c2 c7 bb 7b 89 08 bc ff 10 09 3c
       0.004706125 -0.0060961605 -0.008333559 0.008365869
0002b0 9a 1e f1 3b c0 80 8d 3c 76 f5 00 b9 c0 f0 7a bc
       0.0073583843 0.017273307 -0.00012298473 -0.015316188
0002c0 e7 dc 22 bc bc 24 49 3c 5b af 2d 3c 24 8b 64 bb
       -0.009940363 0.012276825 0.01060089 -0.0034872973
0002d0 28 e8 b3 3e 5e 75 5d 3e cc 9c 3f 3e 6e c7 13 bd
       0.3513806 0.21626803 0.18712157 -0.036078863
0002e0 95 da 62 bd 3f 2f 79 bc 67 0a f1 bb f8 2c 33 bc
       -0.055384237 -0.015209018 -0.0073559764 -0.010936014
0002f0 63 b7 50 3d a9 d1 5f 3d a7 97 84 3c ec f6 f0 3b
       0.05095614 0.054643307 0.016185595 0.007353654
000300 4e 8c e5 bd d2 8e d8 bd 12 ef a0 bd e9 0d 07 bd
       -0.112084016 -0.10574116 -0.07858099 -0.03297225
000310 1c 60 d9 bd dc 58 a6 bd 62 5a 20 3e 2e 74 e6 3c
       -0.106140345 -0.08122417 0.15659478 0.02813157
000320 2b 5d a6 bd 4a d9 81 bc 75 b5 b8 bc ce c4 9e bd
       -0.08123239 -0.015850682 -0.022547463 -0.07752381
000330 50 07 07 3d b2 87 8c 3d bc 01 b0 3d 20 26 5e 3d
       0.032965958 0.06861819 0.08594081 0.054235578
000340 34 80 d4 bc 51 93 d8 bc fe 4e 38 3d 39 d8 b2 3d
       -0.025940038 -0.026437433 0.044997208 0.087326474
000350 0b dc 1b 3d e1 bf 30 3c b6 4e 37 3d 9e a4 fb 3c
       0.038051646 0.010787935 0.0447528 0.030718144
000360 71 25 4a be 64 f4 de 3b bc b2 35 3c 49 c7 45 3a
       -0.19740845 0.006804036 0.011089977 0.00075446494
000370 93 5a 35 bd b8 e9 29 3d c4 32 83 3d 64 60 59 3c
       -0.04427583 0.041482657 0.06406167 0.01326761
000380 d7 e0 c1 bd e4 b8 0b be 05 d2 f5 bd e0 70 49 bd
       -0.09466713 -0.13644749 -0.12002949 -0.04917991
000390 36 f2 9b 3d d7 8e 8e 3d 74 26 3c 3d 4d f7 ae bc
       0.076145574 0.06960838 0.04593511 -0.021358157
0003a0 04 21 07 bd a1 d1 83 bd a6 94 9f be 34 72 1e be
       -0.03299047 -0.06436468 -0.31168097 -0.15473253
0003b0 ce 23 7e 3d b5 b7 f3 bc 7e c5 21 bd 8b cf e3 bd
       0.062045865 -0.029750684 -0.039494984 -0.1112357
0003c0 dc 4b 8b bc fa 89 86 bd 51 56 76 bd 76 db 6a 3c
       -0.017003946 -0.06569286 -0.06014091 0.01433455
0003d0 d5 b0 ff bc 37 36 1f 3d 19 06 89 bd 03 03 ca bd
       -0.03121225 0.038870063 -0.06690616 -0.09863856
0003e0 5d f5 2a bd f8 2f 02 be ad 8c f0 bd 93 13 2d be
       -0.041737903 -0.12713611 -0.11745582 -0.16901998
0003f0 30 37 8b 3c f9 13 c6 bc 4d 6c fd 3b 0a 87 0b bb
       0.016994089 -0.024179446 0.0077338577 -0.0021290206

blocks.0.temporal1.conv.bias f4 [128]
000000 74 54 22 bd e0 55 66 3e af ff 97 3d 78 2b 2c bc
       -0.039631322 0.22493696 0.07421815 -0.010508411
000010 c9 27 19 3c f7 3b 01 bd 54 81 90 bc 1c 82 71 bd
       0.009347864 -0.031551328 -0.017639793 -0.058961973
000020 f9 a4 66 bc af 2f a0 bc fe bc 8c 3c f0 70 21 3c
       -0.0140774185 -0.019553987 0.017179962 0.009853587
000030 02 cd 99 bb ae 98 90 bd c4 7d 2d 3c e6 c2 21 3e
       -0.0046936283 -0.07060371 0.010589067 0.15797004
000040 47 f0 43 3d 90 58 5d 3d 00 27 7a bd e7 0d 6c 3d
       0.04783657 0.054039538 -0.06107235 0.057630446
000050 1b 96 ac bb 35 a4 27 bd 5a a3 97 3b 79 fc bb bd
       -0.0052669174 -0.040928084 0.0046276273 -0.09179015
000060 9a 17 6f bd df 77 30 3d bf 76 23 3e 30 66 b6 bc
       -0.058372118 0.043083068 0.15963267 -0.022265524
000070 7c f7 91 3d 26 69 d4 bb 4e b1 5c 3d 61 5c 27 3d
       0.07127282 -0.0064822612 0.05388003 0.040859584
000080 c3 56 8a 3d 3b a7 cd 3d 1a d5 bc bd 15 6b c2 bc
       0.0675483 0.10041662 -0.092203334 -0.023732701
000090 37 2e ac 3d a6 47 80 3b 87 44 31 bd c8 22 ed bb
       0.08407252 0.003914791 -0.043278243 -0.0072368123
0000a0 3a ac 1c 3c 7e 93 9f 3b 44 47 12 be fb d2 bd 3c
       0.009562546 0.0048698774 -0.14284998 0.023171892
0000b0 ea 9c 2f bd 60 71 cb 3d ae 21 88 bd 2d 42 d9 3a
       -0.042874254 0.09933734 -0.06647049 0.0016575508
0000c0 7d 08 09 3d 9c 0d 2f 3e 0c 32 42 3d 2f 17 49 3d
       0.03345536 0.17095035 0.04741101 0.049094375
0000d0 4d 4c 1d 3d 50 52 06 bd 43 a4 0b bd ca 6a 19 3d
       0.038402844 -0.032793343 -0.0340922 0.037455358
0000e0 af 2d 64 3d 71 f9 c1 3d ba ad 8c 3d 48 05 74 ba
       0.05570763 0.09471405 0.06869073 -0.00093086483
0000f0 b3 0b b4 bd 42 0d 54 3d 34 d2 58 3d c7 e7 66 bd
       -0.08791294 0.051770456 0.05293484 -0.056373384
000100 dd c0 f7 3a 2d 82 8a 3d 82 b7 db 3c 9c d8 52 3d
       0.0018902082 0.0676311 0.026820902 0.051476106
000110 30 a2 34 3c 16 a9 99 3d 57 e7 8b 3c 3e 8e 05 3d
       0.011024997 0.07502954 0.017078085 0.032606356
000120 21 53 37 3c c0 47 2c 3a 27 ff ab 3c 05 f2 40 3c
       0.011189253 0.0006571971 0.02099569 0.011776452
000130 58 f2 e0 3c a6 91 71 3d 86 d7 b4 ba c0 86 84 3d
       0.027459309 0.05897679 -0.0013797141 0.06471014
000140 6e 19 53 3e 45 98 b7 3d e6 e2 c1 3d ad 03 06 3e
       0.2061517 0.0896459 0.094671056 0.1308734
000150 9c 6b 8b 39 1e 80 c6 3d df 37 7c 3a dd 0c 1e 3e
       0.0002659232 0.09692405 0.00096213626 0.15434594
000160 1c a9 47 b8 0e 0b 91 3c d9 22 82 3d e1 19 01 3c
       -4.7602793e-05 0.017705467 0.06354303 0.007879705
000170 c4 5b 0d 3c 00 f3 de ba cb 01 40 3d 33 41 f8 3c
       0.008627836 -0.0017009676 0.04687671 0.030304527
000180 cd 9d 1f 3d 5d ee aa 3d 2f 42 ef 3c d9 b2 30 3d
       0.03896885 0.083462454 0.029206363 0.043139312
000190 22 9b 9a 3c 0c 7a 5d 3c e4 08 8b 3c a2 6b 8d 3c
       0.018872801 0.013517868 0.016972013 0.017263237
0001a0 bf 4d b0 3c 1a 59 b4 3d b3 e1 2e 3d 6e df d3 3b
       0.021521447 0.08806057 0.042695712 0.006465844
0001b0 b2 9a 41 3c 3e 6f 48 3c ad b8 50 3d ce b6 78 ba
       0.011816667 0.012233553 0.05095737 -0.0009487689
0001c0 0e f9 cc ba 5c b3 a7 3d 57 cf 46 3d 11 a8 48 3d
       -0.0015638189 0.08188507 0.04853758 0.048988406
0001d0 a9 21 04 3d fa 13 f4 3d 2f 49 43 3d 62 59 48 3d
       0.032258663 0.11917873 0.047677215 0.048913367
0001e0 83 f4 8e 3d c4 f9 25 3c 21 7a 87 3d 0d 96 62 3c
       0.06980231 0.01013035 0.06615091 0.01382972
0001f0 79 76 70 3d c7 56 36 3b 10 be 0b bc e3 02 31 3e
       0.058706734 0.002782272 -0.008529201 0.17286257

blocks.0.graphconv.mlp.weight f4 [16, 192, 1, 1]
000000 d1 9d 2a bd 43 20 08 3d a9 cb 1f ba 0d a0 88 bd
       -0.04165441 0.033233892 -0.00060957164 -0.06671152
000010 7e 8c 8d bd 82 35 9d bd 54 d6 1e 3e fe 3a f7 3d
       -0.069115624 -0.076762214 0.15511447 0.12071799
000020 23 79 4a bc 43 9e d9 bc fc 61 e1 3d 1d 31 b3 3c
       -0.012357983 -0.026564723 0.11005017 0.021874005
000030 26 9e 84 bd b0 c9 80 bd 09 c4 f0 ba 16 99 d5 3d
       -0.06475477 -0.06288469 -0.001836897 0.104295895
000040 2e 3b b1 bd 8d 28 55 3d 21 a2 05 be 42 91 b8 3d
       -0.08653866 0.052040625 -0.13050129 0.09012081
000050 67 55 52 3c b4 5d fe 3d 15 a3 57 bc 8c 0e 2f be
       0.012837744 0.12420216 -0.01316144 -0.17095393
000060 d7 b0 68 bc 63 e1 e2 3b f9 cc 9e 3d 6f 5e 16 3d
       -0.014202318 0.006923841 0.07753939 0.036711153
000070 a1 0e dc bc b2 2d 04 bd a6 04 44 3d ee dd 4f 3c
       -0.026862444 -0.03227014 0.047855996 0.0126871895
000080 d3 06 af 3d a8 c2 b5 3d e6 e9 b7 3c d8 d8 db bd
       0.085462235 0.08875018 0.022450399 -0.10734719
000090 97 37 03 3d 31 7b e9 3c 63 78 e5 bd 50 5d 37 3d
       0.032035436 0.028501125 -0.112046026 0.044766724
0000a0 8f df 68 3d d0 0b 92 3d 66 13 c5 3c 9c fb 95 bb
       0.056853827 0.07131159 0.024057101 -0.0045771133
0000b0 19 26 b6 bd a0 d0 83 3c cd 4f 39 bd 89 e4 49 bc
       -0.08893985 0.016090691 -0.04524212 -0.012322553
0000c0 5b d7 30 bd 1c 4a 5a 3d e4 42 54 3c 3d 16 19 3d
       -0.04317413 0.053293332 0.012955401 0.037374724
0000d0 74 0b fd bc 5d d3 4f 3d 99 07 99 bd f5 70 de 3d
       -0.03088925 0.05073868 -0.07472152 0.108613886
0000e0 9e 57 b4 bd 97 46 20 3d 8d 22 90 bd 8d 22 48 bd
       -0.08805774 0.03912982 -0.0703784 -0.048861075
0000f0 35 f1 67 3d 44 1f 8b 3c ee d3 a6 bd 78 f3 12 be
       0.056626517 0.016982682 -0.08145891 -0.14350688
000100 3e 32 54 3d b9 fa 18 bd 7b 36 6b 3c 80 6e 04 3d
       0.051805727 -0.037348483 0.014356251 0.032331944
000110 a0 c6 0f 3d 20 5d 13 3d 50 d8 e4 bd 42 ee 00 be
       0.035101533 0.035977483 -0.11174071 -0.12590888
000120 83 10 d6 3c e0 0d 52 3c 87 27 97 bd c3 88 d1 3c
       0.02613092 0.012820691 -0.07380586 0.025577908
000130 48 8f 23 3d ef a1 56 3d f7 a7 0f 3c 46 bc 9c bd
       0.039931566 0.052400526 0.008768073 -0.07653098
000140 5e 29 95 3d ab 1a 04 b9 30 d2 e7 3d 4e 21 6d bd
       0.07283281 -0.00012598436 0.11319387 -0.05789309
000150 23 ab e1 3b 7a 6c c6 bd 67 78 9a 3b c5 bf 0d 3e
       0.006886856 -0.09688659 0.00471406 0.13842686
000160 e1 98 0d 3c e6 b6 3d 3c 58 d8 0f bd bf 22 66 bc
       0.008642406 0.011579251 -0.03511843 -0.01404637
000170 8b bb a4 3c da 7a 16 3d 5c 04 2a bc 6c fb 03 bd
       0.020108959 0.036738254 -0.010377016 -0.032222196
000180 4b c8 43 bd 70 7f ce bd 05 6a a1 bc b2 2e 6e 3d
       -0.047798436 -0.100829005 -0.019703874 0.05815
000190 c6 05 4a bc bd be 00 bc a8 25 b4 3d b2 35 41 bd
       -0.012330478 -0.007857976 0.08796245 -0.04717035
0001a0 73 04 6f bc af cb 3f bd e0 5e 59 bd 5f 81 41 3c
       -0.014588463 -0.046825107 -0.053068995 0.01181063
0001b0 36 22 5b 3d 59 9a 83 bb 02 58 80 38 fe 3b 9e ba
       0.053499423 -0.0040162024 6.119908e-05 -0.0012072322
0001c0 08 37 ef bc 9d 10 ee bc de 24 07 3c e5 be d1 bb
       -0.029201046 -0.029060656 0.008248536 -0.00640093
0001d0 df e8 15 3d 08 30 16 bd 82 a3 5a 3d 63 91 8e bd
       0.036599036 -0.0366669 0.05337859 -0.06961324
0001e0 53 1f 8c 3d 32 9a a8 bc f9 1c 6b 3d 79 c1 16 3d
       0.06841912 -0.020581339 0.057400677 0.036805604
0001f0 f9 6b cf bc 69 ac a0 3b a0 26 c3 3d d5 77 b7 3d
       -0.02532004 0.0049033654 0.095288515 0.08958403
000200 3c 8b de bc 8e aa ae 3d 8e 7e 1b bd b3 4f ce ba
       -0.027166001 0.085286245 -0.03796249 -0.0015740305
000210 d5 50 37 bc bb bd 3a 3c 6d 85 93 3c 3a a1 fb 3d
       -0.011188705 0.011397774 0.018007958 0.12286611
000220 e9 22 a9 bc 03 51 68 ba bc 1e e6 bc 88 ed eb bc
       -0.02064653 -0.00088621693 -0.028090827 -0.028799787
000230 d6 c5 b7 bc bb f1 95 bc 75 0a 25 bc ec 3d 0a 3d
       -0.022433203 -0.018303743 -0.010073294 0.03375046
000240 a3 ba 98 3c 8a a3 6a bd f3 18 a6 bc 0f 67 31 bc
       0.018643683 -0.05728487 -0.020275569 -0.010827794
000250 28 e3 5e bc 60 c5 b7 3c 57 a2 a7 3b 36 7b 19 bd
       -0.013603963 0.022432983 0.005115788 -0.03747102
000260 01 fa 88 3b 99 fc 95 b9 36 3a 10 3c df 90 9f bc
       0.0041801934 -0.00028607695 0.008802941 -0.01947826
000270 00 2e 76 3c 5b a7 73 bc 87 f4 f4 bb 06 8d 7f 3d
       0.015025616 -0.014871444 -0.007475439 0.06239035
000280 25 df 2d 3d 1a f6 90 3d e3 21 8a 3d 22 d9 97 3b
       0.042449135 0.0707819 0.06744745 0.0046340385
000290 10 07 13 bd 53 e6 a3 bb 40 7d 7c bd 02 90 0b 3d
       -0.035895407 -0.005001822 -0.061642885 0.034072883
0002a0 76 35 74 bc 78 1e 36 3d 5e cd 86 3d 67 ba 64 bc
       -0.014905324 0.04446265 0.065821394 -0.013960457
0002b0 bd 6a 11 3c 15 70 0f bd f5 3e df 3d 3a df 8d 3b
       0.008875546 -0.035019 0.1090068 0.004329589
0002c0 5e de 88 3d 1b f3 aa 38 a6 9a 72 bc 71 61 3b bd
       0.06683038 8.1515136e-05 -0.014807379 -0.045747224
0002d0 18 58 38 3d 09 a7 de 3c 0b 59 21 bd 7d eb 01 ba
       0.045005888 0.027179258 -0.03939156 -0.000495605
0002e0 59 4c 13 bd 58 d5 b3 3a 31 4d 39 bd 96 2c 60 bd
       -0.035961483 0.0013720198 -0.04523963 -0.05473002
0002f0 15 aa 66 bd 56 79 ee 3c e7 62 16 bd f6 96 08 3d
       -0.056314547 0.029110592 -0.036715414 0.033347093
000300 c1 5b 4d 3d 90 4f 28 be aa 40 a1 bd 51 10 9a 3d
       0.05013633 -0.164366 -0.07873662 0.07522643
000310 81 bb 41 bc ab b5 3b bd 53 49 5b be ef 30 c1 bb
       -0.01182449 -0.04582755 -0.2141469 -0.005895726
000320 f9 f9 3f 3d 14 74 42 ba 7c bb 82 bc ee 7a 10 3d
       0.046869252 -0.00074178097 -0.01595854 0.035273485
000330 31 ad 03 bc dc fe a4 3c e7 eb 7f 3b 86 20 e8 3c
       -0.0080368975 0.020141058 0.003905052 0.02833582
000340 81 df 39 be 13 b5 b7 3d 6d 56 49 bd 67 bf 45 3d
       -0.18151666 0.08970084 -0.049154688 0.04827824
000350 0a f5 12 3c 5f 05 40 3c 02 4d d1 3a 27 d4 75 bd
       0.008969555 0.011720031 0.0015968385 -0.060016777
000360 80 bc a1 3b ee c1 cd bd 82 79 b0 bd a5 8e 11 3c
       0.004935801 -0.10046755 -0.08616926 0.008884107
000370 58 42 13 bd b8 9b 9b bc b6 17 0e bd 3d 8b b3 bc
       -0.035951942 -0.01899515 -0.03469058 -0.02191698
000380 6d 94 95 3b 02 cd 68 3c 41 8b ca bd fe 23 b7 bc
       0.004564813 0.014209034 -0.09889842 -0.02235603
000390 69 28 1f bc e1 68 64 bc ab 39 06 bb 53 bb b0 bc
       -0.009714224 -0.013941021 -0.002048115 -0.021573698
0003a0 21 5c e1 3c 72 79 88 bc 92 03 35 3c bd 20 9d 3d
       0.02750975 -0.016659472 0.0110482145 0.0767226
0003b0 ec 1c 8a bd ac 26 6f bb ff 4e 1b be 6f cf 19 bd
       -0.06743798 -0.0036491556 -0.15166853 -0.03755134
0003c0 a4 51 ce 3c 22 91 85 bd c2 f5 47 3d 57 9e 26 be
       0.025185414 -0.065218225 0.048818357 -0.1627134
0003d0 84 62 bb 3d 14 69 23 3d 88 c3 b0 bc 30 d4 2c bd
       0.0914965 0.039895132 -0.021577612 -0.042194545
0003e0 b3 29 17 bd ba ae 42 3b 9f 2c bc bd 36 b3 2d 3b
       -0.036905 0.0029706196 -0.09188198 0.0026504523
0003f0 15 0e 06 3d 11 db 93 bd 60 b2 0a 3d c5 90 66 bb
       0.032728273 -0.07219518 0.033861518 -0.0035181504

blocks.0.graphconv.mlp.bias f4 [16]
000000 68 77 ec 3c f9 02 2e bd 3f f7 6f bb 42 c8 7c bc
       0.028865531 -0.042483304 -0.0036615876 -0.015428605
000010 8e 82 50 3d da ce 8b 3d cc c6 02 3d f0 81 82 3c
       0.050905757 0.06826563 0.03192787 0.0159311
000020 09 7a 62 bd 6a 34 07 3e c0 16 d1 3d bf 7f ba 3d
       -0.055292163 0.13203588 0.10209417 0.09106397
000030 9c 48 53 bd d7 6d 59 bd 0a c0 83 bd b2 38 aa bc
       -0.051582918 -0.053083267 -0.06433113 -0.020778988

blocks.0.temporal2.conv.weight f4 [128, 16, 1, 3]
000000 fc 5c 02 3d 08 71 97 3d 07 9f 89 3d 40 9b a1 bd
       0.031826958 0.07394606 0.06719785 -0.0789094
000010 0f b0 a1 bd 1f 38 44 bd 43 a7 36 bd 83 58 99 bc
       -0.07894909 -0.047905084 -0.044593107 -0.018718963
000020 07 e0 c2 3c 7c 84 03 3d 55 8b 19 3d db a4 ce 3c
       0.023788465 0.03210877 0.037486393 0.025225094
000030 eb b4 87 bc 61 4d 9e 3c 1e 83 42 3d 1b 95 9f 3d
       -0.01656576 0.019324007 0.047488324 0.077921115
000040 f5 2f 9b 3d d0 57 ff 3d 41 55 35 3c a1 2e 2c 3d
       0.075775065 0.12467921 0.011067689 0.042036656
000050 75 51 a5 3c 37 cb 8d 3d 15 52 99 3d 1c f1 e5 3d
       0.020180443 0.06923526 0.07486359 0.112276286
000060 69 f4 f6 3c 7c 5b 0f bc d0 88 02 3d a1 8c 67 bd
       0.03014584 -0.008749839 0.031868756 -0.0565306
000070 96 43 42 bd c8 79 13 3b 47 f1 e7 bd 39 4a 22 be
       -0.047427736 0.0022503007 -0.11325317 -0.15848626
000080 92 8d 24 be d3 26 1e 3d 59 97 8d 3d d3 39 ca 3d
       -0.1606963 0.038611244 0.06913633 0.0987431
000090 30 c2 23 3d 0f 90 77 3c 9f 40 48 3d 55 57 86 bd
       0.039980114 0.01511003 0.048889752 -0.06559626
0000a0 a7 e8 47 bd 6a a7 27 3c 13 23 a7 bd 1b 32 56 bc
       -0.04880586 0.010232786 -0.08160987 -0.0130734695
0000b0 02 c3 2d bc df 61 3a bd 65 70 79 3d e3 5b a0 3d
       -0.0106055755 -0.045503493 0.060898203 0.07830026
0000c0 12 c3 26 3d b2 9c e6 3c 5f 28 02 bd 85 6d 84 3c
       0.040713377 0.02815089 -0.031776782 0.016165504
0000d0 e5 1b 4d bc 2e 94 a3 3a 93 f9 cb b9 61 99 2b bc
       -0.012518858 0.0012480074 -0.00038905125 -0.01047358
0000e0 fe ab 04 bd 38 37 a9 bd 3a 3e 17 be 5a a9 9f bd
       -0.032390587 -0.08262485 -0.14769831 -0.07795973
0000f0 ef 42 8f 3b 39 b5 89 bd 21 df c9 bd 93 76 25 3d
       0.004371993 -0.067240186 -0.098570116 0.040396284
000100 7c 24 7f 3c f9 7f fd 3d 20 ca 7b 3d b9 bb 5d bc
       0.015572663 0.123779245 0.06147206 -0.013533526
000110 15 40 85 3d 5e dc c0 3d f8 5f 9c 3d 92 c1 9f 3d
       0.06506363 0.09417032 0.07635492 0.078005925
000120 dc 52 e7 3d 49 89 0d 3e 20 6e 2f 3e 93 f3 80 bd
       0.11295101 0.13821901 0.17131853 -0.06296458
000130 20 de bf 3d 62 d1 03 3c a3 5f 6e bd 70 1a 70 3c
       0.09368539 0.008045526 -0.058196675 0.014654741
000140 d1 fe 32 3c 22 46 f8 3d ff cc f5 3d 5f e7 60 3c
       0.010925011 0.12122752 0.120019905 0.013727038
000150 bb 95 d4 bc 2e 3a 43 bd a6 18 e5 bd 8c b1 7f bd
       -0.025950303 -0.047662906 -0.11186342 -0.06242518
000160 71 69 0e bd de af 08 bd 00 18 26 3d a3 82 d9 3c
       -0.034768526 -0.033370845 0.040550232 0.02655155
000170 bc aa 08 3c 31 05 ad 3c e5 d3 b4 3c ec 56 49 bc
       0.0083414875 0.02112064 0.022073695 -0.01228879
000180 f2 ee ce bd ab 26 8d 3b dc 45 07 3e 4e 56 ab bd
       -0.10104169 0.004307588 0.13210243 -0.08366071
000190 88 f7 b9 bb 25 fd b2 bd 55 b4 c4 bc af 75 40 3d
       -0.00567526 -0.0873969 -0.02401177 0.04698723
0001a0 dd 6f d7 3d e8 8e 6d 3d 21 6c 90 3d a0 5e db 3d
       0.10519383 0.057997614 0.07051874 0.10711408
0001b0 d3 76 f8 3d b4 fc 1d bd bc d4 d1 bd f7 f1 38 3e
       0.12132039 -0.038571075 -0.10245654 0.18061052
0001c0 e8 68 0b 3c 21 59 cc bd cb 0a e9 bd 13 9d 34 bd
       0.008508898 -0.099779375 -0.11379012 -0.04409511
0001d0 c9 20 92 bd 46 f2 29 bc c9 a2 f2 bc d0 5a 09 be
       -0.071351595 -0.010372704 -0.029618638 -0.13413548
0001e0 c9 22 58 3e 3a 49 c7 3d e7 e4 14 bd c4 ba fd bd
       0.2110702 0.09730764 -0.03635111 -0.12389138
0001f0 53 bc 75 bd a6 99 bc 3d 27 8e 74 be 9e 77 a6 3d
       -0.059994053 0.092089936 -0.23882352 0.08128284
000200 34 9b bb 3d 3f 87 00 3e 2e 05 98 bc 32 7b c0 3d
       0.09160462 0.12551592 -0.018557157 0.09398498
000210 63 cb 82 b9 0e 16 91 3d 65 4f 27 3d a5 33 ac bd
       -0.00024947067 0.07084285 0.0408472 -0.08408288
000220 71 0a 1e be 01 6d 4e be ca 2a 08 3e 28 69 8a bd
       -0.1543367 -0.20158769 0.13297573 -0.06758338
000230 e0 39 cb bd 38 19 10 3e 67 09 15 3e 33 bc ce 39
       -0.09923148 0.1407212 0.14554368 0.000394316
000240 23 2b 26 3d 3a 48 3e bd b3 a2 84 bc 62 70 5f 3d
       0.040568482 -0.0464556 -0.016190862 0.054550536
000250 62 5b c2 3c d7 29 60 3d 8c 83 a5 3d f0 7b 2a 3d
       0.023725215 0.0547274 0.08081731 0.041622102
000260 09 04 e2 3d 07 05 a0 3b 0f 71 3d bc 69 cd e0 3c
       0.11035926 0.004883412 -0.0115626 0.027441697
000270 d2 74 87 bc 64 34 00 bd 2b 14 1c bd 91 30 f5 3c
       -0.016535196 -0.031299964 -0.03810517 0.029930385
000280 ef cf fc 3c 65 79 12 bd 30 67 f3 bc 57 c2 a7 ba
       0.03086087 -0.035760302 -0.02971229 -0.0012799007
000290 93 19 4c 3b cd 36 1b bd 5d cb 84 bd 0e 38 d5 bd
       0.0031143173 -0.03789406 -0.06484101 -0.10411082
0002a0 9e 58 0e 3d b5 31 b4 3c eb 70 99 bc 07 b9 eb bc
       0.03475248 0.021996358 -0.018730601 -0.028774751
0002b0 9e 9b f8 bd 5c f5 55 3d 63 9c f1 3d 67 ea 89 3d
       -0.121390566 0.052235946 0.117974065 0.06734162
0002c0 0b 14 c9 3d fd 46 54 3c ad 6a e2 bc 20 d4 4a 3d
       0.09818276 0.012956378 -0.027638758 0.049518704
0002d0 21 7a bb bc 1d 16 43 3d 60 49 0f 3d df 7c 56 3d
       -0.022885384 0.04762851 0.034982085 0.05236518
0002e0 12 e0 92 3c ed b3 87 bc 1d fb 8b 3d 3f 3c e8 3d
       0.01792911 -0.016565287 0.068350054 0.11339616
0002f0 31 b2 c2 3c a9 8d 8d 3d 53 a2 9e 3d 05 23 c8 bc
       0.023766609 0.06911785 0.07745805 -0.024430761
000300 96 09 79 bc 49 98 f8 3c 08 fd bf 3c e3 83 b6 3d
       -0.015200039 0.030346053 0.023436084 0.08911874
000310 c6 30 c2 3d c0 05 bd 3d 44 a8 b0 bd 8b d5 85 bd
       0.09481959 0.09229612 -0.08625844 -0.06534871
000320 9d 6b 8d bd 4f 13 1d 3d b1 59 9a 3d c3 76 f6 bc
       -0.06905291 0.038348492 0.075366385 -0.030085927
000330 1d db e1 bc 31 16 45 bd 33 0a 48 bc f1 81 1c 3d
       -0.027570302 -0.048116866 -0.012209463 0.03820986
000340 4a 52 f6 ba 65 93 84 bc 19 3e ba bd 08 7b f2 3b
       -0.0018792835 -0.016183564 -0.090938754 0.0073999204
000350 84 47 bf bd 05 b4 21 bb 0f fe 8b bd c9 b5 cd bd
       -0.093398124 -0.002467395 -0.06835567 -0.100444384
000360 b7 6c b1 3d ff cc 8a 3c 38 43 1a bd e6 db db 3b
       0.08663314 0.016943453 -0.03766176 0.0067095635
000370 5c 9d ee bc 9f 2f 54 3d 2a b6 da bd 9c c6 86 bd
       -0.02912777 0.051803228 -0.10679276 -0.065808505
000380 98 2a 44 3d 25 8c 35 3d 30 8a 48 3c d3 0d b5 bd
       0.047892183 0.044323105 0.012239978 -0.088405274
000390 09 06 53 bd 7b 38 8b bc e9 5f 3d 3c 45 29 8b bc
       -0.051519427 -0.016994705 0.011558511 -0.016987452
0003a0 78 fc 66 bd f5 f1 7c bd ef c2 ce 3d 4e 92 74 3d
       -0.056393117 -0.061754186 0.100957744 0.05970984
0003b0 18 5e 87 3d 19 10 66 bd d7 88 b4 3d 44 39 4c 3d
       0.06609744 -0.056167696 0.08815163 0.0498593
0003c0 98 b2 17 bd a5 23 9f 3d b2 f5 35 3c 14 6d f7 bc
       -0.037035555 0.077704705 0.011105942 -0.03020338
0003d0 65 c6 e6 3c ec e3 09 3d 60 d4 13 3d c3 b1 bf bc
       0.028170774 0.03366463 0.03609121 -0.023400193
0003e0 29 e3 91 bb 82 69 43 3d 7b 70 c0 3c 5b 86 5c bd
       -0.0044521284 0.047708042 0.023491135 -0.05383907
0003f0 f2 13 8f 3d e1 e5 9e 3d b1 09 c4 3d f3 c5 1b 3c
       0.06986226 0.0775869 0.09572161 0.009507644

blocks.0.temporal2.conv.bias f4 [128]
000000 0f 13 f1 3d ef d0 6b 3d 3d 5d 2b bb f5 81 c5 bd
       0.11771213 0.0575723 -0.0026148104 -0.09643928
000010 11 74 e6 3d 73 98 42 bc 9a 53 8b bd 34 7f 03 be
       0.11252607 -0.011877167 -0.06803055 -0.12841493
000020 cb 8c b9 3d 1c 1e c5 3b d7 71 f5 bc ff 97 92 bd
       0.09060057 0.006015552 -0.02996151 -0.07157897
000030 91 89 90 3d a7 26 ef bb b2 16 cd 3d 2e 76 d5 bc
       0.07057489 -0.007298309 0.100140944 -0.026057329
000040 16 a2 c3 3d ca d0 a2 bb d2 c2 01 bd 68 96 9a bc
       0.095524 -0.0049687373 -0.031679936 -0.018870547
000050 8d 92 ca 3c 51 ed 29 3d 97 27 17 bc de cc f3 bd
       0.024728084 0.04148609 -0.009225748 -0.1190431
000060 f9 c1 89 bd a9 a6 08 3b 06 ea 04 bd 17 8d 93 bd
       -0.067264505 0.002085129 -0.032449745 -0.07204645
000070 91 85 f9 3d ed 12 1a bd dd a6 26 bd 07 1d 8c 3c
       0.12183679 -0.037615705 -0.040686477 0.017103685
000080 99 ac 20 3d 6a b2 ec 3a 56 18 c6 3c db e2 2e bd
       0.039227102 0.0018058543 0.024181526 -0.042696815
000090 14 7e 8d bd f7 43 23 3d 82 42 b0 bd 29 88 02 bd
       -0.06908813 0.03985974 -0.08606435 -0.031868134
0000a0 30 3f a1 bd 7f a1 c6 3d 23 52 2b bc c1 f4 c9 3d
       -0.0787338 0.09698772 -0.010456595 0.09861136
0000b0 05 83 6c 3d ae bd 95 bc 9c e6 9b bc 40 32 fd bc
       0.057742137 -0.018278923 -0.019030862 -0.03090775
0000c0 37 c5 9d bd c1 a9 7a 3d 94 8e b3 bd 20 8c 37 bb
       -0.07703631 0.061197046 -0.08767429 -0.0028007105
0000d0 79 49 8e bb 51 2c 03 3d 8b f0 44 3d b4 9d e1 bd
       -0.0043422547 0.032024685 0.048080962 -0.110164076
0000e0 38 4f a1 bb b1 a9 c2 bd c4 58 8c 3c 13 d9 a4 bd
       -0.0049227737 -0.09505022 0.01713217 -0.08049216
0000f0 61 d5 65 3d bf 20 a1 bd 07 d8 92 bc f7 3a a4 3d
       0.056111697 -0.07867574 -0.017925275 0.08019059
000100 e2 f2 2b 3d ce 81 0b 3d b8 3e 0e 3e 43 12 8b 3b
       0.041979678 0.03405934 0.13891113 0.0042441203
000110 1a 86 ae bc 75 f7 34 bc 75 01 3e bb 49 ed 18 3d
       -0.021304179 -0.0110453265 -0.0028992568 0.037335668
000120 ce 92 27 3d 84 83 dd 3b e6 0f 28 3d a7 68 af 3d
       0.04091149 0.0067600626 0.041030787 0.08564883
000130 4b c4 74 bc 84 b6 f0 3c 12 cf 27 bc 88 aa 62 3c
       -0.014939378 0.029383905 -0.0102422405 0.013834603
000140 94 03 c8 3c ce 85 2d 3d 31 f1 71 3c 76 6d 11 3d
       0.024415769 0.042363934 0.014766977 0.03550478
000150 3e 09 09 3d 26 32 45 3b bd 12 9b 3c b4 66 94 3c
       0.03345608 0.0030089705 0.018929834 0.018115379
000160 f9 6f a2 3c 80 c7 4e 3d 03 5a f4 3b 82 28 d5 3c
       0.019828783 0.050483227 0.0074570193 0.026020292
000170 87 1c 44 3c ba f8 42 bc b1 41 d6 bc c7 3a d0 39
       0.011969692 -0.011900121 -0.026154371 0.00039716644
000180 3b d4 29 3b 49 38 15 3d 69 72 cb bb e1 76 d1 3c
       0.0025913853 0.03643063 -0.006208707 0.025569381
000190 c5 34 35 3d 83 dc 0d 3b 19 da 83 3c d7 df 72 3c
       0.044239778 0.0021646328 0.016095208 0.014823875
0001a0 01 c8 8f 3c f7 7d 44 3c 8d 52 ff 3b a5 17 96 3c
       0.017551424 0.011992923 0.0077918232 0.018321821
0001b0 28 7b db 3b 3d ff 46 3d 31 fd 56 ba a0 88 9c bb
       0.006698031 0.048583258 -0.00082011806 -0.004777029
0001c0 36 e4 9c 3c 88 15 b0 ba 95 7d 4d 3b cd 3d ed 3b
       0.019151788 -0.0013434151 0.003135537 0.0072400332
0001d0 a5 b1 86 bc 80 21 35 3c d0 43 0d 3d b6 34 44 3d
       -0.01644213 0.01105535 0.0344885 0.04790183
0001e0 0b 9b 78 3c 30 db 4b 3d 14 fd 18 3d 14 77 a5 bc
       0.015173684 0.04976958 0.03735073 -0.020198382
0001f0 a2 e4 88 3d ec ae 66 3d b1 fb 1b 3d 6c 25 e0 3c
       0.06684233 0.056319162 0.03808183 0.027361594

blocks.0.res_conv.weight f4 [64, 6, 1, 1]
000000 cd 8d 42 3e ee 1d 72 3d 7b a4 21 bd 44 6b 2c bc
       0.18999405 0.059110574 -0.0394635 -0.010523621
000010 0b 88 bb 3d 35 37 2d be d0 ef b3 3e 74 4b 2c bd
       0.091568075 -0.16915591 0.351439 -0.042064145
000020 5c 5f 16 be a6 53 90 3e 1a c5 f2 bd 2a 7f 62 bd
       -0.14684814 0.2818882 -0.118540004 -0.055297054
000030 58 ae 39 be 46 85 16 be e3 01 f7 bc eb 90 85 bd
       -0.18132913 -0.14699277 -0.030152267 -0.065217815
000040 7f 25 10 bd 0c 28 10 bd 40 0f a7 be f3 6a f1 bc
       -0.03519201 -0.03519444 -0.32628822 -0.029469943
000050 df 10 d3 bd e5 d0 96 be 08 a6 3f be 65 ef 1e 3e
       -0.10305952 -0.2945625 -0.1871568 0.1552101
000060 ae 29 71 be 7d da a9 bd 8c a4 13 be aa 2a 98 3e
       -0.23551056 -0.082936265 -0.14418238 0.2972005
000070 5d 4c 75 3e fd 64 48 3e ac ea 4c be 45 b9 dd bd
       0.23954912 0.19569774 -0.20011395 -0.10826353
000080 69 51 67 3c d3 bc 16 3e 6b 2d b6 bc ba 78 f0 bd
       0.014118531 0.14720468 -0.022238454 -0.11741777
000090 6c e7 7d be 26 75 9a 3d 4f 20 84 3d fb d3 12 3e
       -0.24795312 0.075418755 0.06451475 0.14338677
0000a0 bf 11 6c be c4 91 c0 3d a9 48 44 3e ed 23 0f be
       -0.23053645 0.094028026 0.19168343 -0.13978548
0000b0 30 ce a1 be 77 db 2f be e6 85 21 be 0d 13 4e bd
       -0.3160262 -0.17173563 -0.15773734 -0.050311137
0000c0 c7 06 81 3e a8 90 11 bd 91 c0 56 3e a8 61 84 3e
       0.25200483 -0.035538346 0.20971896 0.25855756
0000d0 fd 65 1a 3e 73 d0 26 be 44 86 75 3d bb 22 4c 3d
       0.15077968 -0.16290455 0.0599425 0.04983781
0000e0 9f 9e 49 3e 79 11 ea bd 75 01 bf 3c e9 41 d0 bd
       0.19689415 -0.11429114 0.023316124 -0.10168821
0000f0 38 35 0c be 0c 03 1a 3d 77 9a 70 bc 2e 5a 78 3d
       -0.13692176 0.037600562 -0.014685265 0.060632877
000100 df 07 2a be 93 08 6e bd 2c 9e 1b 3e 60 3c fe bc
       -0.16604565 -0.058113646 0.15197057 -0.031034648
000110 1a a0 11 3d d4 ba 42 be 0d 9f 3c 3e 2e 7c a3 3b
       0.035553075 -0.19016582 0.18420048 0.0049891686
000120 b2 67 4e 3e 00 b6 a2 bc 28 9d b7 3c 1d d3 76 3e
       0.20156744 -0.019862175 0.022413805 0.24103971
000130 3b c6 41 bd 33 59 51 3e c4 bd 00 be aa fb 99 bc
       -0.047308188 0.20444183 -0.1257239 -0.01879676
000140 04 c2 d1 bd 18 74 31 3d b6 e4 99 be 15 97 55 3d
       -0.10242084 0.043323606 -0.30057305 0.052146036
000150 12 e9 90 bd ed 0f 8a 3d 1e 34 60 3e 62 c5 05 3e
       -0.07075705 0.06741319 0.21894881 0.13063577
000160 01 6b 91 be ae b3 0d 3e 5c f3 5b be 11 cc b8 bc
       -0.2840195 0.13838074 -0.21479553 -0.022558244
000170 68 52 ec bd fe e7 51 3d e5 1f 92 bd d0 4b 94 3c
       -0.11539155 0.051246636 -0.0713499 0.018102556
000180 59 3d 23 3e fb ff f2 3d b6 65 59 3e 65 f6 a3 3d
       0.15941371 0.11865231 0.21230206 0.080059804
000190 bf c7 b4 bd 40 00 25 3e 42 78 d0 bc 10 98 f6 bc
       -0.08827161 0.16113377 -0.025447968 -0.030101806
0001a0 2d 4e 48 3d c4 b9 51 3e 19 f8 7d 3e b5 83 fb bc
       0.04890268 0.2048102 0.24801673 -0.030702451
0001b0 4e 28 50 be 9a 5e d7 3d 8e 61 8b 3d 8e f0 97 be
       -0.20327875 0.10516091 0.068057165 -0.29675716
0001c0 f2 44 2a 3d 25 87 ff bd 1a c8 25 be ae 2d 02 be
       0.041569658 -0.12476949 -0.16189614 -0.12712738
0001d0 6e 3d 3b be 53 6b 4c be c4 34 1e bd 5a 16 c5 3d
       -0.18285152 -0.19962816 -0.03862454 0.09623404
0001e0 21 60 8c be b6 47 a9 bd 4c 33 c6 3d 53 44 a6 3c
       -0.2741709 -0.08265631 0.09677753 0.020296251
0001f0 a4 f1 3f 3d 6b 2b 50 be 63 8f 68 bd ce df 86 3d
       0.046861306 -0.20329063 -0.05677737 0.06585656
000200 89 53 30 be f8 59 f6 bd 03 56 83 bb 40 b2 07 3d
       -0.17219366 -0.12028879 -0.004008056 0.033128977
000210 01 0b 88 3e 60 35 84 3d a4 21 05 3e 14 a6 91 be
       0.26570895 0.06455493 0.13001114 -0.2844702
000220 38 2f d4 bd e6 97 1c bd a2 b9 c2 bd a5 82 d9 bc
       -0.10360569 -0.0382308 -0.09508063 -0.026551554
000230 e0 a9 ea 3d 78 3f 5c be 8a 79 3f bd 28 4c 3d bd
       0.11458182 -0.21508586 -0.046746768 -0.046215206
000240 da 91 da 3d c5 89 29 bc ec 4d 36 3d 3d c2 1c 3e
       0.1067235 -0.010347788 0.044507906 0.15308471
000250 f9 fd 64 bd 69 84 94 3d 2c c8 30 3e 5b ba 58 3d
       -0.05590627 0.07251818 0.1726386 0.052912097
000260 36 c0 7c be 12 74 4f 3e 2a d3 bc 3d ff a6 42 3e
       -0.24682698 0.20259121 0.09219964 0.19009016
000270 e1 cc 38 3e 1c 4f 80 bc c8 01 af ba ca 3e b5 3d
       0.18046905 -0.015662722 -0.0013351971 0.08849867
000280 8b 3c d7 3d 14 30 08 be cb 42 07 be ac de 95 bc
       0.105095945 -0.1329959 -0.13209073 -0.018294655
000290 5b 39 1c be 1d 38 1a be c8 d1 05 be b4 c0 f8 3c
       -0.15256254 -0.15060468 -0.13068306 0.030365326
0002a0 83 95 92 3e 71 3b 9c bc b7 b1 0c bd 61 33 3b 3e
       0.28629693 -0.019071313 -0.03434917 0.18281318
0002b0 36 9f b6 3c d2 69 6b 3e 58 c7 5a 3d 37 64 e8 3c
       0.022292715 0.22989586 0.053412765 0.028368099
0002c0 48 c8 1e be 1f 0a c5 3d 1b 96 c1 3d 96 ac c6 3d
       -0.15506089 0.09621071 0.094524585 0.09700887
0002d0 a2 11 b3 bc 48 89 34 bb 44 2e d0 3d 3a 86 05 bd
       -0.021858994 -0.0027547646 0.101650745 -0.03259871
0002e0 62 00 0e bd 93 0c a1 be 9d f2 37 3e ab 7a 83 bd
       -0.034668334 -0.31454906 0.17963643 -0.064198814
0002f0 0c 2e 09 3d d9 ad eb 3d a6 c0 84 3d b9 a7 77 3a
       0.03349118 0.11507768 0.06482057 0.0009447295
000300 a4 14 9d bd e3 d1 00 3e 82 e5 0b be 28 b0 50 be
       -0.076699525 0.12580065 -0.13661769 -0.20379698
000310 b0 5a 0c 3e 3c 7d 52 3e ed c9 a7 3e aa 21 d9 3d
       0.1370647 0.20555586 0.32771245 0.10602124
000320 36 a9 95 3b 53 d2 52 3e 17 64 01 be 49 ba f4 3d
       0.0045672907 0.20588045 -0.12635837 0.119495936
000330 ee 04 55 3e 40 fc f1 bc 2d 7a 6e be e9 45 60 be
       0.20802662 -0.029539227 -0.23288794 -0.21901669
000340 11 b0 ee bd ae 0f a0 bc 83 e4 88 3e f5 b8 03 3d
       -0.11654676 -0.019538727 0.2673684 0.03215881
000350 80 a3 06 be 84 6e 4a 3d c7 11 be bd 27 0d a6 3d
       -0.13148308 0.049421802 -0.092807345 0.08107977
000360 1f b6 6c 3e e4 05 9c bc e8 e8 ba 3d 01 f9 32 3e
       0.23116349 -0.019045778 0.091264546 0.174778
000370 e3 32 29 bc 2c 36 01 be 2f 05 0d 3e 2c e1 a9 bc
       -0.010327074 -0.12618321 0.13771509 -0.020737253
000380 e4 0f b8 3d a7 ec fb 3c b1 07 87 bd e4 b1 9d bd
       0.08987406 0.030752493 -0.06593264 -0.076999456
000390 b9 59 05 3e 6a 09 38 bd 35 ea 05 3e 78 aa 87 3e
       0.13022508 -0.044930853 0.13077624 0.26497245
0003a0 62 27 90 3c 07 0c 53 be d1 3d 71 3e d6 85 af 3d
       0.017596904 -0.20610057 0.23558737 0.08570449
0003b0 e7 d1 06 3e b6 2d 9c 3b 53 d0 7a be 60 06 06 bd
       0.13166009 0.0047661914 -0.24493532 -0.032720923
0003c0 05 e1 86 3e 1a f9 c3 bb 68 b3 59 3e b7 98 89 3e
       0.2634355 -0.005980623 0.21259844 0.26874325
0003d0 e7 ad 1b be a0 08 0e be 73 1c e6 bc 90 6a d3 bc
       -0.15203057 -0.13870478 -0.028089738 -0.025807649
0003e0 7e cc 0b be f8 e9 c9 3c b6 ca 6d bd 5d a5 46 3e
       -0.13652226 0.024647698 -0.05805465 0.19399019
0003f0 43 7b 69 be 8f a6 ec 3a 14 35 00 be a6 2a 57 be
       -0.22800927 0.001805501 -0.12520248 -0.21012363

blocks.0.res_conv.bias f4 [64]
000000 94 71 d7 bd 26 bc 2e be b4 61 d7 3d db ab 45 be
       -0.1051971 -0.1706396 0.10516682 -0.19303839
000010 3c 47 25 3e d0 ef 83 be de f1 15 be 67 9f 96 3e
       0.16140455 -0.257689 -0.14643046 0.2941849
000020 7b df 0b 3d c6 43 f4 3d 94 f3 91 3e 82 2d 9a bd
       0.034148674 0.11926989 0.28506148 -0.07528211
000030 c0 80 27 bd 17 a3 83 bd 51 f9 14 be 20 15 43 bd
       -0.04089427 -0.06427591 -0.14548232 -0.04762757
000040 4d ed 1d 3e ee 42 aa 3e 52 b6 5b 3e 4b 98 58 3e
       0.15422554 0.33254188 0.21456268 0.21151845
000050 4c 6d 24 be 26 2d 37 be dc ac b3 be 69 d1 06 3e
       -0.16057318 -0.17888317 -0.3509282 0.13165821
000060 ec 16 bf 3d 63 de 31 bd 8d d8 6b 3e 78 e3 7a be
       0.09330544 -0.043424975 0.23031826 -0.24500835
000070 e3 fe 7d bc df 8e 65 3c f0 6f e4 3c 91 60 50 3e
       -0.015502664 0.014011114 0.027885407 0.20349337
000080 c1 93 17 be 7e b7 a5 3e 43 79 93 3e ae 47 96 3d
       -0.14802457 0.32366556 0.28803453 0.073378906
000090 6a 2d 37 be 62 94 e1 3d 09 33 b4 3c 75 b2 8f bd
       -0.17888418 0.1101463 0.021996992 -0.0701646
0000a0 d5 f2 88 3e b8 76 5b be f0 db 63 bd 39 42 9f bd
       0.26747766 -0.21432006 -0.05562967 -0.07776303
0000b0 f6 33 bd bd 86 9d 34 3e 01 ea d3 3c 42 be b3 3d
       -0.092384264 0.17638215 0.025868418 0.08776523
0000c0 9d 07 91 be c1 fb 48 be ca 16 13 3e d5 f0 84 bd
       -0.2832612 -0.19627286 0.14364162 -0.064912476
0000d0 71 51 c3 3d 85 ac 49 be 03 2c 05 be f5 69 d2 3d
       0.09537018 -0.19694717 -0.1300507 0.10274116
0000e0 ca a1 fd 3d 9f 09 82 bc 2a a8 45 be b3 af 4c be
       0.123843744 -0.015873728 -0.19302431 -0.19988899
0000f0 c2 61 0f be bc da 05 3e 4a 72 6d be 67 ea 3d be
       -0.14002135 0.13071722 -0.23188129 -0.18546449

blocks.0.ln.weight f4 [64]
000000 68 28 15 3f f3 10 5e 3f 4e 91 85 3f 0c 99 4a 3f
       0.5826478 0.8674461 1.0434968 0.7913978
000010 75 0d 85 3f c3 fd 59 3f 53 11 4f 3f cd 28 72 3f
       1.0394732 0.85152835 0.8088581 0.9459351
000020 b9 07 22 3f ce b8 01 3f 87 99 23 3f 90 f1 50 3f
       0.63293034 0.50672615 0.6390614 0.81618595
000030 7e 1e 25 3f 12 10 06 3f 84 2f 36 3f e3 dd 00 3f
       0.6449965 0.5236827 0.71166253 0.5033857
000040 61 34 7d 3f 81 6d 52 3f ca 77 38 3f ef 3b 2c 3f
       0.9890805 0.8219834 0.72057784 0.6727895
000050 1a 11 38 3f cf 71 ca 3e f0 74 89 3f 10 9b 28 3f
       0.71901095 0.39539954 1.0738811 0.65861607
000060 73 d5 b5 3e 03 8d 7d 3f a9 27 13 3f c8 f8 2d 3f
       0.3551441 0.9904329 0.5748239 0.67957735
000070 e2 15 18 3f 83 a5 35 3f fe 79 72 3f af bf c3 3e
       0.5940839 0.70955676 0.94717395 0.3823218
000080 ae c2 39 3f 8f 0c 74 3f 12 50 88 3f a1 f3 f7 3e
       0.7256268 0.9533166 1.0649436 0.48428062
000090 3d 26 40 3f 20 8f d0 3e a6 21 54 3f 93 81 2c 3f
       0.75058347 0.40734196 0.82863843 0.67385215
0000a0 77 58 3e 3f ea eb 2c 3f fd 40 04 3f 1b de 8e 3f
       0.74353737 0.67547476 0.51661664 1.1161531
0000b0 ff 2f 3a 3f b6 76 24 3f 87 08 be 3e 5b d9 45 3f
       0.72729486 0.6424364 0.3711588 0.77284783
0000c0 08 2e 82 3f 4e c4 3a 3f c0 70 0c 3f 76 ac 1c 3f
       1.0170298 0.7295579 0.5485954 0.61200655
0000d0 eb 25 5b 3f b4 dc 37 3f 55 15 1b 3f 7f 9b 1f 3f
       0.85604733 0.7182114 0.60579425 0.62346643
0000e0 48 bd 62 3f 23 76 75 3f 04 68 d5 3e 5a a5 41 3f
       0.8857007 0.9588339 0.4168092 0.7564293
0000f0 56 ab 71 3f 5d a2 83 3f e9 4c f2 3e 06 ec 25 3f
       0.9440206 1.0283924 0.47324303 0.6481327

blocks.0.ln.bias f4 [64]
000000 81 0f 78 bd 9a 1d 24 bd 7c 75 a4 3a 22 94 c6 bd
       -0.06056166 -0.040067293 0.001254722 -0.09696223
000010 60 79 84 3d f9 61 5f be 30 6a c5 bd e9 12 47 3d
       0.06468463 -0.21814717 -0.09639394 0.04860202
000020 23 72 84 3d ba 6f ce 3c 80 2d a5 bd 43 28 7b 3d
       0.06467082 0.02519976 -0.08065319 0.061317693
000030 0d 2d d8 bd dc 32 13 3b 3c 53 fa 3c 06 fd 14 bc
       -0.10555468 0.0022460734 0.030557267 -0.009093529
000040 62 10 d8 3d 14 fa 07 3d b9 af d4 3d 0a d6 92 3d
       0.1055 0.033197477 0.10385079 0.07169731
000050 b8 b3 32 3d 17 0b 2c bd 88 1b b0 bd 05 f6 1e 3e
       0.043628424 -0.042002764 -0.08599001 0.15523537
000060 3e 81 19 3d e6 81 1e be d6 25 cf bd 3e 7d 3e bd
       0.03747677 -0.1547924 -0.101146385 -0.04650616
000070 cb c8 87 bc b8 82 17 be 7e 28 10 3e 6d a2 6b bc
       -0.016575238 -0.14795959 0.14077947 -0.014381987
000080 fc 28 9b bd 4f 7b 10 3e 21 7a b9 3d 3d ff 04 bd
       -0.075761765 0.14109538 0.09056497 -0.032469977
000090 cd 07 97 bc a5 9a b4 3d c6 b3 a0 bc f8 46 4f 3c
       -0.018436337 0.088185586 -0.019616973 0.012651198
0000a0 10 ed cd 3c 1e 21 db bd cd c2 fb bb 1c 67 9f bd
       0.025137454 -0.10699676 -0.007683134 -0.077833384
0000b0 eb aa a4 bb 58 39 71 3d 44 09 11 bd 7a ca 17 3e
       -0.005025258 0.058892578 -0.035409227 0.14823332
0000c0 bd c2 f9 3b 3d 0d d4 bd fc 7a 42 3d 37 8d 79 bd
       0.0076220916 -0.103540875 0.04748057 -0.06092569
0000d0 2f 03 9a 3d d9 28 b1 bd 86 65 7c bd 74 d1 9a bc
       0.075201385 -0.08650369 -0.061620258 -0.018898703
0000e0 26 b4 3c 3e 58 0d 97 3d 33 0a b4 3c 87 a7 a1 3c
       0.18428096 0.07375592 0.02197752 0.019733204
0000f0 42 c9 48 3d 6c a5 39 3d 98 bf fa bd c6 15 21 bb
       0.04902006 0.045323774 -0.12243575 -0.0024579628

blocks.1.temporal1.conv.weight f4 [128, 64, 1, 3]
000000 0d 4e f7 bc 90 db cf bc 61 31 af bc 13 7d 4b 3d
       -0.030188585 -0.02537325 -0.02138585 0.049679827
000010 68 eb e9 3c 26 93 26 3d a5 02 9b bd 98 b6 f1 bc
       0.028554633 0.040667675 -0.07568864 -0.029506013
000020 48 66 c5 bb b3 bb a9 3a 77 63 95 3b 25 d2 a1 bc
       -0.0060241558 0.0012949615 0.0045589763 -0.019753525
000030 7b 4c 6a 3c 4f 38 2a 3d c5 9f 01 3d 51 e9 33 3d
       0.014300461 0.041557606 0.03164651 0.04392368
000040 1a 7e 3a 3d 33 38 64 3d 7c 83 4e 3c 45 0a a6 3c
       0.045530416 0.05571766 0.0126045905 0.020268569
000050 07 e5 a5 3c f8 c2 50 bc 63 75 bf bc be 8b 24 bd
       0.02025081 -0.012741797 -0.023371404 -0.04017233
000060 39 7c f5 3c 81 57 d5 3c 90 30 0e 3d 7b 93 94 bc
       0.02996646 0.026042702 0.03471428 -0.01813673
000070 d3 43 1b 3a 0f 71 6d bb 73 65 b3 bd 60 17 5c bd
       0.00059228874 -0.0036230718 -0.08759584 -0.05373323
000080 02 f1 38 bd 97 c8 d4 3d 12 69 81 3d 43 84 98 3d
       -0.045151718 0.10389822 0.06318869 0.07447102
000090 74 3d 5f bc d1 59 b5 3c 49 d8 c2 3c e6 e1 62 bc
       -0.013625491 0.022137554 0.023784773 -0.013847804
0000a0 07 6f bd bb 10 ad 2a bc 8e f9 3c bd e4 31 f3 bc
       -0.0057810578 -0.010417238 -0.04613643 -0.029686876
0000b0 dc 65 53 bc 5a 64 a8 bc a1 62 59 bc dd 78 c0 bc
       -0.012902703 -0.020555664 -0.013268144 -0.023495132
0000c0 4b b3 ef bd 82 e5 83 bd 1d b9 66 bd ab f8 b6 bd
       -0.11704119 -0.064402595 -0.05632888 -0.089341484
0000d0 91 a6 55 bd d0 4c 1b bd 7d 6c a6 bd 7a 65 90 bd
       -0.052160803 -0.03791505 -0.08126161 -0.07050605
0000e0 e7 73 97 bd 4d 59 6d 3c 2d 20 ec 3b 10 93 bf bb
       -0.073951535 0.014486623 0.007205984 -0.0058463886
0000f0 9f 84 78 3c 52 02 e6 3c 71 82 34 bc f3 96 55 bc
       0.015168338 0.028077278 -0.011017428 -0.013036477
000100 af dd 28 bc 93 bc f1 ba 46 70 85 3c e8 16 7f bc
       -0.01030676 -0.001844304 0.016288888 -0.015569426
000110 bf 16 f3 3b a3 a9 16 bd 95 48 2c bd 4e af 56 bd
       0.007418483 -0.036782872 -0.042061407 -0.052413277
000120 a1 e9 04 3c e5 63 38 bb 34 b1 ec 3b e1 ab 29 bd
       0.008112342 -0.0028135714 0.0072232727 -0.041423682
000130 7d 5b 0e bd b1 fb 12 bd a3 f6 3d 3d 38 24 33 3d
       -0.03475522 -0.035884563 0.04637779 0.043735713
000140 85 ed 51 3d 50 44 18 3d ea c9 b5 3c a5 0f 89 bc
       0.051251907 0.037174523 0.022191007 -0.016731093
000150 dc 09 50 3d ec 3a 0e 3d a8 74 65 3d f4 f2 71 b9
       0.050790653 0.03472416 0.056019455 -0.00023074058
000160 ff b6 91 3c 2d 6a 83 3c 4e 8e 1b 3d c0 fe c1 bb
       0.017787455 0.01604184 0.03797751 -0.005920261
000170 fd 05 f4 3b 1c fd a7 3c 27 f3 7a 3c 10 e4 c2 3c
       0.007447003 0.020506434 0.015316761 0.02379039
000180 28 ad 2f 3c 91 d5 88 bb 7d f3 d2 bc 55 2c 9c bb
       0.010722436 -0.0041758497 -0.02575087 -0.004766027
000190 78 e3 c7 bb 28 48 40 bc db bd 05 bd 01 5f 1c bd
       -0.0061001144 -0.011735953 -0.032651763 -0.03817654
0001a0 9b e1 50 bd 94 61 55 b9 37 e4 e2 3a f5 38 81 3c
       -0.050996404 -0.00020349614 0.0017310445 0.01577423
0001b0 f5 06 e3 3d 37 96 88 3d e0 f5 a2 3d 84 44 ce 3c
       0.11085311 0.06669276 0.07957053 0.025179155
0001c0 b1 6c ab 3c 03 e2 e5 3c 8a 03 10 3e d4 c3 a5 3d
       0.020925852 0.028061872 0.1406385 0.08093992
0001d0 d1 fa 9f 3d 75 7b 89 bd 84 cf 4b bd c3 a1 be bc
       0.07811511 -0.06713001 -0.04975845 -0.023270493
0001e0 5a cb 07 3d 17 59 ea 3c 96 82 78 3d 55 00 a7 bc
       0.033152916 0.028606934 0.06067141 -0.0203859
0001f0 7b 32 46 bc 1b 4c 58 bc 5c 0e d7 bb eb f6 9d ba
       -0.012096996 -0.013201739 -0.006562991 -0.0012051737
000200 ba 49 ab bc 18 7b 68 bb fb 48 a6 bc 12 1f e2 bb
       -0.020909179 -0.003547376 -0.020298472 -0.0069006765
000210 d8 90 4d bd 08 c1 19 bd 31 16 15 bd 81 12 2f 3d
       -0.050186962 -0.037537605 -0.036398116 0.042742256
000220 b4 f7 1c 3d 8d ec 39 3d e9 8e a5 bc eb 90 ab bc
       0.038322166 0.045391608 -0.020209746 -0.020943126
000230 8a ef 95 bb 00 a5 60 bc 03 34 a3 ba 23 22 3c 3c
       -0.0045756744 -0.013711214 -0.0012451414 0.011482748
000240 77 1e 89 3d 0e 97 40 3d e1 4d 02 3d 9d 92 ad 3d
       0.06695264 0.047019057 0.031812552 0.0847523
000250 9d 0d 61 3d f6 72 fd 3c c3 70 12 3d 6a 9b 9e 3c
       0.054944623 0.030938607 0.03575207 0.019361217
000260 87 3f 06 3d 40 9d 3a bd 11 1a 1b bd 25 f0 53 bd
       0.03277543 -0.04556012 -0.037866656 -0.05174269
000270 de a8 8a bd c5 87 6a bd 93 69 b0 bd 46 b6 7d bd
       -0.0677049 -0.057258386 -0.08613887 -0.061941408
000280 10 43 35 bd 5a 3f 1d bd 79 9c 2b bd 5c 16 13 bc
       -0.04425341 -0.038390495 -0.04189727 -0.008977499
000290 69 e7 22 bd 1a fb 9c 3c 38 aa 06 3c 5c 57 25 3c
       -0.03977147 0.019162703 0.008219294 0.010091629
0002a0 92 ee 07 3e aa f1 b6 3d ab 48 8f 3d 51 df 0f 3d
       0.13274601 0.089328125 0.06996282 0.03512508
0002b0 44 a4 a0 3c df 94 c6 bc 28 b7 92 bc b9 a4 35 bc
       0.019609578 -0.02424091 -0.017909601 -0.011086636
0002c0 f4 eb a3 bc 9a 2e a7 bc 04 be 92 bc 4c 56 e5 bc
       -0.020009972 -0.020407964 -0.017912872 -0.027995251
0002d0 29 5a 2e 3c 17 fe a6 3b 95 64 18 bb d8 78 72 bd
       0.010641613 0.005096208 -0.002325331 -0.059197277
0002e0 83 e2 0a bd c2 9b 25 bd 3c e8 99 3b cc f0 24 ba
       -0.033907425 -0.040431745 0.004696874 -0.0006291985
0002f0 d6 35 54 3b 8c 0e 96 3a e1 c3 96 bb f4 45 91 3c
       0.0032380722 0.0011448427 -0.0046009873 0.017733552
000300 fe d1 d4 39 37 a5 1b bc f4 ff bc bb 52 db 8d bd
       0.00040592247 -0.0094998395 -0.0057678167 -0.06926598
000310 30 6f 86 bd 03 8d 9d bc 73 15 09 bd 3c 14 20 3d
       -0.06564176 -0.019232279 -0.03346772 0.039081797
000320 99 d4 98 3c ad 0b d2 bb ca b7 08 3d 3f 63 8c 3c
       0.018656062 -0.0064100833 0.0333784 0.017137168
000330 cc c7 fe bd 2d b7 bf bd 90 57 b6 bd d8 52 f8 bd
       -0.12440452 -0.0936111 -0.0890342 -0.12125176
000340 3d 8c c5 bd f4 5b b6 bd 89 db d1 bd 82 ce b1 bd
       -0.09645889 -0.089042574 -0.10246951 -0.08681966
000350 33 22 a3 bd 8c 01 fa 3d 13 89 0d 3e 62 8b 17 3e
       -0.07965507 0.12207326 0.13821821 0.14799264
000360 70 e5 fc bc 4e d7 7a bd 49 4a 64 bd c6 72 86 3c
       -0.030871123 -0.061240487 -0.055734906 0.01641215
000370 ab ee 3c 3b d1 ad 63 bc ea 55 7a bc 65 ae 58 3c
       0.002882878 -0.0138964215 -0.015279273 0.013225173
000380 9c 7a 6b bb 84 9a 4d 3d bd c6 f5 3c 62 9b 62 3d
       -0.0035931235 0.050196186 0.030001992 0.055323966
000390 a5 25 36 3c d7 34 67 3c 24 c8 af 3c 63 cc 98 bc
       0.011117374 0.014111719 0.02145774 -0.018652147
0003a0 de 4e 03 bb 06 3d 3d bc dc 0e 81 bd ea 74 88 bd
       -0.0020036022 -0.011550194 -0.06301662 -0.066629246
0003b0 e9 fc 88 bd 5f f8 f2 bc ca 7e 06 bb f0 9b 33 39
       -0.06688864 -0.029659448 -0.002052235 0.00017128862
0003c0 67 04 30 3d d5 4d 0a 3b d8 9c f0 bc bf 26 67 bd
       0.04297295 0.002110352 -0.029371664 -0.056433436
0003d0 7e 0f 55 bd 64 54 3a bd 1a bc be 3c 5b 88 b2 3c
       -0.052016728 -0.045490637 0.023283053 0.021793535
0003e0 9d fa 4b 3c be b3 05 3d df 54 88 3d d5 17 6d 3d
       0.012449888 0.03264212 0.06656813 0.057884056
0003f0 62 51 5b bd ea f3 68 bd 75 34 8f bd 19 d9 32 bc
       -0.05354441 -0.05687324 -0.06992427 -0.010916018
