artifacts/runs/20260210_164556_STGCN_GRU/best.pt (torch, 539694 bytes, 25 tensors)

backbone.blocks.0.temporal1.conv.weight f4 [128, 6, 1, 3]
00000000: 3e3e 9d3e 952e c53c 63ee b53d 9d6a e13b
00000010: e586 853d bacc 273c 96ac f73d fc24 ad3d
00000020: 8ec7 133e 95da 103d 2da6 f9bc 1398 2abb
00000030: b78d cfbd 2aeb a6bd e92c f4bd 3774 0d3d
00000040: ea29 80bd a6ea 7bbd 070a e0bd 91de a8bd
00000050: 7c3f 0d3d ac86 7cbd 5418 aa3a 5cab 1ebd
00000060: 6c19 cd3c 5b1c 03bb 0f7e debc 1f88 28bb
00000070: 0885 81bc 5069 483b 85e3 d13b 8de1 a9ba
00000080: abf7 0f3d 96a3 dc3b 9b4f 013d afb1 4a3d
00000090: 8544 25bd 7330 f2bc 1021 ac3d 818a 7b3c
000000a0: b7ab e73c 0144 0a3d ced5 84bd 4edf 10bd
000000b0: 6c97 47bd 5b69 6a3d f39b 293d c796 3e3d
000000c0: 9f10 7e3d c220 5b3d b984 a83d 03c7 8abd
000000d0: 8689 0dbd c038 33bd 742d 363d edd6 58bd
000000e0: 34f6 063d 81dc b93c 2dec e33d a2e6 13bd
000000f0: a392 f0bc 8316 e5bc 2bf4 ff3d 081a 1d3d
00000100: 47e9 913d 8c08 98bd 4da6 75be c7b0 5dbe
00000110: 8daf 4dbe 1603 ce3c c6d1 9a39 9709 b13c
00000120: 90a1 0bbf 5350 afbe cad4 063e fd1c b73c
00000130: 9df8 9c3d 842e 2abd fe4b 70bc 495f 33be
00000140: 9940 2bbe c200 96bd f932 5cbd d8ac 90bd
00000150: 316f 913d 8958 a43d 1974 cfbc f4d7 d6bd
00000160: e7a4 fb3c bf26 81bd 9286 81be 4ea9 44be
00000170: 393c b6bc a0bf 173d 1290 c2b9 7744 18bd
00000180: f1a1 71bc ef9f d6bd 8ead 01be 0212 b1bd
00000190: fc3e ddbd d58d a9bd 5065 d63d 90b4 453d
000001a0: 4ad8 8b3d 2d6f 04be c71a b2bd aa6f 1ebd
000001b0: d74d c53b 9fc2 04bd 963f 86bc 39fe f2bb
000001c0: c975 af3a fc13 033c d41d 1fba 1915 4dbc
000001d0: 0994 97bc e9d8 06bd fc3e e0bc 23fd 09bd
000001e0: d5bc b43c e6d1 b53b d9b4 ce3c 9dd8 ea3b
000001f0: bf55 92ba fc33 b13c aed7 f1bd c26e cebd
00000200: 5697 b6bd 0100 57bd b8fb 763c f596 953b
00000210: f8f1 583b bcc5 a1bd b4bd f8ba 7259 acbd
00000220: fae9 3bbd 79fd 44bc 3e89 b13b 6753 e03c
00000230: 2ef0 3c3d 3e14 35bd a127 8ebb 1dff 1ebb
00000240: f534 793c 0bd9 413a fee8 133e 6c66 47bd
00000250: eba4 2e3c 1c38 d0bc 9e59 643d ec3a 603c
00000260: 306d a43d 459c 7a3b 12a6 56bc d6ff 84bd
00000270: cee2 beb9 6e89 d9bc aeea 45bd c66e 883d
00000280: cf42 143d 3eaf 70bb 932c 1abe 996b 3cbd
00000290: 0d90 c03d 460f e9bc 791b 45bc 18ff b4bc
000002a0: f2d3 1fbd e42a 5ebc 0c84 ffbb 2454 d4bc
000002b0: b149 f9bb 8a01 913b 8c68 febb 0192 6ebc
000002c0: d331 a83b 4980 c1bb 0159 efbb 2112 d2bb
000002d0: 6fb0 84bd 4a52 13bd dfbf f9bc bbd3 583c
000002e0: a8af 523c 8de0 0a3d 7d84 14bd a7d5 12bd
000002f0: 6cff 74bc 538a 963c 4d11 fc3c 0fb6 183d
00000300: 3637 81bc 4996 413a 23ba 253d ce76 763b
00000310: 506a 49bb dfb9 5cbc 6b00 94be 9780 88be
00000320: 8401 b3bd 5d46 c33c 9de2 543c 989c 6e3c
00000330: 478a 79bd 34fd 5abd 5a40 00bd 68ec 383d
00000340: fd6b 9abc 7a32 33bd 130f 053d 4908 e9bc
00000350: 3662 0fbd b27c bc3d 6882 d13c 4663 073d
00000360: 6105 aabd ae4d ed3d 74c6 253e 2b5b 3fbd
00000370: 3278 b0bd 5ed7 0bbe 0acd 1cbd 05d9 923d
00000380: 656c 893d 0060 de3d f13a a73d d339 6b3d
00000390: 689a 58bd c2f0 e3bd d956 01be ad99 98bd
000003a0: 9eeb acbc 595c 8cbd 2ebf 79be d858 8fbe
000003b0: 5e65 cdbd fd69 04be 1b1c 8fbd 6a7f b5bb
000003c0: 82bf 4dbd 3a37 673d 5ebc 9cbd 5945 f8bd
000003d0: 29d3 8fbd b90a cabd 64b3 11be 53de 53be
000003e0: 19da 2ebd 0b67 a0bd 8b39 9d3c 0dcc f63b
000003f0: 748c 363d 3901 60ba 8adc 2b3c 7fe1 523b
0.3071155 0.024070064 0.08883359 0.0068791644 0.0651987 0.010241682 0.12093465 0.0845432
0.14431593 0.035364706 -0.030474747 -0.0026030585 -0.10134452 -0.08150323 -0.119226284 0.03453466
-0.062579945 -0.061503075 -0.109394126 -0.08245576 0.03448437 -0.06165187 0.0012977221 -0.03873764
0.025036536 -0.0020005915 -0.027159719 -0.00257159 -0.015810505 0.003058035 0.0064052963 -0.0012960896
0.035148304 0.006733368 0.03157006 0.04948586 -0.04034855 -0.029564118 0.08404744 0.015352846
0.028280122 0.03375626 -0.064860925 -0.03536921 -0.04872839 0.05722938 0.04140849 0.04653051
0.06202757 0.053498037 0.0822844 -0.0677624 -0.03455498 -0.043755293 0.04447694 -0.052939344
0.03294964 0.022688152 0.11129031 -0.03610862 -0.029366797 -0.027964836 0.12497743 0.038354903
0.07124572 -0.07423505 -0.2398922 -0.21649466 -0.20086499 0.025147956 0.00029529462 0.021611018
-0.545434 -0.3424097 0.1316711 0.02235269 0.07664607 -0.041548267 -0.014666555 -0.17516817
-0.16723861 -0.07324363 -0.05375955 -0.07064217 0.07101286 0.08024699 -0.025323914 -0.104904085
0.03071828 -0.06306218 -0.25297982 -0.1920521 -0.022245513 0.037047982 -0.00037109904 -0.03717467
-0.0147480825 -0.10479724 -0.12663862 -0.08646013 -0.10803029 -0.082790054 0.104685426 0.0482679
0.06828363 -0.12933035 -0.086965136 -0.03868071 0.006021242 -0.032412168 -0.016387742 -0.0074155596
0.0013386543 0.00800037 -0.00060698134 -0.012517237 -0.018503206 -0.032921705 -0.027373783 -0.033688676
0.022062698 0.0055487035 0.02523272 0.0071669356 -0.001116447 0.021631233 -0.11808716 -0.10079719
-0.08915584 -0.052490238 0.015074663 0.0045651146 0.003310321 -0.07899043 -0.0018977434 -0.08415498
-0.045877434 -0.012023323 0.005417972 0.02738352 0.04612749 -0.044208758 -0.00433822 -0.0024260946
0.01521038 0.00073947076 0.14444348 -0.04868166 0.010659437 -0.02541738 0.055749528 0.013685923
0.08028638 0.0038240117 -0.013101118 -0.06494109 -0.00036408607 -0.02655479 -0.04831951 0.06661753
0.036196526 -0.0036725546 -0.15056066 -0.04600105 0.094024755 -0.028449666 -0.012030476 -0.022094294
-0.039020486 -0.013560031 -0.0077977236 -0.025919028 -0.0076076617 0.0044252323 -0.007763928 -0.014561177
0.0051328926 -0.0059051854 -0.0073043113 -0.0064108525 -0.064789645 -0.03596715 -0.030487 0.013234074
0.0128592625 0.033905555 -0.036259163 -0.035848286 -0.014953475 0.018376505 0.030769968 0.037283
-0.015773397 0.000738476 0.040460717 0.0037607434 -0.0030733533 -0.0134720495 -0.2890657 -0.26660606
-0.087405235 0.023837263 0.012993482 0.014563702 -0.060922887 -0.05346413 -0.03131137 0.04514733
-0.018850321 -0.04374931 0.03248508 -0.028446333 -0.03500577 0.09203471 0.025574878 0.03305366
-0.08301807 0.11587082 0.16188985 -0.046717804 -0.086166754 -0.13656375 -0.038281478 0.071702994
0.06710128 0.10858154 0.08165539 0.057428192 -0.05288163 -0.11129905 -0.12630786 -0.07451186
-0.021108445 -0.068535514 -0.24389336 -0.2799747 -0.100291 -0.12931056 -0.069877826 -0.0055388706
-0.050231464 0.056449153 -0.07653116 -0.12122602 -0.070226975 -0.098653264 -0.14228588 -0.20690279
-0.042688463 -0.07832154 0.019192478 0.007531649 0.04456754 -0.0008545104 0.010489592 0.0032177863

backbone.blocks.0.temporal1.conv.bias f4 [128]
00000000: feae 803c c5e4 833c 5a20 a63c 9bd6 5cbe
00000010: 6252 39be 8f2d edbd 4ae6 0a3c 70f0 9abd
00000020: 0fa6 f8bc 665a ccbc af80 7b3d d323 a63d
00000030: 58d8 343d 3689 b8bd 2745 c83b acf2 9f3c
00000040: 8ae9 73bd 9552 61bd f3f8 e3bd dd0f a8bc
00000050: e2bc a8bd 9d04 0f3d adea 933d bbf5 23bd
00000060: 66b8 763c 3871 933c f3b0 9c3b c690 75bd
00000070: fc4c a63d eeb6 273c ae89 10bd 205e 88bd
00000080: 11c7 5c3c 2c41 9d3c 3cf4 8cbc 6c4e 20bc
00000090: 3575 a4bd 7101 39bd e3fb 8dbd 3675 f03c
000000a0: f25c 373d 271d 003d f9d5 78bd cb75 273d
000000b0: 5631 eb3d 72ae b13d db4a e03c e2eb 0a3d
000000c0: f4ca 8f3d 9da5 92bd 6be7 cfbc dc2b b6bd
000000d0: a47c 8d3d a2bf 1a3e 8b4c cf3c 2583 8e3d
000000e0: 6dea 27bd 5179 4f3e 0690 bd3d 0ac4 833c
000000f0: 5cd9 20bd 2065 c0bc fd74 a1bd 4a65 fa3b
00000100: d45d 4b3d 2374 c53b 02a5 393c 1e42 2e3d
00000110: c656 673e ee6b 623d 2516 323a 163c 123c
00000120: 3eba f03b c483 413c c020 693a 68ee 073d
00000130: a5fd 2f3d 5a03 933d 800f 4e3b d76a 343c
00000140: 8e1b 2a3c e70f f33c a210 3a3e 8f83 8b3b
00000150: 5e27 3e3d ff47 413d 2cbf d13b 6ade be3c
00000160: 4c00 683c de8c 833c c210 4d3d 0661 ef3c
00000170: 0c49 2c3c bbe3 e13c 3339 8f3c 3c02 703c
00000180: b520 763b 824a 503d eb73 bd3c 5600 943d
00000190: 1251 833c fa9e d63b d8c5 b73c cd97 423c
000001a0: f2d0 c93d d57c 753c 90ed 7b3d fc66 f53d
000001b0: e721 123d 5b71 393d b1c1 983d 988e 4e3d
000001c0: 2d4a 003d 6985 ab3c 768f 2e3d ca7d 053d
000001d0: 704c 193d b63c 933c 67c9 d73b 8bfa 473b
000001e0: 3c74 e33c 96a1 f53d 799e ce3c 20a3 833d
000001f0: c469 bc3b 79fb 0e3d 76ab 163d 175e 733c
0.015708443 0.016100297 0.020279098 -0.2156624 -0.18097833 -0.11580955 0.008477757 -0.07565391
-0.03035262 -0.02494545 0.06140202 0.08112302 0.044151634 -0.09010546 0.006111759 0.019524895
-0.059548892 -0.055010397 -0.11131468 -0.020515377 -0.082391515 0.03491651 0.07222495 -0.04002927
0.015058612 0.017998323 0.004781836 -0.05995252 0.08120152 0.010236485 -0.03528755 -0.06658578
0.0134751955 0.019196115 -0.017206304 -0.009784322 -0.08030168 -0.04516739 -0.06932809 0.029352766
0.044766374 0.0312778 -0.060750935 0.04088382 0.114840195 0.08675851 0.027379444 0.03391636
0.07021132 -0.071604945 -0.025378903 -0.08895084 0.06908539 0.15112165 0.025305053 0.069586076
-0.04099505 0.20261122 0.09255986 0.01608469 -0.03926979 -0.02348572 -0.07883642 0.007641469
0.04965003 0.0060258075 0.011330845 0.042543523 0.22591695 0.05527871 0.0006793461 0.008925458
0.0073464205 0.0118112005 0.0008893125 0.033186346 0.042966504 0.07178374 0.0031442344 0.011011801
0.010382546 0.029670669 0.18170407 0.0042576264 0.046424262 0.0471878 0.0064009633 0.023299415
0.014160227 0.016058382 0.05006481 0.029221069 0.010515463 0.02757441 0.01748333 0.01464897
0.0037556116 0.050852306 0.023126563 0.072266266 0.016029868 0.006549713 0.022433206 0.011877012
0.09854306 0.014983376 0.061505854 0.11982533 0.035676863 0.04527412 0.07458819 0.050428957
0.03132074 0.020937638 0.042617284 0.032590665 0.037426412 0.017973285 0.0065852883 0.0030514325
0.027765386 0.11993711 0.02522205 0.06427598 0.005749913 0.03490779 0.03678461 0.014853976

backbone.blocks.0.graphconv.mlp.weight f4 [16, 192, 1, 1]
00000000: e09a 6cbd af1c e23c f320 383d 70b0 0fbe
00000010: 0638 3c3d 1402 1d3d 5c3b f93b ef88 913c
00000020: 4c54 483d cb59 1d3d d272 a3bc 55c5 c7bc
00000030: d2e2 893c 7948 40bd 8bdb 2a3d 092d 00bd
00000040: 4379 ea3c 970d 51bd 4cec 973d 7d09 903b
00000050: ee0a f43d c2c0 693d 4604 c1bb 7e82 903d
00000060: 0b12 95bc 9444 483d 87c5 563d ce00 babd
00000070: 9768 d33b 7719 49bd 15f5 74bc 2d90 febc
00000080: e755 ebbc 7adb bf3d e1de 36bd 19f7 903d
00000090: a12e 31bc 9b7f 54bb da60 4b3c 960b 71bc
000000a0: 9b73 233e 94e6 ddbd ed22 943d 22c0 1bbd
000000b0: d634 3a3d 06a8 38bd f63d b23d 5c86 8e3d
000000c0: 654f 8b3d 77e7 8dbb cfe9 31be 47a5 61bc
000000d0: f1b8 863d 8f4f eabb 7747 c8bb 13a5 b73c
000000e0: 2aa8 953d 4e21 f13d 4b01 2f3d 9867 34bd
000000f0: f95a 053d b93b 873b 96a2 3ebd fe29 243d
00000100: ca5c 273d 5916 65bc c076 4ebd 6b5e d43d
00000110: 9249 06bc 5514 41bd a1d5 60bc 938e bcbc
00000120: fe76 c0bc 0ac0 5abc af58 5c3c 0f54 ae3c
00000130: e76c 093d 9dfd a13d cddd 2fbd 6e12 8a3c
00000140: 80eb 8dbc 3fb3 0b3d d525 24bd 82ee e43b
00000150: 6029 99bd c7b7 e03a f1b7 723b 8bb8 bfbc
00000160: aaa3 9b3c 3a3d 2cbd 8a63 05bd a0a7 943d
00000170: 1b7f d03a af4f 473c c608 c43a 705a c23c
00000180: cb22 403c 6d5f 72bc 8dba 083d ad09 78bd
00000190: 54af 143d 5c50 0b3d b1e3 71bc e25d 0e39
000001a0: 0f30 b8bd 0065 9b3d b4bb e9bc 2669 2c3c
000001b0: c7f9 91bd 8060 4a3d c05f 82bd 4357 7fbd
000001c0: 91b0 32bd 5ea9 a7bc 901e 0d3e 19f4 843c
000001d0: a262 0ebd 73b1 0f3c 2655 3b3c 09b6 6bbc
000001e0: 6561 1bbd 2b9e 9bbd ef7f 97bb 8da4 0c3d
000001f0: bc9e 73bc c2d7 92bb 4a7c 983c 8850 b1bc
00000200: f0e1 0abd 1d38 15bc ea77 1c3d 0878 c3bd
00000210: 3696 4fbd 06ee 6a3d 7b5c b93c fb91 0b3d
00000220: a9c1 76bc 8b09 acbc 6941 f2bb 0a9a ecbc
00000230: 2bfc afbd 7f9d bfbd 0f9a 8e3d 1d4c 00bc
00000240: b598 4c3c 9391 e3bc 7a83 8dbc 95e4 4cbc
00000250: 54df 263c 0cc6 7dbd 77e4 243c ff3b 0fbd
00000260: 84a2 22bc 0025 5d3d 432d 1a3c 1ac4 a8bd
00000270: 191e 543b c994 d23b 80bc 273d 2196 d5bc
00000280: 4b35 013c d411 71bd e7d4 9abc 2459 e13c
00000290: 9336 2cbd e798 c9bc 2c21 7bb9 d68f cb3c
000002a0: 0309 d73b 36ab 17bd 2701 17bd 0676 0f3d
000002b0: a8f2 8c3d 4e6a 52bd 6ffd 193d f5df 1d3d
000002c0: 5a02 c93d bda5 2d3d 5841 e9bd b2f2 33bd
000002d0: 5bea a23a e769 d9bc 3ce3 65bc abf4 3c3c
000002e0: 7175 0abc a760 e63d 74dd a0bc bbcf 59bc
000002f0: 9ca9 2dbc ee8e 4c3c 1b63 01bc cbe2 8c3b
00000300: 827c b13c 217c 1d3c 4478 27bd b99d 5e3c
00000310: accc 70bd 3953 eebc 3875 b53c 1dd2 fe3c
00000320: fa07 5abb 639f 05bd ef9b 453b 7db3 2b3d
00000330: b568 0bbe 8f5f 8a3b f45c 293c 981d 23bc
00000340: 503a 8ebc f844 113d 983e debd c812 34bd
00000350: c1f8 6bbc fe31 3fbd 1580 cd3a 00f2 abbd
00000360: 4e9a 8b3c 0c74 bfbc 6367 d03c 6aa2 39bd
00000370: 2424 2c3c 37ee e33c c1a1 0bbd d4b5 82b8
00000380: a702 0a3d d194 10bd 2802 78bc 50b4 773c
00000390: 60ab 1e3d ec20 05bd ac9f aabc a4db 3b3c
000003a0: abe4 c4bd 74b4 023c 0db5 aabd f7f7 363d
000003b0: 757e 093d b510 e9bd dc48 3fbd f944 48bd
000003c0: fa24 803c fc98 c5bc 5dbf b23d 898a 52bd
000003d0: a4a4 86bd 8569 553d a088 0bbd 3873 38bb
000003e0: 45a8 c9bd 36fe 53bd 40e3 35ba 8374 c23d
000003f0: eca1 9dbc 1990 94bd 75d1 ba3c 0075 adbc
-0.057764888 0.027601568 0.044953298 -0.1403215 0.045951866 0.03833206 0.007605953 0.01776549
0.048908517 0.03841571 -0.019952212 -0.024386087 0.01683179 -0.046944115 0.04171328 -0.03129295
0.028622275 -0.05103835 0.07418117 0.0043956623 0.11916147 0.057068594 -0.005890402 0.070561394
-0.01819708 0.048893526 0.05243447 -0.09082185 0.006451677 -0.04909655 -0.01495101 -0.031074608
-0.028727485 0.09368034 -0.044646148 0.0707838 -0.01081434 -0.0032424692 0.012413228 -0.014712235
0.15962069 -0.10834995 0.07233224 -0.03802503 0.045460545 -0.045082115 0.08703224 0.06959221
0.06802253 -0.0043305713 -0.17374347 -0.013772315 0.065782435 -0.0071505974 -0.006112035 0.02241758
0.073074654 0.117739305 0.042725842 -0.044044107 0.03255746 0.0041269925 -0.046541773 0.04007911
0.040859975 -0.013982379 -0.050406218 0.10369571 -0.0081962515 -0.04713853 -0.013722808 -0.023017203
-0.02349424 -0.01335145 0.013448878 0.021280317 0.033551123 0.07909701 -0.042936135 0.016854491
-0.01732421 0.03410649 -0.040075142 0.00698644 -0.07478595 0.0017144614 0.0037035907 -0.023403427
0.01899894 -0.042050578 -0.03256563 0.072585344 0.0015907021 0.012164994 0.0014956228 0.023724765
0.011727045 -0.014793259 0.033381034 -0.060556103 0.03630002 0.034012184 -0.0147637585 0.0001357715
-0.089935414 0.075876236 -0.028531887 0.010523116 -0.07127719 0.049408436 -0.06365919 -0.06233908
-0.043625418 -0.020466503 0.1378119 0.016229676 -0.034762032 0.008770335 0.011433875 -0.014386662
-0.03793468 -0.075985275 -0.004623405 0.034336615 -0.014869388 -0.0044812867 0.018613953 -0.021644846
-0.033906877 -0.009107617 0.038200296 -0.095443785 -0.05068036 0.057355903 0.022627106 0.034074765
-0.015060821 -0.021000644 -0.0073930514 -0.028882045 -0.08593019 -0.09356212 0.06962978 -0.007830647
0.01248758 -0.027779376 -0.017274607 -0.01250567 0.0101850815 -0.06195645 0.010064236 -0.034969326
-0.009926442 0.053990364 0.009410205 -0.082405284 0.0032366572 0.006426428 0.040951252 -0.026072564
0.007886241 -0.058854893 -0.018900348 0.027508326 -0.042044234 -0.024609042 -0.00023949583 0.02484886
0.0065623536 -0.037028514 -0.036866333 0.035024665 0.068822205 -0.05137091 0.03759521 0.03854366
0.09814902 0.04239439 -0.113894165 -0.043932624 0.0012429463 -0.026539756 -0.014031228 0.011532943
-0.008450852 0.11248904 -0.019636847 -0.013294156 -0.01059952 0.012485249 -0.007897164 0.0042994968
0.021665815 0.009612114 -0.04088618 0.013587409 -0.05878894 -0.029092418 0.02215062 0.03110605
-0.0033268915 -0.032622706 0.0030152758 0.04191922 -0.13614161 0.0042228173 0.010337103 -0.009955786
-0.01736179 0.035466164 -0.108517826 -0.043963224 -0.014402569 -0.046678536 0.001567843 -0.08395767
0.017041352 -0.023370765 0.025439924 -0.045320906 0.0105066635 0.02782355 -0.034089807 -6.232751e-05
0.033693936 -0.035298172 -0.015137233 0.015118673 0.038737655 -0.0325021 -0.02082809 0.011465941
-0.096139275 0.007977594 -0.08335314 0.04467007 0.033567864 -0.1138014 -0.046700343 -0.048893902
0.015642632 -0.0241208 0.08727906 -0.05140165 -0.065743715 0.052102584 -0.034065843 -0.0028144848
-0.09846548 -0.051756106 -0.0006938465 0.09494879 -0.01924225 -0.07254047 0.022804955 -0.021173954

backbone.blocks.0.graphconv.mlp.bias f4 [16]
00000000: aaeb e7bb ee86 a83c 073d 2d3c bde5 563d
00000010: 4afb eebd 5759 403d 648f 673d 64ae ec3d
00000020: 3f49 2cbc 170b 2cbd 3429 6d3c 4736 8cbd
00000030: 9b4a efbc be07 9c3d d4cf 593d 4f6b 543d
-0.007077654 0.020572152 0.010573632 0.05246519 -0.11669023 0.0469602 0.056533232 0.115567
-0.01051551 -0.042002764 0.014475156 -0.0684629 -0.02921038 0.07618664 0.053176716 0.05186015

backbone.blocks.0.temporal2.conv.weight f4 [128, 16, 1, 3]
00000000: 11c4 503c 5f3a 97ba bff4 40bd a6f5 cebd
00000010: 6b78 23bd 18bb 8e3c cc72 d23d f334 cc3c
00000020: 887f b2bd 5daa c13c 115a 353c 90ab 95bd
00000030: cc9b 46bd 3ce0 b5ba c426 38bd 58c6 543d
00000040: 25eb 003d bebb dd3c fb78 873d 8ea0 913d
00000050: 7b91 403d 6191 12bd 6780 a73d 0bb6 bc3c
00000060: 668f aabc 3c92 5e3b 3d43 bb3a de3a c2bd
00000070: 177a 0fbe 7ae9 e5bd 0e96 1f3d 6c5d a23d
00000080: df55 a43d 6526 853c 3f57 b43c 489a 7abd
00000090: b846 9f3c 4121 e73c fed5 34bb f655 403d
000000a0: aeed f43b 285f 4ebc 8449 7f3d 3418 973c
000000b0: 00a7 563d 3501 123d 58ee 223b 64f5 003d
000000c0: 6916 a539 8ce9 1e3d 5adb 1e3d 59c2 babc
000000d0: 6f43 f1bc f634 de3d b2b0 04bd 899c 833d
000000e0: 2cff d93d e568 1d3c d94b aabc 1f73 b93c
000000f0: 8ac1 363e 453e f13d 5885 083e a5e3 1ebd
00000100: 5cd5 413d 7344 623d 7326 32bd bbda 25bc
00000110: 8855 8fbc 7961 f53d b7aa e83d 1498 1c3e
00000120: c059 643d 4e27 fdbb 37eb 383c 0d21 7c3d
00000130: e313 4d3d 98d7 1d3e c389 123c 7ae9 c3bc
00000140: 31d3 7f3c 853d 27ba 9ad5 29bc e844 2c3c
00000150: 872a 20bc e8bb cbbb 207b 8ebb 71e8 973d
00000160: 9217 753b 2978 a73d 669b 5e3d 21a2 16bc
00000170: 4418 073c 3ed3 12bd d2d6 c6bc 22ef 66bd
00000180: f669 5c3d 7112 29bc f3e6 3a3c 43b8 8e3d
00000190: 16e2 553d 6f8b 733c f44c 873d 1273 d93d
000001a0: a4cd 623d 15a6 c5bd 445c d0bc 480a 883d
000001b0: 13f0 b33d 32f5 8c3d 9584 af3b 6b78 1e3d
000001c0: 6d95 55bb 7f8b 8d3b e3aa 58bd 2942 95bd
000001d0: 6289 23bd 8d34 5fbd 8a93 3d3d 7f0b 973d
000001e0: 1eb3 4abd 9cb7 e3bc 1bad 9dbd 03c0 bf3d
000001f0: 9837 a33d 7d88 153e 5051 6dbc 094c 0e3d
00000200: 287f 583c 4efb 813d ad89 f83c e4e3 aa3a
00000210: 60eb a2bd 34af 95bd a04e 21bd 9a3c 90bd
00000220: fb9f ecbc d052 813b 74d1 cd3d 0a72 8e3c
00000230: 8714 b33d 3a4c b3bd 7c5d 61bd 3bd4 c5bc
00000240: 7805 0dbd 798f 6a3c 10bb 82bc 115f 62bd
00000250: c16b 1ebd b8a5 93bd 66ce e9bc a2d6 293d
00000260: 479c 62bb 1ee3 97bd faf9 9ebd 2028 4b3c
00000270: 6030 a53c 3eca 6c3d 559d 9f3c 95b5 e83b
00000280: 9b06 b43c 0ef8 f5bb 0eda 9dbc 9e0c 8ebb
00000290: c599 7d3c dd42 20be 9cf0 edbd 3768 393d
000002a0: 3dca 12bd ee70 c73b 7208 b33b 8a57 dbbd
000002b0: 4f6d 01be 69e2 c0bd 28e8 14bd e2e5 92bc
000002c0: e04e 40bd 6201 573d c5e0 3b3d f6a2 1d3d
000002d0: 2247 bebc 6e7a d7bc 78d6 68bc ee72 7abd
000002e0: 68bc ccbd d8c8 91bd f0d3 ce3c 2e8f a1bc
000002f0: 7492 c2bd bb57 b83c a18f ccbb 031d 5abb
00000300: 30e7 7a3d 6387 293d 4fc7 7dbd c2f4 5fbc
00000310: e151 45bd fa7a e3bc dfde d83d 99e1 663d
00000320: 73fd 863d 3f20 71bd f76b 98bc 7dcc c1bc
00000330: e939 aebd f4ec 47bd f3aa 81bd 69e3 803d
00000340: 945b 803b e478 e83c e06f 1d3a f82c 43bc
00000350: dae2 8f3d 1428 61bd 9f43 4cbd 06a4 8e3c
00000360: 231e c33b df35 113d 848e a83b 0cd7 133d
00000370: dcdf f63d 2a0f 8a3d 48fb 8f3d 44c8 543d
00000380: 62a4 8f3c 7ed0 463d 412a 413d 1fac b03c
00000390: cf49 0a3c 9a62 893c e1e9 4a3d 4337 dcbc
000003a0: e849 9dbc 3f11 93bd ed91 9d3d 7ab9 db3c
000003b0: b580 24bd b809 75bc 68af a1bd c507 7abd
000003c0: 4058 763d 0ac1 a73c 00e7 de3c 550a 1abd
000003d0: 1c90 213d 50ff b73c 8f6c 393d 0c40 f23b
000003e0: 71bb 2d3c 1b06 183d 18c9 983d 0c94 ffb9
000003f0: 38f0 26bd 02cb f3bc 77ba 453d f698 7abd
0.012742058 -0.0011537782 -0.047108408 -0.101054475 -0.03990976 0.017423198 0.10275802 0.024927592
-0.08715731 0.023640806 0.011068837 -0.073081136 -0.048488423 -0.0013876031 -0.044958845 0.051946968
0.03147425 0.027067062 0.06614872 0.071107015 0.04701374 -0.035783175 0.08178788 0.023036024
-0.02082033 0.0033961674 0.0014287006 -0.09483884 -0.14011417 -0.11226173 0.038961463 0.07927975
0.08024191 0.01625366 0.022014258 -0.06118229 0.019442901 0.028214099 -0.002759337 0.04695698
0.0074746227 -0.012595929 0.06232597 0.018444158 0.052405357 0.035645682 0.0024861302 0.031484023
0.0003148795 0.038796946 0.03878341 -0.02279775 -0.0294511 0.10849945 -0.032395072 0.06426341
0.10644373 0.009607528 -0.02078812 0.022637902 0.17847267 0.11779455 0.13332117 -0.038791317
0.047322616 0.05524106 -0.0434937 -0.01012295 -0.01749684 0.11981482 0.11360686 0.15292388
0.055749655 -0.0077256327 0.011286548 0.061554957 0.050067794 0.15414274 0.008943978 -0.023915041
0.015614317 -0.00063797116 -0.010365868 0.010514475 -0.009775764 -0.0062174685 -0.0043481737 0.074173816
0.0037398082 0.081772156 0.05434742 -0.009193928 0.0082455315 -0.035845987 -0.024272356 -0.0563804
0.05381199 -0.010319338 0.011407602 0.06968739 0.052217565 0.0148647865 0.066064745 0.10617651
0.055371895 -0.09650818 -0.02543462 0.06642586 0.08786025 0.06882705 0.005356381 0.03868906
-0.0032590285 0.0043196077 -0.052897345 -0.0728801 -0.03992594 -0.054493476 0.046283282 0.073752396
-0.049487226 -0.027797513 -0.07699033 0.09362795 0.07969588 0.14602847 -0.014484718 0.03474048
0.01321391 0.06346761 0.030339086 0.0013037887 -0.079550505 -0.07308808 -0.039381623 -0.07042809
-0.028884878 0.0039466396 0.10049716 0.017388362 0.0874415 -0.087547734 -0.055020794 -0.024149051
-0.034429044 0.014316433 -0.015958339 -0.055266444 -0.03867698 -0.07209343 -0.028540801 0.041464455
-0.0034578012 -0.07416366 -0.07762523 0.012399703 0.020164669 0.05781006 0.019484201 0.0071017244
0.021975806 -0.007506377 -0.019269016 -0.004335 0.015478556 -0.15650506 -0.11618158 0.045265403
-0.0358374 0.0060864603 0.0054636532 -0.10710056 -0.12639354 -0.09418184 -0.036354214 -0.017931882
-0.04695022 0.052491553 0.045868654 0.03848549 -0.023227278 -0.026303496 -0.01421129 -0.06114476
-0.09996873 -0.07118386 0.025247544 -0.019721594 -0.0950059 0.02250277 -0.006242708 -0.0033281452
0.061255634 0.04138888 -0.061957654 -0.013669195 -0.04817379 -0.0277686 0.10589384 0.05636749
0.0659131 -0.058868643 -0.01860617 -0.023657078 -0.08507139 -0.04880996 -0.06331434 0.06293375
0.003917167 0.028377958 0.00060057454 -0.011912577 0.070256904 -0.054969862 -0.049869176 0.017412197
0.0059545203 0.035451766 0.0051439423 0.036093757 0.120544165 0.067411736 0.0703035 0.0519488
0.017534439 0.048538677 0.047159437 0.021566449 0.008440449 0.01677065 0.04953945 -0.02688182
-0.01920028 -0.07181024 0.07693849 0.02682184 -0.040161807 -0.01495593 -0.07894784 -0.061042566
0.060142756 0.02047779 0.027209759 -0.03760751 0.039444074 0.02246061 0.045269545 0.007392889
0.010603772 0.037115198 0.074602306 -0.00048747694 -0.040756434 -0.029759888 0.04827353 -0.06118103

backbone.blocks.0.temporal2.conv.bias f4 [128]
00000000: 5ebf 883d 5556 30bd d92a adbd 4965 ddbd
00000010: 604c 2e3d 0a67 643d f120 92bd 459b 09bd
00000020: 0f0f f63d 0367 f93c b9ec f43d 14bc 893a
00000030: 2324 4c3d c767 13bd 6cfe b3bd 9620 573d
00000040: 3d13 703d b544 ea3d 9441 17bc a5a2 a4bd
00000050: 4cd7 06be 7e40 bd3c 0e5a 14bd 05ec c8bc
00000060: 74b8 5d3d 8a6b f3bc fdd7 3b3b 50a3 da3c
00000070: 2977 103d 541e 3b3c 0871 813c ad32 66bd
00000080: 593e d5bd bb39 2bbb 52b6 93bd 9920 bdbd
00000090: 396b a7bd 5bb2 c53d 31fb 1fbc fbbe e33d
000000a0: b73e 863d e1cb cfbc 5b86 35bd b0fd e6bd
000000b0: 98ad 2bbd 6be8 a93d e711 48bd 62f4 fd3c
000000c0: fd01 24bd 9613 0b3b c2d9 d43b 6042 ddbd
000000d0: eb42 963d e73b a0bd 049e 29bd 468c 7dbd
000000e0: 8944 7f3d acd4 95bd 9dbc 86bc 19b7 973d
000000f0: 8fb9 493c 8adb c63d 6c62 3f3d 55ae 813c
00000100: 956a a5bb 106a 9a3c 18ca 213d 4108 c63c
00000110: a8a1 3f3c 99c9 f9ba ff75 8f3c fa3b 333b
00000120: bd50 443d 861e 243d 7c7e 8b3d be26 0cbb
00000130: 5e5f b23c de71 a13c b1c4 8c3d c3d5 b53c
00000140: 1b46 0f3d 74bb c23b ffba 213c bc5b 6a3c
00000150: 7bb8 433d 776a f63c ddc6 fc3c f268 b93c
00000160: c2ff 083c 94ee d6bb 26a1 4f3d e093 193d
00000170: 7c50 043e 46bc 833c 4bb1 a43c 4dfd 693d
00000180: 01df b73d 5e9d cd39 08ab 8e3c d49d d53d
00000190: 636f 503c 8443 c53c 1d34 80b8 1956 843c
000001a0: 69d5 02bd 41fe 273d 3f63 9ebc d4aa 933c
000001b0: 3925 263d 6c27 313d 97ab abbc 68da 2c3d
000001c0: 7efb df3c cfcf 833c 8d2d a83c e026 d63d
000001d0: 0bb9 243d 30ba 363d 2fb2 af3d cc2b a6b9
000001e0: b855 a83b a2af 993c e1ea 943c 538f 3d3b
000001f0: bcae 093d acec 483c 1d50 dd3c 5508 a63b
0.066771254 -0.043051083 -0.08455438 -0.10810334 0.042553306 0.05576233 -0.07135189 -0.033595342
0.12014591 0.030444628 0.11959214 0.0010508322 0.04983915 -0.03598764 -0.087887615 0.05252131
0.058612097 0.11438886 -0.009231944 -0.080388345 -0.13168067 0.023102041 -0.036218695 -0.024526605
0.054130986 -0.029714365 0.0028662675 0.026689202 0.03526989 0.011420805 0.015800968 -0.056200672
-0.104122825 -0.002612694 -0.07212509 -0.09234733 -0.08174748 0.09653159 -0.009764479 0.11120411
0.06554931 -0.025365772 -0.044317584 -0.11278856 -0.0419136 0.08296283 -0.048845198 0.03100032
-0.04004096 0.002122139 0.0064956853 -0.10803676 0.07336982 -0.078239255 -0.04141046 -0.061901353
0.06232122 -0.073159546 -0.01644736 0.0740797 0.012312307 0.097098425 0.04672472 0.015830198
-0.005048106 0.018849403 0.039499372 0.024173858 0.011696257 -0.0019057273 0.01751232 0.0027348981
0.04792856 0.040068172 0.06811234 -0.0021385397 0.02177399 0.019707616 0.068734534 0.022196656
0.034978967 0.0059427563 0.0098712435 0.014304098 0.047783356 0.030080063 0.030856544 0.02263305
0.008361759 -0.0065592024 0.050690793 0.03749454 0.12921327 0.016080987 0.020104071 0.057126332
0.089780815 0.00039217895 0.017415538 0.10430494 0.012721869 0.024080046 -6.1132225e-05 0.016154336
-0.031941805 0.04101396 -0.019334434 0.018025793 0.040562842 0.043250486 -0.020955844 0.042200476
0.0273416 0.016090302 0.020529533 0.104566336 0.040215533 0.044611156 0.08578908 -0.00031694619
0.0051371716 0.018760506 0.018178405 0.002892454 0.033613905 0.012263458 0.02701574 0.005066911

backbone.blocks.0.res_conv.weight f4 [64, 6, 1, 1]
00000000: 3f27 fb3d cf87 41be 9199 a63e 9d65 24be
00000010: 4877 47be 81bc 723e d34c 97be b768 3ebc
00000020: 8670 05be 5d55 a1be b1f9 bf3c 8980 0ebd
00000030: a101 73bd b7a7 e93c a075 81be d6d8 ecbd
00000040: 1a65 263c de13 99be 3d76 77be ef7f 013e
00000050: 0243 9cbe 220c a1bd 78b6 20be 7530 4c3e
00000060: c6e7 5a3e 8605 173e 1f7f 56be 48a2 8bbe
00000070: 5b56 96bb b737 573e 2675 ad3d 6967 25be
00000080: ac24 44be 95c9 873e f97c 09bd 6839 053e
00000090: 4737 a9be 68a0 043d ee4e 8f3e 3ba7 b0be
000000a0: e76b 57be c13e 7ebe d8e5 33be 3f3b bd3c
000000b0: 727b d83d db6f 13be 1709 4b3e 4b4d 573e
000000c0: 480d 7a3e 216a 8bbd e9f2 333e e953 4f3e
000000d0: 6a69 0a3e 875c 85be 1d18 01be a11d 78bd
000000e0: b311 05be 1b74 5e3d 45c3 f8bb 60fe bf3d
000000f0: 9f78 a5be 098d cfbb af44 d63d 9cb5 66be
00000100: 0a51 843d c852 49be 58db 983e 7b83 43bc
00000110: 70dc 023e 64d7 053e 3c54 13bb a7e1 623e
00000120: 8630 41be 57e1 f23d bcb7 04be 35d8 94bd
00000130: 94fe 72bd d851 413d f1cb abbe 06fc d7bc
00000140: ff4c 33be 1ffe 383e 5915 a23e a9ec 123e
00000150: 3f6a e1be 9b67 1a3d 86d4 1bbe 8264 94bd
00000160: e408 00be 65c1 d63d 9783 183d 4147 303d
00000170: 2880 ef3d b382 1a3e 05be 5d3e 6c01 06bc
00000180: 22c0 93be 8c72 413d 2f1d 1abe 3568 0fbe
00000190: 0964 0abd bf6f f53d c8e3 923e 67e3 003b
000001a0: 17db 9fbd 680a 9e3e b902 053e e339 5bbe
000001b0: 901e 5ebd 8610 27be c472 aabd 5618 8abe
000001c0: e190 90be 9d97 5abe 5a2d fdbd ad01 a33d
000001d0: e0ff 8bbe af16 40be 748a 833d ef63 5e3d
000001e0: 21f0 00bd 9ca9 31be 840b a3bc 76e8 ce3d
000001f0: 89af 53be 0756 1bbe 01fd 8b3d b307 0d3d
00000200: 858c 833e 7126 013e 0d57 f33d 4a37 34be
00000210: 9bff 8ebd 7552 063c 8378 a1bd 95e4 e9bd
00000220: 6872 083e bf5b 23be 2195 b9bd 4a0f 63bd
00000230: 7303 2f3d bd76 ab3c 65d9 6abd fbb2 0f3e
00000240: ee4e 71be 3e96 c53d 16d6 043e 55cd 2b3e
00000250: 6ea6 8dbe 316c 2f3e aa25 5a3e 1216 c13d
00000260: 70f2 203e b5a6 83bd 516f dabd 9f27 ef3b
00000270: d2de 853d 339b 29be 2bb7 d0bd eb25 51be
00000280: 752b 3cbe 6b7b 90bb 8b63 55be 21bc ea3c
00000290: 7add 793e 2712 02be 8160 9dbc 2674 e03d
000002a0: eb9e 513e f529 d73d f8df 0ebd ef35 943d
000002b0: 4c05 42be e03a 0b3e 2013 553e 1124 363d
000002c0: 56d4 abbc 58f4 1ebc 306c fe3d 0479 b63c
000002d0: f99f e6bc ead7 4fbe 0ed1 083e 0889 21be
000002e0: 82ac 3c3d 4d00 f53d e6ba 493e 6e84 cdbc
000002f0: 9430 8d3d 1aef 943e b99e 1ebe 0467 1dbe
00000300: 0ab9 903e f22d f73d db78 913e 179f 9c3e
00000310: b6a0 4dbe 949b 353e 1d8e 5cbe 67f6 d13d
00000320: fb16 7d3e 16c8 12be cbf5 26be c2ea 55be
00000330: 00d7 03be 1c68 4abd 4089 6c3e 6023 523d
00000340: 9cf8 84bd e862 1cbd 5e2b 26be 0d1d 873c
00000350: 3c13 a43d f20c 55be c4af 083e 54ec 8f3d
00000360: 273c e3ba ea3d d5bd b67d 143e c5e6 8fbe
00000370: 045e 3e3e 0a6c a63d d0f0 edbd 066f 0dbd
00000380: 3cd9 773d 1e38 3abe b472 bcbc b794 483e
00000390: 0d6e 2f3d 5ec6 dbbd 66c1 623e a715 5f3e
000003a0: 2ece 373e 02a3 ccbd 19f1 abbe e4f0 e0bd
000003b0: 48a5 813e 9ded 883d ab15 823e f3c2 fc3d
000003c0: 105a babe 2821 50be e85d cabd 6d04 97be
000003d0: abec e9bd eca4 1bbc e79d 90bd 6012 b63d
000003e0: 058f 14be 5441 de3d bc89 e2bd bc1c 45be
000003f0: ea41 913e 8df1 df3d 3b15 9d3e 9261 4dbe
0.12263345 -0.18899463 0.32539037 -0.16054387 -0.19479096 0.23704721 -0.295508 -0.011621646
-0.13031206 -0.3151044 0.023434492 -0.03479055 -0.059327725 0.028522355 -0.25285053 -0.11564796
0.01015594 -0.2989797 -0.24166198 0.12646459 -0.30519873 -0.07863642 -0.15694606 0.1994036
0.21377477 0.14748201 -0.2094693 -0.27272248 -0.004587931 0.21017347 0.0846961 -0.16152729
-0.19154614 0.26520982 -0.03356645 0.1301018 -0.33049986 0.032379538 0.27989906 -0.34502587
-0.21037255 -0.24828626 -0.17568147 0.02309954 0.1057042 -0.14398138 0.19827686 0.21025579
0.24419129 -0.06807352 0.17573132 0.20246853 0.13516775 -0.26047155 -0.12606855 -0.06057513
-0.12995033 0.054309946 -0.0075916373 0.0937469 -0.3231859 -0.0063339514 0.10462319 -0.22530216
0.064607695 -0.19660485 0.29854846 -0.011933203 0.12779403 0.13070446 -0.0022480628 0.22156392
-0.18866166 0.118593864 -0.12960714 -0.07267801 -0.059324816 0.047197193 -0.33554032 -0.026365291
-0.1750984 0.1806569 0.31656912 0.14348091 -0.44026372 0.037696462 -0.1521779 -0.07245733
-0.12503392 0.10486106 0.03723487 0.043036703 0.11694366 0.1508892 0.21654518 -0.00817905
-0.28857523 0.04722838 -0.15050195 -0.14004596 -0.033786807 0.119842045 0.28689408 0.0019666792
-0.0780546 0.30867314 0.1298932 -0.21408801 -0.054228365 -0.16314897 -0.08322671 -0.26971692
-0.28235534 -0.21346898 -0.12362166 0.07959304 -0.27343655 -0.18758653 0.06422892 0.054294523
-0.031479005 -0.17349857 -0.019902952 0.10102932 -0.2067243 -0.15169536 0.06835366 0.03443117
0.25693145 0.1261232 0.11881838 -0.17599216 -0.069823466 0.00819837 -0.07884314 -0.11420552
0.13324893 -0.15952967 -0.09061647 -0.055434503 0.0427279 0.020930642 -0.05733623 0.1403312
-0.23565266 0.09647797 0.12972292 0.16777547 -0.27666038 0.17131115 0.2130343 0.09428038
0.15717483 -0.06428281 -0.10665763 0.0072984244 0.0653664 -0.1656311 -0.101911865 -0.20424621
-0.18375953 -0.004409244 -0.20838754 0.02865416 0.24400893 -0.12702237 -0.019211056 0.109596536
0.20470779 0.105060495 -0.034881562 0.072368495 -0.18947333 0.13596678 0.20808077 0.04446799
-0.020975273 -0.009701811 0.12422979 0.022274502 -0.028152453 -0.20297208 0.13360998 -0.1577493
0.046062954 0.11962948 0.19700202 -0.025087561 0.06894031 0.2908867 -0.15490235 -0.15371329
0.28266174 0.1206931 0.28412518 0.30590126 -0.20080838 0.1773513 -0.21538587 0.10252076
0.24715798 -0.14334139 -0.163047 -0.20890334 -0.12874985 -0.049415693 0.23099232 0.051303267
-0.06492731 -0.03818026 -0.16227481 0.016493345 0.08011481 -0.2080572 0.133483 0.07027498
-0.0017336652 -0.104122 0.1450108 -0.2810575 0.18590552 0.081260756 -0.11618197 -0.03452971
0.060509905 -0.1818547 -0.023003913 0.1958798 0.042829562 -0.10731195 0.22144088 0.21785603
0.17949745 -0.09992029 -0.3358238 -0.10983446 0.25321412 0.06685946 0.25407156 0.12341871
-0.36396837 -0.20325148 -0.098811924 -0.29495564 -0.11422094 -0.00949977 -0.070613675 0.088902235
-0.14507683 0.10852304 -0.11061427 -0.19249243 0.283706 0.10934744 0.3068026 -0.20056751

backbone.blocks.0.res_conv.bias f4 [64]
00000000: fd9a ed3d f225 a6be 91d4 17be 1b70 993e
00000010: 388c a1bc 7489 523e 01b1 8e3e e16a d1bc
00000020: c5b1 14bd e152 ccbc b5e4 14be 0d46 833a
00000030: 192d e03d 4532 923e 7d72 503e f0bc a93e
00000040: 9a86 07be 2566 63be 2c54 bdbe a833 3a3e
00000050: ed39 e33d d4c5 02bd 8c79 863e a74c 51be
00000060: 0537 c5bd 93d7 753c 8820 0c3e df36 803e
00000070: 1b52 3bbe 3212 b83e d14a 8f3e aaae c53d
00000080: 605b 66be 48a5 8e3d 5e27 783d 13a3 0fbe
00000090: 272a 9f3e a36e 7ebe d020 46bd 21b5 b2bd
000000a0: cb66 c8bd f041 453e e182 bf3b d292 b03c
000000b0: 2576 84be 28a9 61be 93ca 823e 1bda 67bd
000000c0: faf3 2e3d 7279 7bbe a1ee 4cbe ee49 013e
000000d0: da8d 6e3e 474b 573c 47cb 97be a7fa 42be
000000e0: 1b5a dfbd fc92 133e 915e 84be 42be 59be
000000f0: afac 9bbe 5f40 74be 82ee 803e 7883 c2bd
0.11601827 -0.32450825 -0.14827181 0.29968342 -0.019720182 0.20560247 0.27869418 -0.02556366
-0.036302347 -0.024941863 -0.1454037 0.0010015384 0.10946102 0.28553978 0.20356174 0.3315196
-0.1323494 -0.22206934 -0.3697828 0.18183768 0.11095033 -0.031926945 0.26264608 -0.20439397
-0.09629635 0.01500501 0.13684285 0.25041863 -0.1829304 0.35951382 0.27986768 0.09652455
-0.22495794 0.06965119 0.06058442 -0.14027052 0.31086847 -0.24846892 -0.048371136 -0.08725954
-0.09785231 0.19263434 0.0058444594 0.021554384 -0.25871387 -0.22037184 0.25545177 -0.056604486
0.042713143 -0.24558046 -0.20012905 0.12625858 0.232963 0.013140506 -0.29647276 -0.19040929
-0.10905858 0.14411539 -0.25853398 -0.21263984 -0.30405185 -0.2385268 0.25181967 -0.09497732

backbone.blocks.0.ln.weight f4 [64]
00000000: c980 653f 66e2 543f 5733 473f ca44 633f
00000010: 3e8a 5d3f 9d9e 173f 97e9 873f 8855 393f
00000020: 5678 543f 6f8b 193f 23b4 533f 64a7 5d3f
00000030: 0aaf 173f ad4d 7c3f dd4c 823f 9c25 483f
00000040: a6f9 3b3f fd75 653f cc3e 713f 3666 393f
00000050: 31a1 2e3f 1f24 213f 6bcc 1f3f 7f13 2a3f
00000060: 562e 7d3f 46ea 2c3f dd59 573f fa22 553f
00000070: 65ac 733f 6796 7a3f 64aa 343f a36f 313f
00000080: 72b5 843f 2d6c 4b3f e772 073f 5733 613f
00000090: b54f 4f3f cdd2 2b3f cee8 453f a91f 853f
000000a0: 3a94 573f 123d 3d3f ab5f 5b3f 7f68 713f
000000b0: e680 663f c81b 4f3f 8421 5a3f c50a 5b3f
000000c0: 4621 4f3f 5da0 3b3f 554b 373f 7f50 633f
000000d0: 5b68 463f a6c8 4e3f 9468 843f f357 383f
000000e0: cfc1 423f d924 473f 9de1 4d3f be1d 393f
000000f0: a6be 663f aef0 3b3f 9571 3a3f 9478 163f
0.89649636 0.83157957 0.77812713 0.8877684 0.86539066 0.592264 1.0618161 0.72396135
0.8299612 0.59978384 0.8269674 0.8658354 0.59251463 0.98556024 1.0179707 0.7818239
0.7342781 0.8963316 0.94236445 0.72421587 0.6821471 0.6294574 0.6242129 0.66436
0.9889883 0.6754497 0.84121495 0.83256495 0.9518493 0.97885746 0.70572495 0.6931097
1.0367873 0.7946194 0.529097 0.87968963 0.80981 0.6711853 0.77308357 1.0400287
0.8421055 0.7392131 0.8569285 0.94300073 0.90040433 0.80901766 0.8520739 0.8556331
0.80910146 0.7329157 0.7159932 0.887947 0.77502984 0.80774915 1.0344415 0.720092
0.7607698 0.777906 0.80422384 0.7231101 0.90134656 0.73414123 0.7282956 0.5877774

backbone.blocks.0.ln.bias f4 [64]
00000000: 5c1a 903d dc76 f1bc 61c8 d6bb e98d 88bc
00000010: 2c6c 743d ccdb 03ba cd5b 083d 6b16 6bbc
00000020: 9967 8e3d c098 c6bd 2872 b6bd 3779 1d3b
00000030: bc46 bb3c a575 3ebc 4b2a 6cbc 6b69 9a3d
00000040: 0e68 e8bd 2b77 43bc 85c2 4dbd e714 b73d
00000050: 5e9d 473d 6c84 833b 508f 683d 8e1f 85bd
00000060: a4a2 dbbc c65a 2ebc 853c 7c3d 4da5 973c
00000070: 02c4 e4bd 8d8a 7b3d 012e 463c 5b0f 493d
00000080: 2765 053d 9de5 19bc 6afc 97bc 2ecb 4cbd
00000090: 46ec 863d 0f38 e63b f09d 033a d662 c5bc
000000a0: dd23 23bc d572 113d ad7d 4e3c a62e e33c
000000b0: 7db1 b8bc 5389 b1bd 0490 43bc 23c6 a5bd
000000c0: add1 983d 6ad0 8cbd ae86 863c 26d3 50bb
000000d0: c518 0a3d eee0 a03c e694 13bd 6016 58bd
000000e0: b29c c83d 323a 8f3d 84bb 1dbd fd65 853c
000000f0: 3719 6cbc b6e2 6dbd 9193 b5bd 6308 993c
0.07036278 -0.029475622 -0.0065546487 -0.01666923 0.059673473 -0.00050300057 0.033290673 -0.014348607
0.069533534 -0.096971035 -0.08908492 0.0024028549 0.022860877 -0.011624728 -0.01441438 0.07539638
-0.11347972 -0.011930267 -0.050234336 0.08939534 0.04873406 0.0040135887 0.0567773 -0.06500159
-0.026810952 -0.010641759 0.061581153 0.018511439 -0.11170198 0.06141143 0.012095929 0.04908691
0.03256717 -0.009393123 -0.018552978 -0.049998455 0.06588034 0.0070257257 0.0005020788 -0.02409498
-0.009957281 0.035509903 0.012603206 0.027732205 -0.02254557 -0.08668771 -0.0119361915 -0.08094432
0.074618675 -0.06875689 0.016421642 -0.0031864136 0.03371503 0.019638505 -0.036030672 -0.052755713
0.09795512 0.06993522 -0.038508907 0.016283983 -0.014410309 -0.058077537 -0.08866037 0.018680757

backbone.blocks.1.temporal1.conv.weight f4 [128, 64, 1, 3]
00000000: fef9 9cbc 797f 03bc 6cfc 57bc 10bd dfbc
00000010: 4cb6 5dbc ac6d c9bc 74f3 123d cf83 ec3c
00000020: 38cf 313d 1a2b 40bd bec3 75bd 3839 8ebd
00000030: 1c8d 44bd d643 14bd 60ca 8c3c c9f1 42bd
00000040: c0be 28bd 551b 78bc 9e2e ca3d 659c d13c
00000050: 0465 af3c 1192 12bc ffbe 08bd c0d2 21bd
00000060: 6827 763d 0107 8c3d 4135 d03d d090 9dbc
00000070: 04c3 08bd 3751 fcbc 31ed 3e3d c012 0e3d
00000080: 0b07 35bb 261d 10bd 9bc1 85bb 4fe9 893c
00000090: 388a 273c 3261 86bc 9895 02bd caf2 42bd
000000a0: ad1a 61bd fab1 87bd 1064 e0bc 3aa1 21bd
000000b0: dcc6 c1bd 9053 1c3d 1d46 063d 930d b53c
000000c0: fff2 19bd 8be3 90bd c1e7 d0bd 7d47 913c
000000d0: e6aa ba3c 2b7b 043d 855a 04bc 90b8 913c
000000e0: 640e 153d 1ca1 bb3b fb04 b2bc f6b2 8dbc
000000f0: bb16 ef3c cd5f 2ebc 0063 6bbc 87fb 9c3d
00000100: 59d4 683d 9f23 553d 1340 4e3d b396 5b3d
00000110: f3ca 7c3d f554 7ebd d9c2 5ebd 33e8 6fbd
00000120: e96d 19bd 0a27 6dbd 509c dfbd 9680 f93c
00000130: e5f8 113d dba1 573d 6396 c33b 732f 32bb
00000140: 64b6 61ba 9b6c 943d a3fe 353b d3ad 09bd
00000150: a19a 89bd ce7f a6bd 2e04 45bd 8a98 723c
00000160: afea 36bc 11b9 413c 27f4 b73a 9fb6 113b
00000170: 33ee df3b 23e1 9cbb 44b3 4f3c c9f3 db3c
00000180: 8ed0 21bd 2073 bcbc 27cf 67bc 9508 d03d
00000190: de02 f03c cfb3 9d3c 5bb7 1e3d 6ed5 8e3c
000001a0: e3c3 3dbb 942b 83bb c702 493d 59f2 613d
000001b0: 6b2c 253d f7f8 163d 8400 253d 1b1c 27bd
000001c0: 1ddd 9ebc 690e e0bc 9d1c 013d 0f00 f43c
000001d0: 69be 0a3d b7d6 ddbc b085 cfbc 4a0a 22bd
000001e0: 8c21 1dbb 3c06 33bb f6e9 e1bc a630 643c
000001f0: 7c06 e83c 3e34 a33c 8d91 ae3d 1491 b73d
00000200: 5485 c53d 821a d9bc 4f4b 35bb 3bb5 b73c
00000210: 21e1 b23c 248a 8a3d f887 b33d daae 603c
00000220: d86f c1bc a8b4 fdbc 5c69 973d 0cce 5f3d
00000230: c0dc 023d 0e7b e1bd 4835 83bd 4fa6 31bd
00000240: 602e 45bd 1fab 7ebc 4dcf d7bc 76eb e13c
00000250: 2bd7 0c3d 546b 1a3d 3813 9fbc 08b3 37bd
00000260: 6b19 78bd 0dba 24bd fcee d3bb b99d 5f3d
00000270: bac5 293d c85b 7e3d d4b9 c33d ca1f ca3c
00000280: 446b 183d 8f29 9d3d fba7 d8bd 50e2 1cbd
00000290: e6be 633c f2da d6bc ff96 0fbd 421d 57bd
000002a0: 520f 4ebb c661 93bc cb9f 49bd 2816 0bbc
000002b0: c974 e6bb 635f 7bbc d523 1dbd c223 11bd
000002c0: b372 103c c7ed 5bbd e59b 8dbc f2f2 25bd
000002d0: 483c fc3b 7f70 173d 071e 1f3d 602f 25bd
000002e0: 9785 14bd fa54 83bd 79ca 26bd 24d5 b7bc
000002f0: f6f4 60bc 2bce 583d b44f 233d 9c7d 2f3d
00000300: 50b0 83bd b86b 88bd 52c1 f6bd 899b f4bb
00000310: 7b45 c93b 7320 473d 5969 15bc f5ac 1c3b
00000320: 1d72 803c d38d 433d 1baf b93d c3bb b63d
00000330: dc99 78bd 680c 42bd 96fe b8bd e7a3 593d
00000340: dfe9 0d3d 9927 08bc 1fe0 c1bc e210 e739
00000350: fb1c c63c 9d77 88bd 6a50 0ebd 4433 083c
00000360: 7b93 2ebd d8b3 a6bd 42b7 dfbd 1f67 be3c
00000370: 8727 1b3d 5515 303d a120 9b3c 26e9 cb3c
00000380: 826b 963d b1e4 e4bb 19f6 36bd 952f d3bd
00000390: 0652 edba 3580 c53c 6d88 6c3d 327d 263d
000003a0: f30b 8e3d cc72 ee3d 8df0 973d 6073 9c3d
000003b0: 6380 d63d cc9a 42bd c0a0 46bd 8076 22bd
000003c0: 9d0e 07bc 2e6d 8f3d 396d 0a3e f8c7 7b3c
000003d0: 74ca 52bc 664f 7dbd 0594 bdbc d86b 6dbc
000003e0: 8c97 22bd fcc9 0bbd e9da 54bc 4f58 fc3a
000003f0: 3827 1f3c dba8 dc3c 2c89 633c e2b2 c6bc
-0.019162174 -0.008025997 -0.013182741 -0.027311832 -0.0135322325 -0.024588428 0.035876706 0.028871445
0.04341051 -0.046916105 -0.060001127 -0.06944507 -0.047986135 -0.036197506 0.017186344 -0.047593866
-0.04119754 -0.015143235 0.09872173 0.02558727 0.021410473 -0.008945958 -0.033385273 -0.039507627
0.060096174 0.068372734 0.101664074 -0.019234091 -0.033389106 -0.030800445 0.046612922 0.03468585
-0.0027622606 -0.035184048 -0.0040819175 0.016834883 0.010225825 -0.016403768 -0.031880945 -0.047594823
-0.05495708 -0.06625743 -0.027391464 -0.0394604 -0.094617575 0.03816563 0.03278171 0.0221012
-0.037585255 -0.070746504 -0.102004535 0.017734284 0.022786569 0.032344025 -0.008078222 0.017788202
0.036390677 0.005725993 -0.02173089 -0.01729725 0.029185643 -0.010642958 -0.014366865 0.076651625
0.056843136 0.052035924 0.050354075 0.053610515 0.061716985 -0.06209274 -0.05438504 -0.05857105
-0.037458334 -0.05789856 -0.10918486 0.030456822 0.035637755 0.05264459 0.005968855 -0.0027188926
-0.0008610247 0.07247277 0.0027770184 -0.033613037 -0.06718946 -0.081298456 -0.04809969 0.014806876
-0.011164351 0.011823908 0.0014034555 0.0022234095 0.0068338155 -0.0047875806 0.012677018 0.026849644
-0.039505534 -0.023004115 -0.01414851 0.10157887 0.029298242 0.019250778 0.03874908 0.017435756
-0.002895587 -0.0040029977 0.049074914 0.05516276 0.040325563 0.036858525 0.040283695 -0.040798288
-0.019392544 -0.027350621 0.03152143 0.029785184 0.033872996 -0.027079923 -0.025332302 -0.039560594
-0.0023976294 -0.0027316948 -0.027577382 0.013927614 0.028323404 0.019922372 0.08523855 0.08963218
0.09644571 -0.026501898 -0.0027663296 0.022425285 0.021835865 0.067646295 0.08766168 0.013713563
-0.023612902 -0.030969933 0.073931426 0.05463986 0.031948805 -0.11009799 -0.06406647 -0.043371495
-0.04813993 -0.015543728 -0.026343966 0.027578097 0.034384888 0.037700012 -0.019418344 -0.044848472
-0.060571115 -0.040216494 -0.006467698 0.054593775 0.041448332 0.06209925 0.09556928 0.024673361
0.03721167 0.07673942 -0.10578915 -0.038301766 0.013900494 -0.026227448 -0.03505611 -0.052518137
-0.0031442237 -0.017990958 -0.049224656 -0.008489169 -0.007032965 -0.015342566 -0.03836425 -0.035434492
0.008816409 -0.05369356 -0.01728625 -0.040514894 0.007697616 0.03697252 0.038846996 -0.040328383
-0.036260214 -0.06412692 -0.040720437 -0.0224405 -0.013730278 0.052930992 0.039870933 0.0428444
-0.06430113 -0.06661171 -0.12048592 -0.0074648303 0.006142316 0.04861493 -0.009119355 0.0023906801
0.015679413 0.047742676 0.09066602 0.089225315 -0.060693607 -0.047375113 -0.090329334 0.053134825
0.034646865 -0.008310222 -0.02366644 0.00044072332 0.02418374 -0.066634394 -0.034744658 0.008313004
-0.042621117 -0.08139771 -0.109236255 0.023242531 0.037879493 0.042989094 0.018936457 0.024891447
0.07344724 -0.00698527 -0.04466829 -0.1031181 -0.001810611 0.024108985 0.057747293 0.04064674
0.06935873 0.116429895 0.07418928 0.076391935 0.104737066 -0.047510907 -0.048493147 -0.03966379
-0.00824323 0.07003246 0.13518228 0.0153675005 -0.012865651 -0.0618433 -0.02314187 -0.014491044
-0.039695308 -0.034128174 -0.012991645 0.0019252392 0.00971394 0.026935985 0.013887685 -0.02425522

backbone.blocks.1.temporal1.conv.bias f4 [128]
00000000: df6a 843c 03b4 d0bc 2451 34bd c563 e33c
00000010: 3439 45bd c05e 453d 2081 0d3d 110b bfbc
00000020: 4b11 60ba 7198 ae3c 23df e0bd 6410 e3bb
00000030: 6180 1c3c ce34 55bd dc44 db3d b5c0 53bc
00000040: 5529 69bd b176 6cbd 9ebd 73bc 574f 83bd
00000050: f198 a43d 7b7f 1fbd c258 9f3b 1ed0 44bd
00000060: c6f3 9abb 308f 253d 8a68 e03c 769f b7bc
00000070: 8273 7ebd d398 f43c a997 1d3d 040a 563d
00000080: 37d7 4dbd 72c9 e43c e8c1 83bb 35dc a7bc
00000090: 9052 47bd 784d eabc 614f 71bd cb0a ca3b
000000a0: acd9 a83d b949 ef3a 1e68 3f3d 499d 03bd
000000b0: a8cb 173d ed61 c33c 1165 e13c a589 283d
000000c0: 6c3a 9bbd 5a63 ed3c 1cbc 273d 2ef9 563c
000000d0: d9d2 d23d 25cb 053d 1b28 88bd 0a1d cabc
000000e0: 32f4 613d 4d03 533d eddb 683c 1210 2a3d
000000f0: 6d8a 833b 1d69 6bbd 2d38 943d 3833 1c3d
00000100: 6b77 013d b438 193d 4dde 903c 4324 383d
00000110: 365c ac3c 849e 403d dd51 bfbb 288e 6a3c
00000120: 9d6c b93c 5fe0 c83c 9cbb 4c3d 241a 33bc
00000130: 1cbe 443d 44e9 173c 3ce1 4b3d 42a3 543a
00000140: 5768 99bc 50e7 b53d f054 f63a ac5a 793d
00000150: 0e54 463d 7145 8d3c cabd 753c 24d2 ad3b
00000160: 2c0b 84bc 57d2 723d 6ed0 e83b 0b03 f7bc
00000170: 783c f63c 5b54 363c d55c fb3c 2cc1 26bc
00000180: a011 56bd a31b b33c 038b ed3c 56f6 373c
00000190: a4ff 0bbd 698a 003c 96a2 12bd ed03 643d
000001a0: 641a 423b 2adb 493d bd9e 323d 5dad 53ba
000001b0: 8c46 163d 8568 c23d e7f9 f83b 500b af3c
000001c0: 9bbe f23c 686e a2bd 6872 443c 1596 803c
000001d0: e9c0 6ebc 86d2 08bd 1abd 12bd 9ce0 343d
000001e0: 52c3 a73c a139 563d 4c0f 8a3d 9127 4fba
000001f0: ccc8 f0ba 4903 5e3c 218f 7f3c 29c1 6fbd
0.016164241 -0.025476461 -0.044022694 0.027757535 -0.048150256 0.048186064 0.03454697 -0.023320707
-0.0008547499 0.021312924 -0.1098006 -0.006929444 0.009552092 -0.05205231 0.10706493 -0.012924363
-0.056924183 -0.05773038 -0.014876751 -0.06411617 0.08036984 -0.038939934 0.0048628757 -0.04805004
-0.004728767 0.040419757 0.027393598 -0.022414904 -0.062121876 0.029858029 0.038474713 0.052255645
-0.050254073 0.027928088 -0.004020918 -0.020490745 -0.048662722 -0.028601393 -0.058913592 0.0061658374
0.082446426 0.0018256224 0.046730153 -0.03213242 0.037059456 0.023850406 0.027514013 0.041146893
-0.075795025 0.028978039 0.04095088 0.0131209325 0.10294122 0.032664437 -0.066482745 -0.02467205
0.055164523 0.05151682 0.014212591 0.041519232 0.0040143044 -0.05747329 0.07237277 0.038134784
0.031608026 0.037407592 0.017684126 0.044956457 0.021040063 0.047026172 -0.0058386163 0.014316119
0.022634799 0.024521051 0.049983606 -0.010931525 0.048032865 0.009271923 0.049775347 0.00081114855
-0.01872651 0.0888201 0.0018793624 0.060877487 0.048420005 0.017245026 0.0149988625 0.0053045917
-0.016118608 0.059282627 0.007104925 -0.030152818 0.03005813 0.01112851 0.030683914 -0.010177892
-0.052262902 0.021863764 0.02899695 0.011228165 -0.034179345 0.0078455 -0.035799585 0.055667806
0.002961778 0.049281277 0.043608416 -0.00080748444 0.036688372 0.09492592 0.00759815 0.021367699
0.029631903 -0.079312146 0.011990167 0.015696565 -0.014572361 -0.033403896 -0.035824873 0.044159517
0.020478878 0.052301053 0.06741199 -0.0007902319 -0.0018370389 0.013550588 0.015598089 -0.05853382
