artifacts/runs/20260210_174759_STGCN_GRU_LSTM/best.pt (torch, 673622 bytes, 29 tensors)

backbone.blocks.0.temporal1.conv.weight f4 [128, 6, 1, 3]
000000 95 28 3b bb 71 ac c8 bd 6f 87 29 3e 0b db 4a b8
       -0.0028558124 -0.097985156 0.1655557 -4.8364553e-05
000010 36 6e 4f bc 45 5a 87 bd 97 47 6b bd d2 1a e6 bd
       -0.012660554 -0.066090144 -0.05744132 -0.11235584
000020 9e 66 4b bd 92 83 46 bd 55 91 71 3d 7b 45 89 bd
       -0.04965841 -0.04846532 0.05897649 -0.067027055
000030 6c a3 c0 bc c0 d4 2e bc f3 f2 4c 3d aa ac a3 3d
       -0.023515426 -0.010670841 0.050036382 0.079919174
000040 71 34 c3 3d 83 86 ec 3d 50 46 58 3d db 54 d0 bd
       0.09531487 0.115490936 0.05280143 -0.10172435
000050 2f e7 9d 3c 56 f4 1c 3e a8 24 a6 bd 8c e8 68 3e
       0.019275276 0.15327582 -0.081124604 0.2274496
000060 fb 85 b9 bc 80 7d e7 3d cf 38 86 bd 20 ef 7d 3e
       -0.022646895 0.11303234 -0.06553804 0.2479825
000070 cf f0 3a 3e 86 3c 50 3e 8d f6 e2 3d 1e b1 23 3e
       0.18255924 0.20335588 0.11082182 0.15985534
000080 f4 b5 b3 bc 94 2b 48 bc 8e f0 6a 3d 56 bf d3 3d
       -0.021937348 -0.012217421 0.057358317 0.10339229
000090 90 db 42 be e5 77 56 bd 65 5f 42 bd fb 44 f8 bd
       -0.19029069 -0.052360434 -0.047454257 -0.12122532
0000a0 81 e7 d3 bd 7b 4a 53 be 8b 26 2d 3e d1 65 10 3e
       -0.1034689 -0.20633881 0.16909234 0.1410134
0000b0 92 fe 95 3c b5 8d 18 be 25 1c 41 be 0f 7b 57 ba
       0.018309865 -0.14897807 -0.18858393 -0.0008219936
0000c0 59 39 fb 3d c1 bf 28 bd bd d4 c3 3d 12 f5 19 be
       0.122667976 -0.041198496 0.09562061 -0.15034893
0000d0 8d 19 5f bb f6 f8 9d 3d 1b c6 13 3e 18 c0 8e 3e
       -0.003404233 0.07713501 0.1443104 0.2788093
0000e0 d4 2b 58 3e fe 85 f5 3d ab c1 0b 3d 7f 94 bb 3c
       0.21110469 0.119884476 0.034120243 0.022897957
0000f0 3d fc a0 3d c4 db 48 3c 16 10 7e 3d dd 1e ba 3d
       0.07860611 0.012259427 0.06202706 0.09087918
000100 8a ae b5 bc a6 85 27 3c af b5 65 3c 27 4d 3e 3c
       -0.022177953 0.010224735 0.0140203675 0.011615074
000110 9b 79 41 3d a0 e1 e7 bd 61 5c 37 bc 06 b3 a5 bd
       0.047235113 -0.113223314 -0.011191458 -0.08090787
000120 f0 d3 95 bd fe a9 9d bd 4d 33 af bc dd 3a 76 3d
       -0.073158145 -0.07698439 -0.021386767 0.06011473
000130 52 a3 16 3e ec 13 1b 3d e7 fe 12 bc d4 73 15 3e
       0.1471074 0.037860796 -0.008971906 0.14594966
000140 6a f4 e1 3d be 03 48 3d 0d ab 9c 3c 14 82 fb 3c
       0.110329464 0.048831694 0.019124532 0.030701675
000150 46 1b dc 3d af b6 ec 3d ff 82 29 3d 5f 46 23 3d
       0.107473895 0.11558282 0.041384693 0.039862033
000160 e4 31 11 3e 6e df 5c 3e 27 d0 15 3d 59 0d fc 3d
       0.14179188 0.21569607 0.036575463 0.12307233
000170 cc 73 20 be b7 8b 19 3d 93 6c 7c bd 00 49 f5 bc
       -0.15669173 0.037486758 -0.061626982 -0.029942036
000180 50 f9 59 3c 99 43 b8 bd 68 5e 13 be b6 e5 6e bd
       0.01330407 -0.08997268 -0.14391482 -0.05832454
000190 5f 5c 0c 3e 55 2f f5 3d fd ee de 3d 24 64 01 bd
       0.13707112 0.119719185 0.10885427 -0.031589642
0001a0 08 9f f4 3d 6f 36 fa 3d a2 f6 16 3e cd 53 02 3e
       0.11944395 0.12217414 0.1474252 0.1272728
0001b0 72 e3 d1 bd ef 25 c0 bd c9 36 b3 bd 2a c5 97 bd
       -0.1024846 -0.09382235 -0.08750684 -0.07410653
0001c0 21 fe b6 bd 11 21 a1 3c b7 54 e0 bb 64 10 d0 bd
       -0.0893519 0.019669088 -0.0068460363 -0.10159376
0001d0 1e a7 d5 3d e1 a3 db 3c fd 89 2b 3d 75 8c d7 3c
       0.10432266 0.026811542 0.041879643 0.026312092
0001e0 ef ce 83 3c ba 2e f1 bd b0 04 cd bd ac e4 50 3d
       0.016089885 -0.117764905 -0.1001066 0.05099933
0001f0 16 eb 73 bd 2c fa 1b bb b7 ed a1 3d cd 39 a9 3e
       -0.059550367 -0.0023800237 0.07906669 0.3305191
000200 71 c5 65 3e 2e d7 e1 bd c9 c4 01 3c b5 a1 12 3e
       0.22438599 -0.110273704 0.007920452 0.14319499
000210 d9 4e c9 3b 63 02 bb 3d 8c 6a 91 3d 0d d7 cb 3d
       0.0061434326 0.091313146 0.071004 0.09953127
000220 be c6 e1 3d 28 09 b3 3d 48 ea f5 bd 3c b5 c3 bd
       0.11024235 0.08741981 -0.12007576 -0.09556052
000230 e4 4d 25 be 46 1f 7c 3d 7f cb d3 bd b6 88 18 3d
       -0.16142994 0.061553262 -0.10341548 0.037239753
000240 b8 17 b5 bc 7b 0c 84 be f2 25 47 be b3 b5 42 3c
       -0.022106037 -0.25790772 -0.19448069 0.011884141
000250 e4 54 87 bd f3 53 80 3d 21 eb 44 bd cd b1 10 be
       -0.066079885 0.06266012 -0.0480758 -0.14130326
000260 0c 62 d7 3c d8 5a d8 bb 95 72 35 be 05 b8 9d b9
       0.02629187 -0.0066026263 -0.17719491 -0.0003008248
000270 1f 18 21 3d 07 1d e4 bd 8c 03 8a 3d b0 23 dc 3c
       0.039329644 -0.11138349 0.06738958 0.026872486
000280 dd 58 bb bd a9 c7 a4 bd a6 67 26 bc d4 76 25 3e
       -0.09147809 -0.08045895 -0.010156548 0.1615861
000290 ac 1d 4a 3c 54 3b 64 bd f5 7e 32 bd 39 f0 cc bc
       0.012336176 -0.055720642 -0.043578107 -0.02501689
0002a0 31 e2 c6 3d 19 47 57 3c ea 2a a4 3d 9f af 90 3d
       0.09711111 0.01313951 0.08015998 0.07064747
0002b0 b8 41 11 bc c3 e4 25 3e c0 1e 9d 3d 13 94 01 bd
       -0.008865766 0.16200547 0.07671881 -0.031635355
0002c0 ab 62 bf 3c 6c 10 30 3c 15 51 8e 3d dd 1b cd 3c
       0.023362478 0.010746103 0.06949059 0.0250377
0002d0 63 da e2 3d b3 6d 59 be c4 24 56 be 61 a4 e5 bc
       0.1107681 -0.21233253 -0.20912462 -0.028032484
0002e0 cc d7 b1 3c 90 b1 03 3e 42 e0 12 3e 18 dd 02 bd
       0.021709345 0.12860703 0.1434336 -0.031949133
0002f0 ef c9 d9 bd 1b 3e 04 be ab 1c 92 3d de ae 2f 3d
       -0.10634219 -0.12914316 0.07134374 0.042891376
000300 48 12 c2 bd 33 42 35 3d 1d 4a 08 bc b7 d4 63 bd
       -0.09476143 0.044252586 -0.008318451 -0.055622783
000310 3c 1f c9 3d 98 e9 21 3e b1 65 28 be 26 38 4f 3e
       0.098204106 0.15811765 -0.16445042 0.20236263
000320 3e d7 35 3e db 4b 35 be d1 28 92 3d 97 8d 8d bc
       0.1775789 -0.17704718 0.07136691 -0.01727943
000330 13 6c 98 bd 3a b9 07 be 7f 0c d2 3c ba f5 23 3e
       -0.074424885 -0.13254252 0.025640724 0.16011706
000340 ca 93 74 3e bb f6 72 3e 25 53 b2 bd 99 39 15 3e
       0.23884502 0.23726933 -0.08707265 0.14572753
000350 c9 fc c1 3c d9 ea 04 be d8 d2 1c be f3 12 ad bc
       0.023680108 -0.12980212 -0.15314806 -0.0211272
000360 d8 6c 1f 3d c1 c5 8d bd aa dc 87 be ea 9a a0 bd
       0.03892216 -0.06922484 -0.2653554 -0.078420475
000370 8d 47 c7 3d 65 28 7d 3d 0e b5 1b 3e 50 5d 22 be
       0.09730444 0.0618061 0.15205786 -0.15855908
000380 77 87 51 bd cd 4c e6 ba 8c bc 7d bd a0 a5 02 3e
       -0.05115458 -0.0017570496 -0.06194739 0.12758493
000390 62 38 55 3e 41 f5 ce 3d 0b 54 0f 3e d3 70 45 be
       0.2082229 0.10105372 0.13996904 -0.1928132
0003a0 ae 7a 33 bd 6b de eb 3d 33 20 eb 3d 85 60 5b 3e
       -0.04381817 0.11517032 0.11480751 0.21423538
0003b0 57 72 c7 3d c9 6b 11 3d 86 d6 ef 3c 79 15 ae 3d
       0.097386055 0.035503183 0.029277097 0.08500189
0003c0 0b fb 8b bd c9 6b 1b bd 63 9c d2 3d a3 66 2f bd
       -0.06834992 -0.03794459 0.10283735 -0.04282249
0003d0 ab 14 b8 bc 46 7a 75 3d 5d d0 67 bd 34 97 a8 3d
       -0.022470793 0.059931062 -0.056595195 0.08231965
0003e0 20 be fe bd b4 ad 8d bd b7 cd 32 3d 38 d2 95 bd
       -0.12438607 -0.06917897 0.043653216 -0.07315487
0003f0 3c 7e 87 bd be 1a 0a bd 0d b8 21 3e 16 97 2f 3c
       -0.06615874 -0.03371691 0.15792866 0.010717174

backbone.blocks.0.temporal1.conv.bias f4 [128]
000000 9e 2d e3 bd a3 9a 79 3b cd 72 72 3d 6c 6b c8 3c
       -0.11092685 0.0038086555 0.059191514 0.024465285
000010 cc 2a 1f be 33 e4 cf 3c 68 0d 00 be 2e 6d 18 3e
       -0.1554367 0.025377369 -0.12505114 0.14885399
000020 3c d2 95 bc 60 9a ed ba 96 e7 3b bd 30 c9 21 be
       -0.018288724 -0.0018127672 -0.045875154 -0.15799403
000030 0a ee f3 3d 66 6a 63 3c 62 4f 19 be 8f 23 8c bc
       0.11910637 0.013880348 -0.14971688 -0.0171068
000040 22 33 04 3e f1 45 09 bb 0d 1e d2 bc dd 08 fd 3d
       0.1291013 -0.002094623 -0.025649095 0.12355206
000050 87 28 0b 3e f2 12 89 3d 8b c2 81 bd 8b 77 93 3d
       0.13589679 0.06693067 -0.06335934 0.072005354
000060 4a 4d 82 3d 92 7f 86 bd e2 c5 66 3d ee a3 72 3d
       0.06362398 -0.06567301 0.05634106 0.059238367
000070 a6 29 1c be 21 09 9d 3c 28 6b a1 bd 5e 10 99 3c
       -0.15250263 0.019169392 -0.078817666 0.018684562
000080 a2 a0 08 be 85 46 3d bd a2 ef a0 bd 66 9e 84 3d
       -0.13342527 -0.04620983 -0.07858206 0.064755246
000090 ad 00 86 3d b0 26 b0 3d 87 47 a5 bd e4 39 4a 3d
       0.06543098 0.08601129 -0.080702834 0.049371615
0000a0 50 9b b7 3d 40 5f cd 3d f0 bb 06 3e 2d e9 b6 bd
       0.089651704 0.10027933 0.1315763 -0.089311935
0000b0 78 7f 54 3c 14 91 40 be 20 2b cf bc 30 6f a1 bd
       0.012969844 -0.18805343 -0.025289118 -0.078825355
0000c0 10 8c 20 be 4f 95 ed bd e1 85 88 bd 3b b6 81 3d
       -0.1567843 -0.11600744 -0.066661604 0.06333586
0000d0 d1 66 e2 3c c9 57 80 3d 6e b6 98 3d f5 12 1e 3e
       0.027636917 0.06266744 0.07456671 0.15436919
0000e0 f8 be 74 3d 7e 79 85 bd 06 66 04 be 97 f5 1e be
       0.059752434 -0.065173134 -0.12929544 -0.15523373
0000f0 dc b1 bf 3d 94 dd e8 3d bd 2c 8b bc 6a 91 d5 bd
       0.09360096 0.11370388 -0.016989106 -0.10428126
000100 ed c8 b5 3c cd ce 85 bc 2c 83 94 3d 4f 33 8a 3d
       0.022190535 -0.016333962 0.072515815 0.067480676
000110 fe 7f 70 bc 5e 55 fc 3b 0b e2 0a 3b 1e e4 d4 3d
       -0.014678953 0.0077006062 0.002119186 0.103950724
000120 74 25 3e 3d c6 0b 89 3c d3 07 1b 3d f0 71 19 3e
       0.046422437 0.016729247 0.03784926 0.1498487
000130 c1 0e 74 3d 5b 84 f9 3c 7a 9c ef 3c 41 3b 66 3c
       0.059584383 0.03045862 0.029249419 0.014052213
000140 09 25 a0 3c 6d c2 c6 3d e2 dd 47 3c b2 6b 94 bc
       0.01954891 0.097050525 0.012198897 -0.01811776
000150 55 49 6d 3d 33 34 45 3d d4 55 f4 3c a9 1c c7 3b
       0.057931263 0.048145484 0.029826082 0.0060764146
000160 0e 1d b3 3c 19 40 42 3d 12 e8 e9 3d 11 3e 95 3d
       0.02186444 0.04742441 0.11421217 0.07287229
000170 34 9c 0a 3a da a8 01 3d b3 2f c5 3c 22 d7 fe 3c
       0.00052875583 0.03165517 0.024070596 0.031108443
000180 28 b0 9d 3d 9d 98 b1 3c c3 7f 30 3d a0 29 05 3d
       0.07699615 0.021679217 0.043090593 0.0325104
000190 be 73 ea 3c 5a 11 9b bb 4b 4b 45 3d bd eb a4 3d
       0.028619643 -0.004732293 0.048167508 0.08052776
0001a0 4e dc 1c ba 09 d6 bc 3c 05 72 94 3c cf f1 34 3d
       -0.00059837557 0.023051279 0.018120775 0.04417592
0001b0 76 dc 2c 3d c2 27 ed 3d 26 69 cd 3d 4d 13 31 bc
       0.042202435 0.11579849 0.10029821 -0.010807824
0001c0 0d a6 8e bb d5 f7 ad 3d 6c 5e 26 3c 6c b3 f5 bb
       -0.004353291 0.08494536 0.010154348 -0.0074981954
0001d0 06 f7 73 3d 8b 43 f8 3d b7 7f 9f 3d 65 ee 85 3d
       0.05956175 0.12122258 0.077880315 0.06539611
0001e0 93 2c 1d 3d e8 b0 08 3d f7 b3 a3 3d 8d ea 25 3d
       0.038372587 0.033371836 0.0799331 0.04050689
0001f0 14 a1 22 3c b1 3d 4b 3c 97 64 b9 3d ac ee 62 3c
       0.009926099 0.012404845 0.09052389 0.013850849

backbone.blocks.0.graphconv.mlp.weight f4 [16, 192, 1, 1]
000000 a9 61 f9 bc e7 9f 24 3d a2 fc 70 3c 3c 60 a8 bb
       -0.030442076 0.040191557 0.01470867 -0.005138425
000010 da 8e 4b 3d 2b 8c 52 bd 4f 30 b9 3d ba 5d 9c b9
       0.04969678 -0.051403206 0.09042417 -0.0002982447
000020 e1 72 a5 3b 36 7b 82 3c e6 d9 48 bd 34 16 cd 3d
       0.005049095 0.015927892 -0.04903593 0.100140005
000030 d7 5a ac bc 73 a0 2d bd 39 f1 e0 3c e4 1e 32 3d
       -0.02103941 -0.042389344 0.027458774 0.04348649
000040 05 82 52 3c cb 64 50 bb 67 f0 2f bc 1e 66 c5 3d
       0.012848382 -0.0031798359 -0.010738469 0.09638618
000050 6f 06 1c bd a9 57 90 bc fe aa 13 3c 74 68 7d bc
       -0.038092073 -0.017619925 0.009012936 -0.015466798
000060 17 10 c6 3c 0a a7 b7 bd db ba 72 3b a0 e0 12 bd
       0.024177594 -0.08967407 0.0037037644 -0.03585875
000070 93 29 5f 3d 3c 06 c7 3c b1 df 1f 3d 69 18 f9 bc
       0.054483008 0.024294965 0.039031688 -0.030407147
000080 f1 2e c5 3d d6 09 c1 ba 04 9d 87 bd d7 7e cc b9
       0.09628094 -0.0014727663 -0.06621745 -0.00039004415
000090 b6 1f 8a bd 57 1b 49 3d 07 cd 10 3e 79 ca 44 bd
       -0.0674433 0.04909834 0.14140712 -0.048044655
0000a0 c2 8e 66 3d 00 3b 22 bd 35 84 1a bd e9 b9 25 3c
       0.05628849 -0.039607048 -0.03772374 0.010115125
0000b0 69 e1 d4 bc b4 d1 98 3d 70 86 2f bc 0e bf 0c bd
       -0.02598639 0.07461873 -0.010713205 -0.03436189
0000c0 03 43 f3 bc 40 b4 1e bd 2b 0c e7 3b e2 c2 a7 3d
       -0.02969504 -0.03874612 0.007051011 0.08191468
0000d0 c8 af 9a bb 52 87 8a 3d 37 b4 c8 bd bc 1b 7a 3d
       -0.004720662 0.067640916 -0.09799998 0.061061606
0000e0 f3 a4 2b bd 74 bd 6a bd 92 04 d9 3c 84 22 33 bd
       -0.041905355 -0.057309583 0.026491437 -0.04373409
0000f0 d3 94 96 38 52 83 fa bb 6b c2 06 be 7c ed 8c bd
       7.180278e-05 -0.007645049 -0.13160102 -0.06881234
000100 49 cb b6 3c 86 e0 bb bc 3e 4e bd bc 2a 3a 77 3d
       0.02231373 -0.02293421 -0.023108598 0.060358204
000110 78 bd 89 3c bf 64 6a 3d be a0 67 bd 95 b7 f1 bc
       0.016813979 0.057224985 -0.05654978 -0.029506484
000120 f0 2e 08 bc d6 37 df 3b 41 d9 a9 3c 45 f7 b3 bc
       -0.008311972 0.006812076 0.020733478 -0.021968493
000130 c1 35 7e 3d 60 54 4b 3d 82 b7 83 3a 6e e2 86 bd
       0.062062982 0.049641013 0.0010049196 -0.06586157
000140 cc 2d c7 3c 4a 6c a1 3c 75 f4 16 3d 54 49 e4 bc
       0.02431383 0.019704957 0.036854226 -0.027866997
000150 e4 cc 71 3d 7e f7 9e 3a 22 31 e9 3b 81 86 0a 3d
       0.05903329 0.0012128202 0.007116453 0.03381968
000160 62 3c 98 bd f5 8e 92 3d 3c 1b 1e bc d6 ab f8 3c
       -0.07433392 0.07156173 -0.009650048 0.030355375
000170 cb ca 8c bd 7a 80 a9 bc 7e 17 67 bc 15 52 49 bc
       -0.06874617 -0.020691145 -0.014104722 -0.012287636
000180 69 30 31 bd 02 01 d9 3c 2e 12 b0 3d 1c 38 1d bd
       -0.04325906 0.026489738 0.085972175 -0.03838359
000190 11 37 06 3d 7e a2 9e bc ba 4c 01 be 08 2d bb 3c
       0.03276736 -0.019364592 -0.12626925 0.022848621
0001a0 91 3b 1a bb 65 71 c4 3c 3a 91 0a 3c a2 3e ac 3c
       -0.002353404 0.023979852 0.008457476 0.02102596
0001b0 85 e9 1b 3d df 83 5c bd 79 a2 b5 3c aa 5e 80 3d
       0.0380645 -0.0538367 0.0221722 0.06268056
0001c0 80 8f d4 bb 84 22 82 bc 2f 79 34 bd be 12 2e bd
       -0.006486833 -0.015885599 -0.044060882 -0.042498343
0001d0 17 e7 50 3b a6 d9 19 bb a4 f8 85 3d 96 4c 40 3b
       0.0031876022 -0.0023475676 0.06541565 0.0029342524
0001e0 13 3a 2e 3c 35 1c 95 3d 81 d1 1e bd c4 15 86 3c
       0.010633963 0.07280771 -0.038774017 0.0163678
0001f0 de 55 f5 3b eb fa 4d 3c f4 31 0c 3e f7 e0 3b 3c
       0.007487043 0.012572031 0.1369093 0.01146721
000200 19 06 1c bc 67 fe c2 3c 0c 2e ec bb 88 be 2a 3d
       -0.009522938 0.02380295 -0.0072076377 0.04168561
000210 69 9b d7 bc aa 31 fa bc 88 e3 03 3d ba 8e 19 3d
       -0.026319223 -0.03054126 0.032199413 0.03748963
000220 a2 aa 1d bd 75 2f 14 bb 25 0b 36 bd 36 39 30 3d
       -0.038492806 -0.0022611294 -0.044444222 0.04302331
000230 64 9a be bc 44 dc 9a bc 0d 41 a3 bc e3 36 a2 3c
       -0.023266979 -0.018903859 -0.01992848 0.019801563
000240 de 5c 08 3d ee 13 4e 3b f6 d3 04 bd d0 cb 40 3b
       0.03329169 0.0031444984 -0.032428704 0.0029418357
000250 6f ab 04 b9 2a 91 9a 3c e6 a2 90 bd 11 6c 84 bc
       -0.00012652365 0.018868048 -0.070623204 -0.016164811
000260 e4 e2 3a 3d 34 e9 11 3d 8a b6 f7 3c 22 65 d1 bc
       0.045626536 0.03562279 0.030238409 -0.02556092
000270 05 12 28 3d 42 f3 e8 3c da f8 ff bc 62 8f c0 bc
       0.04103281 0.028436307 -0.031246591 -0.02350587
000280 2d 12 59 3d 3b bf 08 3c b3 07 7e bd 7a 5f bf 3a
       0.05299585 0.008346374 -0.06201906 0.0014600598
000290 7d 00 15 bc 95 e1 89 bc e0 ae 46 3c e5 b8 78 bd
       -0.009094355 -0.016831199 0.012126654 -0.060723204
0002a0 d0 40 8c bc fb 59 89 bc f5 66 0f 3d e3 1b 9b 3b
       -0.017120749 -0.016766539 0.035010297 0.004733549
0002b0 46 8c 83 bd a7 51 dc 3d df ea 1d 3c 86 87 dc 3c
       -0.064232394 0.107577614 0.009638517 0.026920091
0002c0 22 26 ca 3d f8 b2 18 3d 1f 38 c8 3c 03 50 8a 3d
       0.098705545 0.037280053 0.024440823 0.06753542
0002d0 2c 12 ec bc bb 0c 1d bc 84 e0 f5 bb 9f 50 ff 3c
       -0.028817259 -0.009585555 -0.007503571 0.031166373
0002e0 c7 9c 19 bc f3 c1 b9 3c 7a da bc 3c c8 6f 16 bd
       -0.009375758 0.02267549 0.023053396 -0.036727697
0002f0 96 5e 83 3c 87 e1 44 bd 0d 6a 90 bd c6 b0 c4 bc
       0.016036313 -0.048066642 -0.070514776 -0.024010073
000300 a7 2c 3b 3d 80 80 a0 bd 8b e7 29 3d ca cf 9b 3d
       0.04569688 -0.078370094 0.041480582 0.07607992
000310 60 33 5c bd 8b fe b5 bd 47 27 4b bd d5 03 86 3d
       -0.053759933 -0.08886441 -0.049598005 0.065437
000320 49 8a d6 bd f1 9c 0b 3d e1 48 0b be 3d a9 f8 3c
       -0.104755946 0.034085218 -0.1360202 0.030354137
000330 af 68 27 be 16 18 59 3d a9 4e b6 bc b1 c2 01 3d
       -0.16348527 0.053001486 -0.022254305 0.031679813
000340 d1 da e2 3d ac 1f 06 3e a9 4a 97 bd fb 3a 01 bd
       0.11076892 0.1309802 -0.07387287 -0.03155039
000350 ed da 9f bd 66 f3 2b bd 53 80 3a be a8 b5 35 bd
       -0.07805429 -0.04198017 -0.18213014 -0.044362694
000360 67 65 8c bd 39 ac de bc 24 b6 56 bd b8 45 d6 bd
       -0.068552785 -0.027181732 -0.052419797 -0.104625165
000370 2a 61 68 bc 14 2e 96 bd de 3f d6 bc af 7b c3 bd
       -0.014183322 -0.073330075 -0.026153501 -0.09545075
000380 ea 36 3c 3c 49 91 9d 3d 56 77 62 3c cc 2b 1e bd
       0.011487702 0.076937266 0.013822397 -0.038615987
000390 36 02 2c 3d ab 85 83 3d 9b ae cd 3c ac 1a be 3d
       0.041994296 0.064219795 0.025107672 0.09282431
0003a0 0a 92 0c 3d 81 26 a8 3c df cf a3 3c bb 0f de 3d
       0.03431896 0.020526173 0.019996582 0.10842844
0003b0 f2 e5 8b 3b 6f 21 16 3c bc 16 97 3d 47 2b 17 3d
       0.004269355 0.009163245 0.07377383 0.036906507
0003c0 17 33 e7 3c 76 35 af 3d c6 c6 ff bc 57 22 1f bb
       0.028222604 0.08555119 -0.031222712 -0.0024281943
0003d0 2e b0 10 be 71 40 1d 3e 41 da a2 3d 0c d6 21 bd
       -0.14129707 0.15356614 0.07951785 -0.03951077
0003e0 69 4b 37 3d 23 e3 1b 3d cd 0c 6c bd 15 a7 7b 3c
       0.04474965 0.03805841 -0.057629395 0.01535966
0003f0 39 8c d4 bc d0 8a b9 bd d6 ac 8c bc ae 96 92 3d
       -0.02594577 -0.090596795 -0.017172258 0.07157646

backbone.blocks.0.graphconv.mlp.bias f4 [16]
000000 6a bf d7 bc db 95 05 bd 15 81 1d bd d4 51 1a 3d
       -0.02633639 -0.032613616 -0.03845318 0.037675694
000010 88 f1 b4 bd e7 76 f6 3c fb 48 19 bd 0b 39 f0 bc
       -0.08835131 0.030085994 -0.037423115 -0.029324075
000020 5c af 86 3c ed 30 92 3c fd 23 bb 3d 1a eb 5e 3c
       0.01644104 0.017845595 0.091377236 0.013605857
000030 7d 5e 11 bd e0 0c 3e bd 82 3a 30 3d af a5 80 3c
       -0.0354905 -0.046398997 0.043024547 0.015704004

backbone.blocks.0.temporal2.conv.weight f4 [128, 16, 1, 3]
000000 1b d7 f9 bc 38 4d a3 3d ab b9 89 bd 65 8e 93 3d
       -0.030498078 0.07973713 -0.067248665 0.07204894
000010 6e dc fd bc fd 47 96 3c af 06 69 3c bc 21 50 3d
       -0.030988898 0.018344874 0.014222785 0.05081342
000020 d1 35 91 3c be 9a 94 3d 1e c0 15 3e a7 ef f5 3d
       0.017725857 0.07256077 0.14624068 0.12008601
000030 1a 6d 3e 3d 81 40 34 bd 0d b4 3f bd 57 b6 f8 bd
       0.046490766 -0.04400683 -0.04680257 -0.121441536
000040 2b 59 bf bc 22 af 0c 3d 37 a8 f6 bc 88 ff f3 bc
       -0.023357948 0.034346707 -0.030109508 -0.029784933
000050 c6 a9 be bc a3 be ff bc b8 ca 1a 3d 28 4e 83 3d
       -0.023274314 -0.031218832 0.037790984 0.064113915
000060 4c d7 e1 3c f8 61 94 3d 3b 71 bd bd 50 30 82 bc
       0.027568482 0.072452486 -0.092501126 -0.015892178
000070 0b c2 80 3c c0 5a 33 bd aa 13 74 3d f1 aa 90 3d
       0.015717527 -0.043787718 0.059589066 0.070638545
000080 bc 08 c2 bd e2 73 80 3d 76 bb 86 3c ab a5 23 bd
       -0.09474322 0.06272103 0.01644681 -0.039952915
000090 aa 43 83 3d 79 f5 43 3c 29 5a 13 3e 6b 98 7f 3d
       0.0640939 0.011960381 0.14389862 0.062401216
0000a0 1a 18 2a b9 10 ba a2 bc 79 d8 55 bc dc 45 a4 bd
       -0.00016221442 -0.019864112 -0.013052099 -0.08021137
0000b0 75 34 2d 3d 1b ba 3a 3d 24 0e 27 3d 95 fb d1 bb
       0.042286355 0.04558764 0.04078497 -0.0064081647
0000c0 60 ab 44 3d 22 7a a1 3d be 25 84 3d 12 95 a8 3d
       0.048015 0.07884623 0.06452511 0.08231558
0000d0 4d 79 14 bc 8b 75 a5 bd d0 54 02 3c 0c e1 5f 3b
       -0.0090621235 -0.0807906 0.007954791 0.0034161238
0000e0 09 c6 06 bd 92 cf ee bb 33 f1 25 3e 0e e8 ea 3d
       -0.032903705 -0.007287928 0.16205291 0.11470042
0000f0 d6 7e 6c bd c6 ab b6 bd 49 8f 27 3d af 74 d2 3c
       -0.057738148 -0.08919482 0.04090813 0.025690405
000100 bd ff 3b 3d a3 5a 6b 3d f7 77 74 3c 1b 52 88 3d
       0.045898188 0.057459485 0.01492118 0.066562854
000110 18 75 2e 3d 37 96 aa bd 83 d3 82 3c 20 90 83 bd
       0.042592138 -0.083294325 0.015969997 -0.06423974
000120 2a 6b d6 3c 54 1c 2e 3d 7f d3 36 bb cf e8 22 3e
       0.026174147 0.042507485 -0.0027897058 0.15909122
000130 de 27 21 3e ec f1 9d 3d 15 59 c0 3d 84 33 0f 3e
       0.15737864 0.077121586 0.09391991 0.13984495
000140 a4 af 79 bd f2 de 94 bb 58 2a 0b 3e fa 37 a4 3d
       -0.06095852 -0.0045431787 0.13590372 0.08018489
000150 0a b4 d1 39 93 ce e5 3d 7d 7c 9d 3d d2 27 da bd
       0.00039997726 0.112210415 0.0768976 -0.10652126
000160 e8 88 e3 bd 6b 01 da bd a1 1c 88 3d b1 94 f1 3d
       -0.11110097 -0.10644802 0.066460855 0.11795939
000170 d3 52 51 3d 87 4d 15 3d 00 cb c8 bd d2 0b 81 bd
       0.051104378 0.03645089 -0.09804344 -0.06301083
000180 5b ee 91 b8 36 b1 45 3d 04 d6 87 bd 35 ea 9d bd
       -6.958536e-05 0.048264705 -0.06632617 -0.07710687
000190 96 8c 3c bd ef 6a ce bd e3 1e 20 3d eb be 4e bd
       -0.04603251 -0.1007899 0.039091956 -0.050475042
0001a0 3f 1f 8c 3d 5b 0f 09 3e 01 21 f3 3c 52 66 30 bd
       0.06841897 0.13384764 0.029678823 -0.04306633
0001b0 dd a3 14 be a1 ca eb bd e7 49 92 bb 55 21 b3 3d
       -0.14515634 -0.11513258 -0.0044643763 0.08746592
0001c0 40 7c 6c bd 7c 6e f4 3d 6b f9 63 bb 15 ee af 3d
       -0.05773568 0.11935136 -0.0034786116 0.085903324
0001d0 e2 14 c9 bc 50 00 51 bd f2 66 bc bc bf f7 07 3d
       -0.02454609 -0.05102569 -0.022998307 0.033195253
0001e0 91 50 28 be 88 76 ea bd 55 ba 21 be f9 71 a1 bb
       -0.16436984 -0.11448389 -0.15793736 -0.0049269167
0001f0 f8 4e 10 3e fd 0c 98 3d 02 de a7 bd 05 b7 2b be
       0.14092624 0.07424352 -0.081966415 -0.16769035
000200 5c 69 18 3c a7 62 3a 3d 5e e9 a6 3d 31 ff 93 bb
       0.009302463 0.04550424 0.0814998 -0.004516505
000210 15 ad 19 3e 59 21 06 3e ac 3b 51 3d 8a eb d6 3b
       0.15007432 0.13098659 0.0510823 0.00655884
000220 67 95 d6 3d 43 5f aa 3d 83 02 07 3c 26 77 82 3d
       0.10477715 0.08318951 0.008240345 0.06370382
000230 a2 5c b7 bd 45 28 94 bd d0 44 d8 bd 27 05 0e bd
       -0.08953215 -0.07234243 -0.1056 -0.034672882
000240 fa 37 68 3c e9 57 cc bc 21 fa c2 bd 2b 54 34 3e
       0.014173502 -0.024944263 -0.095203646 0.17610233
000250 b1 32 3a 3d e9 05 c6 3c 3d 28 9c ba ea b9 d6 bd
       0.0454585 0.02417274 -0.0011913847 -0.10484679
000260 1e e6 17 be cb 76 99 3d f1 40 97 3d 9f 2f 19 bc
       -0.14833876 0.07493361 0.073854335 -0.009349733
000270 03 06 17 bc c0 cb f8 bc 04 2d cf bc 90 0c 21 3e
       -0.009217742 -0.030370593 -0.02529002 0.15727448
000280 44 a4 a3 3b f1 94 9a bd d2 97 8b 3d 33 03 b1 b9
       0.004993947 -0.075479396 0.06816067 -0.00033762454
000290 95 01 cb bd a9 5a b1 3d 27 81 c8 3d 91 6f a8 bc
       -0.09912411 0.0865987 0.09790259 -0.020561012
0002a0 a8 aa 31 bc 92 65 b8 3d 56 cc a7 3c 80 1c 6e bd
       -0.01084391 0.09003748 0.020483177 -0.05813265
0002b0 46 aa 21 be 7c 53 f6 bd a6 80 2b 3e a4 0f f5 bc
       -0.1578761 -0.12027642 0.16748294 -0.029914685
0002c0 d7 75 83 bd 50 b0 a5 3c a0 5a 6a 3c 7b 81 54 bd
       -0.064189605 0.020225674 0.014303833 -0.051881295
0002d0 97 85 03 be c9 f2 ba 3c b9 ef b9 bb e6 13 ba bb
       -0.12843929 0.022820847 -0.005674329 -0.0056786416
0002e0 a0 f7 0a be a0 38 0d bd f8 ae b6 ba ad 37 a9 3d
       -0.13571024 -0.03447783 -0.0013937643 0.082625724
0002f0 83 56 90 bc 96 ca df 3c 78 47 91 bd 1b 0d c9 bd
       -0.017619377 0.02731828 -0.0709371 -0.09816953
000300 38 d3 7c bc 00 82 59 bc 22 ac 86 3c c3 8d ba 3d
       -0.015431218 -0.013275623 0.016439501 0.0910907
000310 5d 34 23 bc fb 85 56 bd 86 24 c9 bc fc 2f 60 3d
       -0.009961215 -0.052373867 -0.024553549 0.05473326
000320 d6 02 c1 bb 49 13 02 bc 3a 86 8c bd 0e ee 28 bd
       -0.0058902306 -0.007939168 -0.06861539 -0.04124265
000330 7a 8b a1 3d d3 18 a3 3d 51 6a 55 3d d0 e3 09 be
       0.07887931 0.07963719 0.052103344 -0.1346581
000340 28 06 5e 3d ee 83 c9 bc 26 0c d1 bd d0 d2 7b bd
       0.05420509 -0.024599042 -0.10207395 -0.061480343
000350 68 d7 58 3d bc 39 33 bd c7 c7 f3 bc f0 61 e3 bb
       0.052939802 -0.04375623 -0.029758347 -0.0069391653
000360 5b 03 a0 bd 7a cb 68 bd d8 67 47 3d 51 27 90 bc
       -0.0781314 -0.056834675 0.048683017 -0.017596873
000370 02 29 45 3c bf cf 4b 3c c6 59 ae bb 3e 49 14 3e
       0.012033703 0.012439667 -0.0053207604 0.14481065
000380 a4 01 e5 3d 4b 5c 21 bd 15 e8 41 3d 69 82 29 3e
       0.111819535 -0.039394658 0.04734047 0.16553654
000390 b3 9d 13 bb f9 91 b7 3c 92 ae 8e 3d 1b 75 1d 3e
       -0.0022524416 0.022408472 0.069668904 0.15376703
0003a0 c2 5c 0e 3d c4 bd 8d 3b ab f6 02 3d 7f fe 0f 3d
       0.03475643 0.0043256003 0.031973522 0.035154816
0003b0 40 cd 05 bd af b8 6f 3d 44 9d cd 3d 55 e0 7c 3c
       -0.032666445 0.058525737 0.10039762 0.015434344
0003c0 65 9a b1 3d be 2c c1 3d f8 2b 7b 3d 14 11 11 3d
       0.086720265 0.09432362 0.06132123 0.035416678
0003d0 4c f9 04 3d 84 df 08 bd 8a b4 75 bc 8e 2c aa 3c
       0.03246431 -0.033416286 -0.014996657 0.020773198
0003e0 c0 5f 87 3c 02 73 e2 bc ba 21 a6 bc 36 2b be 3d
       0.01652515 -0.02764273 -0.020279754 0.092855856
0003f0 5e 08 12 bd a0 d5 b4 3d d0 c2 4d bc 74 75 5b 3d
       -0.03565251 0.08829808 -0.012558654 0.05357881

backbone.blocks.0.temporal2.conv.bias f4 [128]
000000 4f d0 53 3d 94 c6 30 bd 22 5f cb bd 25 00 d7 3d
       0.05171233 -0.04315813 -0.099302545 0.104980744
000010 c6 93 27 bb 5c 1b 19 3a d2 a1 64 bc 28 6b b4 3d
       -0.0025570258 0.00058405637 -0.013954597 0.08809501
000020 cf 9b 5c 3d d2 54 0b 3e ad 69 91 b8 85 0c f4 bd
       0.05385953 0.13606575 -6.9338224e-05 -0.119164504
000030 4c 80 08 3e ea e9 f5 3d 4a 81 7d 3d c7 18 a3 bc
       0.13330191 0.12007506 0.061890878 -0.019909276
000040 09 75 94 bd 0b 27 7f 3c a2 f4 86 3d 43 e3 4b 3d
       -0.07248885 0.015573273 0.06589629 0.04977728
000050 f9 d0 b3 3d 5a 98 c3 3c b2 93 8d bd 6b fc ac bd
       0.08780093 0.023876358 -0.06912936 -0.084465824
000060 fe 6b 36 b9 8f c5 3c bd f3 26 41 bd 5c f3 36 3d
       -0.00017397103 -0.046086844 -0.047156285 0.04466568
000070 3e b6 47 3d 25 f6 d6 3d 3e 6a 83 bd 60 52 cf bc
       0.048757784 0.10496167 -0.064167485 -0.025307834
000080 cc 8f b4 3d 33 61 88 3d 8d 4d 02 bd 8b 90 38 bc
       0.088164896 0.06659164 -0.03181224 -0.0112649305
000090 23 06 7a bd 49 1f 0d be f4 c5 9d bb 2f 1d 01 3d
       -0.06104101 -0.13781466 -0.0048148576 0.031521972
0000a0 b4 5a 78 3d 08 d0 7e 3d 0b d5 8a bd de 76 85 3d
       0.060633376 0.062210113 -0.06778916 0.06516813
0000b0 0b 9e c6 3c e1 aa 97 bd ca c5 81 bd 28 33 e4 3d
       0.024245283 -0.074056394 -0.063365534 0.1114257
0000c0 a3 a3 cf 3d a5 7f b3 bd f4 df 3f bd 6e 33 a4 bd
       0.10138633 -0.08764581 -0.046844438 -0.08017622
0000d0 f6 b4 ad bd 91 05 18 3d bd 94 6c 3d 50 ea a3 bd
       -0.08481781 0.037114684 0.057759035 -0.08003676
0000e0 57 7c 5d 3c 98 25 b4 3d cf 0f 27 3d 0e b1 83 3d
       0.013518414 0.08796233 0.04078656 0.06430255
0000f0 18 62 e2 3c c4 d5 3d bd 3c c5 10 3d 36 58 b5 bd
       0.027634665 -0.04634644 0.035344347 -0.088547155
000100 6d e8 02 bb 82 7a da 3d 0d 29 32 3d 6a a2 85 3d
       -0.0019974962 0.10667898 0.04349618 0.06525119
000110 20 ff 84 3c b6 55 bf 3c bd 7c 9b 3d c6 f6 7e 3d
       0.016234934 0.0233563 0.07592151 0.06224706
000120 27 e5 75 3d 81 32 6e bb ac 70 93 3c e7 a5 4d 3d
       0.06003299 -0.003634602 0.017998062 0.050207045
000130 6a 86 dc 3c 66 0f b4 bb 8e ca 48 3d df bc 11 3c
       0.026919562 -0.0054949997 0.049021296 0.008895128
000140 1c 05 87 3d 6c 75 a4 3a 9a a5 67 bc f4 2d 9a ba
       0.065927714 0.0012547201 -0.014138604 -0.0011762963
000150 ca 80 9b 3d 26 d6 d2 3c e2 2e ac 3d c9 bc 91 bb
       0.07592924 0.02573688 0.0840738 -0.004447554
000160 e8 d7 a8 3c 5a e4 1f 3d a4 c2 16 3c 40 0b 89 3d
       0.020610765 0.039036132 0.009201679 0.06691599
000170 ea be 9c 3c d0 98 cf 3c 45 2e 73 3c 9d df b5 3d
       0.019134004 0.025341421 0.0148425745 0.088805415
000180 06 43 04 3d a4 3c e9 bb 90 eb e6 3b 3d ab 9a 3d
       0.03229048 -0.0071178246 0.007047124 0.07552192
000190 8f 5f 9d 3d ba ac 7f bd d5 b8 2d 3c f4 e8 22 3d
       0.07684242 -0.062420584 0.010603149 0.039772943
0001a0 25 89 73 bc 35 7a 43 bd d9 c1 d6 3d 33 81 46 3b
       -0.014864241 -0.047723968 0.10486192 0.003028941
0001b0 09 e6 af 3c f9 c8 b1 3c 3e 9e 7f 3d d7 39 44 3d
       0.021471994 0.021702277 0.06240677 0.047906723
0001c0 93 68 8d 3d 3e b7 39 3d 7e a3 fd ba 4e 0e 86 3d
       0.069047116 0.04534077 -0.0019351093 0.06545697
0001d0 fd d5 a5 3c 02 b5 e8 3b 07 f8 b6 3c 77 6d a2 3d
       0.02024364 0.007101656 0.022335066 0.07931035
0001e0 94 a1 a2 3d 34 67 50 bc 15 94 b0 3c bc 5f 96 3d
       0.07940975 -0.012719918 0.021554986 0.07342479
0001f0 64 7d d1 3c 23 a4 0b 3c 0a b9 f0 3c 8a a6 fe 3c
       0.025572486 0.00852302 0.029385109 0.031085271

backbone.blocks.0.res_conv.weight f4 [64, 6, 1, 1]
000000 eb 59 f6 bd fa 89 7d be a8 68 43 3e 80 fc 50 be
       -0.12028869 -0.24759665 0.19082892 -0.20408821
000010 ae 99 99 be 3d 39 4a 3e 6d 48 41 3e e9 f2 25 bd
       -0.3000006 0.19748397 0.18875284 -0.04051486
000020 d0 03 52 be 82 af c2 bd 74 02 53 be ee b7 81 3e
       -0.20509267 -0.09506132 -0.20606405 0.2533564
000030 73 e6 4c 3e bd b2 ee bd ce a6 92 be bb 4a 11 3d
       0.20009784 -0.11655185 -0.28642887 0.03547166
000040 57 8a 97 be 19 79 a3 bd 43 dc 7d be 89 c3 10 3a
       -0.29597732 -0.07982082 -0.24791054 0.0005522301
000050 a4 d8 30 be b1 91 73 3e 23 89 2d bc 0a 4a 3b 3e
       -0.17270142 0.23786046 -0.010591778 0.18289962
000060 3b a5 8d be 47 6c 28 be c3 76 89 3e f6 8e 7a be
       -0.27665123 -0.16447555 0.2684842 -0.24468598
000070 2a fc c7 3d f4 08 e2 bd 31 40 a0 3e 6f 05 96 3a
       0.09764893 -0.11036864 0.31298974 0.0011445711
000080 16 11 8e 3e 9d 7a 82 be 6c 32 71 3e b4 ba c5 bd
       0.2774741 -0.25484172 0.2355439 -0.096547514
000090 bf ae 81 3d 14 c2 93 3e 7b de 0f bd 09 42 54 be
       0.06332158 0.28859007 -0.035124283 -0.20728315
0000a0 3e 5d 9c 3e d6 ff 79 be ba c6 68 be 34 00 17 be
       0.30539888 -0.24414 -0.22732058 -0.14746171
0000b0 7b 17 76 be 11 98 48 be c3 dc d7 3d de 0d 17 bd
       -0.24032395 -0.19589259 0.10540154 -0.03687846
0000c0 27 9f a0 3c d6 72 df 3d 50 c2 9f 3e 99 59 5e 3e
       0.01960714 0.10910575 0.31202936 0.21713866
0000d0 db c7 03 be 0f 39 ad 3e 64 e6 93 be 89 f2 1c 3e
       -0.12869208 0.33832595 -0.28886712 0.15326895
0000e0 cf 31 c0 3d 1e 7e ac 3d 0c 47 8f 3e 14 56 11 be
       0.093845 0.084224924 0.27983892 -0.14192992
0000f0 bb 8d 0d be a3 23 29 be dd 86 85 be 3f df 28 3d
       -0.13823597 -0.165175 -0.26079455 0.04122853
000100 f6 1b ae 3e ab d2 37 bc ce d4 41 3e 52 e0 1a 3d
       0.34005708 -0.011219661 0.18928835 0.037811585
000110 82 12 65 be 03 e8 47 3c e8 e2 ad 3c 0b 4c 68 3e
       -0.22370341 0.012201312 0.021226361 0.22685258
000120 93 ef cc bb c1 45 f8 3d 49 7a 28 3e be 88 32 3e
       -0.0062541454 0.121226795 0.16452898 0.17434976
000130 57 dc 8a be b9 ac 84 be bd 6a b5 3e 65 7e 51 be
       -0.2712123 -0.25913027 0.35432997 -0.20458372
000140 a7 48 b4 3e 0e 9a b5 be e1 19 45 bc 69 57 66 bd
       0.3521168 -0.35469097 -0.012030096 -0.056235705
000150 c6 27 9b be 2f d2 06 3d be 06 5d 3e 27 34 84 3e
       -0.30303782 0.03291529 0.21584603 0.2582104
000160 ef 61 80 3e 56 85 8f 3e 46 e1 87 3d f9 d9 cc bd
       0.25074717 0.28031415 0.066347644 -0.100025125
000170 3d 2d a1 bd 4f 37 4e be 02 14 50 be 54 81 ce 3d
       -0.07869957 -0.20138286 -0.20320132 0.10083261
000180 bb 8b 38 3e e0 5c bf bd b6 d1 2e be 4d bc 1d 3e
       0.18022053 -0.093438864 -0.17072186 0.15403862
000190 fe 19 77 3d 7c b5 43 be d8 0f b0 3e fb 68 cf bb
       0.060327522 -0.191122 0.34387088 -0.0063296533
0001a0 00 05 60 3e 38 8d 26 3e 43 cb df 3b 57 8f 43 be
       0.21876907 0.16264808 0.0068296506 -0.19097649
0001b0 e5 49 48 3e bb 79 48 3e e2 b0 92 3e 6b 4e d1 3c
       0.19559439 0.19577686 0.28650576 0.025550088
0001c0 b1 68 96 be 3f 4f 95 3d dc e3 b3 be 64 2a 82 3c
       -0.29376748 0.072905056 -0.3513478 0.015889354
0001d0 55 5a 1e 3e 57 93 b9 3e 6a ca a2 3e 89 3b a5 be
       0.15464146 0.36245224 0.31795055 -0.32271984
0001e0 67 e4 9b be ac 72 1a 3e 6b 74 89 3d d8 a5 10 3e
       -0.30447695 0.15082806 0.06711658 0.14125764
0001f0 49 89 bb be b4 22 1a 3e a3 62 cf 3c f5 48 97 bc
       -0.36628178 0.150523 0.025315588 -0.018467406
000200 6e 98 dc 3d f2 15 79 be 57 d3 24 be 58 59 9a be
       0.10771261 -0.24324778 -0.16096245 -0.3014629
000210 88 a8 74 3d 0a c2 f2 bd 00 e6 9e bd 6f dd a0 be
       0.059731036 -0.11853416 -0.07758713 -0.3141894
000220 46 0c d2 bc 56 9c ad be 27 4e 80 3e af f8 9c 3e
       -0.025640618 -0.33908337 0.25059626 0.3065848
000230 b4 e0 86 3e 25 e3 72 be 8b 86 bd bd 26 29 69 be
       0.2634331 -0.23719461 -0.09254178 -0.22769603
000240 16 5c 8e be aa ca 8b bd 76 a1 83 be 96 84 54 3e
       -0.2780463 -0.068257645 -0.25709122 0.20753703
000250 28 a8 7e 3e 94 7f 2f bc d3 d5 af 3e e8 36 4d 3e
       0.24868834 -0.010711569 0.34342822 0.20040476
000260 a8 03 1f be 3b ff 13 3e 1b e8 48 be 7d 5a 7d 3e
       -0.15528738 0.14452831 -0.19619791 0.2474155
000270 0e 58 b5 3e 2f 10 23 bc d2 dd 31 3e 6c bf e1 3e
       0.35418743 -0.009952589 0.17369774 0.44091356
000280 bf 75 5e 3e b1 6e 18 be 61 c0 c6 3e 3b a7 29 3d
       0.21724604 -0.14885975 0.38818648 0.04141925
000290 3d 95 dc bd 2d 79 7c 3e 2a 1a 23 3e 43 dc 87 3e
       -0.107706524 0.246556 0.1592795 0.26535234
0002a0 c1 59 7a be 2d c0 62 be 1f 48 39 3e e8 c0 56 be
       -0.24448301 -0.22143622 0.18093918 -0.20972025
0002b0 51 5a 47 3d d9 a6 88 bd 5c d3 5a 3e 79 f7 dd bd
       0.048670117 -0.06672449 0.2136969 -0.10838217
0002c0 da 36 7b be 1c 60 59 bd 96 5d 1d be df e1 2e be
       -0.24532643 -0.053070173 -0.15367731 -0.1707835
0002d0 78 15 c0 3e e7 84 1e be 87 8f 8e 3e 16 08 49 3e
       0.3751638 -0.15480386 0.27843878 0.19631991
0002e0 2b 76 3f bd 33 e6 93 3e 5c e1 84 be 01 ae 99 3d
       -0.046743553 0.28886566 -0.25953186 0.07503892
0002f0 0c 81 e1 bc 34 a7 d8 be 81 42 ab 3d c6 c5 a2 3e
       -0.027527355 -0.42315066 0.08362294 0.31791514
000300 f3 12 af bd 85 2d 14 3e 50 88 6c be 42 7b a7 be
       -0.08548536 0.1447049 -0.23098874 -0.32711226
000310 89 c1 85 be 4b e3 90 bd 18 56 34 3e 29 b5 67 3d
       -0.26124218 -0.07074603 0.17610967 0.056569252
000320 6a 2d 1c 3c a6 5c fa 3d 98 4a 1a 3e 5c 55 93 bd
       0.009532312 0.122247025 0.15067518 -0.071940154
000330 62 cc 00 bc 3b a9 98 ba f1 77 97 3e 36 54 92 bd
       -0.007861229 -0.0011647114 0.29583696 -0.07144968
000340 4c 01 8d be 01 45 6a 3e 39 8f 87 bd be f2 72 bd
       -0.27540052 0.22877885 -0.066191144 -0.05931353
000350 2c 3b b5 3e c2 e6 a1 bd 4c cd 4b 3d 59 39 88 3e
       0.35396707 -0.07905342 0.049756333 0.26606253
000360 8c 81 bb 3d d9 62 22 3e 92 d1 a1 3e 9c fc 9d bd
       0.091555685 0.1585802 0.31605202 -0.07714197
000370 36 86 59 be 17 cd ad 3e 87 36 dc be 78 2d 7c bc
       -0.21242604 0.33945534 -0.4301035 -0.0153917
000380 eb 39 7a bd dd af d1 be 52 94 47 3d 66 cf c7 3d
       -0.06109039 -0.40954486 0.048725434 0.09756355
000390 6f 13 a5 be a7 d7 6e 3e 19 49 04 be 15 b1 9f be
       -0.3224139 0.23324452 -0.1291851 -0.3118979
0003a0 af cd bf 3e ce e5 80 be 76 8e 85 be 01 24 0f 3d
       0.37461612 -0.25175327 -0.26085252 0.034946445
0003b0 f4 16 e2 3d f0 27 dc bd e4 35 60 be 92 26 1b 3e
       0.11039534 -0.10749805 -0.21895558 0.15151432
0003c0 60 cd c6 3d 55 5c 35 3e 5e f0 4c 3e d2 4f 9b 3e
       0.09707141 0.17711003 0.20013568 0.30334336
0003d0 4f 98 1d 3e 6d 34 65 3e 02 45 15 be 41 58 df 3d
       0.15390132 0.2238328 -0.14577106 0.10905505
0003e0 4c 3b b8 be 59 a2 4b be 02 b1 a0 be ce fd 8a be
       -0.3598274 -0.1988615 -0.31385046 -0.27146763
0003f0 e3 2b de 3d c9 8a af bd 56 b8 cd 3d e2 2f dd 3b
       0.108482145 -0.08571393 0.10044925 0.006750093

backbone.blocks.0.res_conv.bias f4 [64]
000000 a3 fa 3f bd 17 60 74 be e9 94 99 3e 2d 47 09 bd
       -0.046869885 -0.2386478 0.29996422 -0.033515144
000010 97 d4 3d be c6 9c 5f be ba 1c a9 be 52 5a 0e be
       -0.18538128 -0.21837148 -0.3302973 -0.13901642
000020 05 1b b7 3e 59 1d a2 be 6e ac 52 bc 47 2a a0 3e
       0.35762802 -0.31663015 -0.012858493 0.31282255
000030 87 7a b4 be 62 da ac be 39 dd 8b be 36 a6 83 3d
       -0.3524973 -0.33760363 -0.27317217 0.064281866
000040 a0 92 c7 bd 51 52 5e be 62 a5 90 be 84 d1 8a bd
       -0.097447634 -0.21711089 -0.28251177 -0.06778243
000050 b0 9f b7 be f4 fa 12 be 5c 28 8e be bd 86 5f 3d
       -0.3586402 -0.14353544 -0.27765167 0.054571856
000060 17 c9 48 3d 14 53 8d be 4b e5 a9 3e a8 29 19 bd
       0.0490199 -0.27602446 0.3318275 -0.037393242
000070 dc 01 8d 3e 0c 5a 97 3e 59 ed 34 3e 5c b7 6e 3e
       0.2754048 0.29560888 0.17668666 0.23312134
000080 9e 63 77 be a4 8e 93 3d 59 b1 a1 bd 31 6f df bd
       -0.24159095 0.07204941 -0.078951545 -0.1090988
000090 92 b6 8a be ca 39 53 3e 46 51 8f 3c 49 fd 09 bd
       -0.27092415 0.20627514 0.017494809 -0.033688817
0000a0 bd f4 83 3e 31 b1 11 be 57 3a a4 be 9b de d5 3c
       0.25772658 -0.1422775 -0.3207576 0.026107123
0000b0 5c 45 a7 3e 09 8b 0e 3e 15 a6 a5 be b4 77 8e be
       0.32670105 0.13920225 -0.32353273 -0.278257
0000c0 2c be 15 be de 62 0f be 00 7d 61 3c e8 49 11 3e
       -0.14623326 -0.14002559 0.0137627125 0.14188349
0000d0 6f 28 8d 3e 50 70 85 3e ed f2 8b 3e dc 34 be 3c
       0.2756991 0.2606225 0.27333775 0.023218565
0000e0 dc ba c0 3d b0 6d a8 be a2 2d 02 bd c6 c1 4a be
       0.094106406 -0.32896185 -0.0317818 -0.19800481
0000f0 57 d2 6a 3e 87 a6 8c bd 69 e6 11 3e 19 86 ab be
       0.22931801 -0.068677 0.14248051 -0.33500746

backbone.blocks.0.ln.weight f4 [64]
000000 3b 65 4e 3f 53 ac 64 3f 1d 50 64 3f f9 2e 55 3f
       0.80623215 0.89325446 0.89184743 0.832748
000010 fe d2 4a 3f 79 d2 62 3f 33 e5 63 3f 7c 9b 46 3f
       0.792282 0.88602406 0.89021605 0.77581
000020 b1 48 73 3f fc 77 5e 3f 2a 3a 49 3f 2b c9 55 3f
       0.95032793 0.8690183 0.78604376 0.8351008
000030 85 eb 60 3f 02 f3 81 3f eb 06 6d 3f 38 de 51 3f
       0.87859374 1.0152285 0.9258868 0.81979704
000040 ce bf 5a 3f 89 50 75 3f 84 5f 55 3f b5 35 85 3f
       0.8544892 0.9582601 0.8334887 1.0407015
000050 4a 50 6d 3f 51 6b 4d 3f bf 5e 75 3f 07 93 64 3f
       0.92700636 0.80241877 0.95847696 0.89286846
000060 89 06 60 3f 67 fb 60 3f c4 f5 7b 3f 92 8e 76 3f
       0.8750997 0.8788361 0.98421884 0.96311295
000070 83 ee 6a 3f 3a 7d 78 3f fd 87 71 3f 26 92 7c 3f
       0.9177019 0.9706608 0.94348127 0.98660505
000080 a6 eb 59 3f ba 80 4e 3f 72 3a 50 3f 18 67 54 3f
       0.85125196 0.8066517 0.8133918 0.8296981
000090 27 4e 63 3f 57 66 88 3f 83 b8 85 3f 0c bb 59 3f
       0.88791126 1.0656232 1.0446934 0.85051036
0000a0 c5 e2 67 3f e9 8f 5d 3f 47 75 73 3f 75 db 69 3f
       0.905804 0.86547714 0.95100826 0.9135049
0000b0 42 fc 71 3f a9 47 4e 3f 38 c4 68 3f d9 43 4d 3f
       0.9452554 0.80578095 0.90924406 0.8018165
0000c0 21 bc 51 3f 39 04 6e 3f ed f4 56 3f 14 84 51 3f
       0.81927687 0.92975193 0.8396748 0.8184216
0000d0 ff 6e 6a 3f 5a 2b 5e 3f 60 77 5e 3f 7f 11 75 3f
       0.91575617 0.867849 0.869009 0.9572982
0000e0 cc 3b 64 3f 6e 72 62 3f 15 57 46 3f 4c 29 79 3f
       0.8915374 0.88455856 0.77476627 0.9732864
0000f0 b8 1b 51 3f d7 a0 5e 3f 78 5f 7e 3f 43 fb 48 3f
       0.8168292 0.8696417 0.99364424 0.78508395

backbone.blocks.0.ln.bias f4 [64]
000000 d4 65 a7 bc bc 40 a5 bc dd 47 57 3c c1 29 b8 3a
       -0.020434298 -0.02017247 0.013139692 0.001405053
000010 19 b9 37 bc 48 0f 12 bc 86 ba e0 3b da fd 12 bc
       -0.011213564 -0.008914776 0.006858173 -0.008971656
000020 bd 86 59 3d ed 06 c0 bb 7a 09 8d bb c3 0b 7a 3c
       0.053107012 -0.0058602006 -0.004304108 0.015261593
000030 e3 09 14 3c f6 62 eb bc 0d 52 d7 bc e7 13 84 bc
       0.00903556 -0.028733712 -0.026284242 -0.016122771
000040 c1 eb 5f 3c 43 e2 aa 3c a0 f3 4d 3a b4 a1 d4 3c
       0.013667048 0.020859843 0.00078564323 0.025956012
000050 7b 5b 85 bc 70 55 4c 3c 84 44 3a bd 6e d9 18 3d
       -0.016278973 0.012471542 -0.045475498 0.037316732
000060 67 f7 06 bc c6 96 de bc 36 19 a9 3c 6a 30 72 bb
       -0.008237696 -0.027171504 0.020641904 -0.0036955127
000070 ff 21 8d 3c 8b 6b 54 3d 92 01 03 3b b3 4a 99 bc
       0.017228125 0.051860373 0.001998995 -0.018712377
000080 a9 9f c6 bb 5f af f6 3c 39 b4 c8 bb ae 95 b8 bc
       -0.0060615134 0.03011292 -0.006125 -0.02253231
000090 1d 21 5a bd 12 21 7e bd 38 97 8b 3b d8 dc 7f 3d
       -0.053254236 -0.062043257 0.00425997 0.062466472
0000a0 2d 81 23 ba d5 59 04 3d 7e 40 9a bc d6 a3 07 3d
       -0.0006237205 0.032312233 -0.01882958 0.03311523
0000b0 00 6f 5e 3d b8 39 46 bb 6f d3 09 3b 3d e0 f0 bc
       0.054305077 -0.0030246805 0.0021030565 -0.0294038
0000c0 f9 56 48 39 7d 69 5c bc 86 01 a8 3c f0 03 b6 ba
       0.00019105886 -0.013452885 0.020508539 -0.0013886672
0000d0 99 51 8b 3c f8 18 f7 3c 5c c3 a5 3c e3 92 46 3d
       0.017006682 0.030163273 0.020234756 0.048479926
0000e0 98 0f fb 3b 68 c5 d7 bc 51 a7 e5 bc 7c 25 79 bb
       0.007661771 -0.026339248 -0.028033884 -0.0038016727
0000f0 96 84 00 3d d9 b7 52 bc 84 fe b7 3c d8 39 ff bc
       0.031376444 -0.0128612155 0.02246023 -0.031155512

backbone.blocks.1.temporal1.conv.weight f4 [128, 64, 1, 3]
000000 74 38 f9 3c 4f 70 37 3d 27 87 33 3d a1 3d d5 3b
       0.030422427 0.04478484 0.043830063 0.006507591
000010 79 7a 12 3d 16 32 25 3d c9 8f 8d bc 9a 17 a1 3c
       0.03576133 0.04033097 -0.017280476 0.019664574
000020 91 61 00 3d bd 5a 58 3d 10 1c 5e 3d 83 73 5c 3d
       0.031343047 0.05282091 0.05422598 0.053821098
000030 f8 e9 01 bd d8 50 50 bd 08 78 47 bd f6 2c 2c bd
       -0.03171727 -0.05085835 -0.048698455 -0.042035066
000040 c0 26 2c bd 4c c6 53 bd 67 04 11 bd e1 43 64 bd
       -0.042029142 -0.051702783 -0.03540459 -0.055728797
000050 78 ca b8 bd 3e 62 d6 3c a8 f3 03 3c 94 dd 34 bb
       -0.09022993 0.026169892 0.008053698 -0.0027597891
000060 2d 0e fe 3c 16 04 88 ba 0c 4a 62 3d 31 69 79 bd
       0.031012619 -0.0010377194 0.055246398 -0.060891334
000070 6a 3c 49 bd 72 bd 8a bd 2c 4e 18 3d 4a ff bd 3c
       -0.04912988 -0.06774415 0.037183926 0.02319302
000080 37 00 87 3c d4 63 66 3d 58 8e 93 3d 30 a8 91 3d
       0.016479595 0.056247547 0.07204884 0.07112157
000090 ac d3 f4 bd a1 ee be bd d3 56 a5 bd f5 8d 6f bc
       -0.11954436 -0.093228586 -0.08073201 -0.014621248
0000a0 10 c5 be ba e6 d6 fd 3b 63 4f f0 3c f7 25 d4 3c
       -0.0014554579 0.007746565 0.02933473 0.02589701
0000b0 2a a8 a0 3c fd b0 c5 3c 0d d7 10 3d 0c d8 0a 3d
       0.019611437 0.024132246 0.03536134 0.033897445
0000c0 e5 45 11 3c 0c 7f 2c bb 23 c9 cb bb 67 f7 0c bd
       0.008866762 -0.0026320843 -0.0062190457 -0.03441563
0000d0 2e 40 56 bd 31 a6 58 bd 53 e5 33 bd d0 08 40 bd
       -0.0523073 -0.052892867 -0.043919872 -0.046883404
0000e0 9a 34 4f bd 13 72 c2 bc 0f a6 65 bd d1 a6 5a bd
       -0.050587274 -0.023736035 -0.05606657 -0.053381745
0000f0 b1 44 a4 bc 24 20 07 3c 9a a0 b4 bb c9 af b2 bd
       -0.020052286 0.008247409 -0.0055123093 -0.087249346
000100 af 55 b0 bd 83 92 b7 bd 73 77 d8 bc 51 78 67 bd
       -0.08610093 -0.08963492 -0.026424145 -0.056511227
000110 3a 4f b3 bd 96 a2 ac bc e8 e3 ef bc ae 3b af bc
       -0.08755346 -0.02107362 -0.029283479 -0.021390762
000120 e0 2e 60 bb 57 45 29 bc 99 10 89 bc 78 1f fc bc
       -0.0034207627 -0.010331473 -0.016731547 -0.030776724
000130 b9 31 51 bc ac 8d a8 3a 4c 48 6f 3c 1c ec 9d bc
       -0.012768202 0.0012859604 0.014604639 -0.019277625
000140 7b ff 0c 39 f5 f9 59 3d a9 cc 57 3d 56 c1 80 3d
       0.00013446614 0.053216893 0.052685414 0.06286876
000150 8d 90 44 3d 79 05 0a 3d c1 7e 6c 3c b4 a7 3e 3d
       0.047989417 0.033696625 0.014434517 0.046546653
000160 c7 4e 88 3d a3 2b 52 3d 68 94 19 3d 59 c8 54 3d
       0.066556506 0.051311146 0.037495047 0.05194888
000170 3d 56 5b 3d 1c 74 7e 3d 29 02 5b 3d 68 6d 5c 3d
       0.05354904 0.06212245 0.053468857 0.053815275
000180 71 88 02 bd 5d b9 5b bc 10 42 e5 bc dc 2b a6 3c
       -0.031868402 -0.013410893 -0.027985603 0.020284586
000190 63 bf fd 3b df e9 13 bc aa 8b 8e bc 19 b0 e8 3b
       0.0077437623 -0.009027927 -0.017400581 0.0071010706
0001a0 5b 4b aa 3c ac 72 65 3c 7a 97 bc 3b f5 e9 5a 3b
       0.020787885 0.014004391 0.005755362 0.003340361
0001b0 76 ec 68 bd a8 98 71 bd 87 08 16 bd 77 49 93 3d
       -0.05686613 -0.058983475 -0.036629226 0.07191747
0001c0 13 48 71 3d 0e 9f 19 3d 9c 83 c0 bc 8a 6f 61 bd
       0.058906626 0.037505202 -0.023500256 -0.055038013
0001d0 87 99 9f bd 68 cd 2e 3d e4 9f 69 3d 9e 72 69 3d
       -0.07792955 0.04267636 0.05703725 0.056994073
0001e0 94 e5 ca 3c 39 63 38 3b 16 8d 5c 3d 34 00 8d bc
       0.024767675 0.0028135313 0.053845488 -0.01721201
0001f0 74 f4 87 bc e1 b0 0d bd 2f cd 30 bd 64 71 58 bd
       -0.016596057 -0.034592513 -0.04316443 -0.052842513
000200 6e 10 79 bd 13 fd 1d 3d ba 34 63 3c 48 42 47 bb
       -0.060806684 0.03857143 0.013867551 -0.0030404497
000210 98 fe 3a 3c 18 59 f8 bb 35 b7 a7 3b f2 91 80 3d
       0.011413239 -0.00757898 0.0051182755 0.06277837
000220 f8 cc 7b 3d fa 9d 9e 3d 3e c9 82 bd fb 9f 14 bd
       0.06147477 0.077449754 -0.0638604 -0.03628538
000230 7d 14 2c bd f0 34 b5 bc d2 d8 f3 bc 6f 1d 2c bd
       -0.042011727 -0.02211997 -0.029766474 -0.042020258
000240 a2 b5 1f bd b7 cc ec b9 cf e8 c7 3b 30 3b f3 bc
       -0.038991578 -0.00045165952 0.006100751 -0.029691309
000250 5e eb 28 bc 31 3b a8 ba c8 91 a6 bb 8f 12 08 bd
       -0.010310022 -0.0012835023 -0.0050832964 -0.033220824
000260 0a 03 1b bd fa fe 37 3c 09 ed ff 3c 36 a1 ca 3c
       -0.037844695 0.011230225 0.031240957 0.024735074
000270 05 4c de 3c 31 3a b2 3c f0 86 64 3d b6 9a 16 bc
       0.027135858 0.021756263 0.05579275 -0.009192159
000280 00 cb e4 3c 25 97 1f 3d 65 77 14 3d 27 94 ef 3c
       0.02792883 0.038962502 0.036246676 0.02924545
000290 fd 7c 50 3d 58 2d c8 3c 17 74 a4 bc dd 80 18 bd
       0.050900448 0.024435684 -0.020074887 -0.03723227
0002a0 90 d1 37 3b 8d c4 90 bc b2 1f 32 bc c7 ca 57 3a
       0.0028048493 -0.017671848 -0.010871815 0.00082318153
0002b0 2a 07 a6 3c 60 82 65 3c 5b 4f 48 3c 52 b7 79 3d
       0.020267088 0.014008135 0.012225951 0.060965843
0002c0 24 26 75 3d d6 9c 8c bc 73 38 30 bc f7 21 50 bc
       0.059850827 -0.017164629 -0.010755646 -0.01270341
0002d0 75 ba 97 3d 8e f8 f2 3d e2 35 f2 3d c1 e0 a7 bb
       0.07408611 0.11863814 0.118266836 -0.0051232283
0002e0 5c 1a 41 3b e7 66 ab 3c 9b 23 a0 bc a4 90 f1 bc
       0.0029465174 0.020923091 -0.019548228 -0.029487915
0002f0 bb 53 50 bd 98 60 37 bd f5 7d 02 bd 04 52 60 bc
       -0.0508611 -0.044769853 -0.031858403 -0.013691429
000300 28 70 2b 3c 7b 2a c3 3c 0f 00 96 3d e9 a5 a5 3b
       0.010463752 0.023823967 0.0732423 0.0050551784
000310 1d 51 05 3d 3a dd 4b 3a 2b d3 c0 3c a4 b4 c7 3c
       0.03254806 0.0007776801 0.023538193 0.024378128
000320 82 7d 67 bc 06 55 92 3d 4a 6e 0e 3d 9d ac 7c 3d
       -0.0141290445 0.07145123 0.03477315 0.061688054
000330 a6 d2 24 bd 6b de 27 bd 8f 65 db 3c bc 19 9a bd
       -0.040239953 -0.0409836 0.026781825 -0.0752444
000340 9c 15 49 bd 9c 4b 94 bd dc a5 b4 bd 8e b8 29 bd
       -0.049092874 -0.07240984 -0.08820698 -0.04143577
000350 07 c3 88 bd f3 ba 88 bc 6b 4e 01 bd 7d 18 3a bd
       -0.066778235 -0.016690707 -0.031568926 -0.04543351
000360 e8 a3 8d 3d 1d 41 38 3c d5 09 36 3d 4b da 11 3c
       0.06916028 0.011245993 0.04444297 0.008902143
000370 68 c4 50 bc 51 d1 d9 3b f7 0c 41 bc 39 f5 8d bc
       -0.012742139 0.006647267 -0.011782876 -0.017328845
000380 e9 ed b5 bc 39 a6 99 3c b3 6a db bb 40 2d 28 bd
       -0.022208171 0.018756019 -0.006696069 -0.04105878
000390 58 b4 c1 3d 36 aa 9f 3d d2 53 99 3d 39 57 e0 bd
       0.09458226 0.07796137 0.074866906 -0.109541364
0003a0 60 a0 56 bd bd 98 28 bd 03 f5 86 3d aa 2f a6 3d
       -0.05239904 -0.041161288 0.06589701 0.0811456
0003b0 3e 45 d6 3d b8 d2 f6 bc 67 ff 5b bc 1b ca ba bc
       0.10462426 -0.030129775 -0.013427592 -0.02280145
0003c0 9d 74 3c bd fe b1 29 bd 75 b1 b8 bc b7 fe c0 bc
       -0.04600965 -0.041429512 -0.022545556 -0.023558958
0003d0 0c 09 3a 3c fb 75 84 bc b3 05 ec 3b 85 38 47 3d
       0.011354696 -0.016169539 0.007202828 0.048637886
0003e0 71 5c 6f 3d d5 53 a3 3d 29 0c a2 3d c7 6b 77 3d
       0.05843777 0.07974974 0.079124756 0.06040552
0003f0 b3 60 b7 3d 0c a0 af 3d 0d 0b b2 3d d5 b3 5b bd
       0.08953991 0.085754484 0.08693514 -0.053638298
