artifacts/runs/20260210_215633_STGCN_GRU_LSTM/best.pt (torch, 673622 bytes, 29 tensors)

backbone.blocks.0.temporal1.conv.weight f4 [128, 6, 1, 3]
00000000: 6921 88bb 2dfe cabd bf58 283e 0645 d73b
00000010: d499 3dbc 4dff 85bd 65f8 68bd 281f e3bd
00000020: d21a 43bd ce35 39bd b456 7c3d 5c97 84bd
00000030: 2801 cfbc ca68 50bc dd0a 443d 4467 a53d
00000040: f022 c23d 2f5c e83d 706f 573d 06b2 d0bd
00000050: 2fff a43c d819 1c3e 83c8 a6bd d0d0 683e
00000060: 40bd bbbc ad90 e63d 9461 88bd 0356 7c3e
00000070: 85a5 393e df47 4f3e 8339 e23d d04d 243e
00000080: 7d2b afbc 7377 47bc 987a 6b3d 22a6 d63d
00000090: da41 42be 121e 5bbd 14b5 45bd 9183 f9bd
000000a0: a879 d2bd ced4 51be c21b 2d3e 10f2 103e
000000b0: f97c 9e3c 4b71 16be e40c 3fbe 1448 84b8
000000c0: cf15 fa3d 5a99 2cbd 97b8 c03d a598 17be
000000d0: 7e9b 0abb 67a9 9e3d 84f2 113e 6d70 8e3e
000000e0: 618d 563e 81fd e73d 9b31 123d 66e8 e83c
000000f0: 09b3 9e3d 851e 393c 70e9 743d 6ce5 b33d
00000100: aa90 c8bc fb4d 023c b35c 553c 8aa7 293c
00000110: da61 3a3d 048e e4bd ada5 2ebc 300b a0bd
00000120: 7ee8 98bd dba4 9dbd 9266 afbc 7f18 793d
00000130: 4ea3 153e 10d7 183d 9e67 0dbc 898c 163e
00000140: ffd3 e33d a006 4a3d ef55 9e3c a959 fb3c
00000150: 42a0 df3d 5201 f13d 2871 303d ebbc 283d
00000160: 7a73 123e 3fa6 5e3e 9a78 1a3d f923 f93d
00000170: e0f7 1fbe 2732 273d d151 79bd 7edb f4bc
00000180: 7d0b 7d3c 56bb b5bd 01e3 12be 52c4 73bd
00000190: a6ef 083e ed74 ee3d 4e90 d83d 13f6 09bd
000001a0: e030 ee3d 2d66 f93d 56ff 143e 7b75 fe3d
000001b0: f3ce cebd 71eb bebd 7e8e b3bd 5211 97bd
000001c0: 9ad9 b7bd 7a9b 963c f071 18bc e7c0 d3bd
000001d0: 33ed d13d 0c17 ea3c 9261 353d e038 ee3c
000001e0: 7765 843c f15c eebd b221 c6bd 4f4d 433d
000001f0: ba40 74bd c55c f5ba a69c 9c3d f088 a93e
00000200: 7989 673e c613 e5bd 0eab d03b ea08 103e
00000210: 31c1 d13b 0f3d bb3d 496a 903d 12da c93d
00000220: 3674 df3d 8f97 b03d 93ee f3bd f7e7 c1bd
00000230: 618d 24be 2c03 6f3d ff8b d4bd abed 1a3d
00000240: efa3 acbc b74b 84be 2944 48be 384e 613c
00000250: b59c 83bd b5e5 7a3d 6b13 49bd c6d3 11be
00000260: de05 da3c 43a8 d1bb ec48 34be b999 ad39
00000270: 9bbc 273d ab9c e1bd fd68 8e3d b6a2 e63c
00000280: e77b b7bd 2591 a5bd 26ff 3abc 1768 253e
00000290: f7a1 5d3c 199f 63bd 04da 35bd 28b5 d2bc
000002a0: 8600 c93d 17d6 513c 7905 a43d 82e0 8e3d
000002b0: 6fa4 1bbc bd40 253e 3de3 993d dcfb 0abd
000002c0: 58f1 ad3c 552d 153c 32af 8b3d 06aa ce3c
000002d0: 7ad3 e73d 7e4c 59be 53f5 56be ad89 d2bc
000002e0: db56 ad3c 7218 023e 4a1e 133e ea1b 04bd
000002f0: 857e dabd aca7 02be f33a 903d 7eb8 2e3d
00000300: 67f2 c1bd 0612 393d 0e88 00bc 0231 5cbd
00000310: 0a08 ca3d 2ab1 1f3e 6b46 2abe b3ca 4d3e
00000320: fb9d 363e 40ec 34be 4bcd 903d e5a6 92bc
00000330: 0a12 98bd 92d6 07be a51e cf3c a5e7 223e
00000340: c47f 733e d801 723e 31fe b4bd 655a 153e
00000350: cacd c33c d987 06be 7992 1dbe 7791 a0bc
00000360: 86d7 203d c546 8fbd a1c8 87be ab28 a4bd
00000370: dbd0 c33d 4454 743d 87d7 1b3e a3a2 22be
00000380: adc2 54bd 6b49 b0bb aa81 85bd 8025 fc3d
00000390: d029 553e 832a cd3d 06f1 0d3e 0a53 43be
000003a0: 2ea1 2fbd fbd5 ea3d 6495 eb3d 50a3 5c3e
000003b0: bb8a c93d 926f 0b3d 7060 ec3c 1399 b03d
000003c0: 91e3 8cbd 11c3 1fbd 4b73 d03d 5881 41bd
000003d0: 76af dcbc 151d 673d 5103 65bd 4dd9 ab3d
000003e0: 3d4f 00be 04a3 91bd 81b1 2b3d b75f 96bd
000003f0: c8fd 87bd 6877 0ebd 4caf 203e 706b 333c
-0.0041543734 -0.099117614 0.16440104 0.0065695075 -0.01157232 -0.065428354 -0.056877512 -0.11089927
-0.047633 -0.045217328 0.061606124 -0.06474182 -0.025269106 -0.012720296 0.047861923 0.08076337
0.0947932 0.113457076 0.05259651 -0.10190205 0.020141212 0.15244234 -0.08143713 0.22735906
-0.02291739 0.112580635 -0.066592366 0.24642186 0.18129547 0.2024226 0.11046126 0.16045308
-0.021383042 -0.012174475 0.05748996 0.10480906 -0.18970433 -0.053495474 -0.048268393 -0.121832974
-0.1027711 -0.20491335 0.1690512 0.1415484 0.019346701 -0.14691655 -0.18657261 -6.307676e-05
0.12211191 -0.042138435 0.09410208 -0.14804323 -0.002114981 0.07747155 0.14252669 0.2782015
0.2095237 0.11327649 0.03569184 0.028431129 0.07748992 0.01129878 0.059792936 0.08783993
-0.024483044 0.007953162 0.0130225895 0.010354886 0.045503475 -0.111599 -0.010659617 -0.07814634
-0.07466219 -0.07697459 -0.021411214 0.060814377 0.14613077 0.037314475 -0.008630661 0.14702047
0.111244194 0.049322724 0.019328086 0.030682402 0.109192386 0.1176783 0.043076664 0.04119579
0.14301863 0.21743105 0.03771267 0.12165064 -0.156219 0.040819313 -0.06086904 -0.029889818
0.015444634 -0.08873622 -0.14344408 -0.059513398 0.13372669 0.116433956 0.10574399 -0.03368194
0.11630416 0.121776916 0.14550528 0.12424751 -0.10098066 -0.09322251 -0.087674126 -0.073763505
-0.08977051 0.018384684 -0.009304509 -0.103395276 0.1025032 0.028575443 0.044282503 0.029079854
0.016161663 -0.11638821 -0.096743956 0.04768115 -0.05963204 -0.0018719664 0.07647066 0.33112288
0.22611035 -0.11185412 0.0063680476 0.140659 0.006401204 0.091425054 0.07051522 0.09856047
0.10910837 0.086226575 -0.11910739 -0.09468072 -0.16069557 0.058352634 -0.10378265 0.037824314
-0.021074263 -0.25839016 -0.19557251 0.013751559 -0.06426374 0.061254222 -0.049090784 -0.14240941
0.026614126 -0.006398232 -0.17605942 0.00033111664 0.040951353 -0.1101621 0.06953619 0.028153758
-0.08959179 -0.08084325 -0.011413371 0.16152988 0.013527385 -0.05557165 -0.04439737 -0.025721148
0.09814553 0.012807391 0.08008856 0.06976415 -0.009499653 0.16137977 0.075140454 -0.033931598
0.021233246 0.009105046 0.06820525 0.025227558 0.11319633 -0.21220586 -0.20992021 -0.025700415
0.02115958 0.12704638 0.14367023 -0.032253183 -0.10668663 -0.12759274 0.07042494 0.042656414
-0.09470063 0.045183204 -0.007844938 -0.053757675 0.098648146 0.15594926 -0.16628425 0.20096855
0.17833702 -0.17668247 0.070704065 -0.017901847 -0.07425316 -0.13265446 0.025283167 0.15908678
0.23779207 0.23633516 -0.08837546 0.14585264 0.023901839 -0.1313776 -0.15387906 -0.019600613
0.03926804 -0.0699592 -0.26520255 -0.08015569 0.095613204 0.059650674 0.15218936 -0.15882353
-0.05194347 -0.005379846 -0.06518872 0.1231184 0.20816731 0.10017874 0.13861474 -0.19074646
-0.042878322 0.11466595 0.115031034 0.21546674 0.09840914 0.03404195 0.028854579 0.086229466
-0.06879342 -0.03900439 0.101782404 -0.047242492 -0.026939135 0.05642422 -0.055911366 0.08391056
-0.12530227 -0.07111171 0.041917328 -0.07342475 -0.06640202 -0.034781843 0.1569187 0.010950908

backbone.blocks.0.temporal1.conv.bias f4 [128]
00000000: 449e e5bd 688f 593b c211 7c3d e724 d83c
00000010: b0d7 20be 76bd c23c 65e8 fdbd e9fd 173e
00000020: 8e27 99bc 1108 88ba 4782 44bd 008f 20be
00000030: 52e5 f13d 4e6b 5b3c d118 18be 9a93 8bbc
00000040: 71e5 053e be30 4dbb 3e6e e5bc f4a4 fa3d
00000050: bc1b 0c3e 73b5 863d 31e8 82bd 68da 923d
00000060: 3518 843d d712 84bd 0282 5e3d fe1e 703d
00000070: fe56 1bbe cd08 883c fa38 a3bd 74b2 943c
00000080: 77e1 08be 4fdd 3ebd fd2e a1bd 5df7 833d
00000090: b369 833d f548 af3d 2d13 a6bd 62ad 4e3d
000000a0: e75b b83d 494f cf3d 7a02 053e 1f39 b7bd
000000b0: 0910 343c 72d0 3fbe bd83 e2bc 5879 9ebd
000000c0: 0245 20be c9c2 efbd 0cfb 84bd 88d1 7c3d
000000d0: 5980 d63c 273d 7f3d 2692 983d ab6b 1d3e
000000e0: cc5b 713d f464 83bd fde7 04be 8d46 1fbe
000000f0: fe0c bd3d 1fd1 df3d 786d 8abc d516 d5bd
00000100: 9278 ab3c e0bd 8cbc 42d6 923d 8d77 863d
00000110: c4f4 77bc 0590 dc3b 3f48 823a b176 d73d
00000120: 39f1 403d ec2b 783c 3342 1a3d 035d 183e
00000130: 80a7 6f3d 017a f93c ed24 e93c b062 4e3c
00000140: a160 9e3c 013a c13d a3af 363c ff0f 94bc
00000150: b655 703d c676 403d 4466 f53c f25d ae3b
00000160: 5c06 a73c d617 423d c0b3 e43d 0a1d 933d
00000170: 4dd3 d7b9 0b0e f83c a57a ba3c 51a8 fe3c
00000180: 3357 983d d317 b43c 3be6 233d ea52 fc3c
00000190: eda9 de3c c188 80bb e08d 433d 9752 a23d
000001a0: 9a16 04ba a900 bf3c e8da 833c 0d87 323d
000001b0: 13ac 233d c4dc e53d 39ba c73d f8bc 38bc
000001c0: 1b52 e6bb b5df ab3d 59b4 1c3c ca01 07bc
000001d0: 8b34 733d fdb4 f63d c068 9d3d 2132 823d
000001e0: 3276 173d f9b6 043d 914f a33d 903f 1d3d
000001f0: 24ba 0f3c 4b61 393c 5304 b93d 711b 3c3c
-0.112118274 0.003319705 0.061540373 0.026384784 -0.15707278 0.023771983 -0.12397841 0.14842953
-0.018695619 -0.001037838 -0.047975805 -0.1567955 0.118113175 0.013392283 -0.14853217 -0.017038155
0.13075806 -0.003130957 -0.02800667 0.122384936 0.13682455 0.065775774 -0.06391943 0.07170564
0.064499296 -0.06448906 0.054323204 0.058623306 -0.15169904 0.016605759 -0.07969852 0.0181515
-0.13367258 -0.046597775 -0.078702904 0.06443665 0.06416645 0.08558837 -0.08109126 0.05045832
0.09001904 0.10122544 0.12989226 -0.08946442 0.010990151 -0.1873186 -0.027650708 -0.07737988
-0.15651324 -0.11707074 -0.06493196 0.061723262 0.026184248 0.06231418 0.074497506 0.15373103
0.058925435 -0.0641574 -0.12979122 -0.15554257 0.09230994 0.109285586 -0.016897902 -0.104047455
0.020931516 -0.017180383 0.07169773 0.06565771 -0.01513404 0.0067310357 0.0009939744 0.105206855
0.047105048 0.015147191 0.03766079 0.14879231 0.05850935 0.030453684 0.02845999 0.012596771
0.019333186 0.094348915 0.0111502735 -0.018074034 0.05867549 0.04698827 0.02995599 0.0053212577
0.020388775 0.047386013 0.11167097 0.07183273 -0.00041165427 0.030280134 0.02276356 0.031086119
0.07438507 0.021984017 0.040014487 0.030801255 0.027180636 -0.0039225523 0.047742724 0.07925909
-0.0005038768 0.023315744 0.016095594 0.043585826 0.039959025 0.11223748 0.09752316 -0.011275522
-0.0070288307 0.08392278 0.009564483 -0.008240173 0.05937628 0.120462395 0.07685995 0.063572176
0.036977954 0.03240106 0.079741605 0.038390696 0.008772407 0.0113147 0.09034028 0.011481152

backbone.blocks.0.graphconv.mlp.weight f4 [16, 192, 1, 1]
00000000: 1827 f8bc e7f5 243d 4ef2 6e3c cf54 6dbb
00000010: 4d00 473d d0e9 50bd 8757 b23d 1a98 d63a
00000020: 4124 663b 64ab 7d3c 05a9 3ebd 5cb9 cc3d
00000030: 7fd2 acbc 7cc2 2bbd d8c4 df3c 3ee6 313d
00000040: d01a 683c 611e feba 31d1 3fbc c521 c53d
00000050: 1929 18bd 974a 90bc 1a08 cc3b bff0 6ebc
00000060: 4465 c53c 15a3 b4bd 94ef 713b 7182 11bd
00000070: 1da2 663d f0b5 c13c 2775 193d 155f f7bc
00000080: 6f82 c03d b82d 5238 890f 84bd f9fd eaba
00000090: f410 88bd 1756 4d3d 158c 0f3e 014c 49bd
000000a0: c696 673d 9a64 1fbd 2cf3 17bd efe3 c63b
000000b0: 5ff4 cabc 9d41 963d ec6d 37bc bcb0 0abd
000000c0: 9418 f9bc 2cfa 15bd 435b de3b 4fb4 aa3d
000000d0: 10c0 b9bb 7025 8b3d b554 c6bd dca2 723d
000000e0: dbc7 2bbd 6960 6cbd 8286 ba3c c2d5 36bd
000000f0: ccc7 3dbb 1959 07bc 29bc 07be 85bc 89bd
00000100: a5ae b43c 4695 c1bc e55d bdbc 0a85 723d
00000110: 699e 8f3c c03e 693d a32a 5ebd ca36 00bd
00000120: a881 dabb e9fa dc3b aa93 993c fd59 b6bc
00000130: 4398 7c3d dc00 4a3d a739 633a a3bb 88bd
00000140: 5eeb bb3c 2251 933c d1a8 1a3d c7d9 e7bc
00000150: 1650 6f3d 8132 ad3a ba89 273c b676 093d
00000160: f41a 98bd f706 913d 6f53 1bbc 57c1 f63c
00000170: 1ca5 90bd c036 a5bc b936 51bc 2b46 50bc
00000180: 905b 29bd 6d87 ce3c fa3b ac3d 71e9 17bd
00000190: 4d76 fe3c e3f3 a7bc 6963 00be 0215 c53c
000001a0: 8864 2ebb 4186 c13c f611 003c e343 c43c
000001b0: df75 163d 7df1 57bd 09c8 b63c fa8e 803d
000001c0: 0b2d babb e6f4 93bc 6bc7 33bd 2d9c 33bd
000001d0: eaa2 833b 87b7 43bb 857b 843d 5558 a63b
000001e0: 2396 2e3c 0f92 963d 2cac 0dbd ef12 8f3c
000001f0: c439 203c 437d 543c 8417 0e3e 095a 143c
00000200: c9c6 1abc e580 d33c 5f86 e5bb 2bc4 293d
00000210: 54ac d3bc 1320 f5bc b0e1 003d c9d0 243d
00000220: 55a7 24bd 1065 dfba 417f 2ebd 6747 333d
00000230: f989 bfbc 6f50 9cbc 0ea7 9ebc 69ae b03c
00000240: 9d28 0c3d 3be6 bf3b f9d8 06bd 7cd9 8b3b
00000250: 0170 deba 9c85 9b3c d183 95bd 6c6c 84bc
00000260: cdb3 3b3d 4f16 123d fce1 f83c 0373 d1bc
00000270: e2e5 303d 20a1 eb3c 9efc 02bd 73de b6bc
00000280: 1a1f 573d bb1d 123c a83c 75bd 634e 163a
00000290: 2ffd d2bb e099 7dbc cd6d 463c 88c8 7fbd
000002a0: f8c8 86bc 7efc 8ebc b716 133d 3ad9 813b
000002b0: d27c 7dbd 0f49 d93d e646 243c 320e d53c
000002c0: 177c c73d 3927 263d 4a65 c43c 6523 8d3d
000002d0: 66a8 f2bc 6beb 12bc 019f fdbb 14d5 f33c
000002e0: 08c4 1dbc 3160 ae3c 0e98 913c 419c 1cbd
000002f0: 6e7e 643c 26a3 44bd bf86 96bd 7d5c b3bc
00000300: a3aa 303d a091 99bd 5779 343d eeb7 9b3d
00000310: b6ac 4fbd e06c b6bd d877 45bd 961f 893d
00000320: 541b d9bd 7b94 153d a94e 0bbe f70c 0f3d
00000330: 7304 28be 7dc2 533d 68ad 9bbc d81c 0e3d
00000340: a676 e03d a966 063e 817a a0bd 608e ecbc
00000350: c4a8 a2bd 2287 2dbd 79dc 39be 65e7 36bd
00000360: fce0 84bd be25 fdbc f888 51bd b4ee d8bd
00000370: 4fbf 34bc 628a 93bd 5601 dabc 2bca bebd
00000380: 6097 563c 41e7 983d cb57 713c 06b2 26bd
00000390: 52fb 2c3d 49b2 883d ed0e d03c de90 b93d
000003a0: f84f 103d f03a 8f3c 4384 8b3c 1729 d53d
000003b0: ca4e 023b 8c1e 563c 7f45 963d 32a3 193d
000003c0: 50ff d83c d536 b03d 7c71 febc 6eaf 49bb
000003d0: d01d 11be 729d 1b3e 28c3 a13d 72c5 2cbd
000003e0: 0c3f 353d f68e 153d f6d6 64bd cf4a 433c
000003f0: c44c f2bc 6212 bebd 73e3 b1bc 8ff6 903d
-0.030292079 0.040273573 0.014584137 -0.003621388 0.04858427 -0.05100423 0.08708101 0.0016372234
0.0035116824 0.015482757 -0.04654791 0.09996292 -0.021096466 -0.04193352 0.027315542 0.043432467
0.014166549 -0.0019387716 -0.01170759 0.09625582 -0.03714857 -0.017613692 0.0062265517 -0.0145837655
0.024096139 -0.08820168 0.0036916481 -0.03552479 0.056306947 0.023646325 0.03746524 -0.030196706
0.09399878 5.011048e-05 -0.064482756 -0.0017928473 -0.066438586 0.05013093 0.14018281 -0.04914475
0.056540273 -0.0389143 -0.03709714 0.0060696523 -0.024774728 0.073367335 -0.011195641 -0.033859953
-0.030407228 -0.036615536 0.0067857816 0.083351724 -0.0056686476 0.0679425 -0.09684125 0.059237346
-0.041938644 -0.05770913 0.022769216 -0.04463745 -0.00289582 -0.008260989 -0.13255371 -0.0672541
0.022055933 -0.02363075 -0.023116061 0.059208907 0.01753159 0.05694461 -0.05423988 -0.03130225
-0.0066682883 0.006743778 0.01874717 -0.022259707 0.061668646 0.049317226 0.00086679537 -0.06676414
0.02293938 0.017983023 0.037758652 -0.028302087 0.058425985 0.0013213904 0.010225708 0.033560477
-0.07427016 0.070814066 -0.009480341 0.030121488 -0.07062742 -0.020167708 -0.012769395 -0.012712042
-0.041347086 0.02521106 0.08409877 -0.03708786 0.03106227 -0.020502036 -0.12537922 0.024057869
-0.0026610214 0.023623588 0.007816782 0.023958152 0.036733504 -0.052720536 0.022312181 0.062772706
-0.005681639 -0.018061113 -0.04389135 -0.043850113 0.0040172236 -0.002986403 0.06468872 0.005076448
0.010655913 0.07352077 -0.034588024 0.017465083 0.009779397 0.012969318 0.13876158 0.009054669
-0.009446808 0.025818298 -0.0070045437 0.041446846 -0.025839008 -0.02992252 0.031465232 0.040238176
-0.040198643 -0.0017043669 -0.042601828 0.043769266 -0.02338122 -0.019081322 -0.019366767 0.02156754
0.03421842 0.005856303 -0.032921765 0.0042678695 -0.0016970636 0.018984608 -0.073005326 -0.01616498
0.04582577 0.035665806 0.030381195 -0.025567537 0.043187983 0.028763354 -0.031979196 -0.022322869
0.052519895 0.008918221 -0.0598723 0.00057337264 -0.0064388732 -0.015478581 0.0121111395 -0.0624471
-0.016453251 -0.017454382 0.035910334 0.003962663 -0.061886616 0.10609638 0.010026669 0.026007745
0.09740465 0.04056475 0.02397408 0.068915166 -0.029621314 -0.008967261 -0.007739902 0.02976469
-0.009629257 0.021286102 0.0177727 -0.038234953 0.013946159 -0.048007153 -0.073499195 -0.021894688
0.04313148 -0.07498479 0.04406103 0.07603441 -0.05070182 -0.08907485 -0.048209995 0.06695478
-0.106009156 0.036518555 -0.13604225 0.034924474 -0.16407947 0.05169915 -0.019003585 0.034695476
0.109601304 0.13125099 -0.07835866 -0.028876483 -0.07942346 -0.0423652 -0.1815051 -0.04465427
-0.06488225 -0.030901786 -0.051156014 -0.10592404 -0.01103194 -0.07204129 -0.026611965 -0.09315904
0.013097614 0.07465983 0.014730404 -0.04069712 0.042231865 0.0667463 0.025397742 0.09060834
0.035232514 0.017484158 0.01703084 0.10408228 0.0019883388 0.013068806 0.07337474 0.03750915
0.02648893 0.086042084 -0.031059973 -0.003077473 -0.14171529 0.1519678 0.07898551 -0.042180486
0.04424958 0.03651329 -0.055869065 0.011919691 -0.02957762 -0.0928085 -0.021714902 0.07078277

backbone.blocks.0.graphconv.mlp.bias f4 [16]
00000000: e7c0 cebc e776 0dbd 0a37 1abd 8317 213d
00000010: a715 b2bd 4ee0 f03c 738d 1fbd 57af 00bd
00000020: b654 933c 64e3 783c dbd1 bb3d 9960 723c
00000030: 801d 16bd 377f 3ebd 6236 2b3d a69f 773c
-0.025238467 -0.034537222 -0.037650146 0.039329063 -0.08695536 0.029403832 -0.038953256 -0.031417217
0.01798473 0.015190933 0.09170886 0.0147935385 -0.036649227 -0.04650804 0.04179991 0.015113747

backbone.blocks.0.temporal2.conv.weight f4 [128, 16, 1, 3]
00000000: 4075 fcbc 5945 a23d 3168 8bbd 5abb 943d
00000010: e1dd f1bc ae5c 9e3c 9229 733c bb32 593d
00000020: 7e2a 9f3c eb41 9a3d f2c7 173e 1ffb f83d
00000030: 5571 403d e27c 2cbd 6624 33bd b544 fcbd
00000040: 23d7 bdbc f5fc 133d 33ee 01bd 07a3 febc
00000050: ce51 c7bc e090 03bd 6696 1b3d 4469 853d
00000060: add8 dd3c 2d70 963d 8d7b bbbd 0d55 65bc
00000070: c8e3 893c bea8 32bd 87a4 633d b902 8d3d
00000080: a8c7 bfbd bf7e 833d 5dd5 8d3c 63d7 22bd
00000090: 8f28 813d 7c3f 4b3c fce3 153e 898c 863d
000000a0: 8301 2a3b 437f 8cbc 9384 87bc 2c4b a9bd
000000b0: d224 293d ad14 373d 5bfd 223d 8453 d3bb
000000c0: 26ee 413d af63 9f3d b98a 803d 3d0d a33d
000000d0: 4a0d 42bc 5d47 a8bd 874e 033c 950f b93b
000000e0: 7e44 e1bc e093 82bb e9e2 283e 2673 f13d
000000f0: d69a 71bd 233e babd 7cc5 213d 6d9f be3c
00000100: 027e 363d 5276 6e3d d3c8 6a3c 35c3 843d
00000110: 6451 233d f27c a6bd 58fc 8e3c 78d1 7fbd
00000120: 156c d23c 3f91 2e3d 231a faba fc01 223e
00000130: 1faf 203e 7023 9e3d 2df8 c03d a950 0f3e
00000140: fe00 70bd 08d3 93bb 4551 0a3e b6f7 a13d
00000150: a161 d53a b6c0 e73d 49ef a03d 3d23 d3bd
00000160: 5b0e dabd ef2e cfbd a619 863d fb1e ee3d
00000170: d378 4a3d 20c4 143d 1b9a cabd d2bb 81bd
00000180: 914a 413a 0fad 4c3d 7f6d 81bd 2720 9bbd
00000190: e080 3cbd 5f55 ccbd daf8 1e3d 6050 54bd
000001a0: c9fa 903d 27ca 063e 10d5 d83c f6c5 47bd
000001b0: 6f7d 14be de28 f1bd b8d0 fcbb 0351 b53d
000001c0: 9b83 71bd a280 f63d 3ff4 6cbb 8316 ad3d
000001d0: 8c93 c6bc 0499 58bd 404f d5bc 25e1 f23c
000001e0: 4757 24be 0120 e4bd 67d4 1fbe 5086 9cbb
000001f0: c826 123e bfd9 9c3d 3d61 a3bd 45a8 2abe
00000200: dbfd 213c e5a5 2b3d b1b4 a43d 8a15 80bb
00000210: 9110 163e b513 003e a5b4 263d ce9e 353b
00000220: f70c ce3d 76ca 9f3d a71f 1e3c 9507 833d
00000230: 9818 b6bd c1fe 8dbd 35b4 d1bd 38ce fabc
00000240: 5b6c 6c3c ab89 c6bc 3278 c0bd 6946 323e
00000250: 3e43 363d 0ddb bb3c e9dd 873a b793 cbbd
00000260: 86c7 12be 8dee 973d 0a6a 953d b25e 25bc
00000270: 6753 3bbc 0f6c 00bd 8354 d3bc 7548 223e
00000280: be63 e83b 52ed 97bd 7737 8f3d f3e1 003b
00000290: d29b c5bd 5e9e b03d 2e2f ca3d 3127 98bc
000002a0: 120e 07bc 9e0a bd3d 6c45 c13c b63f 76bd
000002b0: 820a 24be a101 fabd 11b7 293e a479 fbbc
000002c0: 21b6 85bd bdcc a93c 48b2 663c 9e68 58bd
000002d0: e7aa f7bd a8cb f33c 3228 e3ba c131 14bb
000002e0: 9ede 09be accc 11bd 0cb2 ebba b4f0 aa3d
000002f0: c32b 7ebc 5aaa c93c fa73 95bd e81e ccbd
00000300: 5963 81bc 97a3 5fbc fde1 813c 6899 b63d
00000310: a1b7 38bc 66e6 5cbd d10c c4bc c3d8 613d
00000320: 01d4 f0bb f0a0 a1bb 7413 84bd 2aa4 14bd
00000330: 6a08 a63d 134b a53d 25e4 553d 42d8 0cbe
00000340: 94e9 583d bad3 e0bc 4cc6 d3bd dc26 80bd
00000350: e5be 543d b954 42bd 15d3 00bd c0ff 0abc
00000360: c00a a3bd 33b1 6abd cea3 473d 9919 8bbc
00000370: 2f22 3b3c 16b6 4b3c a6fb b5bb 6f91 143e
00000380: 4a2a e33d 6ed5 19bd 889e 453d f7c2 293e
00000390: 97fb b0bb 8f87 ad3c 4fa8 953d 02cf 1f3e
000003a0: 6433 163d 90ba 003c b21f ff3c 4879 103d
000003b0: a99b 05bd d4de 803d ee64 d53d 01c2 8b3c
000003c0: 0691 b33d 1c0c c23d 5ee6 7a3d 81ff 0b3d
000003d0: 3e1f fd3c 4e16 10bd 1358 9fbc 4c25 833c
000003e0: 650a 563c 6340 f0bc 2743 a0bc 76b5 c23d
000003f0: 6445 1bbd 4cd9 b03d c39c 71bc 0abd 4e3d
-0.030817628 0.07923383 -0.06806982 0.07262297 -0.029524745 0.019331302 0.014841454 0.053026896
0.019429442 0.07532104 0.14822367 0.121572725 0.04698308 -0.042111285 -0.043735884 -0.12317792
-0.023173874 0.03612991 -0.031721305 -0.031083597 -0.024331 -0.032120585 0.037985228 0.065142184
0.027080858 0.073456146 -0.09154425 -0.0139973285 0.016832247 -0.043617956 0.055576827 0.06885285
-0.09364253 0.06420659 0.017313654 -0.03975619 0.06306564 0.012405273 0.1463775 0.06569774
0.0025940842 -0.017150527 -0.016542709 -0.08266291 0.04129488 0.044697452 0.0397924 -0.006449165
0.047346257 0.07782685 0.06276459 0.079615094 -0.011843989 -0.082167365 0.008014328 0.0056476095
-0.02749848 -0.003984913 0.1649281 0.11789541 -0.058985554 -0.09093883 0.039494976 0.02326938
0.044553764 0.058218308 0.014330107 0.06482545 0.039872542 -0.081293 0.017454311 -0.062455624
0.025686303 0.042618986 -0.0019081276 0.1582107 0.15691803 0.07721603 0.09422336 0.13995613
-0.058594696 -0.004511241 0.13507564 0.07908575 0.0016279706 0.113160536 0.0785814 -0.103094555
-0.10647269 -0.10116374 0.06547861 0.11627003 0.049431633 0.036319852 -0.098926745 -0.06334652
0.0007373477 0.04996973 -0.06319713 -0.07574492 -0.046021342 -0.09977221 0.038811542 -0.051834464
0.070790835 0.13163052 0.026468784 -0.048772775 -0.14500974 -0.11775373 -0.007715311 0.088533424
-0.0589634 0.120362535 -0.0036156324 0.084515594 -0.024240278 -0.052880302 -0.026038766 0.029648373
-0.16048919 -0.11138917 -0.15608369 -0.0047767535 0.14272606 0.07658719 -0.07977531 -0.16665752
0.009887184 0.041906256 0.08042277 -0.0039088177 0.14654757 0.12507518 0.04069962 0.0027713063
0.100610666 0.07802288 0.009651101 0.063979305 -0.0889141 -0.06933356 -0.1023945 -0.03061591
0.014430131 -0.024235567 -0.093979254 0.17409672 0.04449772 0.0229316 0.0010365817 -0.09940284
-0.14333925 0.07418547 0.07295616 -0.010093378 -0.011433459 -0.031353053 -0.025797134 0.15847953
0.0070919683 -0.07418312 0.06993001 0.0019665926 -0.09648861 0.08623956 0.0987228 -0.018573375
-0.008243101 0.09230541 0.023592673 -0.060119353 -0.16019633 -0.12207342 0.1657374 -0.030697651
-0.06528879 0.02072751 0.0140805915 -0.052834146 -0.12093144 0.029760197 -0.0017330705 -0.0022612663
-0.13463828 -0.03559558 -0.0017982139 0.08346692 -0.015513363 0.024617363 -0.072975114 -0.099668324
-0.015794443 -0.013649843 0.01585483 0.08915979 -0.011274249 -0.053930663 -0.023931893 0.05513836
-0.0073494916 -0.0049325153 -0.06449023 -0.03628937 0.081070736 0.0807096 0.05221953 -0.13754371
0.052957132 -0.02744471 -0.103405565 -0.06257412 0.051939864 -0.04744408 -0.031451304 -0.008483827
-0.07961035 -0.057297897 0.0487402 -0.01697998 0.011421724 0.012433549 -0.0055536805 0.14508604
0.110920504 -0.037557058 0.04824689 0.1657828 -0.0054010856 0.021182803 0.07307493 0.15606311
0.036670104 0.00785698 0.031143043 0.035271913 -0.032619152 0.06292501 0.104196414 0.017060282
0.087678954 0.09474966 0.06125485 0.034179214 0.030898686 -0.03517752 -0.019451177 0.016008995
0.013064002 -0.029327577 -0.01956327 0.09507267 -0.037907973 0.08635196 -0.014746848 0.05047325

backbone.blocks.0.temporal2.conv.bias f4 [128]
00000000: 72af 583d ca46 33bd 752a cbbd 9fb6 d63d
00000010: aa51 76ba d215 863a e472 65bc e473 b33d
00000020: 74d9 5d3d b855 0c3e caf4 12ba 8419 f6bd
00000030: 6ea4 093e 0d46 f53d 0d60 803d 9864 aabc
00000040: 11c2 96bd 3deb 803c 5767 883d 401f 523d
00000050: 7ab0 b53d f820 c23c 13db 8cbd 0228 abbd
00000060: 29e1 0dba 5ab9 43bd 6d39 40bd deca 323d
00000070: 7599 493d 6a83 d43d e5e5 7fbd fcf1 d0bc
00000080: 1cee b73d 294f 853d 1283 f8bc 5bdb 17bc
00000090: 6402 79bd e71e 0dbe 52d4 84bb be4d f63c
000000a0: 3b46 753d f25e 7b3d 9a19 8cbd 6472 833d
000000b0: 84d7 cb3c 8023 95bd 1c7f 81bd c525 e23d
000000c0: 6cdf ce3d 1e20 b4bd 6704 38bd 2b10 a7bd
000000d0: ee83 b0bd 70ff 123d 579a 613d 724d a5bd
000000e0: eab9 733c cf02 b43d 72b6 283d e23f 843d
000000f0: 04d9 e13c ecf1 3ebd 4cd0 123d e35c b5bd
00000100: 9eb5 6438 dd36 d83d ce40 2a3d 0ba0 853d
00000110: 5857 9d3c 67c7 b73c bb76 9d3d 66f2 833d
00000120: 4817 623d 8db3 37bb f1bf 763c 9771 543d
00000130: 544d da3c 54a8 5bbb 37a6 463d e7e4 213c
00000140: d955 833d e6e0 5a3b eaba 6bbc a394 abb9
00000150: 4b23 a13d 0362 b83c 49bb a73d 4cf1 6bbb
00000160: 70d8 903c 301c 223d bb5b 3f3c 6ead 863d
00000170: 5200 a43c 72f4 bb3c f780 7c3c 7cb9 b53d
00000180: 6969 033d fe7d 21bc d7ce c63b 20c3 943d
00000190: 42c0 9d3d 1c36 82bd ecb7 3b3c 43b6 2a3d
000001a0: 516d 51bc 56a2 54bd 166b d03d b63d b83a
000001b0: b26c b13c 1907 ba3c 2d12 793d d124 4d3d
000001c0: fe9f 8b3d 8112 393d 551d c6b8 0f75 833d
000001d0: 39c8 ad3c 5577 f63b c6aa d13c de3f a83d
000001e0: b6f1 a03d 6cac 56bc 8f3e dc3c d15d 943d
000001f0: 61ec ce3c df06 5a3c 104a ee3c 2cfc e33c
0.052901693 -0.04376868 -0.099202074 0.10484051 -0.0009396324 0.0010229892 -0.014004443 0.08762339
0.054162458 0.13704574 -0.00056059344 -0.120165855 0.13441631 0.11976252 0.0626832 -0.02079992
-0.07361234 0.01573717 0.066603355 0.051299334 0.08871551 0.023697361 -0.068777226 -0.0835724
-0.00054122746 -0.047784187 -0.046929765 0.0436505 0.049218614 0.10376628 -0.062475104 -0.025506012
0.08980963 0.06509239 -0.030335937 -0.009268607 -0.060793296 -0.1378132 -0.004053631 0.030066367
0.05988143 0.061369844 -0.068408206 0.06418303 0.02488304 -0.07282162 -0.06323072 0.1104236
0.10101208 -0.08795188 -0.044926073 -0.08157381 -0.086189136 0.035888135 0.05507883 -0.08071412
0.014875868 0.08789598 0.04118962 0.06457497 0.027569301 -0.046617433 0.03584318 -0.08855607
5.452858e-05 0.10557339 0.04156571 0.065246664 0.019206688 0.02243395 0.07688662 0.06442718
0.055197984 -0.0028030605 0.015060411 0.05186614 0.026648201 -0.003351708 0.04849836 0.009881235
0.064128585 0.003339821 -0.0143878255 -0.00032726405 0.0786806 0.022507673 0.08190019 -0.0036001978
0.01768133 0.039577663 0.011679585 0.06576048 0.020019684 0.022943709 0.015411607 0.08873269
0.03208295 -0.009856699 0.0060671377 0.0726378 0.07702686 -0.06357977 0.011457425 0.041677725
-0.012782411 -0.051912628 0.10176675 0.0014056477 0.021658275 0.022708463 0.06080835 0.05008394
0.068176255 0.045183662 -9.446839e-05 0.064188115 0.021213638 0.0075215497 0.025594126 0.08215307
0.07858603 -0.013102632 0.026885299 0.072444566 0.025259199 0.013307302 0.02908805 0.027830206

backbone.blocks.0.res_conv.weight f4 [64, 6, 1, 1]
00000000: 9408 f6bd 7020 7dbe bf22 443e 5054 52be
00000010: ebe2 97be 21de 4b3e a0a8 403e 37b2 27bd
00000020: ef5e 52be 2fb9 c2bd 3ef1 4ebe ce02 823e
00000030: 8723 4d3e 1fb6 e8bd 349c 93be 8300 193d
00000040: 9be8 99be b74c a5bd 79e2 7dbe 09f2 04ba
00000050: d151 31be 5b5f 713e 6422 06bc 2983 3d3e
00000060: c21c 8ebe b4c2 29be 25da 893e bb06 7bbe
00000070: 2fae cf3d aa04 e2bd 99e5 9f3e 1e5d a83a
00000080: 054b 8e3e 64c2 82be 6e95 733e e8c5 c6bd
00000090: 3d72 7d3d 5012 933e 9300 03bd b937 53be
000000a0: b33c 9c3e a260 7abe 60d9 68be 4654 19be
000000b0: e79e 75be 83a9 4abe 9040 d23d 1364 11bd
000000c0: d242 a73c 4bb5 e53d 21d9 9e3e dc29 613e
000000d0: 4157 0bbe 96f1 ad3e 9455 93be f8f5 1c3e
000000e0: 2cfa c23d 9e6f ac3d 5736 8e3e 7485 14be
000000f0: 3d21 0dbe 8981 2abe 7c46 85be 5cce 273d
00000100: a5be af3e 89a4 31bc 8ed0 413e 4e8f 153d
00000110: 812e 68be cb4f 4c3c a51d a43c c906 693e
00000120: 8078 8abb b79a fe3d abb8 293e 6b9a 333e
00000130: 1265 8bbe 0d89 84be 2c80 b53e ee10 51be
00000140: c57c b43e c537 b5be 992e 0cbc db8c 5bbd
00000150: b44b 9abe dd16 f93c 0a5c 5c3e 0d0f 843e
00000160: 5902 803e 8831 8c3e 5a56 843d ded7 ccbd
00000170: cce1 a2bd 1d66 4dbe 8960 52be b93d ce3d
00000180: 7e4a 393e feee bdbd 08b1 2fbe 1e8c 1c3e
00000190: 93b9 843d 39d0 42be 5c1a b03e 0bd6 a9bb
000001a0: 42d3 5f3e 0345 253e 9e0c e13b 8e11 45be
000001b0: 624d 4a3e 745e 493e 839f 913e 2af4 bf3c
000001c0: 90b1 95be 4831 943d 0c5b b3be 2536 913c
000001d0: b8f1 1e3e 0948 b93e 24fc a03e 8500 a6be
000001e0: 70fd 9bbe 9d59 1a3e aa8a 8b3d 8ea6 123e
000001f0: a250 babe a922 193e e41c c93c 6ab3 8bbc
00000200: b6eb de3d fbe8 78be 6f86 25be ac24 9abe
00000210: e793 6f3d 02d7 f5bd 467c 9cbd ffb9 a0be
00000220: a245 b1bc f961 adbe 2692 803e b3c3 9e3e
00000230: d220 873e 973d 72be 6f99 c1bd cb72 68be
00000240: 0398 8ebe 4411 8dbd b1a0 83be bf80 533e
00000250: 3da7 7d3e 69db 36bc 86d0 af3e 4d5b 4d3e
00000260: dffb 1ebe 9d8b 143e 97c0 45be c346 7c3e
00000270: 9816 b53e 5c99 ddbb 8175 313e cf53 e23e
00000280: c9e2 5b3e aee4 17be 3002 c73e 8b06 293d
00000290: f91a e1bd 6f03 7d3e 7eba 223e 5024 883e
000002a0: de6c 7cbe 3a32 62be 9cdd 393e 58a7 56be
000002b0: 50ff 3e3d da0c 84bd eab9 5a3e d117 dfbd
000002c0: aede 7cbe b194 5abd b76c 1ebe 0ab3 2dbe
000002d0: 9cfc bf3e 9ccc 1cbe 3087 8e3e 160c 493e
000002e0: 175e 43bd c44f 953e b439 85be baa2 933d
000002f0: b82c ebbc e2fa d8be 5871 a63d 8df2 a13e
00000300: f535 b1bd 8a9e 133e b431 6cbe 77f0 a7be
00000310: 060c 86be bf89 91bd 079c 343e f817 5e3d
00000320: 9fd5 573c d858 fa3d 03d2 1e3e ac75 95bd
00000330: 4ccc 03bc 519b baba c395 973e 6e8c 8dbd
00000340: 56e2 8dbe 1d66 6a3e 220c 86bd 66fb 71bd
00000350: 9b78 b53e 7865 a4bd 56d4 543d f51f 883e
00000360: b806 bb3d 8e5d 213e 8bae a13e 2dad 9cbd
00000370: ac35 58be 0719 af3e 78d6 dcbe 6432 91bc
00000380: c593 7ebd 23a7 d1be 9e92 493d 17e7 c93d
00000390: 1991 a4be a8e6 6d3e 045e 03be fd9a a1be
000003a0: b07f bf3e dab7 81be ee5e 86be 0315 fb3c
000003b0: f39c e13d 8b62 ddbd eb87 5fbe 8328 1b3e
000003c0: a4c9 c53d 6d74 373e cbff 4b3e 9e8b 9c3e
000003d0: 42a0 133e 0729 633e 79ea 13be 8dde e23d
000003e0: c2a3 b6be 041f 4bbe 0b27 a1be 7728 8abe
000003f0: 87df e03d 73e6 b2bd 95da d03d 284e ec3b
-0.12013355 -0.24719405 0.1915388 -0.20539975 -0.29665312 0.19908954 0.18814325 -0.040941443
-0.20544027 -0.09507977 -0.20209214 0.25392765 0.20033084 -0.11362862 -0.2883011 0.037354004
-0.30060276 -0.08071273 -0.24793424 -0.00050714664 -0.17316367 0.23571531 -0.00818691 0.18507065
-0.27756315 -0.1657818 0.26924244 -0.24514286 0.10140645 -0.11036046 0.31229857 0.0012845134
0.2779161 -0.25538933 0.23787472 -0.09705716 0.061876524 0.2872491 -0.03198297 -0.20626725
0.3051506 -0.24450925 -0.22739172 -0.14973554 -0.23986398 -0.19791226 0.102662206 -0.03549583
0.020417605 0.112162195 0.3102503 0.21988624 -0.13607503 0.33973378 -0.28776228 0.15328205
0.09520373 0.08419727 0.27775833 -0.14504033 -0.1378221 -0.16650976 -0.26030338 0.040968284
0.34325138 -0.010842451 0.18927214 0.03651362 -0.2267399 0.012470196 0.020033667 0.22756495
-0.0042257905 0.12431853 0.16574351 0.17539375 -0.27225548 -0.2588581 0.3544935 -0.20416614
0.35251442 -0.3539411 -0.008556032 -0.053601127 -0.30135882 0.03040641 0.21519485 0.25792733
0.2500179 0.2738154 0.06461783 -0.10002111 -0.079532236 -0.20058484 -0.20544638 0.100703664
0.18094823 -0.092741 -0.17157376 0.15287825 0.06480708 -0.19024743 0.3439511 -0.0051829866
0.21857932 0.16139607 0.006867959 -0.19244978 0.19756082 0.19664937 0.2844201 0.023431856
-0.29237032 0.07235962 -0.350304 0.017726013 0.15521896 0.3618777 0.31442368 -0.3242227
-0.30466795 0.15073247 0.068135574 0.14321348 -0.36389643 0.14954628 0.024549909 -0.017053325
0.10884802 -0.24307625 -0.16164564 -0.30106103 0.05849066 -0.120039 -0.07640891 -0.31391904
-0.021639649 -0.3386381 0.25111502 0.31008682 0.26392227 -0.23656307 -0.09453093 -0.2270004
-0.2785035 -0.06888059 -0.25708535 0.20654581 0.24770828 -0.01116071 0.34338778 0.2005436
-0.15525769 0.14506383 -0.19311748 0.24636368 0.353688 -0.0067626666 0.1732998 0.44204566
0.2147323 -0.14833328 0.38868856 0.041266005 -0.10991473 0.24708341 0.15891454 0.26590204
-0.24650905 -0.22089472 0.18150944 -0.20962274 0.046630204 -0.06447764 0.21359983 -0.108932145
-0.2469432 -0.05336446 -0.15471159 -0.16962829 0.37497413 -0.15312427 0.27837515 0.19633517
-0.047697153 0.2916242 -0.26020586 0.07208772 -0.028707847 -0.42378908 0.08127087 0.31630364
-0.086528696 0.14415947 -0.23065835 -0.32800648 -0.26181048 -0.07106351 0.17637645 0.054222077
0.01317349 0.12223977 0.155098 -0.07297835 -0.008044314 -0.0014236962 0.29606447 -0.069115505
-0.27711743 0.22890516 -0.06545283 -0.059077643 0.35443577 -0.08027166 0.05196031 0.2658688
0.09132141 0.15758345 0.31578478 -0.07650218 -0.21114224 0.34198782 -0.43132377 -0.017724223
-0.062152643 -0.40947828 0.04921209 0.0985853 -0.3214195 0.2323252 -0.12828833 -0.3156356
0.37402105 -0.2533558 -0.262443 0.030649668 0.11016264 -0.10809811 -0.21829192 0.15152173
0.096576005 0.17915507 0.19921796 0.3057527 0.14416602 0.2218362 -0.14444913 0.110776044
-0.35671812 -0.1983605 -0.314751 -0.26983997 0.109801345 -0.08735361 0.10197941 0.0072114654

backbone.blocks.0.res_conv.bias f4 [64]
00000000: a54a 3bbd 2501 75be 2c56 993e 0b7c 0abd
00000010: 22ef 3bbe 5368 5fbe 6244 a9be a171 0ebe
00000020: 6f4a b73e 187f a1be 1869 5cbc 8ca6 9f3e
00000030: 1aea b3be 54d1 acbe b056 8bbe f03a 823d
00000040: 3dbe c9bd 5b70 5dbe bf32 90be dc69 87bd
00000050: 6f07 b7be f06d 12be 9ae5 8dbe af54 613d
00000060: 940f 463d c63b 8ebe 96e3 a93e bb5f 1dbd
00000070: a636 8d3e afb2 963e 98ac 363e 905f 6e3e
00000080: e9c6 75be 77d8 8f3d 3239 9fbd fdce dabd
00000090: fe7c 8abe cf26 533e 3e6a 953c e9fb 0ebd
000000a0: 9c80 833e b45e 12be 2a5f a4be 273d cc3c
000000b0: e89f a73e c23a 0f3e 1871 a5be 3c2a 8fbe
000000c0: 00ef 15be 95be 0fbe 1d96 7a3c e965 0f3e
000000d0: 3764 8c3e ce97 843e 5d76 8a3e 06ff bd3c
000000e0: 956d c33d f23d a8be 48b1 02bd d176 4abe
000000f0: c96b 6a3e acc2 8cbd f337 123e 0a6a abbe
-0.045725483 -0.23926218 0.29948556 -0.033809703 -0.1835294 -0.2181714 -0.33059984 -0.13910533
0.35798976 -0.31542277 -0.013452791 0.31181753 -0.35139543 -0.33753455 -0.27214575 0.06358898
-0.09850738 -0.21624891 -0.28163716 -0.06611988 -0.3574786 -0.1429975 -0.27714235 0.0550124
0.0483547 -0.2777998 0.33181447 -0.038421374 0.27580756 0.294332 0.17839277 0.23278642
-0.2400166 0.07023709 -0.07774581 -0.10684011 -0.27048486 0.20620273 0.018239137 -0.03490821
0.2568406 -0.14293939 -0.32103854 0.024931503 0.32739186 0.13987258 -0.32312846 -0.2796191
-0.14641953 -0.14037545 0.015294579 0.1400372 0.27420208 0.25897068 0.2704343 0.023192894
0.095423855 -0.3285976 -0.03190735 -0.19771887 0.2289268 -0.06873068 0.14279155 -0.3347934

backbone.blocks.0.ln.weight f4 [64]
00000000: d844 4e3f 3fa6 633f 3293 643f e42b 553f
00000010: 0814 4b3f ead2 623f 5d91 633f 6ae1 473f
00000020: 3ced 723f 82ff 5d3f 662b 493f 98bf 553f
00000030: dde7 603f b52a 823f 56a7 6b3f 7b8d 513f
00000040: a4c6 5a3f f854 743f d256 543f 4ed3 843f
00000050: e30b 6d3f 075d 4c3f 6fed 743f c83e 653f
00000060: 9262 5f3f c990 603f 6d08 7c3f 2b27 773f
00000070: 6137 6a3f 8828 783f 2d2a 723f 414a 7c3f
00000080: e517 593f d12f 4e3f 5d55 503f c3ad 533f
00000090: f1c7 633f 7458 883f befe 853f 3bb8 593f
000000a0: 35c4 663f da14 5c3f 2bd0 733f 7aec 693f
000000b0: e30c 723f d891 4e3f 4e14 683f 6f8d 4e3f
000000c0: 46a8 513f ad0b 6e3f d8e4 563f 1e3b 513f
000000d0: a295 6a3f baea 5d3f 4082 5d3f de0a 763f
000000e0: 1a1f 643f 6959 613f aa30 463f d99d 793f
000000f0: cb0c 503f dfb3 5f3f 2ca1 7e3f c231 483f
0.805738 0.88925546 0.892871 0.83270097 0.7932744 0.8860308 0.8889368 0.7807833
0.9489324 0.86718 0.78581846 0.83495474 0.87853795 1.0169283 0.9205221 0.8185651
0.8545935 0.9544215 0.8294498 1.0376985 0.9259626 0.7982945 0.95674795 0.8954892
0.8725978 0.87720925 0.98450357 0.9654414 0.9149075 0.96936846 0.94595605 0.985508
0.84802085 0.8054171 0.81380254 0.82687014 0.8897696 1.0651994 1.0468366 0.8504674
0.9014314 0.85969317 0.95239514 0.9137646 0.94550914 0.8069129 0.9065598 0.8068456
0.8189739 0.92986566 0.8394294 0.8173083 0.9163457 0.8668629 0.8652687 0.9611033
0.8910996 0.88027054 0.77418005 0.9750648 0.8126952 0.87383837 0.9946468 0.78200924

backbone.blocks.0.ln.bias f4 [64]
00000000: cb3f 95bc 75bf 9fbc e787 463c 6524 f33a
00000010: b39b 0ebc 3675 1abc 66ca 053c 3d24 dcbb
00000020: 89c3 543d 5730 b4bb 8b24 80bb ab15 743c
00000030: 7baa 193c 15d4 e6bc 1f47 dcbc 0b5c 76bc
00000040: 4a3a 653c 2c32 a53c 74a5 01ba 1dea c83c
00000050: 1c40 81bc 25ab 413c 2fe1 33bd 6cea 183d
00000060: 0d77 21bc f3ff debc 3373 a43c 9842 83bb
00000070: 9373 903c 3ee2 533d ce0a c63a 6ef9 9ebc
00000080: 3c13 c4bb eb21 f03c 0613 eabb 97f4 a5bc
00000090: 3600 56bd 742b 7abd 866c 7c3b 9bf4 7c3d
000000a0: 101d 88bb c036 fc3c ca6e 89bc bc93 053d
000000b0: 736d 563d 1533 00bb e883 463b 97e7 ecbc
000000c0: 4001 0839 4223 66bc 7dfb b23c 9721 cbba
000000d0: 0148 7a3c 6104 e43c b949 983c dbbd 3a3d
000000e0: de61 f33b 4c00 d8bc a3ff ccbc 73c8 88bb
000000f0: 31b8 ff3c 1196 36bc a821 b73c 2e76 04bd
-0.018218895 -0.019500474 0.012117363 0.0018550275 -0.008704114 -0.009427359 0.008165931 -0.006718187
0.05194429 -0.0054989266 -0.0039106063 0.014897744 0.009379025 -0.0281773 -0.026889382 -0.015036593
0.013990948 0.020165525 -0.0004945614 0.024525696 -0.01577764 0.011820589 -0.043915924 0.037332937
-0.009855044 -0.027221655 0.020074463 -0.0040057413 0.017633235 0.051729433 0.0015109421 -0.019406047
-0.005983738 0.029313048 -0.007143381 -0.020258231 -0.052246295 -0.061076596 0.0038516833 0.06175671
-0.004153855 0.030787826 -0.016776461 0.032611594 0.052350473 -0.0019561697 0.0030291025 -0.028919024
0.00012970436 -0.014046492 0.021848435 -0.0015497681 0.015275956 0.02783412 0.018589841 0.045591217
0.007427438 -0.026367329 -0.02502424 -0.004174286 0.031215759 -0.011144177 0.022354916 -0.032339267

backbone.blocks.1.temporal1.conv.weight f4 [128, 64, 1, 3]
00000000: 89d9 e03c b194 293d 843a 2b3d 6967 f63b
00000010: acd7 113d 6229 243d 6acf c8bc 365b 303c
00000020: 5442 d63c 36e9 643d b193 6e3d 2e4e 683d
00000030: 3598 09bd be88 53bd 8676 4cbd 7107 28bd
00000040: e466 29bd 1a99 54bd d89e 09bd 0701 5ebd
00000050: c309 b5bd b63a e03c eff5 223c 2c4e 06bb
00000060: f13f 093d 7ce0 50b9 4afb 633d 74cb 6ebd
00000070: cbc9 3ebd a3b9 86bd 6895 1b3d 00bb c93c
00000080: 7847 903c 2f33 773d af1f 983d 72e4 933d
00000090: 24df febd bb05 ccbd 71c2 aebd 8b8f 86bc
000000a0: 2562 77bb f634 ba3b 6d32 0c3d 44bf 003d
000000b0: 0282 c33c 9e46 b03c 982e 003d b7c5 fb3c
000000c0: b55b 3c3b 3701 b8bb 9707 fcbb 4179 18bd
000000d0: f983 55bd 5a32 55bd 6086 2fbd 6c3b 3cbd
000000e0: a842 50bd 4436 c4bc c83d 63bd 21e5 4ebd
000000f0: 1424 92bc 38c9 333c b1f1 4abb f392 bbbd
00000100: 779e b8bd c24d bbbd 0d30 f9bc dcb2 74bd
00000110: b4d0 b8bd fffb afbc 2eee f0bc 2406 b7bc
00000120: 27ed 26bb cc6b 10bc 6ae1 83bc 75de ebbc
00000130: f1a5 34bc f0f3 c33a 29cc 7f3c b397 96bc
00000140: 1ac7 d03a 73c2 5c3d b7e1 523d 21c5 7c3d
00000150: e0e0 2a3d 61ba eb3c 6a87 423c 432f 243d
00000160: 9228 793d aa4c 443d c205 2a3d 2941 633d
00000170: 15a9 653d 8e05 883d 7c8d 5a3d d0a1 553d
00000180: 0bc2 08bd 4117 85bc c3c5 f7bc feb2 973c
00000190: aa67 ba3b d7b5 15bc 0001 99bc a40d d63b
000001a0: b20b a53c fe05 4e3c ceb3 a83b 5596 8c3a
000001b0: 8464 66bd 1806 77bd 1025 19bd 23d0 943d
000001c0: 87ad 6f3d 53ff 163d 237f 7cbc c696 3ebd
000001d0: a5c9 92bd e0d8 3d3d 6089 6f3d 6caf 633d
000001e0: 8071 e73c 7b3f ab3b 593f 613d 9ec4 bebc
000001f0: 3de4 adbc 6c47 19bd dbe3 34bd ad16 54bd
00000200: 4bf3 6fbd 97bf 283d 094f 893c ac5f 81ba
00000210: 06b3 3a3c 2436 f7bb be71 873b 7497 843d
00000220: d513 833d f806 a13d ad68 81bd 7626 12bd
00000230: 21d1 2cbd 5fe6 dbbc b227 05bd 026e 2fbd
00000240: 1b79 21bd 50a3 abbb 5e7c 2d3b f48e 03bd
00000250: c8ed 5bbc 19b9 99bb e134 d7bb 71f9 04bd
00000260: 736a 0dbd 3dfe 4a3c 5206 e93c d9f2 b53c
00000270: a1e3 fe3c 927e da3c 686c 773d fc89 43bc
00000280: 4f2c c83c e639 113d 81f4 183d a9d1 e23c
00000290: 4e1c 433d 4937 e03c 04b6 47bc f786 f8bc
000002a0: 1bbc 813b 8709 76bc 0b95 f7bb 88b3 8dba
000002b0: 195a 9a3c 1ef4 503c 1725 3a3c bc61 7a3d
000002c0: bc09 723d d94b 61bc 42e4 17bc 7eba 3ebc
000002d0: 65f1 9b3d 17bb f63d 23ac f33d ae3f 5cbb
000002e0: 2b32 863b 3df3 c23c 5ba3 abbc b813 e2bc
000002f0: c5b7 4abd f3f3 3dbd ff3f 07bd 9ed4 6ebc
00000300: 830a 3d3c f961 cf3c b28f 983d 491f 6a3b
00000310: 8703 fe3c 9614 a1ba 6e6a c43c 747d b83c
00000320: c5d6 80bc cba3 8f3d 5a87 0f3d 727f 803d
00000330: 73ab 20bd f0f1 27bd 4ac1 d63c 5dd1 9dbd
00000340: 2661 4bbd e634 91bd b12b afbd 9704 24bd
00000350: 1af4 85bd 50f5 85bc e37a 00bd cccf 3ebd
00000360: feb5 913d f1c1 653c 051f 453d 5511 3c3c
00000370: 00e3 39bc 7046 fe3b ea6d 29bc 0f7b 87bc
00000380: 25e2 b5bc 6800 a03c 72cc e5bb 713f 21bd
00000390: da9d c23d 798b 9f3d 4c44 963d c8ba e7bd
000003a0: 6801 5fbd 0a1c 29bd b9e7 883d 3f66 a93d
000003b0: dbe6 d43d dfaa 03bd 83ce 7ebc 6130 c9bc
000003c0: ae30 45bd 7661 2fbd 1651 c7bc a87c d1bc
000003d0: 79e1 423c 6de5 44bc f826 4d3b c237 413d
000003e0: ffc7 6f3d eeb3 a73d 79e0 a63d 1792 7a3d
000003f0: d2e0 b63d 9d4d b33d c053 b43d 6143 5abd
0.027447479 0.04140157 0.04180385 0.0075196517 0.03560607 0.04007853 -0.024512965 0.010763934
0.026154675 0.05588647 0.05824632 0.056715183 -0.03359242 -0.05164408 -0.04991772 -0.04102272
-0.04135789 -0.05190382 -0.03359875 -0.0542002 -0.088397525 0.027371746 0.00994633 -0.0020493371
0.033508245 -0.00019920053 0.05565957 -0.058299497 -0.046579164 -0.06578376 0.03798428 0.024625301
0.017612204 0.060351547 0.07427918 0.07221307 -0.124449044 -0.099620305 -0.085331805 -0.016425868
-0.0037747708 0.005682583 0.034227777 0.031432405 0.023865703 0.021518048 0.031294435 0.030733926
0.0028741185 -0.005615379 -0.0076913345 -0.03722501 -0.052127812 -0.052049972 -0.04285276 -0.045955107
-0.05084482 -0.023951657 -0.05547884 -0.050511483 -0.017839469 0.010973267 -0.0030966813 -0.09158888
-0.090146 -0.091456905 -0.03041842 -0.059740886 -0.09024182 -0.021482466 -0.029410448 -0.022341795
-0.0025470944 -0.008814763 -0.016098697 -0.0287926 -0.011025892 0.0014950018 0.01561264 -0.018382883
0.0015928478 0.05389638 0.05148479 0.061711434 0.041718364 0.028775396 0.011873106 0.040084135
0.060829706 0.047924675 0.041509397 0.055482063 0.056069452 0.066416845 0.053357586 0.05215627
-0.03338818 -0.01624644 -0.030245667 0.018517967 0.0056886273 -0.009137592 -0.018677235 0.006532388
0.020147178 0.012574671 0.0051483875 0.0010725955 -0.056248203 -0.060308546 -0.03738886 0.072662614
0.058515098 0.03686459 -0.015411171 -0.046530508 -0.07167367 0.046349406 0.05848062 0.055587217
0.028252363 0.0052260733 0.054992054 -0.023287114 -0.021226997 -0.03742163 -0.044162612 -0.051779438
-0.05858163 0.04119834 0.01676132 -0.0009870431 0.011395222 -0.007544296 0.004133432 0.064742
0.06400267 0.07862657 -0.063187934 -0.03568121 -0.04219163 -0.026843248 -0.03250856 -0.04282952
-0.039422136 -0.005237974 0.0026471834 -0.032118753 -0.013423391 -0.004691255 -0.006567583 -0.03246445
-0.034525346 0.012389717 0.028445397 0.022210525 0.031114401 0.026671682 0.06040612 -0.0119347535
0.02443519 0.035455607 0.037342552 0.027687864 0.047634415 0.027370112 -0.012189392 -0.030337794
0.0039591915 -0.01501692 -0.007555609 -0.0010810951 0.01884179 0.012753515 0.011361382 0.061128363
0.059091315 -0.013750994 -0.0092707295 -0.011641143 0.07614402 0.12047403 0.11898067 -0.0033607292
0.004095336 0.023797626 -0.020951917 -0.027597293 -0.049491663 -0.046375226 -0.033020016 -0.014577059
0.011538151 0.025315272 0.07449283 0.0035724214 0.031007541 -0.001228946 0.02397653 0.022520758
-0.01572741 0.07013663 0.03504119 0.06274308 -0.039226007 -0.041002214 0.026215214 -0.077059485
-0.049653195 -0.07090168 -0.08553255 -0.04004344 -0.06540699 -0.016352326 -0.031367194 -0.04658489
0.071147904 0.01402329 0.048125286 0.011478742 -0.011345625 0.0077598616 -0.010341147 -0.016538171
-0.02220256 0.019531444 -0.007012897 -0.039367143 0.09502764 0.07790274 0.07337245 -0.113149226
-0.0544447 -0.041286506 0.066848226 0.08271455 0.10395595 -0.032145377 -0.015552166 -0.024559202
-0.048142128 -0.042817555 -0.024330657 -0.025572136 0.011894577 -0.01201759 0.0031303745 0.047172315
0.05854034 0.08188616 0.081482835 0.06117448 0.089296 0.08755038 0.088050365 -0.053286914

backbone.blocks.1.temporal1.conv.bias f4 [128]
00000000: 0f61 b83c cdea 18bc 9b0e 60bc 85d1 efbb
00000010: e0af 46bd 6d1a fbbc 1892 49bc 74cc 16bd
00000020: 0391 2bbd 3b98 8f3c db3c 273b 570f eebc
00000030: a9f6 38bd 7642 323c 73bb 153d 5347 6d3d
00000040: 8600 853c 1cee 133c 4653 b43c 9b62 bb3d
00000050: 8d50 82bd 3622 823c 43ba 3fbd c391 fc3c
00000060: f02a 80bd 1a41 063d f4d9 823d 1410 b83a
00000070: fd6c bbbc 7dc3 a63c bf7a b6bc 5917 70bd
00000080: f252 2aba ccf5 693c d783 90bc 6936 da3c
00000090: 580f b23c 0e7f aabd d7c8 293d 2208 c13c
000000a0: dbd4 4cbd edfd 773d 4498 85bd dc94 da3c
000000b0: 4850 743c 8da4 e53c d196 e33c 1fb1 203d
000000c0: 0b16 da3c ab91 233b dc5a 3b3d f49a 313c
000000d0: db91 fd3b eb30 273c 529a bc3c a848 8bbc
000000e0: 917d 5b3c ded0 9fbd dccb 373d c473 0fbd
000000f0: 1dc7 003d 5484 5bbb 33d5 443d b683 63bd
00000100: 742e 653c 8f54 ca3c 8a81 6f3a 79c2 083d
00000110: 89ca 563d 6ddd 903d 1f8b d33c 08ae 013b
00000120: 1ffb ae3c c715 f13c 2bb0 ba3c 463e 563d
00000130: 452e 08bb af77 423d 688c 873c 2bf9 033e
00000140: 6ba1 5a3d 2094 423d 6d39 c93b d848 0a3d
00000150: 88e4 4cbc 5b93 3e3d d38a 723c ddd8 9a3c
00000160: 223f 7d3c b111 baba aaf3 b93b 79ca bc3c
00000170: cb81 163d 5cf3 9e3c 26e8 023d cdca 16bc
00000180: 0fba a13c 6c08 ca3c 17bd 303c 8058 943c
00000190: a48f e73d e09e 4d3d 8c8f e43a cf4c ca3c
000001a0: 65f4 763c 9fd7 2e3d ba11 6b3c 2512 9e3c
000001b0: 778c 113d b653 cdbb 781b c53c 1070 133d
000001c0: 612d 3a3c 0ff1 21bd 700a 873d 1230 3a3b
000001d0: 4f25 913c 0c2e 7b3d 6f5b fb3c 573b 103d
000001e0: 49cc b7bb 02fc b83b 4dcb acbc 4790 153d
000001f0: eef3 953b 1501 4c3c c332 023d 43ff 533d
0.022507219 -0.009333325 -0.013675357 -0.007318678 -0.04850757 -0.03065225 -0.012302898 -0.036816075
-0.04188634 0.017528644 0.002551845 -0.029060049 -0.04515711 0.010880103 0.03655572 0.05792935
0.016235601 0.009028938 0.022012364 0.09149667 -0.0636302 0.015885454 -0.046808492 0.030831223
-0.0625819 0.03277693 0.063892275 0.0014042878 -0.022879118 0.020356888 -0.022275327 -0.058616016
-0.0006497345 0.014279794 -0.017640991 0.026637273 0.021735832 -0.08325015 0.0414513 0.023563448
-0.050007682 0.060544897 -0.06523183 0.02668231 0.014911719 0.028032565 0.027781876 0.039231416
0.026621839 0.002495865 0.045740947 0.010840166 0.0077383346 0.010204534 0.023022804 -0.017002419
0.013396637 -0.0780351 0.04487215 -0.035022512 0.03143989 -0.0033495622 0.048054885 -0.05554553
0.013988126 0.024698524 0.0009136429 0.03338859 0.052439246 0.070734836 0.025823174 0.0019787569
0.021359978 0.02942933 0.022789082 0.052305482 -0.0020779532 0.04747742 0.016546443 0.12888019
0.053376596 0.047504544 0.006140879 0.033760875 -0.012505658 0.046527248 0.014803606 0.018902237
0.015456947 -0.0014195946 0.005674799 0.023045765 0.036744874 0.019403152 0.031959675 -0.009203625
0.01974204 0.024662219 0.01078727 0.018108606 0.11306694 0.050200343 0.00174378 0.024694828
0.015072917 0.0426861 0.014347488 0.019295761 0.03553435 -0.0062660826 0.02406095 0.035995543
0.011363358 -0.039536532 0.06593788 0.002841 0.017717985 0.06132321 0.030683247 0.03521284
-0.0056090695 0.005645276 -0.021093035 0.036514547 0.004576198 0.01245143 0.03178669 0.05175711
