artifacts/runs/20260209_025423_STGCN/best.pt (torch, 541718 bytes, 27 tensors)

encoder.start.weight f4 [64, 6, 1, 1]
-0.117820375 0.06004022 -0.17202498 0.20897993 0.28339666 -0.23758866 0.37367427 0.09043209
0.29152972 0.06852767 0.17499395 -0.03771367 0.3535796 0.061318982 -0.15612164 0.11586297
-0.17075413 -0.03851717 -0.19157569 0.23159085 -0.2940756 -0.20040172 -0.07783092 -0.22427928
0.05328048 -0.35097674 0.33698392 -0.32203993 0.27470583 0.080781735 -0.14156596 0.23609191
0.03747967 0.297136 0.039565857 -0.1157746 0.15612407 -0.082845874 0.13742715 0.32303828
0.14728959 -0.11247621 0.24118005 0.04125605 0.18156137 -0.21286967 -0.30721503 -0.10611054
-0.32770428 0.31153828 0.087427415 0.120867595 0.121655464 -0.01963126 0.32931828 -0.2452311
0.02595593 -0.17878732 0.09017526 -0.10022936 0.13258298 -0.08251121 0.2964432 -0.22761363
-0.22424974 -0.21200365 0.4089239 0.13980167 0.3649033 -0.28992453 -0.358468 -0.2627161
-0.2745775 0.1246973 0.10640427 0.30382442 -0.1752727 -0.24655756 0.22382998 -0.1502841
0.21764374 -0.05766918 0.19004178 -0.23451413 -0.20985703 0.114152625 0.07048559 -0.11812877
0.16581169 0.1884017 -0.3152716 -0.16057122 0.28385922 -0.12836236 -0.08645651 -0.28003144
-0.28129834 0.098738626 -0.06438498 -0.29812172 0.014221838 -0.26498488 -0.37013963 -0.18626612
-0.3270059 -0.2581272 0.3551557 0.05758864 0.14762956 -0.30408114 -0.24453503 -0.09581062
0.053708486 -0.2947092 -0.22079353 -0.2033859 -0.0035742547 -0.13677445 -0.013704829 -0.21663512
-0.32013035 -0.20496394 -0.12875953 -0.31341434 0.3256167 -0.070426084 0.3450531 0.10251566
-0.27871266 0.25491983 -0.09390773 -0.12089208 -0.38635358 -0.35396093 0.08580021 -0.0944388
0.14093487 -0.2812078 0.30866715 -0.25193462 -0.050053295 0.09342504 0.1608804 0.2777578
0.40000832 -0.29307193 0.090502866 -0.10115906 -0.051360443 -0.21005367 0.44202548 -0.26968208
0.2171219 0.15939985 0.090469144 -0.13254388 0.36450675 0.06858248 0.07434785 -0.31399503
0.15889925 -0.044298816 -0.24762297 0.33382922 0.06297343 -0.22456415 -0.15451767 -0.03908475
0.33173528 -0.10756434 -0.15434071 -0.073517576 -0.22558534 0.09975454 0.40049675 -0.34855753
0.10405844 0.2345676 0.03948225 -0.090050004 0.265016 0.19441324 0.15937139 -0.06294564
-0.094900034 0.036836784 -0.0672957 -0.107793935 0.24352874 0.3252931 -0.041556828 -0.065137856
-0.024629127 -0.03848468 0.0773008 0.10045667 -0.25969332 -0.08836916 0.38127264 0.14345814
0.005929809 -0.216454 -0.20977783 -0.3063314 -0.15805474 0.10985856 0.2190654 0.1758344
-0.31481007 -0.2109325 -0.111679055 0.3178213 0.0571103 -0.1174681 0.14175375 -0.12117927
-0.28413442 0.23929527 -0.17386733 -0.07573162 -0.3503473 0.20537862 0.3599248 0.11823287
-0.21871938 -0.31437495 -0.26692417 0.2109153 0.214223 0.33922055 0.20539986 0.10024437
0.0018704556 -0.27176687 -0.39821988 -0.32817674 0.14257227 -0.1707905 -0.05254196 -0.1755623
-0.10119868 -0.2624289 -0.24146923 0.12609783 -0.10297953 0.1949941 -0.13801496 -0.29261374
-0.06540053 -0.18612745 -0.11008883 -0.34189624 0.2690727 -0.25205144 0.17533593 0.20148225
00000000: cf4b f1bd bcec 753d 5127 30be d6fe 553e
00000010: 5e19 913e 714a 73be 3c52 bf3e 7634 b93d
00000020: 6243 953e 3c58 8c3d 9d31 333e a679 1abd
00000030: 6308 b53e 9d29 7b3d 5ade 1fbe 9149 ed3d
00000040: 2cda 2ebe 2ec4 1dbd 6b2c 44be 2726 6d3e
00000050: 1491 96be 1c36 4dbe d165 9fbd 78a9 65be
00000060: a23c 5a3d 39b3 b3be 2889 ac3e 6be2 a4be
00000070: 3ea6 8c3e e570 a53d abf6 10be 14c2 713e
00000080: 4884 193d 3622 983e cf0f 223d 3c1b edbd
00000090: fdde 1f3e 19ab a9bd b4b9 0c3e 4665 a53e
000000a0: 15d3 163e ed59 e6bd e7f7 763e 1bfc 283d
000000b0: 39eb 393e 82fa 59be 4a4b 9dbe 7c50 d9bd
000000c0: dbc8 a7be f281 9f3e 250d b33d 6e89 f73d
000000d0: 8026 f93d bcd1 a0bc 689c a83e dd1d 7bbe
000000e0: 88a1 d43c 0614 37be cfad b83d 0d45 cdbd
000000f0: d5c3 073e a3fb a8bd 67c7 973e 8c13 69be
00000100: b9a1 65be 7c17 59be 795e d13e 2b28 0f3e
00000110: 9bd4 ba3e fd70 94be 1e89 b7be ba82 86be
00000120: 6c95 8cbe 4c61 ff3d 7bea d93d e08e 9b3e
00000130: b07a 33be 9679 7cbe b033 653e 13e4 19be
00000140: 00de 5e3e 8536 6cbd 509a 423e 7924 70be
00000150: c3e4 56be dac8 e93d c05a 903d 7fed f1bd
00000160: 8aca 293e 60ec 403e 476b a1be c86c 24be
00000170: ff55 913e 6c71 03be 1c10 b1bd 4860 8fbe
00000180: 5606 90be 7a37 ca3d 46dc 83bd 69a3 98be
00000190: b602 693c 19ac 87be f182 bdbe 8cbc 3ebe
000001a0: 516d a7be 4029 84be f8d6 b53e 11e2 6b3d
000001b0: 342c 173e 86b0 9bbe 6467 7abe 5c38 c4bd
000001c0: 6efd 5b3d 20e4 96be b317 62be 6544 50be
000001d0: 0b3e 6abb 9a0e 0cbe 388a 60bc 99d5 5dbe
000001e0: 20e8 a3be 11e2 51be 8ad9 03be d877 a0be
000001f0: 3bb7 a63e 8d3b 90bd cdaa b03e bbf3 d13d
00000200: 6db3 8ebe da84 823e b252 c0bd 4496 f7bd
00000210: 23d0 c5be 5e3a b5be 05b8 af3d 2169 c1bd
00000220: 3b51 103e 78fa 8fbe 9f09 9e3e 93fd 80be
00000230: af04 4dbd a155 bf3d d5bd 243e 4536 8e3e
00000240: e4cd cc3e 860d 96be 9159 b93d 7b2c cfbd
00000250: 545f 52bd 4f18 57be 2a51 e23e c513 8abe
00000260: 3455 5e3e b739 233e e347 b93d 95b9 07be
00000270: a1a0 ba3e f974 8c3d b043 983d f5c3 a0be
00000280: 7cb6 223e ad72 35bd e090 7dbe aaeb aa3e
00000290: 37f8 803d 25f4 65be e139 1ebe 5517 20bd
000002a0: 35d9 a93e b14a dcbd 7e0b 1ebe 6290 96bd
000002b0: d8ff 66be 1c4c cc3d e90d cd3e 2276 b2be
000002c0: 971c d53d 7d32 703e 24b8 213d 236c b8bd
000002d0: 2db0 873e 4414 473e 4132 233e a5e9 80bd
000002e0: f35a c2bd 2be2 163d 54d2 89bd 11c3 dcbd
000002f0: 995f 793e d18c a63e 7e37 2abd ff66 85bd
00000300: 06c3 c9bc 1da2 1dbd e24f 9e3d 3abc cd3d
00000310: 86f6 84be e4fa b4bd 2b36 c33e b1e6 123e
00000320: d84e c23b 1ea6 5dbe 00d0 56be 78d7 9cbe
00000330: 1ad9 21be 86fd e03d ae52 603e ef0d 343e
00000340: c92e a1be b0fe 57be fdb7 e4bd 79b9 a23e
00000350: 7dec 693d 1d93 f0bd e527 113e d62c f8bd
00000360: 117a 91be d209 753e 470a 32be 2e19 9bbd
00000370: b960 b3be c64e 523e 1048 b83e 1324 f23d
00000380: f9f7 5fbe c1f5 a0be 49aa 88be 2efa 573e
00000390: 465d 5b3e 51ae ad3e 5754 523e ec4c cd3d
000003a0: 132a f53a 0725 8bbe 7ae3 cbbe c806 a8be
000003b0: 77fe 113e b4e3 2ebe 3d36 57bd 9bc6 33be
000003c0: 4141 cfbd 155d 86be b643 77be ca1f 013e
000003d0: efe6 d2bd 89ac 473e cb53 0dbe 78d1 95be
000003e0: b7f0 85bd 3298 3ebe 4176 e1bd 060d afbe
000003f0: e6c3 893e e30c 81be 438b 333e 5d51 4e3e

encoder.start.bias f4 [64]
0.20812087 -0.11176224 -0.09494835 -0.13853708 0.25704685 0.17002659 0.1139926 -0.19991316
-0.3072883 0.023346161 0.11533416 -0.14244436 -0.0638012 0.2335666 0.016782396 -0.032398786
-0.08155916 -0.26596403 -0.29560125 -0.104970865 -0.1698823 0.0871805 -0.10075917 -0.116064094
0.36733928 0.11268831 0.24774727 -0.21448396 -0.13103834 0.119409814 -0.24931811 -0.20133635
0.017329095 -0.1358228 -0.2676746 0.1839869 0.29024494 0.074342586 -0.121003084 -0.27632004
-0.102838814 0.11014777 0.17914659 -0.059783 -0.097896814 0.21672094 -0.22666708 0.21831954
-0.10405791 0.06606291 -0.08164611 -0.016047586 -0.11916313 0.1723687 0.02597195 0.29849118
0.38229436 -0.18087575 -0.26755232 0.27865183 0.2614752 -0.30633867 -0.08251141 -0.4043389
00000000: a31d 553e 9ae3 e4bd 4874 c2bd aadc 0dbe
00000010: a59b 833e 731b 2e3e f474 e93d 09b6 4cbe
00000020: e454 9dbe 7340 bf3c 5134 ec3d efdc 11be
00000030: 34aa 82bd 152c 6f3e 3c7b 893c 97b4 04bd
00000040: 7d08 a7bd 702c 88be 0c59 97be f7fa d6bd
00000050: a0f5 2dbe b18b b23d d35a cebd 03b3 edbd
00000060: e513 bc3e 21c9 e63d 76b1 7d3e afa1 5bbe
00000070: ea2e 06be 228d f43d 3f4d 7fbe 1e2b 4ebe
00000080: bff5 8d3c 2215 0bbe a50c 89be 1067 3c3e
00000090: fc9a 943e ed40 983d 77d0 f7bd d279 8dbe
000000a0: 289d d2bd 2795 e13d 3472 373e 05df 74bd
000000b0: 207e c8bd 18ec 5d3e 6a1b 68be 288f 5f3e
000000c0: 501c d5bd fe4b 873d 1336 a7bd 3a76 83bc
000000d0: cd0b f4bd 6c81 303e 20c3 d43c d6d3 983e
000000e0: 16bc c33e 7e37 39be 9efc 88be 74ab 8e3e
000000f0: 14e0 853e 6cd8 9cbe befb a8bd 8205 cfbe

encoder.blocks.0.t1.conv.weight f4 [128, 64, 1, 3]
-0.047604337 0.0043412657 0.011769151 -0.022674683 -0.012480193 0.07569146 -0.019748133 -0.03063618
0.019935701 0.035754498 0.021094935 -0.048330434 0.017962238 -0.026933633 -0.04682526 -0.024997005
0.03797185 0.03799779 0.017860753 0.022464192 0.04787443 -0.008982871 -0.02458547 0.040865056
-0.0039225966 -0.04359303 -0.04103832 -0.009369601 0.036327075 -0.002619603 -0.036424637 0.015791427
-0.020314569 -0.04684344 0.03900531 0.007199573 0.06816794 0.052135736 0.0010395034 -0.003730137
0.014864954 0.02092484 0.01754449 -0.0033154339 0.0024224808 0.07857794 -0.010278638 -0.03992781
0.031840507 -0.016426226 -0.021179577 0.07520196 0.050398644 -0.00070262037 -0.043093786 -0.02304689
-0.011354981 0.018589618 0.010027845 -0.07033171 0.05005046 -0.037691537 -0.06089692 -0.07954871
0.045278218 -0.03608288 0.07483637 0.0025170308 -0.0332461 0.008188817 -0.0027501371 0.052207436
0.016255166 -0.046446532 0.048764843 -0.03692325 0.01587141 0.04144504 -0.0023312515 -0.028577931
0.011515332 0.08425606 0.029119097 -0.028615803 -0.06533028 0.010859878 -0.019834157 -0.016613364
-0.021513341 0.03429678 -0.022180075 0.013950293 0.06523697 0.011773111 0.03251267 0.035965566
0.039761424 -0.018685574 -0.012375302 0.019586898 -0.010712468 0.045852866 0.0010938746 -0.041730247
0.010905837 0.012395682 0.021574574 0.051386636 0.050594773 0.05119439 -0.0056321174 -0.06552295
-0.040654033 -0.021540007 -0.061003055 -0.026474826 -0.02914335 -0.018399116 -0.027895506 -0.0852451
-0.026478652 0.020016586 0.030823592 -0.0054628192 -0.013332642 0.014668411 -0.056865133 -0.024782868
0.053034984 -0.0887968 -0.0011222148 0.06840152 0.024251657 0.019408386 -0.044814784 -0.03289261
0.0039840415 0.0380801 0.04691287 0.049458824 -0.058637034 0.04051358 -0.03322963 -0.06546723
0.027163535 -0.048328143 0.014846462 0.026089072 -0.021662584 0.003526571 -0.016144063 -0.026621146
-0.035248913 -0.07907147 -0.040612057 0.010304068 0.026969375 0.05777916 0.058544982 -0.052553043
-0.039078884 0.0737313 0.040209074 0.001414239 -0.009641638 -0.079658076 -0.0133608105 0.07071362
-0.017376943 -0.00041394838 -0.045406517 -0.067759335 0.0068187863 -0.0020584257 -0.025358614 0.023210146
-0.04026015 0.026834946 -0.040197704 -0.033533074 0.013649141 0.052959826 0.00042381175 -0.03691405
-0.05278305 -0.013890467 -0.050352037 -0.011786595 0.014394721 -0.060654067 0.045239676 0.04283613
-0.036410533 -0.018953701 0.025377974 -0.034451008 0.0009769845 -0.024748122 0.014474539 -0.03261021
0.04002701 0.015906299 0.010175676 0.048460927 0.013219 -0.014900858 0.0033887115 0.055315062
-0.044721793 0.0065650563 -0.052194104 0.031225618 0.014637672 -0.014501398 0.024103085 -0.0026726793
0.03557792 -0.054021433 -0.008765385 0.01885188 0.07040666 0.038581748 -0.040694382 0.051505763
-0.0111527685 -0.026837911 -0.054855514 -0.011171906 0.04775038 -0.0006402037 -0.04188222 0.02632865
-0.0027502568 0.05948207 -0.027048403 -0.014276254 -0.043525532 -0.00401073 0.020209255 0.06288703
0.041572988 0.053606726 0.026662895 0.051380895 0.052439094 0.064027175 -0.044840656 0.054704927
0.041381117 -0.005322515 -0.021445896 -0.028911106 0.040361285 -0.035315923 0.04590219 -0.0062372726
00000000: c4fc 42bd 2d41 8e3b 66d3 403c 42c0 b9bc
00000010: b979 4cbc 2004 9b3d d6c6 a1bc baf8 fabc
00000020: 3250 a33c 4f73 123d 49cf ac3c 22f6 45bd
00000030: 8b25 933c eca3 dcbc d8cb 3fbd 85c6 ccbc
00000040: 5f88 1b3d 92a3 1b3d b750 923c d306 b83c
00000050: fa17 443d e42c 13bc 7867 c9bc 1e62 273d
00000060: 2089 80bb 9b8e 32bd cc17 28bd f482 19bc
00000070: b3cb 143d a5ad 2bbb 0032 15bd 065d 813c
00000080: bd6a a6bc e8de 3fbd 08c4 1f3d 65ea eb3b
00000090: a29b 8b3d 488c 553d f23f 883a 5075 74bb
000000a0: 238c 733c 926a ab3c 76b9 8f3c c047 59bb
000000b0: 7cc2 1e3b 79ed a03d bc67 28bc 588b 23bd
000000c0: 316b 023d 4b90 86bc cb80 adbc 7c03 9a3d
000000d0: cf6e 4e3d 0e30 38ba 1c83 30bd d5cc bcbc
000000e0: 3e0a 3abc 4149 983c d54b 243c 120a 90bd
000000f0: b601 4d3d 7162 1abd 0c6f 79bd 6fea a2bd
00000100: a775 393d a4cb 13bd d043 993d c5f4 243b
00000110: 102d 08bd 632a 063c a53b 34bb 77d7 553d
00000120: 8e29 853c b83e 3ebd a5bd 473d d53c 17bd
00000130: c204 823c 46c2 293d e9c7 18bb 441c eabc
00000140: ceaa 3c3c 718e ac3d 2c8b ee3c b06b eabc
00000150: e2cb 85bd a1ed 313c 3e7b a2bc c018 88bc
00000160: bf3c b0bc c87a 0c3d fdb2 b5bc c58f 643c
00000170: f69a 853d 02e4 403c 012c 053d a150 133d
00000180: e0dc 223d 7d12 99bc c7c1 4abc b474 a03c
00000190: 5983 2fbc 37d0 3b3d 5760 8f3a 56ed 2abd
000001a0: 65ae 323c 4217 4b3c 29bd b03c cb7a 523d
000001b0: 773c 4f3d 35b1 513d a08d b8bb e530 86bd
000001c0: d884 26bd ab74 b0bc 57de 79bd bce1 d8bc
000001d0: 09be eebc beb9 96bc 1e85 e4bc fc94 aebd
000001e0: c2e9 d8bc d3f9 a33c c281 fc3c 7301 b3bb
000001f0: 2771 5abc c653 703c 6aeb 68bd 7105 cbbc
00000200: 363b 593d 19db b5bd 4817 93ba 1916 8c3d
00000210: 69ab c63c 56fe 9e3c b58f 37bd 67ba 06bd
00000220: 908c 823b e1f9 1b3d b627 403d 5695 4a3d
00000230: 632d 70bd 91f1 253d cb1b 08bd af13 86bd
00000240: 1086 de3c bbf3 45bd 933e 733c c0b8 d53c
00000250: bb75 b1bc 0b1e 673b 8e40 84bc 9714 dabc
00000260: 2a61 10bd 39f0 a1bd d458 26bd 65d2 283c
00000270: e1ee dc3c d7a9 6c3d ddcc 6f3d dc41 57bd
00000280: 2e11 20bd 7000 973d 45b2 243d fd5d b93a
00000290: f6f7 1dbc c623 a3bd 4de7 5abc 4dd2 903d
000002a0: 175a 8ebc 3607 d9b9 2ffc 39bd 68c5 8abd
000002b0: 2070 df3b a7e6 06bb debc cfbc 3423 be3c
000002c0: d4e7 24bd f6d4 db3c 59a6 24bd fa59 09bd
000002d0: a6a0 5f3c 67ec 583d 0d33 de39 3033 17bd
000002e0: 0a33 58bd d794 63bc f03d 4ebd 901c 41bc
000002f0: d6d7 6b3c 6670 78bd 3d4d 393d f074 2f3d
00000300: 3623 15bd cb44 9bbc 78e5 cf3c 801c 0dbd
00000310: 290e 803a 93bc cabc 9e26 6d3c 4992 05bd
00000320: 5df3 233d ed4d 823c e1b7 263c f77e 463d
00000330: 8194 583c ba22 74bc 2515 5e3b 0c92 623d
00000340: 332e 37bd af1f d73b 7cc9 55bd decc ff3c
00000350: d9d2 6f3c 4697 6dbc d573 c53c 1e28 2fbb
00000360: 27ba 113d 9445 5dbd b09c 0fbc 426f 9a3c
00000370: 5e31 903d e507 1e3d 27af 26bd b5f7 523d
00000380: 1aba 36bc 2edb dbbc 2db0 60bd 5f0a 37bc
00000390: e795 433d 58d3 27ba b18c 2bbd 2eaf d73c
000003a0: a73d 34bb 79a3 733d 9d94 ddbc f3e6 69bc
000003b0: d447 32bd 716c 83bb e18d a53c eaca 803d
000003c0: 7048 2a3d ba92 5b3d 256c da3c c674 523d
000003d0: 60ca 563d ae20 833d d6aa 37bd 4612 603d
000003e0: 3f7f 293d 7e68 aebb 4eaf afbc fcd6 ecbc
000003f0: e051 253d 6ea7 10bd ef03 3c3d 0962 ccbb

encoder.blocks.0.t1.conv.bias f4 [128]
0.065689124 -0.02004563 0.035989422 -0.0144740995 0.046556033 -0.010618904 0.048056412 -0.003906275
0.05705803 -0.066180155 -0.017947275 0.010747132 0.038630605 0.009266657 0.010492449 0.0012857517
0.057493173 0.0035049412 -0.01146236 0.010894723 -0.014155416 -0.03737862 -0.022206062 -0.034879036
-0.039113283 -0.00038533128 -0.02119368 -0.07633099 -0.020534191 0.0128972465 -0.02527975 0.035752207
-0.032045107 0.0067921723 0.010572287 0.0078863455 0.019406954 0.01793783 -0.01483084 -0.014699943
-0.025496775 0.0004679864 -0.008550972 0.0046723085 -0.018338371 -0.012796329 0.0055828043 -0.032575496
-0.028793342 0.023750171 0.073994085 -0.00945496 -0.058750406 -0.02786493 -0.04868602 0.03855996
-0.013525388 -0.025861053 0.015276312 0.013752732 0.023244793 -0.047138195 0.013501867 -0.006428258
-0.02764902 -0.0037838942 -0.054751914 -0.04651361 -0.037191838 -0.049237806 -0.011327376 0.0063785966
-0.006884393 0.03989862 0.0022184898 -0.0015258387 -0.006182026 -0.031134091 0.00073085364 -0.009543431
0.0045094118 0.0047076955 0.025210943 -0.010632342 0.0008348965 0.005681738 -0.020549394 0.008025461
0.004367417 -0.024775166 -0.06667672 -0.0054796943 -0.0099149905 -0.00040530035 0.002982927 -0.06969912
-0.00074128475 -0.029463986 0.0021859007 6.126803e-05 0.028538976 0.007415343 0.011507811 -0.043218426
-0.01073023 -0.02891315 -0.0293982 0.0058847014 0.022511257 -0.026570708 -0.0329997 0.005827743
0.0004979143 -0.0065734615 0.014803067 -0.0023734102 -0.04166086 0.0005507377 -0.0090908585 0.030697776
-0.016761381 -0.015778685 -0.027992483 0.00032902585 0.014655549 0.010602934 0.008057887 7.483461e-05
00000000: 0588 863d bc36 a4bc a569 133d c624 6dbc
00000010: 8ab1 3e3d e9fa 2dbc cdd6 443d 3600 80bb
00000020: aeb5 693d 7689 87bd 2a06 93bc bd14 303c
00000030: 203b 1e3d 2dd3 173c 85e8 2b3c ab86 a83a
00000040: f67d 6b3d 28b3 653b 9fcc 3bbc c87f 323c
00000050: 1eec 67bc 531a 19bd 7de9 b5bc 52dd 0ebd
00000060: 4035 20bd 4a06 cab9 5e9e adbc 6c53 9cbd
00000070: 5237 a8bc f94e 533c 7a17 cfbc e870 123d
00000080: bb41 03bd df90 de3b 6337 2d3c bb35 013c
00000090: 55fb 9e3c 5bf2 923c 0dfd 72bc 08d8 70bc
000000a0: 9dde d0bc 125c f539 6019 0cbc 2a1a 993b
000000b0: 5a3a 96bc b2a7 51bc f5ef b63b e26d 05bd
000000c0: 04e0 ebbc b88f c23c 368a 973d fae8 1abc
000000d0: 44a4 70bd fe44 e4bc fe6a 47bd 0cf1 1d3d
000000e0: 9799 5dbc 8fda d3bc 7f49 7a3c 2453 613c
000000f0: dd6b be3c fb13 41bd ef36 5d3c 23a4 d2bb
00000100: 3380 e2bc 36fb 77bb 8b43 60bd 0e85 3ebd
00000110: 7856 18bd 95ad 49bd 7596 39bc 8c03 d13b
00000120: 7996 e1bb bc6c 233d 1564 113b a7fe c7ba
00000130: 9892 cabb ec0c ffbc c296 3f3a 0d5c 1cbc
00000140: b0c3 933b 0343 9a3b 2e87 ce3c 4633 2ebc
00000150: f5dc 5a3a df2d ba3b 3457 a8bc 397d 033c
00000160: 8d1c 8f3b 4af5 cabc ce8d 88bd 028f b3bb
00000170: 7c72 22bc 7e7e d4b9 367d 433b 6abe 8ebd
00000180: c752 42ba 755e f1bc 5441 0f3b 067d 8038
00000190: 92ca e93c 68fc f23b 428b 3c3c ce05 31bd
000001a0: d9cd 2fbc 45db ecbc 7ed4 f0bc 74d4 c03b
000001b0: 8769 b83c d0aa d9bc b22a 07bd a7f6 be3b
000001c0: 7786 023a 3166 d7bb 9088 723c 378b 1bbb
000001d0: 94a4 2abd 625f 103a d3f1 14bc e779 fb3c
000001e0: 2a4f 89bc 4d42 81bc 7e50 e5bc 1a81 ac39
000001f0: d41d 703c eeb7 2d3c 3a05 043c 86f0 9c38

encoder.blocks.0.g.mlp.weight f4 [64, 192, 1, 1]
-0.04427454 0.010628352 0.068403065 -0.08435421 -0.055198453 -0.00011690468 0.010271358 -0.036635213
0.03599427 -0.00236182 0.01090358 -0.048272233 -0.015387869 -0.012631261 0.014817863 -0.04707203
0.0021747602 -0.0014751184 0.016924249 0.026445456 0.0046476494 -0.021288002 0.038368285 0.0019150889
-0.03171232 -0.0012287609 -0.04437584 -0.058817204 -0.037007526 0.03831327 0.04690888 -0.054758284
-0.007853181 0.060871802 -0.078237176 -0.03397498 -0.0876 -0.04686852 -0.048303217 -0.121392615
-0.022578955 0.00091070373 0.03441012 -0.0017276414 -0.053164154 0.01848848 0.043052856 -0.018515464
0.0093872845 0.0053446153 -0.02207769 -0.023814503 -0.03811264 0.006533066 -0.03038076 0.04458533
0.012196667 -0.051794488 -0.018405164 0.011202755 -0.090395786 0.038734876 0.0018543743 0.046131127
-0.042503864 0.003181136 0.053964898 0.037654627 0.04997541 0.062112987 0.008775645 -0.0016153011
0.027917698 0.017673118 0.008641595 0.030141564 0.046619453 -0.0042082453 0.008173927 0.022283351
0.056054037 0.0030907379 -0.011317443 0.0037798758 -0.036713272 -0.0077591017 0.014292794 0.013614366
0.03652179 -0.042914554 0.030236073 -0.02226141 -0.035739083 0.0017493886 0.0073995166 -0.013622727
0.020545568 -0.003356047 -0.018029738 -0.01600297 -0.00932518 -0.009928899 0.01322359 -0.023188073
-0.0031478868 -0.009555686 -0.004980571 -0.03326656 -0.016485615 -0.013862999 0.02617379 0.01235667
-0.048509568 -0.04505883 -0.020154107 -0.010913103 0.042036377 0.013146866 -0.004044075 0.022663949
-0.023330348 0.037495006 -0.030802637 -0.00039358367 -0.03588201 -0.028758276 0.00521912 0.039845
0.0024832769 -0.00040210204 0.05149795 0.003446798 0.010356578 0.03804132 -0.000231158 -0.059712123
-0.010653418 0.04294869 0.00965352 0.030733475 0.013516078 0.036075097 0.012932406 0.0014495521
-0.006450196 0.004451796 -0.043509975 -0.02320482 -0.002479979 -0.004255884 0.03778526 -0.01873488
0.0121056 0.0045826025 0.046149604 -0.03247898 -0.029453324 -0.008641027 -0.04359994 -0.0015776764
-0.044284698 -0.024020186 -0.013781867 0.0055801347 -0.014853393 -0.020072307 -0.015885748 -0.038962986
-0.027750276 -0.0128703 0.019729262 -0.034314148 -0.04105891 0.011183204 0.02789203 0.015782665
0.0612868 -0.013006203 -0.017321562 0.008943552 -0.017162044 0.02151339 -0.015467311 0.033305187
-0.028291265 -0.010984492 -0.025716495 0.01829002 -0.053582255 -0.018736556 -0.027800953 -0.032843094
-0.040504064 0.037324913 0.018975504 0.02220465 -0.014432208 0.038850944 -0.033299644 0.005942545
0.024998525 0.036978483 0.034257386 -0.03595128 0.017725265 0.035638273 -0.02107292 0.027520869
-0.0007895658 -0.008355082 0.059231546 0.026969412 -0.0123304725 0.03888093 0.03174804 -0.0011229867
0.02862836 -0.07693985 -0.019919207 0.049470797 0.043116905 0.020543901 5.0011284e-05 -0.06842144
0.0017658495 -0.04138458 0.016254807 0.012398395 0.04225145 -0.006066169 -0.0010006855 -0.0137916645
0.06458471 -0.006946182 -0.012332032 -0.018364912 0.00581412 0.04252757 -0.07565285 0.046930656
0.012590001 0.028057579 -0.06524459 0.03769158 0.04909697 0.032499332 -0.004112782 0.016857479
-0.054222595 0.009596376 0.02537811 0.0030778134 0.0070628985 0.04457465 0.0066934587 -0.010803063
00000000: 3859 35bd 8a22 2e3c e816 8c3d e6c1 acbd
00000010: c617 62bd b92a f5b8 3349 283c ce0e 16bd
00000020: ba6e 133d c4c8 1abb eea4 323c 1bb9 45bd
00000030: 671d 7cbc 59f3 4ebc 9fc6 723c 9ace 40bd
00000040: 6c86 0e3b c358 c1ba b9a4 8a3c 24a4 d83c
00000050: 4f4b 983b 2d64 aebc 1028 1d3d b803 fb3a
00000060: c7e4 01bd 600e a1ba 71c3 35bd 4fea 70bd
00000070: 3495 17bd 60ee 1c3d 8723 403d 394a 60bd
00000080: a1aa 00bc b654 793d d03a a0bd 5929 0bbd
00000090: a167 b3bd 35f9 3fbd 98d9 45bd b19c f8bd
000000a0: 80f7 b8bc 4bbc 6e3a a0f1 0c3d 0772 e2ba
000000b0: a8c2 59bd 2775 973c 3158 303d bead 97bc
000000c0: 20cd 193c e221 af3b 46dc b4bc a216 c3bc
000000d0: 001c 1cbd 5413 d63b 12e1 f8bc 1b9f 363d
000000e0: 87d4 473c 7526 54bd 6dc6 96bc c38b 373c
000000f0: 6d21 b9bd 76a8 1e3d 7a0e f33a fef3 3c3d
00000100: 8818 2ebd 9b7a 503b 4c0a 5d3d bd3b 1a3d
00000110: 04b3 4c3d 306a 7e3d b9c7 0f3c 83b8 d3ba
00000120: a8b3 e43c 37c7 903c 7a95 0d3c 71eb f63c
00000130: 0af4 3e3d 52e5 89bb efeb 053c 938b b63c
00000140: eb98 653d fa8d 4a3b cc6c 39bc cbb7 773b
00000150: a860 16bd 1040 febb 532c 6a3c ca0e 5f3c
00000160: df97 153d 2cc7 2fbd a4b1 f73c 8f5d b6bc
00000170: 2563 12bd be4b e53a a577 f23b dc31 5fbc
00000180: 2e4f a83c 20f1 5bbb 1ab3 93bc a918 83bc
00000190: a4c8 18bc d2ac 22bc c2a7 583c eaf4 bdbc
000001a0: c74c 4ebb 748f 1cbc 0f34 a3bb 8442 08bd
000001b0: d70c 87bc a221 63bc 6b6a d63c a173 4a3c
000001c0: f8b1 46bd 9c8f 38bd 3a1a a5bc dfcc 32bc
000001d0: 562e 2c3d f465 573c 2984 84bb bfa9 b93c
000001e0: 491f bfbc 5d94 193d d055 fcbc e859 ceb9
000001f0: 04f9 12bd 7a96 ebbc 2705 ab3b 8334 233d
00000200: 79be 223b 39d1 d2b9 84ef 523d ade3 613b
00000210: a3ae 293c 37d1 1b3d 0163 72b9 b394 74bd
00000220: ac8b 2ebc f7ea 2f3d cc29 1e3c c5c4 fb3c
00000230: 8a72 5d3c 7bc3 133d 71e2 533c e6fe bd3a
00000240: 2a5c d3bb 5fe0 913b 8437 32bd 0918 bebc
00000250: 2587 22bb f174 8bbb b7c4 1a3d e479 99bc
00000260: 9156 463c a829 963b 5e07 3d3d ae08 05bd
00000270: 1948 f1bc 1893 0dbc da95 32bd 09ca ceba
00000280: df63 35bd fbc5 c4bc 57cd 61bc 90d9 b63b
00000290: a55b 73bc ae6e a4bc d422 82bc a797 1fbd
000002a0: 8c54 e3bc f3dd 52bc 439f a13c fe8c 0cbd
000002b0: 632d 28bd c239 373c d47d e43c a64a 813c
000002c0: de07 7b3d f817 55bc f3e5 8dbc fa87 123c
000002d0: 6a97 8cbc d93c b03c 9b6a 7dbc 056b 083d
000002e0: 15c3 e7bc 4cf8 33bc 66ab d2bc f4d4 953c
000002f0: 1179 5bbd 687d 99bc d3be e3bc 7b86 06bd
00000300: 97e7 25bd 02e2 183d 8472 9b3c 87e6 b53c
00000310: 1175 6cbc 2b22 1f3d 3565 08bd aeb9 c23b
00000320: b5c9 cc3c c076 173d 7951 0c3d a641 13bd
00000330: 9334 913c 70f9 113d 1ea1 acbc 7273 e13c
00000340: ddfa 4eba c1e3 08bc c79c 723d f5ee dc3c
00000350: c005 4abc 9c41 1f3d 3c0a 023d 2e31 93ba
00000360: 0686 ea3c a492 9dbd 9b2d a3bc e4a1 4a3d
00000370: 5a9b 303d af4b a83c 35c3 5138 8a20 8cbd
00000380: 1474 e73a e182 29bd cd28 853c a322 4b3c
00000390: db0f 2d3d b7c6 c6bb 6f29 83ba 6ff6 61bc
000003a0: fd44 843d cc9c e3bb 4b0c 4abc 0372 96bc
000003b0: 6084 be3b 6431 2e3d e2ef 9abd 5c3a 403d
000003c0: 4b46 4e3c 02d9 e53c f59e 85bd 7c62 1a3d
000003d0: e819 493d 051e 053d 84c4 86bb b218 8a3c
000003e0: 8318 5ebd 1e3a 1d3c c1e5 cf3c 24b5 493b
000003f0: e36f e73b e893 363d cd54 db3b 55ff 30bc

encoder.blocks.0.g.mlp.bias f4 [64]
-0.020407876 0.011366697 -0.022724772 -0.081460916 -0.038612694 -0.022753268 0.0023779138 -0.08628374
0.013043222 0.03867694 0.012696387 -0.01393478 -0.100204535 0.028374387 0.04707785 0.029015312
0.03887311 0.023872595 -0.01078587 0.0025796453 0.065539494 0.07914567 -7.493167e-05 0.05980305
-0.05333156 -0.066718504 0.045675278 -0.04047261 -0.04530927 -0.037568696 0.035608336 -0.092238165
0.025732473 0.12492237 0.059815414 -0.006045501 0.03674296 -0.057807628 -0.088465825 -0.015065643
0.074885786 0.050039385 -0.027690805 -0.06557018 0.051827457 0.08512859 0.003929331 0.0037103603
-0.11368539 0.053093173 -0.022803592 0.009658584 -0.101339996 0.02250525 0.0653897 -0.071142115
0.039493047 -0.11385661 0.070753746 0.07368094 0.05877026 0.086372316 -0.02332484 0.019587634
00000000: 6b2e a7bc 623b 3a3c 4d29 babc fbd4 a6bd
00000010: 5828 1ebd 1065 babc c6d6 1b3b 88b5 b0bd
00000020: 3db3 553c b66b 1e3d 8204 503c b44e 64bc
00000030: 0938 cdbd 6771 e83c b4d4 403d 85b1 ed3c
00000040: 6939 1f3d 7690 c33c 38b7 30bc 440f 293b
00000050: 9239 863d 2017 a23d a224 9db8 0bf4 743d
00000060: 3272 5abd b6a3 88bd 0016 3b3d 9cc6 25bd
00000070: 3796 39bd a2e1 19bd 0cda 113d 5de7 bcbd
00000080: e8cc d23c 4dd7 ff3d 0201 753d 5719 c6bb
00000090: c97f 163d b1c7 6cbd 922d b5bd e3d5 76bc
000000a0: b85d 993d 19f6 4c3d d4d7 e2bc a949 86bd
000000b0: 0749 543d e657 ae3d 9ec1 803b 8429 733b
000000c0: e3d3 e8bd 3a78 593d 99ce babc 0a3f 1e3c
000000d0: 588b cfbd ee5c b83c 09eb 853d f5b2 91bd
000000e0: 76c3 213d a82d e9bd 57e7 903d 08e6 963d
000000f0: 16b9 703d f8e3 b03d bc13 bfbc 3f76 a03c

encoder.blocks.0.t2.conv.weight f4 [128, 64, 1, 3]
0.03338545 0.012300494 -0.014997819 0.028399438 -0.03393973 0.005805836 -1.3204011e-05 -0.019734476
-0.0061571714 -0.021486552 0.043721847 -0.024434805 0.013083272 0.042310387 0.014418558 -0.0077023814
0.00075041817 -0.0021660426 0.00810648 -0.014149137 -0.026427766 -0.032025184 0.018438177 -0.0049168435
-0.03486279 -0.04743008 -0.02560302 0.04623405 -0.011454073 0.019892678 0.038150948 0.007956734
-0.039801393 0.009473963 0.03688104 0.002410145 0.045358405 0.024372559 -0.030436588 0.04060247
0.045195412 0.04002886 0.0821374 0.001682766 0.061110128 -0.002618747 0.015453878 0.020717962
0.019396733 0.022499464 -0.010669192 0.02134398 -0.041911755 0.026843125 -0.03668549 -0.017567206
-0.03051019 0.0061068176 -0.028014371 0.015752196 0.009832102 -0.047904473 0.010382258 0.014955566
0.02690355 -0.07204898 -0.032584175 -0.05218798 -0.031140177 0.036748704 0.0614813 0.040977158
0.013659832 -0.026350196 0.013639555 -0.0019217309 -0.008765651 0.037648413 0.02476783 0.035942692
-0.015174852 -0.022877667 0.016414447 0.003536093 -0.04639941 0.017735792 0.03617223 0.038792633
0.021395093 -0.02142385 -0.03809305 0.0107199205 0.0045636664 -0.018572444 0.010301588 -0.049350027
-0.029319316 0.019090032 -0.010267099 -0.003720908 0.025020868 -0.010814547 0.028292576 0.041624524
-0.030077752 0.060784437 -0.0029483421 -0.0047765076 -0.017911501 -0.0073646344 0.054453954 0.024298798
0.0043258513 -0.056422614 0.02965646 -0.043287788 -0.0027885626 -0.013393785 -0.02702814 0.062236696
-0.026065335 0.008874219 0.011097714 -0.021421533 -0.047489166 -0.014946693 -0.00093655195 0.010588219
-0.015271945 0.027550207 -0.034516662 -0.017401263 -0.04128073 0.06025813 0.029004289 -0.028137874
0.013216478 0.029453056 -0.06675276 0.0068732705 -0.008733663 -0.025597053 -0.01465167 0.045780037
-0.0009599477 0.032439288 -0.044973817 0.022175882 0.008489362 -0.04364882 0.016145715 0.032318477
0.03855845 -0.042251848 -0.02721078 -0.008803967 0.046452858 -0.032514688 -0.04388299 -0.036568563
0.0058341604 -0.0038056616 0.045134187 -0.025593381 0.0018290005 -0.049270485 0.029139431 -0.033587
0.035305798 0.021843225 0.046972025 0.003749466 -0.051034268 0.05240217 -0.04449054 0.050478145
0.056871478 -0.0013511557 -0.010820854 0.011915099 0.029394647 -0.01651543 0.03197232 -0.01334867
0.012920138 -0.015422016 -0.03317444 0.006979908 0.034602076 0.057922643 -0.009878597 -0.013231449
0.018773735 -0.03791924 0.01062093 0.029846853 -0.006307777 -0.040485464 0.01311126 0.0010001797
0.008418197 -0.03998756 -0.026615055 -0.0190656 -0.032764263 0.016507067 0.04009711 -0.0013004936
0.0009723774 -0.01211179 0.029690275 0.029609794 -0.025942972 -0.0017151887 -0.026339052 -0.043437637
-0.06867201 -0.020601554 -0.03765508 0.027834995 0.024894834 0.040483005 0.013727557 -0.03730415
-0.05496618 -0.019084267 -0.04609276 0.028188132 0.05246826 0.029592423 0.050246865 -0.022243075
0.03208319 -0.041576214 0.040309098 0.022517882 0.059117414 0.024539022 -0.03539363 -0.017656548
-0.008296004 -0.008242676 0.055766977 -0.015961966 0.035239097 0.00041325807 0.017407538 0.010642278
-0.03320977 0.0012077446 0.004230031 -0.011746366 -0.041754317 -0.022232959 0.00084732316 0.029781885
00000000: 2ebf 083d 0388 493c 6ab9 75bc f0a5 e83c
00000010: 6304 0bbd e23e be3b cc86 5db7 32aa a1bc
00000020: 19c2 c9bb 9104 b0bc ae15 333d 802b c8bc
00000030: 385b 563c a84d 2d3d d13b 6c3c 4264 fcbb
00000040: b6b7 443a 2af4 0dbb 0bd1 043c c8d1 67bc
00000050: 0b7f d8bc d72c 03bd a90b 973c 791d a1bb
00000060: 49cc 0ebd 0b46 42bd 6dbd d1bc ea5f 3d3d
00000070: dda9 3bbc f8f5 a23c 2b44 1c3d f65c 023c
00000080: c906 23bd ae38 1b3c 9310 173d 86f3 1d3b
00000090: bcc9 393d f6a8 c73c 2756 f9bc c74e 263d
000000a0: d31e 393d 4df5 233d a737 a83d 4290 dc3a
000000b0: 9d4e 7a3d 499f 2bbb 4332 7d3c b7b8 a93c
000000c0: e6e5 9e3c cc50 b83c d6cd 2ebc 92d9 ae3c
000000d0: a9ab 2bbd 1de6 db3c 8643 16bd 1ae9 8fbc
000000e0: 82f0 f9bc b31b c83b 657e e5bc c00a 813c
000000f0: d316 213c 7b37 44bd 591a 2a3c 3108 753c
00000100: d564 dc3c 6a8e 93bd fc76 05bd 10c3 55bd
00000110: af19 ffbc cf85 163d d1d3 7b3d aad7 273d
00000120: 7dcd 5f3c 5edc d7bc 7178 5f3c 97e2 fbba
00000130: ce9d 0fbc 3935 1a3d e7e5 ca3c a538 133d
00000140: f19f 78bc f269 bbbc 9777 863c ccbd 673b
00000150: 4f0d 3ebd a74a 913c 5529 143d 06e5 1e3d
00000160: c344 af3c 1281 afbc 7507 1cbd 9ba2 2f3c
00000170: cf8a 953b 3d25 98bc fec7 283c 4123 4abd
00000180: 102f f0bc b362 9c3c 5637 28bc 7ada 73bb
00000190: 90f8 cc3c 7f2f 31bc d5c5 e73c 7a7e 2a3d
000001a0: 9e65 f6bc 1af9 783d f938 41bb 4084 9cbb
000001b0: 24bb 92bc 0853 f1bb 1c0b 5f3d 460e c73c
000001c0: dfbf 8d3b 661b 67bd 1bf2 f23c 894e 31bd
000001d0: 51c0 36bb 9b71 5bbc 1e6a ddbc e8eb 7e3d
000001e0: f886 d5bc 2c65 113c 30d3 353c 367c afbc
000001f0: 0084 42bd f9e2 74bc f082 75ba 367a 2d3c
00000200: 2e37 7abc f9b0 e13c 5861 0dbd 188d 8ebc
00000210: fc15 29bd 3bd1 763d 679a ed3c 6681 e6bc
00000220: ed89 583c 8947 f13c acb5 88bd 2c39 e13b
00000230: a317 0fbc e9b0 d1bc 8f0d 70bc d983 3b3d
00000240: 00a5 7bba 0fdf 043d 7736 38bd 32aa b53c
00000250: f716 0b3c 1bc9 32bd 0544 843c 6160 043d
00000260: 77ef 1d3d 4610 2dbd 24e9 debc 843e 10bc
00000270: 5a45 3e3d 1f2e 05bd a6be 33bd ebc8 15bd
00000280: 7c2c bf3b 6868 79bb a0de 383d 36a9 d1bc
00000290: 13bb ef3a d9cf 49bd d1b5 ee3c 8692 09bd
000002a0: d09c 103d 90f0 b23c bd65 403d 9ab9 753b
000002b0: 4f09 51bd a8a3 563d b63b 36bd 2cc2 4e3d
000002c0: 11f2 683d 4319 b1ba f449 31bc 8c37 433c
000002d0: 0bcd f03c 5e4b 87bc 68f5 023d 61b4 5abc
000002e0: fdae 533c a0ac 7cbc ece1 07bd b6b7 e43b
000002f0: e8ba 0d3d 4b40 6d3d d7d9 21bc b8c8 58bc
00000300: 60cb 993c 3451 1bbd 6903 2e3c 6381 f43c
00000310: 78b1 cebb 16d4 25bd 9cd0 563c 7618 833a
00000320: 7aec 093c ffc9 23bd d107 dabc 762f 9cbc
00000330: d233 06bd d439 873c de3c 243d 5375 aaba
00000340: 25e7 7e3a 8770 46bc 0539 f33c 3d90 f23c
00000350: 5b86 d4bc 2fd0 e0ba ffc4 d7bc aaeb 31bd
00000360: e9a3 8cbd 97c4 a8bc 373c 1abd 3706 e43c
00000370: 40f0 cb3c 82d1 253d 8ce9 603c 3dcc 18bd
00000380: 3824 61bd 9c56 9cbc c3cb 3cbd ccea e63c
00000390: f5e8 563d cf6b f23c a8cf 4d3d 1c37 b6bc
000003a0: aa69 033d d24b 2abd 271b 253d 6c77 b83c
000003b0: 1a25 723d 0f06 c93c e9f8 10bd 77a4 90bc
000003c0: f6eb 07bc 4a0c 07bc ea6b 643d abc2 82bc
000003d0: df56 103d 8faa d839 419a 8e3c f35c 2e3c
000003e0: f806 08bd 2f4d 9e3a 129c 8a3b d473 40bc
000003f0: 9306 2bbd e521 b6bc e51e 5e3a 24f9 f33c

encoder.blocks.0.t2.conv.bias f4 [128]
-0.062196527 0.026564432 -0.17923233 -0.04928119 -0.018446598 -0.025951385 0.06850433 -0.03878444
0.014224608 -0.046959586 -0.15579127 9.015986e-05 -0.13272858 -0.01665314 -0.08725423 0.08456606
0.06721746 0.03848966 0.0813231 0.08909306 -0.042689785 -0.019708721 0.11743135 -0.0183267
0.057880864 -0.03200088 -0.08394371 -0.05417442 0.04236554 -0.051067844 -0.0077566067 -0.014677348
-0.017072748 0.007566899 0.003911267 0.02212152 0.026373776 -0.020756202 -0.04519552 0.07978458
0.01625993 0.059137296 0.045624383 0.12463263 -0.014614298 -0.021471405 0.04675817 -0.038373176
-0.025086436 -0.075684406 -0.0595054 0.041998196 0.035511546 -0.044238333 -0.03291634 -0.010252395
-0.05748189 0.089572124 0.0019325477 -0.0038941356 0.016932763 -0.076146424 -0.08841757 -0.024089089
-0.0010938006 -0.0042764237 -0.006010109 -0.056750484 -0.0027371838 -0.019744512 -0.002476315 -0.0014468273
-0.0019365915 -0.16082649 -0.034377214 -0.002683423 -0.002901505 -0.018050889 -0.015167239 -0.019150294
-0.0020770945 -0.0019844316 -0.011943726 -0.002793063 -0.0076012355 -0.06541935 -0.0037710452 -0.009841931
-0.004072836 -0.011436273 -0.009987627 -0.018157722 -0.07927464 -0.030879475 -0.006965583 -0.015799938
-0.02500979 -0.041750476 -0.0002644027 -0.044248667 -0.14999056 -0.019833084 -0.07570079 -0.006969791
-0.1839805 -0.024424244 -0.03467041 -0.0064103547 -0.017980263 -0.012624442 -0.0059430217 -0.0009015546
-0.052527703 -0.04499657 -0.01001125 -0.014679122 -0.007616133 -0.00090345135 -0.0008735288 -0.0022878253
-0.0027703678 -0.007190238 -0.04217608 5.770096e-06 -0.0003244538 -0.0055466094 -0.0041722343 -0.0013015143
00000000: c9c1 7ebd a79d d93c ae88 37be 13db 49bd
00000010: 521d 97bc 0098 d4bc 004c 8c3d 6fdc 1ebd
00000020: 550e 693c b258 40bd bf87 1fbe 3514 bd38
00000030: 00ea 07be 2a6c 88bc 59b2 b2bd f830 ad3d
00000040: 4fa9 893d 55a7 1d3d ba8c a63d 6c76 b63d
00000050: 7cdb 2ebd 2f74 a1bc d97f f03d e021 96bc
00000060: 7c14 6d3d 5b13 03bd aeea abbd ffe5 5dbd
00000070: 7d87 2d3d 842c 51bd 222b febb 4279 70bc
00000080: 26dc 8bbc c0f3 f73b 162a 803b 3138 b53c
00000090: d10d d83c e908 aabc f01e 39bd 1966 a33d
000000a0: 8b33 853c f339 723d a2e0 3a3d 643f ff3d
000000b0: cf70 6fbc cde4 afbc 7f85 3f3d 312d 1dbd
000000c0: 1282 cdbc 6d00 9bbd efbb 73bd 4d06 2c3d
000000d0: 8e74 113d 4133 35bd 49d3 06bd a9f9 27bc
000000e0: 2172 6bbd 9771 b73d 8a4d fd3a c134 7fbb
000000f0: 94b6 8a3c a8f2 9bbd 4514 b5bd 7b56 c5bc
00000100: dc5d 8fba 3e21 8cbb 73f0 c4bb 3273 68bd
00000110: 5362 33bb 3ebf a1bc ac49 22bb 78a3 bdba
00000120: 3ad5 fdba b3af 24be 1fcf 0cbd 5edc 2fbb
00000130: 2d27 3ebb 75df 93bc 0380 78bc 14e1 9cbc
00000140: dd1f 08bb 3d0d 02bb 9eaf 43bc d20b 37bb
00000150: c913 f9bb 95fa 85bd a423 77bb 0d40 21bc
00000160: 6d75 85bb 355f 3bbc 25a3 23bc 81bf 94bc
00000170: be5a a2bd f4f6 fcbc 8c3f e4bb df6e 81bc
00000180: 55e1 ccbc 8c02 2bbd 889f 8ab9 173e 35bd
00000190: 2097 19be fe78 a2bc 0409 9bbd d862 e4bb
000001a0: 6265 3cbe 5a15 c8bc 8f02 0ebd f40d d2bb
000001b0: 584b 93bc bfd6 4ebc aebd c2bb 4e56 6cba
000001c0: 4a27 57bd 534e 38bd 3a06 24bc b380 70bc
000001d0: c190 f9bb 98d5 6cba 87fd 64ba 57ef 15bb
000001e0: 0f8f 35bb 179c ebbb d3c0 2cbd bf9c c136
000001f0: 741b aab9 55c0 b5bb 3db7 88bb 9397 aaba

encoder.blocks.0.bn.weight f4 [64]
0.716577 0.744944 0.84087855 0.85551053 0.7035817 0.7316533 0.8044649 0.7421544
0.7415383 0.9861197 0.9055419 0.6917601 0.81848425 0.8003758 0.7530823 0.80930334
0.74323106 0.78808117 0.84011465 0.75564754 0.7078692 0.8167797 0.81003237 0.775904
0.68536335 0.7805644 0.75640225 0.794362 0.8891988 0.82470995 0.8230117 0.8158405
0.81312853 0.8285174 0.79599565 0.74313265 0.9807216 0.8221071 0.8944356 0.77803874
1.0348506 0.8280576 0.88056487 0.8576924 0.722424 0.77691644 0.8120556 0.7240334
0.82863206 0.83774644 0.78385425 0.78791994 0.7799967 0.7991628 0.83397424 0.7620785
0.6555541 0.799593 0.77376634 0.7235261 0.7238761 0.6824991 0.79336286 0.82101053
00000000: 9771 373f a6b4 3e3f d143 573f bd02 5b3f
00000010: ee1d 343f a14d 3b3f 69f1 4d3f d5fd 3d3f
00000020: 74d5 3d3f 5772 7c3f 98d1 673f 3117 313f
00000030: 2f88 513f 6ee5 4c3f 00ca 403f 812e 4f3f
00000040: 6444 3e3f b0bf 493f c111 573f 1e72 413f
00000050: ea36 353f 7918 513f 485e 4f3f a5a1 463f
00000060: f973 2f3f 12d3 473f 94a3 413f 4f5b 4b3f
00000070: 88a2 633f 3120 533f e5b0 523f ecda 503f
00000080: 3129 503f b719 543f 5fc6 4b3f f13d 3e3f
00000090: 9210 7b3f 9c75 523f bbf9 643f 8c2d 473f
000000a0: fc75 843f 95fb 533f b36c 613f bb91 5b3f
000000b0: c7f0 383f ffe3 463f e0e2 4f3f 415a 393f
000000c0: 3b21 543f 8d76 563f acaa 483f 1fb5 493f
000000d0: ddad 473f ef95 4c3f 567f 553f 9417 433f
000000e0: 65d2 273f 20b2 4c3f 8d15 463f 0239 393f
000000f0: f24f 393f 43b8 2e3f d419 4b3f bf2d 523f

encoder.blocks.0.bn.bias f4 [64]
-0.045913972 -0.006713949 0.02940418 -0.028381804 0.004624104 -0.039709788 -0.04510586 -0.00019746069
-0.0028471132 0.050075952 0.042089175 -0.0057711457 0.0006368811 0.042884506 0.038371556 -0.035943042
-0.011710212 -0.0077219247 -0.03414688 -0.028394723 -0.020525122 0.011514614 -0.022886297 -0.02762437
0.0002167555 -0.028328406 -0.012492255 0.01064075 0.004157278 -0.009954626 0.011402439 0.009064183
-0.0049255495 0.037260987 -0.02967555 0.05016372 0.030985842 -0.012803746 -0.013006313 -0.01787219
0.021160597 0.015677067 -0.006695915 -0.021703744 -0.018521363 0.012444985 -0.014045194 -0.008171193
0.041639555 -0.0063899886 0.028928539 -0.018002398 -0.046940807 0.01294631 0.037792824 -0.022232281
-0.0014644015 -0.03319121 -0.01419874 -0.018796315 -0.007968846 -0.0069981273 0.015144879 0.014840873
00000000: 4a10 3cbd b000 dcbb 09e1 f03c f580 e8bc
00000010: cc85 973b bba6 22bd ecc0 38bd 730d 4fb9
00000020: a296 3abb 711c 4d3d b365 2c3d e11b bdbb
00000030: 5ef4 263a aaa7 2f3d 7e2b 1d3d 0339 13bd
00000040: 30dc 3fbc 3308 fdbb 99dd 0bbd 0d9c e8bc
00000050: 4d24 a8bc cba7 3c3c 0b7c bbbc 814c e2bc
00000060: dd48 6339 f910 e8bc 51ac 4cbc 8a56 2e3c
00000070: c739 883b ba18 23bc 4cd1 3a3c f081 143c
00000080: 8166 a1bb fa9e 183d 241a f3bc 7978 4d3d
00000090: 05d6 fd3c cec6 51bc 6e18 55bc b368 92bc
000000a0: fd58 ad3c 316d 803c 6869 dbbb 0dcc b1bc
000000b0: 1dba 97bc 0de6 4b3c d01d 66bc 78e0 05bc
000000c0: 3d8e 2a3d 1c63 d1bb 8bfb ec3c c479 93bc
000000d0: 0145 40bd c31c 543c a6cc 1a3d 7920 b6bc
000000e0: 29f1 bfba 82f3 07bd d5a1 68bc bbfa 99bc
000000f0: c38f 02bc 8c50 e5bb 3a22 783c 2227 733c

encoder.blocks.0.bn.running_mean f4 [64]
-0.0036774054 -0.033861376 0.013189777 -0.017566815 -0.0068317605 0.03955784 -0.05294368 -0.0053571844
0.0023517422 -0.018480742 0.036111876 -0.0054248846 0.034126047 0.0006532064 0.01397074 -0.0024296932
-0.019716848 -0.0031010734 -0.041862283 -0.015655132 -0.0025719856 0.00661556 -0.021502858 -0.004502216
-0.0006209485 0.025223607 0.021122182 -9.372672e-05 0.0023076828 0.0029329807 0.0029711514 -0.023878504
0.0059279986 0.0024723134 -0.0058486457 -0.019381475 0.0058056647 -0.013545779 -0.011413455 -0.07719285
-0.010345338 0.0055603115 0.006505069 -0.008334081 -0.00046926914 0.020729454 0.0024459064 -0.0044333567
0.013027238 -0.02055997 0.033143785 0.006846967 -0.04155861 0.093889825 0.014433461 -0.04171924
0.0087924125 -0.05490991 -0.025401384 -0.018844606 -0.0038417617 -0.005109036 0.026158947 0.023709422
00000000: a000 71bb 3ab2 0abd ef19 583c 48e8 8fbc
00000010: f6dc dfbb 6707 223d 79db 58bd 528b afbb
00000020: b01f 1a3b ed64 97bc 0cea 133d 3bc3 b1bb
00000030: c1c7 0b3d f13b 2b3a 88e5 643c 7d3b 1fbb
00000040: 3a85 a1bc 613b 4bbb c977 2bbd 313f 80bc
00000050: c28e 28bb 57c7 d83b c326 b0bc 5387 93bb
00000060: 26c7 22ba bda1 ce3c 6d08 ad3c 268f c4b8
00000070: 7e3c 173b 4037 403b a6b7 423b da9c c3bc
00000080: a83f c23b 8906 223b ffa5 bfbb e6c5 9ebc
00000090: 723d be3b 1def 5dbc 80ff 3abc 4917 9ebd
000000a0: 7e7f 29bc 4633 b63b 7928 d53b ab8b 08bc
000000b0: 3d08 f6b9 d1d0 a93c 804b 203b b145 91bb
000000c0: 3270 553c 626d a8bc c7c1 073d 865c e03b
000000d0: 5c39 2abd 4f49 c03d 537a 6c3c cbe1 2abd
000000e0: 0d0e 103c 37e9 60bd 9016 d0bc 0160 9abc
000000f0: 11c6 7bbb b369 a7bb 4a4b d63c 433a c23c

encoder.blocks.0.bn.running_var f4 [64]
0.0038252322 0.015375944 0.0050148545 0.0026223753 0.006016824 0.0048633926 0.012615941 0.00722061
0.0061697485 0.0024352681 0.009153695 0.010472534 0.009987455 0.0038409198 0.00680034 0.0039245537
0.0075005656 0.006536603 0.013740449 0.0043915617 0.0050731944 0.0016023046 0.005134931 0.003778563
0.005392521 0.0044339285 0.006449877 0.00448787 0.0019125674 0.0026818071 0.0058057415 0.006331935
0.004318021 0.0030663868 0.0073648007 0.0031840755 0.0015047918 0.0065293466 0.0029448494 0.01178965
0.0014558595 0.0037701551 0.0038134372 0.0062078233 0.0051161647 0.007666923 0.0053320983 0.006009497
0.0030147051 0.00278161 0.013158044 0.005795784 0.009696634 0.017341347 0.0103654815 0.007153091
0.008545208 0.0092794625 0.0036158236 0.006846589 0.008873089 0.0035685815 0.0072628437 0.008888156
00000000: bfb0 7a3b 62eb 7b3c a653 a43b 28dc 2b3b
00000010: c728 c53b 185d 9f3b 18b3 4e3c de9a ec3b
00000020: 9a2b ca3b 0599 1f3b 61f9 153c fe94 2b3c
00000030: 6ca2 233c f1b7 7b3b 63d5 de3b 8b99 803b
00000040: 4ec7 f53b 0031 d63b 9f1f 613c 17e7 8f3b
00000050: 0a3d a63b 6c04 d23a ec42 a83b c5a1 773b
00000060: bfb3 b03b 7d4a 913b 7d59 d33b fb0e 933b
00000070: 1daf fa3a 42c1 2f3b 173e be3b 1f7c cf3b
00000080: 2f7e 8d3b 6ff5 483b 6d54 f13b ecab 503b
00000090: 6f3c c53a 21f4 d53b 60fe 403b 6029 413c
000000a0: 8ad2 be3a b514 773b dcea 793b ff6a cb3b
000000b0: 80a5 a73b d03a fb3b e2b8 ae3b 51eb c43b
000000c0: 5c92 453b ac4b 363b d694 573c 8fea bd3b
000000d0: a1de 1e3c 710f 8e3c fbd3 293c 7a64 ea3b
000000e0: 3301 0c3c e308 183c 74f7 6c3b 5a59 e03b
000000f0: 6f60 113c ddde 693b 26fd ed3b a19f 113c

encoder.blocks.1.t1.conv.weight f4 [128, 64, 1, 3]
0.030120691 0.041662633 0.0015430142 0.015920173 0.008494664 -0.0011762175 0.025026938 -0.011400742
0.022090103 -0.013473939 0.015674474 -0.012590584 0.008080991 -0.026533615 -0.0046945885 0.016910775
0.0023441971 0.0067549637 -0.03618339 -0.019410986 0.007793837 -0.005432042 -0.01630653 -0.019220484
0.0050298967 0.005187684 -0.011795183 -0.007644087 0.01186704 -0.021160373 0.059434764 0.028782047
0.007879203 0.004336746 -0.0027637712 -0.001012665 0.0015539892 0.034630716 0.011464725 -0.03963545
-0.04905516 -0.033218984 0.039580036 0.0059585692 0.03019744 -0.02386783 0.0053018145 0.0084498925
0.008066584 0.011193329 0.04263275 -0.025167365 0.005438104 0.0047591156 -0.048861798 -0.0037671642
-0.008226776 -0.028367668 0.0037849846 -0.0071642427 0.00206975 -0.025833633 -0.049073488 -0.056552548
-0.013391128 -0.021286363 -0.032461144 -0.029183501 -0.027259689 -0.0061217886 0.0278713 0.034202754
-0.0051117367 0.016209358 0.032071605 0.015210518 0.022623891 -0.005458881 0.04593987 0.030667119
0.011625749 0.0411443 0.0249589 -0.015639698 0.021821434 -0.0006295789 0.005278984 -0.00045938639
0.010174597 -0.024223428 0.0053082877 0.005854993 0.028983064 -0.00521218 -0.0004544342 -0.0094538685
-0.0064465133 -0.013077364 0.0116815725 0.018787658 -0.028504904 0.008496215 -0.012564773 -0.005982756
-0.0033924568 -0.024266955 -0.024578622 -0.06559731 -0.02208133 -0.041214485 -0.027058423 0.028292628
0.005398774 0.05108642 0.03128732 0.024401253 0.032068312 -0.032104712 -0.017106023 -0.032819692
-0.010668064 0.0067035547 -0.036398716 0.0121381525 0.028873367 -0.012183272 -0.034303933 0.02358907
-0.00067558535 -0.019937335 0.0059889876 -0.028015168 -0.01188931 -0.015379185 -0.0030935295 0.023009155
0.047816705 0.04461263 -0.010663821 -0.023860987 0.014213962 0.03333337 0.015514547 -0.029674286
-0.0048857196 -0.008465403 0.01821057 0.0435329 0.028379349 -0.008572331 -0.02065017 0.0080259945
-0.015851945 -0.049192883 -0.041822802 -0.03036286 -0.011747018 0.0022831038 -0.018675307 -0.01840853
0.0420707 0.045555104 0.021290662 -0.019145602 0.0019079323 -0.017585542 -0.047894955 -0.03551776
-0.013431021 0.038784515 0.011241976 -0.056185614 -0.028564643 -0.0048754136 -0.0028387588 0.032005318
-0.016479302 -0.0067449254 -0.013314117 -0.014063834 0.037371624 0.028506616 0.031790026 0.033904966
0.0052185976 -0.013935825 0.009691343 0.01119611 0.01065219 -0.009392534 -0.01622549 -0.01666904
-0.009709546 -0.0279118 -0.02330749 -0.01953638 -0.057379387 0.012978511 0.0050590686 -0.025384165
0.009065362 -0.063200094 -0.009091647 0.042782232 -0.07251198 -0.048103668 -0.057970673 -0.020866212
0.043763164 0.0012273042 0.0027864971 -0.016568169 -0.023112537 0.0135566825 -0.034015067 0.0011833415
0.035767633 -0.014511896 0.012170024 0.067494154 0.054057 0.004611003 0.031570584 0.032275565
-0.031931162 -0.06524569 -0.0036522953 0.004472423 -0.030016856 -0.033213995 -0.060314994 -0.00027642737
0.0054654465 0.012018898 -0.007880589 -0.038750306 -0.024600822 -0.027307665 -0.006209721 0.057731487
0.040901177 0.041220304 -0.005538324 0.087405935 0.06750915 0.07280789 -0.0007791707 0.0033631742
0.025576629 0.029399175 0.011319896 0.0387351 -0.058120314 0.010834853 -0.025326543 0.06524551
00000000: abbf f63c 70a6 2a3d f73e ca3a 066b 823c
00000010: 342d 0b3c 4f2b 9aba 4b05 cd3c 2eca 3abc
00000020: 4ef6 b43c ccc1 5cbc c167 803c bd48 4ebc
00000030: 2266 043c 065d d9bc 10d5 99bb 7788 8a3c
00000040: 1aa1 193b be58 dd3b 0935 14bd ca03 9fbc
00000050: 7263 ff3b 45ff b1bb 4695 85bc 4774 9dbc
00000060: d5d1 a43b 73fd a93b 9540 41bc 407b fabb
00000070: f96d 423c 8558 adbc de71 733d 54c8 eb3c
00000080: c617 013c 431b 8e3b 6320 35bb 66bb 84ba
00000090: 3aaf cb3a f0d8 0d3d 8bd6 3b3c c858 22bd
000000a0: 10ee 48bd a110 08bd ad1e 223d 1a40 c33b
000000b0: 9f60 f73c 7886 c3bc d8ba ad3b 6b71 0a3c
000000c0: b529 043c 3964 373c ae9f 2e3d ca2b cebc
000000d0: 1f32 b23b 5bf2 9b3b 4f23 48bd 87e2 76bb
000000e0: 99c9 06bc 5063 e8bc 810d 783b 06c2 eabb
000000f0: a5a4 073b 0ea1 d3bc 4801 49bd a5a3 67bd
00000100: 7666 5bbc bd60 aebc faf5 04bd 3d12 efbc
00000110: b64f dfbc 4999 c8bb 5a52 e43c 3018 0c3d
00000120: 5b80 a7bb 7dc9 843c 845d 033d 8935 793c
00000130: bd55 b93c 6ae0 b2bb 722b 3c3d 9c39 fb3c
00000140: ed79 3e3c ed86 283d 9b76 cc3c d31e 80bc
00000150: ddc2 b23c 530a 25ba 54fb ac3b ccd9 f0b9
00000160: 5ab3 263c 3670 c6bc 25f1 ad3b 3edb bf3b
00000170: e46d ed3c efca aabb 2041 eeb9 66e4 1abc
00000180: 463d d3bb 7142 56bc 1164 3f3c 93e8 993c
00000190: 1e83 e9bc b533 0b3c 7adc 4dbc ff0a c4bb
000001a0: fb53 5ebb 7ecb c6bc 1b59 c9bc e257 86bd
000001b0: e8e3 b4bc 85d0 28bd a0a9 ddbc f1c5 e73c
000001c0: 33e8 b03b fe3f 513d 2227 003d 23e5 c73c
000001d0: 105a 033d 3b80 03bd ee21 8cbc f16d 06bd
000001e0: 1ac9 2ebc 7ea9 db3b d216 15bd 1adf 463c
000001f0: d787 ec3c 599c 47bc 4882 0cbd de3d c13c
00000200: c419 31ba 9f53 a3bc 453f c43b 1180 e5bc
00000210: 61cb 42bc faf8 7bbc d0bc 4abb b27d bc3c
00000220: 73db 433d bcbb 363d 4fb7 2ebc 1e78 c3bc
00000230: ade1 683c 9288 083d ba30 7e3c 7d17 f3bc
00000240: 6318 a0bb 79b2 0abc 552e 953c 8e4f 323d
00000250: cf7b e83c f672 0cbc 8c2a a9bc 767f 033c
00000260: f0db 81bc 7a7e 49bd 634e 2bbd 88bb f8bc
00000270: 9176 40bc 20a0 153b f5fc 98bc 7ccd 96bc
00000280: 5452 2c3d fd97 3a3d c169 ae3c 3dd7 9cbc
00000290: 9613 fa3a 8e0f 90bc 802d 44bd 127b 11bd
000002a0: c90d 5cbc 83dc 1e3d 4430 383c e322 66bd
000002b0: 6600 eabc efc1 9fbb 780a 3abb 0218 033d
000002c0: 9aff 86bc 8904 ddbb 7423 5abc ff6b 66bc
000002d0: fd12 193d b586 e93c 4236 023d efdf 0a3d
000002e0: c500 ab3b 1653 64bc 70c8 1e3c e46f 373c
000002f0: 8686 2e3c 25e3 19bc 52eb 84bc 838d 88bc
00000300: ca14 1fbc 4aa7 e4bc 59ef bebc c20a a0bc
00000310: a606 6bbd d2a3 543c 8bc6 a53b 74f2 cfbc
00000320: e286 143c 0d6f 81bd 22f5 14bc 6c3c 2f3d
00000330: 2981 94bd 5a08 45bd a872 6dbd 9eef aabc
00000340: 0141 333d 7fdd a03a aa9d 363b f8b9 87bc
00000350: 8156 bdbc d91c 5e3c 6253 0bbd 5a1a 9b3a
00000360: 1581 123d 4ec3 6dbc c864 473c 603a 8a3d
00000370: df6a 5d3d e617 973b 2850 013d 6233 043d
00000380: 40ca 02bd 889f 85bd 595b 6fbb 678d 923b
00000390: e9e5 f5bc 660b 08bd db0c 77bd 74ed 90b9
000003a0: 7d17 b33b e9ea 443c 961d 01bc a4b8 1ebd
000003b0: aa87 c9bc 53b4 dfbc ea7a cbbb da77 6c3d
000003c0: fe87 273d 9fd6 283d d47a b5bb e201 b33d
000003d0: 3d42 8a3d 4e1c 953d 4341 4cba b368 5c3b
000003e0: 1486 d13c 8ad6 f03c 1677 393c b2a8 1e3d
000003f0: 910f 6ebd ab84 313c 9c79 cfbc 709f 853d
